old/weights/sae_dropout.pt (torch, 902198 bytes, 34 tensors)

weight f4 [50, 64]
000000 d9 be 62 3e af 39 be bd 53 0b a3 bd 10 d5 af bc
       0.22143115 -0.09288346 -0.07961144 -0.0214639
000010 8b 61 bb bd 2e 60 b3 bd 93 1a 00 be 81 bb 9f 3d
       -0.09149464 -0.08758579 -0.12510137 0.077994354
000020 f8 8a 02 3d 88 fc a9 bc 04 c1 ad 3d 40 f6 8b 3b
       0.031870812 -0.0207503 0.084840804 0.0042712986
000030 ca 2f 97 3d 80 f6 e5 bb 8e 3a 8e bd 24 92 1b bd
       0.07382162 -0.0070179105 -0.06944762 -0.037981167
000040 d0 66 11 3d f0 39 8e 3c a8 35 d2 bd 40 aa d0 3c
       0.03549844 0.017361611 -0.1026414 0.025471807
000050 98 a7 7f bd 66 ac da 3d 72 bb b8 3d 60 ac f0 3d
       -0.06241569 0.10677414 0.09020127 0.11751628
000060 2c 6c 3a 3d 32 80 b2 3d bc f8 49 bd b4 4b 41 bd
       0.045513317 0.087158576 -0.049309477 -0.047191337
000070 bc 20 45 3d 7c 70 73 3d 1e 24 d8 3d 80 1d a4 bc
       0.04812692 0.059433445 0.10553764 -0.020033598
000080 e0 8c f5 bc 24 bf a6 bd c0 2d b9 3b 6a 73 b4 bd
       -0.029974401 -0.08141926 0.005651206 -0.08811076
000090 a0 ac 5f 3d 4a 23 d9 bd 90 55 12 bd 90 fc 3c 3d
       0.054607987 -0.10602434 -0.03572613 0.0461393
0000a0 98 2e b8 3d 56 d1 95 bd 02 fa dd 3d 9c 99 ac bd
       0.08993262 -0.07315318 0.10838701 -0.08427736
0000b0 ac e1 22 bd c0 29 bb 3c 00 cf e7 3b 98 28 07 bd
       -0.039766 0.022847056 0.007074237 -0.032997698
0000c0 50 31 07 bc 72 c2 a4 bd 8a 0a ea 3d ba 20 89 bd
       -0.008251503 -0.080449 0.114277914 -0.06695695
0000d0 40 37 e1 bc 64 f9 16 3d a0 a3 44 3c 2c 58 c7 bd
       -0.027492166 0.03685893 0.012001902 -0.09733614
0000e0 34 dd 64 bd d2 26 cb bd 80 90 b0 bc 9c ea c7 bd
       -0.05587502 -0.09919514 -0.021553278 -0.09761545
0000f0 48 10 7d 3d 00 84 37 39 a0 33 10 3d 20 06 36 3c
       0.061783105 0.00017501414 0.035205483 0.011109859
000100 1a 27 09 3e f3 c4 11 3d 94 53 27 3c a9 ed 59 3d
       0.13393822 0.035588216 0.010212798 0.053205166
000110 75 8d 14 bd 90 dc ae bc 3e 75 1a bd 18 6a 34 3b
       -0.036267716 -0.021345407 -0.037709467 0.0027529057
000120 b0 6e 5b bc e0 bf f4 3c 04 06 10 bd 24 2e d6 bd
       -0.013393089 0.02987665 -0.035161987 -0.104580194
000130 18 c0 94 3c ae a9 d5 3d 7a 4b b6 bd d0 26 c7 3d
       0.018158004 0.104327545 -0.08901115 0.097242
000140 3c 9d 81 3d 9e 91 aa bd 90 3b b0 bd 9c 76 f3 3d
       0.06328818 -0.083285555 -0.08605111 0.11887857
000150 cc 7a 5f 3d 3c 6e 71 bd 8a 70 85 3d c4 53 73 3d
       0.054560468 -0.05894302 0.06515606 0.059406057
000160 d6 7f 9b bd c0 84 16 3c 14 1e 21 3d 9c 64 2e bd
       -0.07592742 0.0091869235 0.039335325 -0.042576417
000170 66 1a a3 3d 70 cc 2b 3c 00 3e 85 b9 2c 4e 73 3d
       0.079640195 0.010485753 -0.0002541393 0.059400722
000180 3e 8b ee bd 90 69 f3 bd 20 8e c1 3b e8 0c fe 3c
       -0.11647652 -0.11885369 0.005906835 0.031012014
000190 72 a5 b6 3d ee 5e c1 3d f8 aa 4b 3d 46 0a de bd
       0.08918275 0.094419345 0.049723595 -0.10841803
0001a0 5c 9d a8 3d cc b4 7a bd 4e 04 b7 bd 06 fc c5 3d
       0.08233139 -0.061207578 -0.08936368 0.0966721
0001b0 b0 5c 08 bc 30 33 08 bc 20 2b d0 bc aa 74 96 bd
       -0.00832288 -0.008312985 -0.025411189 -0.07346471
0001c0 86 f9 a6 bd 48 18 92 3c a4 d3 db bd 26 39 9f 3d
       -0.081530616 0.017833844 -0.107337266 0.07774572
0001d0 22 94 e4 bd e4 b1 5e bd 16 b2 ab bd 58 47 c9 3c
       -0.111610666 -0.05436887 -0.083835766 0.024570152
0001e0 4c 97 a0 bd c0 fd 0f bc a4 e8 e0 3d 70 88 28 bc
       -0.078413576 -0.008788526 0.10981873 -0.0102864355
0001f0 10 65 3e 3d 7c f7 f4 bd 68 f9 25 3d 1a fb f9 3d
       0.0464831 -0.119612664 0.040521055 0.12206097
000200 5d 65 ff bc 8a b2 95 bd 3f 28 f8 3d 47 ad 69 3e
       -0.031176263 -0.07309444 0.12117051 0.22820006
000210 b4 91 b9 bd 4e 4e 8f bd ff 41 af bd 32 24 6a bd
       -0.09060994 -0.06997357 -0.0855751 -0.057163425
000220 64 06 11 3d 10 65 d1 bd 5c 80 68 bd cc 7f 7b bd
       0.035406485 -0.10224354 -0.056763038 -0.061401173
000230 8c c2 e0 3d c8 ed b3 bc 86 0e c5 3d 80 6f b8 bb
       0.10974607 -0.021963969 0.09621911 -0.005628526
000240 9a 98 85 3d 0c 2f f9 bd 80 b2 8d 3b 20 af ac 3d
       0.06523247 -0.121671766 0.0043242574 0.0843184
000250 00 7e db ba f8 fe 70 bd e0 0b b4 3c a0 e1 83 bc
       -0.0016745925 -0.058836907 0.021978319 -0.016098797
000260 d2 2c c9 3d ea 63 ef bd 20 dc 35 3c e8 37 d3 bc
       0.09823002 -0.11688979 0.011099845 -0.025783494
000270 e8 b7 94 bd e8 75 a7 bc c0 56 0b bc 94 ac 46 bd
       -0.0726164 -0.020441964 -0.0085045695 -0.048504427
000280 76 c6 dc bd 8c d3 e1 3d 70 a1 fb 3c 80 06 60 3c
       -0.10780041 0.110266775 0.030716628 0.013673425
000290 50 cc 78 3d cc 9a c0 3d 10 77 28 3d 40 7d 14 3c
       0.060741723 0.09404525 0.04112917 0.009063065
0002a0 a2 82 8f bd 14 d4 ee bd d0 a6 e1 bc 92 0e 80 3d
       -0.07007338 -0.116615444 -0.027545363 0.06252779
0002b0 ac 49 b4 bd 00 f2 e2 3c 60 3e c9 bd e8 93 5f 3d
       -0.08803114 0.027703285 -0.0982635 0.054584414
0002c0 f8 e2 dd 3c 60 b9 e1 bb 94 f7 4f bd b8 6e da bc
       0.027085766 -0.0068885535 -0.05077322 -0.026664123
0002d0 e4 08 62 bd 18 31 a7 3d 92 2b a8 3d ec a0 3d bd
       -0.05518426 0.08163661 0.082114354 -0.046296045
0002e0 74 ef 3e 3d 80 ac 42 3d 70 93 bc bd d8 7e f4 3d
       0.04661508 0.04752779 -0.09207809 0.11938256
0002f0 e0 b6 0f bd b0 2e 25 3c fa c4 90 bd 04 d4 a0 3d
       -0.035086513 0.010081932 -0.0706882 0.07852939
000300 f3 44 0d bd 25 5f 3c 3e ee 5a 15 3e 41 46 e6 3d
       -0.034489583 0.1839567 0.14585468 0.112438686
000310 4d 48 94 3d 52 36 08 bc 26 5f 27 bb ca 63 05 3d
       0.07240353 -0.008313732 -0.002553889 0.03256587
000320 60 26 d7 3b ec eb dc bd c4 d6 b5 3d 1c b8 9f bd
       0.006565854 -0.10787186 0.08878854 -0.07798788
000330 04 61 17 3d 4a 65 c9 3d 98 36 27 3d e8 8b cb bd
       0.036957756 0.098337725 0.04082355 -0.099387944
000340 de 56 96 3d 0e 10 90 bd a8 28 ac bc 14 33 e0 bd
       0.07340787 -0.07034312 -0.02101548 -0.109472424
000350 b0 cb 3c 3d c0 ba 40 3c 98 c9 84 3d 12 bd eb 3d
       0.04609269 0.011763275 0.064837635 0.11510672
000360 68 af 23 bd 18 a5 ed 3c 90 d8 31 3c e8 dc ac 3d
       -0.039962202 0.029009387 0.010854855 0.08440572
000370 de af f2 bd aa 83 db 3d 14 d9 0a bd 4e a7 97 3d
       -0.1184995 0.10718472 -0.033898428 0.07404958
000380 a4 f0 77 3d 94 62 db bd ce b8 98 bd d2 33 af bd
       0.060532227 -0.10712162 -0.07457124 -0.08554806
000390 d0 d1 be bc 00 6d b8 bc 22 29 85 3d 26 33 af 3d
       -0.023293406 -0.022512913 0.06501986 0.08554678
0003a0 98 42 b1 bd a4 fb 85 bd b8 80 e7 3c 24 06 16 3d
       -0.0865528 -0.06542137 0.02825962 0.03662695
0003b0 ac 27 b5 3d c4 f3 94 bd f8 cf 84 bc e8 d4 d4 bd
       0.088454574 -0.07273057 -0.016212448 -0.10392171
0003c0 80 f3 f8 ba d0 75 a1 3d 5a 94 de 3d b0 ae 65 3c
       -0.0018993467 0.07883799 0.108681396 0.0140186995
0003d0 a8 a5 b4 bc 20 a6 9f 3d a8 df a2 3c 5c f9 39 bd
       -0.022051647 0.07795358 0.019882038 -0.045403823
0003e0 d4 b5 5b bd 78 b9 bd bc 7a e4 f0 bd f8 f6 7f bd
       -0.0536402 -0.023159727 -0.117623284 -0.062491387
0003f0 b0 7f 62 bc 00 60 9c bb c2 28 ec 3d ac b0 8d bd
       -0.013824388 -0.0047721863 0.115312114 -0.06918463

bias f4 [50]
000000 35 c2 31 3d 94 29 79 bc 26 5b ea 3c 4f c8 95 bc
       0.0433981 -0.015207667 0.028607916 -0.018283991
000010 e5 25 08 bd 2b d5 26 3d 19 8c c0 3c 17 65 bf 3d
       -0.033239264 0.040730637 0.023504304 0.09345453
000020 52 a5 9d 3c aa c3 4c 3c f8 73 19 bd ee 73 55 bd
       0.01924387 0.012497822 -0.037464112 -0.052112512
000030 70 3c b9 3c 8e 32 0d 3d 6e 12 90 bd 26 1b 68 3d
       0.022611827 0.03447204 -0.07034765 0.056666516
000040 5d 4d 33 3d ca 6f 07 3d ca 34 10 bd 25 6e 11 3c
       0.04377495 0.033065595 -0.035206594 0.008876358
000050 26 b6 1d bd f1 9c 10 3c 21 13 05 bd 54 9e 6d 3d
       -0.03850379 0.00882648 -0.032488946 0.05801232
000060 f8 b6 a5 bc 6e 4e 87 bc 68 c6 91 3d 5b 53 13 bd
       -0.020228848 -0.01651689 0.07117921 -0.035968166
000070 71 fe 4f ba c8 c1 00 3d 94 57 06 3b c1 2e 84 3c
       -0.0007934338 0.031434804 0.0020498978 0.016135575
000080 2d 64 7e 3d 55 ce 19 bd f3 11 3b bd bb 77 ef 3c
       0.062107254 -0.03755029 -0.045671415 0.029231897
000090 4e 8c 8f bc 83 93 e1 bc bf b6 93 3d 03 7c 4f bb
       -0.017522957 -0.02753616 0.072125904 -0.003165961
0000a0 24 5b 95 3d e7 f5 d2 3c 7e 7c 12 3d 5f b7 12 3d
       0.07292774 0.025752021 0.035763256 0.035819408
0000b0 c2 aa d0 3c fe 53 7a bb 2b b8 66 bc e2 12 1c bb
       0.025472049 -0.0038197036 -0.014081995 -0.0023814966
0000c0 10 23 d4 bb af bf 3f 3c
       -0.0064739063 0.011703416

weight f4 [50]
000000 e0 af 9a 3f 35 a0 70 3f 44 6a a1 3f 7d 7b 95 3f
       1.2084923 0.93994457 1.2610555 1.1678311
000010 bc 95 a2 3f e4 c1 9e 3f 4e ca 9b 3f 43 d5 9f 3f
       1.2701945 1.2402921 1.2171113 1.2486957
000020 49 ad 9f 3f 99 14 91 3f bd 38 9f 3f 35 74 83 3f
       1.2474757 1.1334411 1.243919 1.0269839
000030 a2 3d b1 3f 27 03 98 3f c2 4a 8a 3f 38 8f 89 3f
       1.3846934 1.1875962 1.0804064 1.0746832
000040 6b e5 9b 3f e2 8b a1 3f 44 7d 91 3f 1a 7d 91 3f
       1.2179388 1.2620814 1.1366353 1.1366303
000050 a1 46 8e 3f 0b f6 b4 3f 6f d2 90 3f 6e 1f 99 3f
       1.1115304 1.4137586 1.1314219 1.1962717
000060 82 a8 9b 3f d2 6b a3 3f a4 a7 8e 3f ca be a0 3f
       1.21608 1.2767279 1.114491 1.2558224
000070 94 b3 97 3f b2 d3 87 3f 7c 15 a5 3f a5 68 84 3f
       1.1851678 1.0611479 1.2897182 1.0344435
000080 43 f0 94 3f bf d6 a0 3f 55 6c 88 3f fc 6d 99 3f
       1.1635822 1.2565535 1.065806 1.198669
000090 41 c5 94 3f 69 41 81 3f c1 d1 98 3f 72 ce 9c 3f
       1.1622697 1.0098087 1.1939012 1.2250502
0000a0 c5 aa 8f 3f 26 94 91 3f 53 28 8b 3f c4 03 a4 3f
       1.122399 1.1373336 1.0871681 1.2813649
0000b0 67 24 9c 3f 7f fd 88 3f fa 3a 86 3f a7 a0 91 3f
       1.2198609 1.0702361 1.0486748 1.1377152
0000c0 eb 15 8e 3f cb 3a 9b 3f
       1.1100439 1.2127317

bias f4 [50]
000000 0e eb ca 3d 82 43 60 3c a4 26 01 3e 86 50 07 3e
       0.099081144 0.01368797 0.12612396 0.13214311
000010 02 00 29 3e 12 bd 60 3d 53 e5 a7 3d 60 5d 02 3e
       0.16503909 0.05486781 0.08198037 0.12730932
000020 2d c4 05 3e 40 d0 e3 3d 30 ba b8 3d d7 9a 8b bc
       0.13063116 0.11123705 0.090198874 -0.017041607
000030 5e fa 1a 3e f2 34 dc 3d 85 d4 1b bd 3c a9 88 3d
       0.1513457 0.10752286 -0.03804447 0.06672904
000040 b1 d4 02 3e c3 cd 36 3e fe 08 e2 3d 64 2c 02 3e
       0.12776448 0.1785193 0.110368714 0.12712246
000050 51 21 d6 3c 53 4d dd 3d 28 48 a6 3d 90 4e 9c 3d
       0.026138933 0.10805764 0.081192315 0.07632172
000060 f7 45 ce 3d 3f a7 0a 3e c1 8a ea 3d 53 4b 81 3d
       0.100719385 0.13540362 0.114522465 0.06313195
000070 a9 a7 00 3e 99 57 f5 3c cb 37 10 3e 60 2c eb bc
       0.12563957 0.029948996 0.14083783 -0.028707683
000080 01 e6 c4 3d 7d 9b 1f 3e 23 4f 1c be 69 4a db 3d
       0.09614182 0.15586658 -0.15264563 0.10707552
000090 4c c9 29 3d 5f 73 8b 3d 81 15 01 3e 90 da 6d 3d
       0.041451737 0.06809115 0.1260586 0.058069766
0000a0 14 3e c4 3d 24 c0 28 3c 31 b3 9a 3b d4 c6 28 3e
       0.09582153 0.010299716 0.0047210683 0.16482097
0000b0 d5 ce 8e 3d 26 1c 8a 3d a8 eb ba 3c 7a 01 b5 3d
       0.06973044 0.0674365 0.022817448 0.08838172
0000c0 be ce c3 3d d9 57 12 3e
       0.09560917 0.14291324

weight f4 [36, 50]
000000 88 e8 80 3e 1a 26 66 3d 48 87 16 3d a9 01 dc 3d
       0.25177407 0.05618868 0.036750108 0.10742504
000010 ed 9d a0 3c 8f 69 90 3d 90 ce 8c bd 7e 50 ae 3c
       0.019606555 0.07051384 -0.06875336 0.021278616
000020 f7 f4 39 3d 0d 08 3b 3e 59 99 41 be e7 7b 7e be
       0.045399632 0.1826479 -0.18906154 -0.24851952
000030 73 cd 97 3d 30 62 a1 3e 64 8c 7a be 0d 37 8a 3d
       0.07412233 0.31520224 -0.24467617 0.06748781
000040 76 a4 e2 bc f7 f9 c7 3d e9 d0 d9 bd 44 56 38 3e
       -0.027666312 0.09764474 -0.106355496 0.18001658
000050 b3 0d b3 bd c6 c7 53 3d 10 46 69 3d ff fe 50 bc
       -0.08742847 0.05170419 0.056951582 -0.012756108
000060 7a 8e 73 be 47 e3 4c be f3 a9 4b 3e aa 81 dc bd
       -0.23784819 -0.20008574 0.19889049 -0.10766919
000070 1a 1c 1f 3e 0d 54 b3 bd 8e 9f 6b 3d 86 18 83 bd
       0.15538064 -0.08756266 0.05752521 -0.06401162
000080 89 42 0c 3e f9 b6 e6 bc 87 e7 04 be 9a 28 ac 3e
       0.13697256 -0.02816342 -0.12978946 0.33624727
000090 d6 91 c7 bd 9b 05 15 bd 17 fe 19 3e 80 88 37 bd
       -0.09744613 -0.0363823 0.15038334 -0.04480791
0000a0 f9 7b 80 3c f8 3a a8 bd 60 5a 40 bc a9 c6 28 3e
       0.015684115 -0.082143724 -0.011740297 0.16482033
0000b0 cc 36 ac 3d a1 b3 27 ba 5f a9 a2 3d 21 d0 90 3e
       0.08408889 -0.0006397311 0.07942461 0.2828379
0000c0 c1 03 c0 3d 29 21 3e 3e 41 a7 5d bd 12 a7 d3 3d
       0.09375716 0.18567337 -0.054114584 0.103346005
0000d0 df 2b bd bd 57 25 8a bd 67 ac fc 3d da f2 f5 3d
       -0.09236883 -0.06745403 0.12337571 0.12009211
0000e0 1f c0 8f be ba 57 50 bd d9 c6 1a 3e 1c 6f 51 3d
       -0.28076264 -0.050864913 0.15114917 0.051131353
0000f0 9a 3d 82 be 12 b8 ca 3d 90 27 6e bd 1c 4c 44 b7
       -0.25437623 0.0989839 -0.0581432 -1.1700231e-05
000100 a9 a2 bc bd 94 fd 95 3b cf f6 6e 3e d4 ba a0 bd
       -0.092107125 0.004577348 0.23336338 -0.07848135
000110 89 b0 7b 3d 95 4f dc bd 69 a6 b1 3d af 77 62 3c
       0.061447654 -0.107573666 0.08674318 0.01382248
000120 c2 a0 4f 3e c3 6c 92 3d 33 f2 4e be 5f 4d 21 be
       0.20276168 0.07149651 -0.20209579 -0.15752171
000130 31 7a f5 bd 06 d5 1f bd 88 2c 89 3d ab eb 02 be
       -0.11986197 -0.039021514 0.06697947 -0.12785213
000140 80 2f 6c 3d 3f fb 87 3d cb 01 a8 bd 5c 3d 9f 3d
       0.057662487 0.06639718 -0.08203467 0.07775375
000150 60 e1 bb 3d ca c8 f4 bd 66 83 66 bc 60 c7 f0 bd
       0.09173846 -0.1195236 -0.014069414 -0.11756778
000160 6a 17 03 3d ad 33 02 3e 4a 55 08 be 82 c9 b6 bd
       0.03200475 0.12715025 -0.13313785 -0.08925153
000170 15 10 dd 3c 49 ca 4c 3e 37 51 96 3e 86 9b 78 bd
       0.026985208 0.1999904 0.29358837 -0.060695194
000180 e2 b9 72 3c 2d 59 7e bd 48 b3 e4 bd 6e a9 2e be
       0.014814826 -0.062096763 -0.11167008 -0.1705682
000190 d3 b5 06 3e 55 4d db bd b6 c9 26 3d d5 85 0d be
       0.13155298 -0.10708109 0.04071971 -0.13820584
0001a0 ab 64 9f bd 02 82 85 3d 74 4f e0 bd a5 af 09 be
       -0.07782873 0.06518938 -0.109526545 -0.1344591
0001b0 3e ec 31 3b d2 6f 0b be ce 33 ba bd 82 11 42 bd
       0.0027148868 -0.13616875 -0.09091912 -0.047379978
0001c0 42 b1 0e 3e bd 1d ae 3d 90 29 9e bd 08 0f b5 bd
       0.13934806 0.08501766 -0.07722771 -0.088407576
0001d0 fc 5b 4e 3d 4b 59 36 be dd 12 7c bd 22 37 a0 3d
       0.050380692 -0.178075 -0.061541427 0.07823016
0001e0 72 d0 2e be 57 1a e0 bc 33 bd 9f 3c 20 16 1a be
       -0.17071703 -0.02735631 0.019499397 -0.15047503
0001f0 c9 67 f0 bd 78 f4 a5 3d ef 6e 30 bd 74 da 97 bd
       -0.117385454 0.08103269 -0.043074545 -0.074147135
000200 16 78 91 3d 1c 6e e7 bc 2d eb eb 3d 99 79 b2 3d
       0.07102983 -0.028250746 0.115194656 0.08714599
000210 d0 31 3a be 2a c7 92 3d 12 c1 cc bd e7 bf 31 3d
       -0.18183064 0.07166894 -0.09997763 0.043395903
000220 09 b3 82 bc 82 c1 cd bc fa b7 dc 3d 1c 12 f9 bd
       -0.015954511 -0.025116686 0.10777278 -0.12161657
000230 4e 66 1e be 06 0b 0a 3d f9 2c fe 3d 7c 27 22 3e
       -0.15468714 0.03370192 0.124109216 0.15835375
000240 f1 93 14 bd ba 05 9b bc 69 47 2e bc 21 fa 27 3d
       -0.0362739 -0.01892363 -0.010637143 0.041010026
000250 01 b9 26 bd a8 d7 f4 bd ac cb 2a 3d 50 66 85 bd
       -0.040703777 -0.11955196 0.041698143 -0.06513655
000260 4b fb c4 3d 8d 71 2e bd 2e 1c c2 bc 18 ae 91 be
       0.09618243 -0.04258876 -0.023695078 -0.28453135
000270 ca 29 a8 3d af 1a d4 bc 6d f9 c1 3d e3 db d5 bc
       0.08211096 -0.02589163 0.09471402 -0.026105827
000280 e3 22 21 be 8b 11 b8 bc 9c 2c e2 3e 5f 4e 03 be
       -0.15735964 -0.022469303 0.4417466 -0.12822865
000290 7a 56 77 bd c4 c2 ae 3c f2 d9 17 3e 13 b6 4a be
       -0.060385205 0.021333106 0.14829233 -0.19796018
0002a0 5b d0 b0 3d ba ab 54 3e c3 fa 3e 3e 25 17 bc 3c
       0.08633491 0.20768633 0.18650346 0.022960255
0002b0 a0 ef 43 be 29 a5 e5 3e e7 f7 69 3d 87 6c 07 3e
       -0.19134378 0.4485257 0.057121184 0.13224994
0002c0 fe 1a 07 3e d3 94 20 be d4 71 15 3e af 10 24 bc
       0.1319389 -0.15681772 0.14594203 -0.010013743
0002d0 43 d2 fe 3d 77 65 22 3e 2c 28 90 3d 86 49 74 be
       0.12442448 0.15859018 0.07038912 -0.23856172
0002e0 ba 8f 6d bc d3 8f 8b bd a8 7f 41 be cf c3 5d 3e
       -0.014499599 -0.06814542 -0.18896353 0.21656726
0002f0 93 ef 55 3e e2 12 92 bd 63 a8 0d 3e 34 ea 7b bc
       0.20892172 -0.07132508 0.13833766 -0.015375663
000300 99 ba a4 3e 1e e5 b1 be 50 79 82 3e b1 a2 9d be
       0.32173613 -0.34745115 0.2548318 -0.30788186
000310 99 50 3d be 6d 25 fc 3d 7e 2b 8f 3d 59 40 4a 3e
       -0.18487777 0.12311826 0.06990717 0.19751109
000320 04 b4 88 bd 8f 39 f6 3c 0c 2b e6 bd 1d 71 f3 3c
       -0.0667496 0.030056743 -0.11238679 0.029717023
000330 f5 87 92 3e bf 27 69 3b 7d f4 95 be 39 bc 76 be
       0.28619352 0.003557667 -0.29288092 -0.24095239
000340 e7 23 ee 3d 09 3c f8 3d 3d 6f 93 be 84 75 a5 39
       0.116279416 0.12120826 -0.28795806 0.00031558808
000350 d4 02 c1 3d 6f e9 4e be 1e e8 83 be 61 24 e9 3d
       0.094243675 -0.20206235 -0.2576303 0.11383892
000360 41 67 d7 bd 5e fa 67 3e 7d 70 09 3e 36 f0 9c be
       -0.10517741 0.22654101 0.13421817 -0.30652016
000370 2b 67 f4 3c 78 dd e6 bb c8 8a 2b 3e f3 4a 2a 3e
       0.02983435 -0.007045444 0.1675216 0.16630153
000380 4e a1 35 be e3 28 59 bd 08 74 66 3a 38 38 02 be
       -0.17737314 -0.05301751 0.0008791094 -0.12716758
000390 56 37 70 3e 8f cd ca bc cf 48 11 3d 85 ff 84 3e
       0.23458609 -0.024756221 0.035469826 0.25976196
0003a0 e9 e8 13 be 1f 6b d5 bd 45 41 f2 3d 70 b9 ae bd
       -0.14444317 -0.10420822 0.118288554 -0.08531463
0003b0 0f c0 4c bd 96 10 43 bd 8f c1 e6 3d f1 cb 2d 3e
       -0.04998785 -0.04762324 0.11267387 0.16972329
0003c0 ef 83 27 bd c9 0d c5 be ef d2 86 3d 05 3c 0e 3e
       -0.040897306 -0.3848708 0.06583201 0.13890083
0003d0 df 97 14 3d 92 20 ee 3d 6f 74 ae bc 12 c3 48 3d
       0.036277648 0.11627306 -0.021295754 0.04901416
0003e0 29 ba b1 bd ce d1 8c be 26 38 bd be 08 d8 2b be
       -0.08678085 -0.27503818 -0.369569 -0.16781628
0003f0 5f a5 80 3e de 9f f0 3e 9b 19 82 3d 9b 4e 00 3f
       0.25126168 0.4699697 0.0635254 0.5011994

bias f4 [36]
000000 fb 85 53 3e 89 2e 84 3c b0 ea 69 3d 4c a7 47 3b
       0.20656578 0.016135471 0.05710858 0.0030464707
000010 50 7a 06 be 96 40 d7 3c 69 87 95 3d 3c 0f d5 bc
       -0.13132596 0.026275914 0.07301218 -0.02600824
000020 f8 34 17 bd ea ae 76 bd aa 9c 5e bd 2e 1b 03 be
       -0.03691575 -0.060225405 -0.054348625 -0.12803337
000030 33 e5 4b be 52 80 39 3c a0 50 90 3d 3d fa dd 3d
       -0.19911651 0.011322098 0.07046628 0.10838745
000040 32 d7 ec 3c cb 75 e9 bd a4 31 ae bd 5d d2 ee 3c
       0.028911207 -0.1139942 -0.08505562 0.029153043
000050 e2 0d cf bb 5b bd d6 ba 0e ed a8 bd 67 5f 9e be
       -0.0063187936 -0.0016383337 -0.082483396 -0.3093216
000060 f4 fe 05 3d 2b e6 f6 3d aa fc bd bd 50 c6 e1 bb
       0.032713845 0.1205562 -0.092767075 -0.006890096
000070 5f 31 f9 3d 06 3e 8d bc 91 c0 2e be 98 68 d9 bd
       0.1216762 -0.01724149 -0.17065646 -0.10615653
000080 8e c5 11 bc 65 ff 44 be ad 54 e8 3d 4b 1c b9 3d
       -0.008897198 -0.1923805 0.113442756 0.090385996

weight f4 [21, 7]
000000 a9 47 ff bd 4e 33 b8 3d 2f 50 92 3d 7a fe af bd
       -0.1246484 0.089941606 0.071442 -0.085934594
000010 00 97 85 bd 60 17 05 3d 4e be c3 bd 80 d3 0c 3d
       -0.065229416 0.032492995 -0.09557782 0.03438139
000020 f0 61 0f 3e 1a c0 2c 3d d8 e1 83 bd d8 c4 bb 3c
       0.14002204 0.04217539 -0.06439561 0.02292101
000030 7f 55 72 bc e1 1c ff bc 1d 7a c0 3c 7e 5f 05 3e
       -0.014790892 -0.0311417 0.023495728 0.13024709
000040 4e db ad bd f2 1f 03 be 14 04 54 3c 26 31 85 ba
       -0.08489095 -0.12805155 0.012940425 -0.0010161742
000050 4d 1d 1d 3d 9c 89 9a bd 3d f4 0c 3e e5 fd 89 3d
       0.03835802 -0.07545778 0.13765045 0.0673788
000060 d4 d8 e8 bd 46 66 0d be 0e 7f 75 bd 44 ca a0 3d
       -0.11369482 -0.13808545 -0.059935622 0.07851079
000070 2a 34 4a 3d 99 be fe bd a0 e6 ca 3d 5c e9 67 bd
       0.049366154 -0.12438697 0.099072695 -0.056619033
000080 d8 23 b1 3c 1b 7e 6c be fd c0 c9 3c cd d2 05 bd
       0.021623537 -0.2309498 0.024628157 -0.03267174
000090 ea 4c 55 3d d8 3e 1a 3e 3c 79 89 3d c3 9a 58 3b
       0.052075304 0.15063035 0.06712577 0.003305123
0000a0 10 d9 7f bd f6 b6 a0 3d de e4 72 bd ef f4 7c 3c
       -0.062462866 0.07847397 -0.059300296 0.015439256
0000b0 d1 6b 37 3c dd 04 3c bd 7b 12 44 bb 1a d9 33 bd
       0.011195139 -0.045903075 -0.0029918242 -0.043908216
0000c0 47 77 c9 3c 12 a9 40 bc e6 4e 57 3d a8 9e 92 3b
       0.024593009 -0.0117590595 0.052565478 0.0044744797
0000d0 61 bc 01 3c 9b 42 d5 bd e2 da 11 3d 7f d9 89 3d
       0.007918448 -0.104130946 0.035609134 0.06730937
0000e0 e8 2d 09 bc a9 97 ca 3d 62 50 0d 3d 3f ff 96 bd
       -0.008372761 0.09892208 0.034500487 -0.07372903
0000f0 44 92 ae 3d 3c 74 dd bd 6e 26 75 3d 01 d3 9d 3d
       0.08523992 -0.108131856 0.059851103 0.077062614
000100 1c 32 02 3d b5 40 e2 bc ae 26 29 3d 93 98 36 3e
       0.03178607 -0.027618745 0.041296653 0.1783164
000110 9e e9 7f bc 01 17 94 3d ea 1a 0e bd da 13 14 bc
       -0.0156196635 0.0723095 -0.034693636 -0.009037936
000120 35 cf 9e bd d4 fd de bd 20 c6 5c bc af d5 e3 bd
       -0.07754365 -0.108882576 -0.013474971 -0.11124741
000130 3b 43 05 3e 17 7f a8 bd c5 03 dd 3d f5 11 bb 3d
       0.13013928 -0.082273655 0.107917346 0.091342844
000140 4a 78 de bd f9 83 70 bc 43 a3 66 3d af 60 f3 3d
       -0.10862787 -0.014679902 0.056308042 0.11883675
000150 9c 8e 72 3d b8 46 90 3d 5d b2 16 bd d7 c8 8a 3c
       0.059218034 0.070447385 -0.036791194 0.016941471
000160 e2 f1 9f 3c 69 ab 09 be 48 1f be 3d 1d 91 0c bb
       0.019524518 -0.13444294 0.0928331 -0.00214488
000170 26 5f c9 3d 44 1b 05 3d 6c e5 97 bd 29 e4 ac 3d
       0.09832601 0.032496706 -0.074168056 0.084419556
000180 0c 52 d3 bd 99 4d 6f 3d 61 f1 3a 3e 3c a2 67 3d
       -0.103183836 0.058423612 0.18256141 0.056551203
000190 78 ab 38 3d 52 2f 0c be b5 b8 04 3e bd e6 fd bc
       0.0450854 -0.13689926 0.12961085 -0.030993814
0001a0 a1 5b a8 3d fd 77 c7 3c a5 26 44 3e 3d 91 cf 3d
       0.08220602 0.024349207 0.19155367 0.10135124
0001b0 ea f6 48 3c 9c 8c 99 3c 7b 3a f6 3c 0e f8 f0 3d
       0.0122659 0.018743806 0.030057183 0.11766063
0001c0 46 8f 4b bd a5 32 26 3e c4 a3 17 bd 35 0f 3c bd
       -0.049697183 0.16230257 -0.037021413 -0.04591294
0001d0 4d 02 27 bc b1 7d 8f 3c 53 42 5c 3d 55 d7 47 be
       -0.01019342 0.017515989 0.05377419 -0.19515736
0001e0 d4 00 d8 3d fd 71 81 3c aa 46 88 3d 07 84 d8 bd
       0.10547033 0.015801424 0.06654103 -0.10572057
0001f0 0a 38 60 bd d0 a9 69 3d 8a dd 02 be 7e 07 15 3e
       -0.054740943 0.05704671 -0.12779823 0.1455364
000200 b9 81 1a bc 14 e8 08 3c ec 4b 01 be 61 36 1e 3d
       -0.009430342 0.008356113 -0.12626618 0.03862608
000210 7d 00 87 bd 53 d1 c4 3d 7f ed 99 bc 0c 7a 7a bd
       -0.0659189 0.09610238 -0.018790005 -0.06115155
000220 84 95 8c 3d 6b 05 ff 3d 1a eb 0d be 37 d9 81 3d
       0.06864455 0.12452205 -0.13859215 0.063402586
000230 93 cd 52 bc 47 a2 e8 3d 7e fe 1c bc f7 d0 d9 bc
       -0.0128663955 0.11359077 -0.00958216 -0.0265889
000240 29 6d 59 bd f7 70 97 bd dd c9 2e ba
       -0.05308262 -0.07394593 -0.0006667653

bias f4 [21]
000000 bb 60 38 3f f0 81 36 3f 1c a5 81 be 22 c8 a8 be
       0.720226 0.7129202 -0.2532128 -0.3296519
000010 f4 56 6e 3e 8b 3d db be 3a b9 33 bf 02 2b 15 bf
       0.23275357 -0.4282039 -0.7020451 -0.5826875
000020 62 15 16 be 42 a3 67 be b6 a2 6b be 6b c2 1d be
       -0.14656594 -0.22620872 -0.23011288 -0.15406196
000030 2e 7b 12 bf 15 db 59 bd 1d dd 1b bd ea 07 32 be
       -0.5721921 -0.05318745 -0.038052667 -0.17385831
000040 e3 d5 cb be 5e 1b 22 bf c8 f8 38 3f e1 3e 1f 3f
       -0.3981162 -0.6332301 0.7225461 0.6220532
000050 d3 64 d5 3e
       0.41678485

weight f4 [21]
000000 a0 5f 86 3f 84 2b 70 3f 12 1d 84 3f 84 f7 93 3f
       1.0497932 0.938164 1.0321372 1.1559911
000010 1b 37 4f 3f e5 a5 7f 3f d4 25 87 3f 03 4c 88 3f
       0.8094346 0.9986251 1.0558419 1.0648197
000020 6a 82 9a 3f d6 b7 83 3f cb 65 88 3f 5e 22 86 3f
       1.2071049 1.0290477 1.0656065 1.0479238
000030 ae 41 85 3f 7e 58 9d 3f 63 35 86 3f c4 7e 82 3f
       1.0410669 1.2292631 1.0485042 1.0194936
000040 90 91 af 3f db 09 86 3f 65 72 7a 3f e3 66 80 3f
       1.3716297 1.0471758 0.978308 1.0031399
000050 55 a0 7e 3f
       0.994634

bias f4 [21]
000000 4e c5 3c 3e 20 f9 07 3d 68 78 77 3e b4 4a 61 3e
       0.18434641 0.03319657 0.24167025 0.22001153
000010 ed a9 3a 3e 72 b9 c3 3e c8 7b 01 3f e9 1d 17 3f
       0.18228884 0.3822742 0.505795 0.59030014
000020 b9 5c 8d 3e 20 5e 28 3e a3 41 26 3e f8 76 1c 3e
       0.27609804 0.16442156 0.16235976 0.15279758
000030 99 08 bb 3e 6b ec 37 3e 5d 79 f2 3d 8a 1f 1f 3e
       0.36529997 0.1796128 0.118395545 0.15539375
000040 5e 62 55 3d 8d 1c ef 3e 42 6e a8 3c 03 e0 56 3e
       0.052095763 0.4670147 0.020560388 0.20983891
000050 20 e8 5e 3e
       0.21768236

weight f4 [36, 21]
000000 df a3 d9 3c 9f 22 2a bd 07 df 0c ba 3a 53 b0 3e
       0.026567398 -0.041536923 -0.000537381 0.34438497
000010 16 89 82 3e 50 66 0d 3e 6f 00 bb be 36 2b c3 3e
       0.25495213 0.1380856 -0.36523768 0.38118905
000020 37 4a b0 be 05 38 8f be 22 af 8e be e3 80 c0 bd
       -0.3443162 -0.27972427 -0.2786799 -0.09399583
000030 55 6c 5f 3e a4 1c ab bd 6a 95 c5 3e 1e 09 90 3e
       0.21818669 -0.08355072 0.38590556 0.28131956
000040 bc 9f d1 be 32 97 d5 be cb 50 a2 bd 12 8d 17 be
       -0.4094218 -0.41716915 -0.07925566 -0.14799908
000050 3c 43 9c 3e 6a 28 2c 3d 64 5b 14 be ef 6d 08 3f
       0.30520046 0.04203073 -0.14487988 0.53292745
000060 4d 2e 8f 3b 30 5a d8 bd 8d 6a 05 bf 96 cb e1 bc
       0.004369533 -0.10564077 -0.5211571 -0.027562898
000070 09 59 d4 3d e3 4b 14 3d 8f c7 1e 3d c8 08 cd 3e
       0.103685446 0.036205184 0.038764533 0.40045762
000080 4d 09 ca bd e7 e0 6b 3e 33 f0 00 be fe 8a 0a 3e
       -0.09865055 0.23035012 -0.12591629 0.13529584
000090 26 34 39 be 10 a5 69 3e ba ea 16 be 16 c2 97 3d
       -0.180863 0.22816873 -0.14737979 0.07410066
0000a0 25 37 9a 3d 9e 8f 89 3e ef 19 5f 3c be d8 4b be
       0.07530049 0.26867384 0.013617023 -0.199069
0000b0 d6 70 e2 bc 96 97 9c bd ca ba 9e 3e b0 59 8c bd
       -0.027641695 -0.076461 0.31001884 -0.06853044
0000c0 99 97 e4 bd 16 77 8c bd ec e4 0d be a0 11 f4 3d
       -0.111617275 -0.06858651 -0.13856858 0.11917424
0000d0 7d 6e 82 3d 29 17 23 bd 2d db 7b 3b 06 41 89 3e
       0.0636873 -0.03981701 0.00384302 0.2680742
0000e0 b2 9f 2b 3e 31 b5 c2 3b 49 2c 2a bd a0 27 1a bd
       0.16760138 0.00594201 -0.04154614 -0.037635446
0000f0 4a 40 fe bd 9d d9 98 3b 67 b3 3d 3e 02 8c 61 3d
       -0.12414606 0.0046646134 0.18525468 0.055065162
000100 c2 60 8a 3d 7f de a2 bd 23 50 ce 3e 9e 09 5e 3e
       0.06756736 -0.07952594 0.40295514 0.21683356
000110 87 70 48 3e 89 e0 d2 be 0d d6 eb be e2 2a ed 3e
       0.19574176 -0.41186932 -0.46061745 0.4632178
000120 d0 f8 8f be 32 53 99 be ea 84 46 3d 40 36 61 3e
       -0.28119516 -0.29946285 0.0484666 0.21993351
000130 34 ad 86 3e bc 33 9f 3d 88 62 c5 3e 4b 02 49 bd
       0.26304018 0.077735394 0.38551736 -0.049074452
000140 e3 6b 5c 3d 5a c0 7b 3c 24 5d 8d bd d8 d1 3b 3e
       0.053813826 0.015365684 -0.06902531 0.18341768
000150 9c 11 47 3e 8f 00 ca bd 8a a5 db 3c f5 aa 5c be
       0.19440311 -0.09863388 0.026812334 -0.2154959
000160 89 33 ae 3d c9 d6 6f 3d 85 46 10 3f 06 bf a6 3e
       0.08505923 0.058554444 0.56357604 0.32567614
000170 5e 78 6c be 9a b1 70 3e c0 33 f7 3d 8d f5 ae 3e
       -0.23092791 0.2350525 0.120704174 0.34171715
000180 b1 94 f0 be 2f dd 06 be 73 dd 4d 3e 3d 56 22 be
       -0.46988443 -0.13170312 0.20104007 -0.1585321
000190 84 91 f9 bd 01 c1 52 be 71 f7 8e 3d b7 92 84 3d
       -0.12185958 -0.20581438 0.069807895 0.06473296
0001a0 ef 31 26 be 19 c6 b8 3d 60 db 87 be db 73 ad bd
       -0.16229986 0.09022159 -0.26534557 -0.08469363
0001b0 5d 06 d6 be 2f a0 59 be 7f a5 c5 bd 7b 40 9b 3d
       -0.4180173 -0.21252511 -0.096507065 0.07580658
0001c0 83 15 1b bf 03 ce d4 3e a5 24 9d 3e 81 93 a8 3d
       -0.605797 0.41563424 0.3069202 0.08231259
0001d0 77 72 9a 3d a8 fc 90 be 17 70 6c 3e a7 de a7 be
       0.07541364 -0.2831776 0.23089634 -0.32787058
0001e0 5f 26 03 be 42 c2 7e 3e 82 85 9f 3e 96 a0 83 bd
       -0.12807606 0.24878791 0.31156546 -0.06427114
0001f0 50 1a 30 bd 23 b7 8c bd 3e 32 12 be c9 84 91 bd
       -0.042993844 -0.06870868 -0.14276978 -0.07105405
000200 d9 57 b2 bd 7a 4b 45 be 1a ca 75 3d cb e7 0a 3e
       -0.08708162 -0.19267073 0.060007192 0.13564985
000210 f1 59 11 3e a3 42 b7 3e f0 af 8c be 8a 20 28 3e
       0.14194466 0.35793027 -0.2747798 0.16418663
000220 df 90 2a be 90 b0 53 bd 4a 8a ff b9 81 ad 44 be
       -0.16656826 -0.051682055 -0.00048740424 -0.19206811
000230 41 d9 ef bc f2 bc ec 3d 09 b7 f9 bd 1f 16 49 bc
       -0.0292784 0.11559476 -0.12193114 -0.0122733405
000240 a2 af 62 3e 9d 07 e8 3d 59 36 33 be e9 2c 31 3e
       0.22137311 0.11329577 -0.175012 0.17302288
000250 f1 0f 10 bd 53 73 e4 3d c4 f7 1a 3e e6 be ab 3d
       -0.035171453 0.11154809 0.15133578 0.0838602
000260 23 25 2c 3e b0 85 c0 3d 92 5c 4f 3d e6 c1 bb 3d
       0.16811042 0.09400499 0.05062539 0.091678426
000270 9f 59 39 3e 0b d6 67 3d 85 b7 2e 3e 83 42 bd 3d
       0.18100594 0.05660061 0.17062195 0.09241202
000280 9b bd 3f 3e 7a 7e e1 3d 8e ad 0a 3e 2d 10 85 bd
       0.18724672 0.110104516 0.13542768 -0.06497226
000290 79 7b b8 bc 1b f6 09 3e 47 c9 20 3e 6a 85 99 3e
       -0.022519814 0.13472788 0.15701781 0.299846
0002a0 c0 be 95 bd cf 10 23 3d 2a 68 d1 be 71 03 b5 bc
       -0.07311773 0.03981095 -0.40899783 -0.022096368
0002b0 a5 2a 1b 3e 65 c3 dd 3e 66 4b 3b 3c e6 0b 20 be
       0.15152986 0.43313137 0.011431551 -0.15629539
0002c0 3d e1 13 3e 0f f2 92 3b 21 a8 aa be 6b 99 b9 3d
       0.1444139 0.004484422 -0.33331397 0.09062465
0002d0 18 a7 12 be 82 3e 18 3d 70 ae 3e bc 48 7a 3d 3e
       -0.14321554 0.037168987 -0.011638269 0.18503678
0002e0 fb bd 84 be 63 01 11 3d e2 4b f3 3d 40 0b a7 bd
       -0.25926194 0.035401713 0.11879708 -0.08156443
0002f0 ce be 70 be 3a 42 84 bb 36 a1 e8 bd b6 cd 82 be
       -0.23510286 -0.004036215 -0.113588735 -0.2554757
000300 02 a1 ce be 09 2f e5 bd e0 b1 38 3e d2 3b 92 3e
       -0.40357214 -0.11190612 0.18036604 0.28561264
000310 8e 14 a3 3e 0d 4c 00 be c6 b5 a3 3e 1b 3a e2 bd
       0.3185162 -0.12529011 0.3197462 -0.11046239
000320 5a da ee bc 06 7b f5 bd a8 3c d2 be 4e a2 28 be
       -0.029156853 -0.119863555 -0.41061902 -0.16468164
000330 e7 29 8c bb 87 db 0d 3e 10 3f 0a 3e c1 61 a9 3c
       -0.004277456 0.13853274 0.13500619 0.020676496
000340 56 4f 1d 3e 11 0b 2e be 68 4c 20 bd 66 42 e7 bd
       0.15362296 -0.16996409 -0.039135367 -0.11291961
000350 7c 49 6e be e5 b9 f8 be 76 8f 28 be 56 d7 45 3e
       -0.2327022 -0.48579326 -0.16460976 0.19320425
000360 2c c5 c4 3e b9 fe e4 3e 99 bc 8f be cb 8b bc 3e
       0.3843168 0.44725588 -0.28073576 0.36825404
000370 a6 e1 af bd cf aa 8a bd 7c 37 13 be be 7c db be
       -0.08587961 -0.067708604 -0.14376634 -0.42868608
000380 26 65 72 be 49 85 87 bd fe 27 ef 3c 79 5c 33 3e
       -0.23671398 -0.06617219 0.029193874 0.17515744
000390 9c 14 0a 3d 9b 9e 5d 3e b9 c9 8d be ee a7 81 bd
       0.03371106 0.21642534 -0.27692965 -0.06330858
0003a0 5a 0f 83 bd 9c 95 83 be 5d 7e fb be e8 79 24 be
       -0.063994125 -0.2570008 -0.49119845 -0.16062129
0003b0 51 f1 53 3e 60 cf ca 3e 8f c9 f4 3e 4a b6 c5 be
       0.20697524 0.3961134 0.47810027 -0.38615638
0003c0 19 7f cb 3e 23 3f 86 bd d6 33 d6 bc 69 96 3d be
       0.39745405 -0.06555011 -0.026147764 -0.18514408
0003d0 32 60 ae be 4c 59 7c be 06 88 b3 bd f4 4b 22 3d
       -0.34057766 -0.24643439 -0.08766179 0.039623216
0003e0 b1 ab 4c 3e 4c aa 27 3d 05 89 65 3e e2 62 8b be
       0.1998737 0.040933892 0.2241555 -0.2722388
0003f0 3e 42 31 bd 52 9a 2f bd 86 5c 53 3e 23 d0 99 3d
       -0.043276064 -0.04287178 0.20640764 0.07510402

bias f4 [36]
000000 84 ac 1f 3d 26 99 18 3d 4b 4f f8 bd 0c 2e a3 3d
       0.038982883 0.03725543 -0.12124499 0.07967767
000010 28 d5 89 bc d2 6d 05 be 5f 9e f7 bc a4 8a 99 3d
       -0.016825274 -0.13030174 -0.030226884 0.07497147
000020 db 56 79 bd 45 99 01 3d ac d7 ad 3c 6b 9b 2b bd
       -0.060873847 0.03164031 0.021221004 -0.041896265
000030 7d fe 7b 3c ab 4a 40 3e de 2a 52 3e 60 5d 44 bd
       0.015380499 0.18778484 0.20524165 -0.04794061
000040 10 88 7e 3e 2a e8 0f be 08 26 3e 3e 83 7e 82 3d
       0.24856591 -0.14053407 0.18569195 0.063717864
000050 dc 45 87 be 00 f8 cf bd d1 49 59 bc d7 7e 40 3e
       -0.26420486 -0.10154724 -0.013262228 0.18798386
000060 ee 05 63 be 37 a4 cf bd 06 17 c8 3d 8f ec 1d 3d
       -0.22170231 -0.10138743 0.09770016 0.038555678
000070 fd e7 24 3d d7 71 0b 3e 6e cd 54 3e 58 11 ac bd
       0.040260304 0.13617645 0.2078149 -0.084017456
000080 df ba 67 3e e9 4b 86 be c7 7b 76 3e c5 7c e7 3d
       0.2262988 -0.2622979 0.24070655 0.11303095

weight f4 [1, 7]
000000 76 66 01 bd cd 68 aa 3d 97 0d 08 3e 9b ea 8f be
       -0.031591855 0.083207704 0.13286434 -0.28108677
000010 2a e1 a2 be 27 7d 57 3e 85 ad 37 3e
       -0.31812412 0.21043836 0.17937286

weight f4 [36, 1]
000000 d7 38 1d bf 43 aa 7b 3d c8 1f 74 bf f7 92 4d bf
       -0.61414856 0.06144167 -0.95360994 -0.80302376
000010 87 f5 36 3e 98 10 51 3f 6d db d1 3e 2a 46 0e 3f
       0.17867099 0.81665945 0.4098772 0.5557581
000020 d9 73 d6 bc f8 ad 4f bf b4 09 2b bf a1 63 52 bf
       -0.026178287 -0.8112483 -0.6681168 -0.8218327
000030 38 24 7e bd 4e 4f 72 be cd f0 d3 be f9 51 32 bf
       -0.06204626 -0.23663065 -0.41394654 -0.6965633
000040 3c e8 67 3e 0a 1f 32 bf 87 13 63 3e f6 61 21 3f
       0.22647184 -0.6957861 0.22175418 0.630401
000050 19 6e 13 bf 72 2f 9e bd f0 37 4a 3e 55 03 50 3f
       -0.5758987 -0.07723893 0.19747901 0.81255084
000060 dc 1b 98 3e 12 af 91 be 26 a9 d7 be 4a f8 76 3c
       0.29708755 -0.2845388 -0.42121238 0.015073845
000070 64 36 69 be 0e 84 2d 3f d0 4f 55 3e 1f 7d 21 bf
       -0.22774655 0.67779624 0.20831227 -0.63081545
000080 fe 1e 65 3d a3 e3 51 bf a6 88 0d bf 07 21 01 3f
       0.05593776 -0.8198797 -0.55286634 0.5044102

bias f4 [36]
000000 9f d3 80 bd d9 24 b3 3e 30 cc 8d be f0 dc 41 3f
       -0.062903635 0.3498905 -0.27694845 0.7572775
000010 11 4f 93 bf 0d 3f cc 3d 70 be 8c be 23 30 f0 3e
       -1.1508504 0.099729635 -0.27489042 0.46911725
000020 71 d5 50 3f be c0 27 bf 2c a4 3c 3f d8 3e 09 3e
       0.81575686 -0.65528476 0.73688006 0.13402879
000030 ed d7 a2 3e 3e c0 53 3f 46 2e 3e 3f c6 05 2f 3d
       0.31805363 0.82715213 0.7428936 0.042730115
000040 00 6d 19 bf 3d 51 13 3d 47 b7 87 bf 1b cc e3 3e
       -0.59931946 0.035966147 -1.0602807 0.44491658
000050 12 cb 4b bf 21 78 7a 3f 70 5e 6e bf 38 00 3e bf
       -0.79606736 0.9783955 -0.9311285 -0.74219084
000060 ef 94 9d 3e b2 3b 93 3e 5f 37 01 bf 44 a8 bc 3e
       0.3077769 0.2875648 -0.50475115 0.36847126
000070 3f e1 21 3e 2f 00 11 be 42 5f 23 3d 75 f1 35 3f
       0.15808581 -0.14160226 0.039885767 0.7107156
000080 70 f9 2a 3f 84 8f ac 3e fb ae 28 3d fa b3 29 3f
       0.6678686 0.33703244 0.0411825 0.6629025

xs f4 [8192, 7]
000000 e3 22 f3 bf 8f 89 7c 3f a0 51 eb 3d a0 bd e9 3f
       -1.8995022 0.986474 0.11490178 1.8260994
000010 da 91 72 3f b3 4d 68 bf 00 00 00 00 fe 66 84 bf
       0.947538 -0.9074356 0.0 -1.0343931
000020 56 77 39 be c6 3c 91 3c c8 c2 fb 3f 46 6d 36 3e
       -0.1811193 0.017729174 1.9668818 0.17815122
000030 1a 39 01 3e 00 00 00 00 47 dd a1 be 12 09 b2 3e
       0.12619439 0.0 -0.31614134 0.34772545
000040 a2 eb 40 3b c2 8a 07 40 7c 10 e9 be fb 90 ac be
       0.0029437323 2.117844 -0.4552039 -0.3370436
000050 00 00 00 00 c6 bd 9e 3e 79 8e 03 3f 4c 8d 2e be
       0.0 0.3100416 0.5138927 -0.17046088
000060 63 c8 dc 3f fd bb 80 bf 0e 0f f6 be 00 00 00 00
       1.7248653 -1.005737 -0.4805836 0.0
000070 1c c5 89 3e 24 a4 46 3f ec b3 b7 bf 46 66 29 3f
       0.26908195 0.7759421 -1.4351783 0.6617168
000080 68 50 74 bf 89 bf 35 bf 00 00 00 00 2c 2a d7 3e
       -0.9543519 -0.70995384 0.0 0.42024362
000090 2f 89 1f 3f 63 0a 9c bf 43 5c 0e 3f d7 fa 8b bf
       0.623187 -1.219067 0.5560953 -1.0935925
0000a0 59 27 16 bf 00 00 00 00 9b e4 93 bc a9 f0 a4 3e
       -0.5865379 0.0 -0.018053344 0.3221486
0000b0 cb 56 06 40 48 f8 7f bb 8c d4 33 bf 55 96 a1 be
       2.0990474 -0.00390579 -0.70246196 -0.31560007
0000c0 0c 48 5e bd 1d 09 86 3e ad b5 9f 3f c7 11 b6 bb
       -0.054267928 0.26178828 1.2477318 -0.0055563184
0000d0 4b e9 05 c0 ed 69 76 bf 2c 13 91 bf 00 00 00 00
       -2.092364 -0.9625538 -1.1333976 0.0
0000e0 8a 1c ca bf b1 a9 b2 bc 28 49 b3 bf f2 f5 0d bb
       -1.578996 -0.02180943 -1.40067 -0.0021661487
0000f0 04 5e d8 3f 1a 7d cc 3e 00 00 00 00 14 d0 76 be
       1.6903691 0.39939195 0.0 -0.24102813
000100 b7 8b aa 3e d6 d4 d5 3d 14 57 e1 3f 1e 75 03 3f
       0.3330972 0.10440986 1.7604699 0.5135058
000110 5d 83 b8 3d 00 00 00 00 9b 02 53 bf 30 39 26 3d
       0.090094306 0.0 -0.8242585 0.040581882
000120 e6 55 f7 bf 49 c0 8b 3d cd 16 83 3f ae 13 b1 3e
       -1.9323089 0.06823785 1.0241333 0.34585327
000130 00 00 00 00 3c bf 04 3d f2 61 d0 3f b9 96 c3 3b
       0.0 0.032408938 1.627989 0.0059688953
000140 0c a2 29 3f f4 b0 8a 3e df cf 85 bf 0c 48 5e bd
       0.6626289 0.2708813 -1.0454062 -0.054267928
000150 5a 20 c8 bd 14 94 73 3f dc e6 b7 be 6d d4 00 3f
       -0.097717956 0.95147824 -0.3591832 0.50324136
000160 95 b3 c6 3e ae 91 e6 be 00 00 00 00 ce 0e 2d be
       0.38808885 -0.4503302 0.0 -0.16900179
000170 c0 58 7e 3d 76 12 d7 be 53 78 ba ba 51 3a e8 3e
       0.062096357 -0.42006272 -0.0014226533 0.45356992
000180 c9 c8 aa 3e 00 00 00 00 0c 5c 74 3e b3 4d 0a 3e
       0.33356312 0.0 0.23863238 0.13506202
000190 c5 04 42 bf ac c6 4c be 47 6c c3 3d 8d ee 88 3e
       -0.7578853 -0.19997662 0.09542137 0.267445
0001a0 00 00 00 00 7b 07 ff 3e 1e 0b 75 be 0b 86 f3 bc
       0.0 0.49810395 -0.23930022 -0.029727003
0001b0 e1 8a 03 c0 4f ab 0c be 86 14 17 3f 00 00 00 00
       -2.0553515 -0.13737224 0.5901569 0.0
0001c0 60 1e 90 bf b2 ce 89 3e 02 7f 6a be 76 90 ed 3f
       -1.125927 0.26915509 -0.22900012 1.8559711
0001d0 7a 61 85 3f 40 f4 22 3e 00 00 00 00 60 1a 03 bf
       1.0420372 0.15913486 0.0 -0.5121212
0001e0 72 b9 9e 3f fb e9 94 3b ca d5 fa 3f 72 a6 04 3f
       1.2400343 0.004544494 1.9596493 0.51816475
0001f0 28 c3 35 bf 00 00 00 00 94 e4 3d bf ae 8d 0e be
       -0.7100091 0.0 -0.7417691 -0.13921234
000200 18 fd 96 bb f3 4e ba 3a 6c 7d 37 3f 07 5b 04 3f
       -0.004607808 0.0014214203 0.71675754 0.51701397
000210 00 00 00 00 27 64 92 3d c6 fd 0b bf 8f 50 42 3f
       0.0 0.07148009 -0.546841 0.7590417
000220 ef 3b 67 3f fc c9 98 3b 2b 0c 61 3f 00 00 00 00
       0.90325826 0.0046627503 0.8790919 0.0
000230 06 ea 68 be 69 59 20 be a5 55 02 bd e8 6e de 3b
       -0.22745523 -0.15659107 -0.03181996 0.0067881234
000240 e0 53 88 3e 96 86 08 3f 0c 48 5e bd be fb f7 bf
       0.26626492 0.5333036 -0.054267928 -1.9373701
000250 e9 db b2 bf c7 2b 69 3f 82 b0 2a bf 41 34 e2 3f
       -1.3973361 0.91082424 -0.6667558 1.7672197
000260 75 03 d1 3f 00 00 00 00 49 8b d1 3f 4f f1 be 3f
       1.632918 0.0 1.6370631 1.4917392
000270 5a 8d 34 3f e9 21 2a 3e 84 1a af bf 84 8f 68 bf
       0.70528185 0.16614498 -1.3679967 -0.9084399
000280 00 00 00 00 de 00 6f 3e b8 c6 97 3e f2 ed 15 bb
       0.0 0.23340175 0.29643798 -0.0022877422
000290 13 d7 f3 bf ad 09 0c be 4a b4 0e 3e 00 00 00 00
       -1.905001 -0.13675566 0.13935962 0.0
0002a0 98 c2 95 bf 9f 52 db bf 42 90 85 bd d5 33 9c 3f
       -1.170001 -1.7134589 -0.065216556 1.2203318
0002b0 6f 58 0e 3f 7d 74 03 40 00 00 00 00 c5 ed d8 3f
       0.5560369 2.0539849 0.0 1.6947562
0002c0 78 14 f5 3f cb 9d 5a 3d 32 86 f6 3f d5 66 f7 bf
       1.9146872 0.05337314 1.9259703 -1.9328257
0002d0 89 02 92 bf 00 00 00 00 01 02 b6 be 0f dd 44 bf
       -1.1407024 0.0 -0.35548404 -0.7689981
0002e0 40 21 01 c0 ff 71 9c bd f4 c1 20 be 9d af 9a 3f
       -2.0176544 -0.076389305 -0.15698987 1.2084843
0002f0 00 00 00 00 7a 12 1a 3d 83 73 9d bd bd 05 e7 3e
       0.0 0.037615277 -0.07688048 0.45121565
000300 17 1e 3d 3f a1 89 fc be 4f 99 1a 3f 0c 48 5e bd
       0.7387404 -0.49323753 0.6039018 -0.054267928
000310 02 a6 cb 3f 4c 00 6e 3f 8e ad 64 bc e8 d4 1d be
       1.5910037 0.92969203 -0.013957394 -0.15413249
000320 49 80 ee bf e7 f4 96 be 00 00 00 00 c1 d7 d6 3f
       -1.86329 -0.2948372 0.0 1.6784593
000330 06 5c 90 3f d4 9f 9b 3f 94 3d a1 bd e0 81 f7 bf
       1.1278083 1.2158151 -0.07873073 -1.933651
000340 bb df e8 be 00 00 00 00 05 9b 8b 3e e1 0d 2d 3f
       -0.45483193 0.0 0.27266708 0.675993
000350 1c a1 7f bd 56 6e 01 c0 f9 89 33 bf 38 9d 85 bd
       -0.062409505 -2.0223594 -0.70132405 -0.06524128
000360 00 00 00 00 08 78 a0 3f 17 07 5d bf 78 eb 6f 3e
       0.0 1.2536631 -0.86338943 0.23429668
000370 05 59 ef bf dd 9e c7 bf 98 bc a4 3f 00 00 00 00
       -1.8699042 -1.5595356 1.2870054 0.0
000380 67 da 35 c0 e0 e9 be 3f 76 3f 01 3f 27 08 b2 3d
       -2.8414552 1.4915123 0.5048746 0.08692961
000390 ca 08 3a 40 2f 0a fb bf 00 00 00 00 a8 ad aa bf
       2.9067864 -1.9612483 0.0 -1.3334246
0003a0 50 25 d5 bf 52 e9 81 3e 5d 2d 57 3f f6 fd c9 3f
       -1.6652012 0.25373322 0.84053594 1.5780628
0003b0 3a 39 53 3f 00 00 00 00 26 22 49 3f 18 d4 c2 bf
       0.82509196 0.0 0.7856773 -1.5220976
0003c0 84 f2 14 3b de 5c a4 3f 2b 96 8f be d9 a4 32 3f
       0.0022727558 1.2840841 -0.28044257 0.6978279
0003d0 0c 48 5e bd c4 a0 f7 3c 4b e5 14 c0 45 c3 fa 3f
       -0.054267928 0.030228026 -2.326495 1.9590842
0003e0 17 6a 10 be 01 8d c3 3e 14 b9 b6 3f 00 00 00 00
       -0.1410297 0.38193515 1.4275231 0.0
0003f0 6c 4a cc 3f 81 1a f3 be 3f f7 0e 3f f0 6f 8a be
       1.5960212 -0.47481158 0.5584602 -0.27038527

z f4 [1024, 36]
000000 ec 1e 5e c0 c0 44 87 3c 7e be ef c0 46 90 2e 40
       -3.4706373 0.016512275 -7.4920034 2.7275558
000010 b1 26 28 3f a0 62 a5 3e c3 4a 42 40 13 00 96 41
       0.6568404 0.32301807 3.035813 18.750036
000020 62 f2 89 be 44 34 42 40 da ca 88 c0 4e ab a4 c0
       -0.26942736 3.03444 -4.274762 -5.145911
000030 71 aa 8b be 86 63 b0 bf c5 1d a2 bf e0 2b 94 c0
       -0.27278474 -1.3780372 -1.2665335 -4.630356
000040 88 49 6d 3e da 02 27 c0 bd f9 24 3f b4 47 46 41
       0.23172581 -2.609549 0.6444357 12.392506
000050 0a 85 c2 c0 b2 ad 65 3e d6 76 24 3e a8 b7 9b bf
       -6.07874 0.22429541 0.16060957 -1.2165422
000060 60 e1 62 3e 34 9f 02 3f 35 22 d0 c0 68 be e1 3f
       0.22156286 0.51024175 -6.5041757 1.7636232
000070 08 4c 19 be 38 17 30 bf 10 7c 5b bf d0 80 01 c0
       -0.1497041 -0.6878543 -0.8573618 -2.023487
000080 1e 33 03 40 06 33 22 c0 0e 37 56 c0 30 cd dc 3f
       2.049995 -2.5343642 -3.3471103 1.7250118
000090 2a ca a0 c0 61 49 d6 bf 4b eb f3 c0 66 68 40 c0
       -5.024678 -1.6741143 -7.6224723 -3.006372
0000a0 5f d9 8f bf 08 cd 0b 40 64 60 06 40 54 e9 94 41
       -1.1238211 2.184389 2.0996332 18.61393
0000b0 c0 16 73 bc 80 7b 1a 3f ba 8e 5b c0 74 09 a4 c0
       -0.014836967 0.60344696 -3.4305863 -5.126154
0000c0 e3 c9 99 bf 91 3d 41 bf d2 02 c3 bf 56 46 8a c0
       -1.2014736 -0.7548457 -1.5235236 -4.321086
0000d0 e4 91 ab 3f 4e 86 0c c0 3e 98 60 bf 62 04 29 41
       1.3403897 -2.1956973 -0.87732303 10.56357
0000e0 42 f5 6d c0 87 20 39 3e 03 2a 40 40 ca f0 ab 40
       -3.7180943 0.18078814 3.0025642 5.373143
0000f0 dc 8e bc 3f 6e f1 87 3f 69 81 7b c0 9d 72 64 bf
       1.4731097 1.0620553 -3.9297736 -0.89237386
000100 30 c4 8c 3e 02 37 67 c0 bc 32 b3 3e a4 22 9a bf
       0.2749343 -3.6127324 0.34999645 -1.2041821
000110 db 71 ab 3f a0 fe 76 3e bc 52 1c bf 11 a2 10 40
       1.3394121 0.24120569 -0.6106374 2.2598917
000120 d4 13 57 c0 e0 cf fa 3d f0 ac f4 c0 b8 7c 3c 3f
       -3.3605852 0.1224668 -7.6461105 0.73627806
000130 a7 6f a5 bf 29 5e 2e 40 11 e8 46 40 08 d9 94 41
       -1.2924699 2.724497 3.1079142 18.605972
000140 40 7b 58 bc 20 8c 52 3f d5 af 04 c0 70 20 1b c0
       -0.013212979 0.82245064 -2.073232 -2.4238548
000150 f2 b4 44 bf a8 88 8f bf 41 f0 93 bf 58 a4 f9 c0
       -0.768386 -1.1213579 -1.1557695 -7.8013115
000160 70 dc e5 3d 3a dc 18 c0 7e 76 db 3e 2a 5e 33 41
       0.11223686 -2.3884416 0.4286384 11.210489
000170 9d 99 72 c0 ec 36 68 be 7e ea f3 3f 94 47 88 40
       -3.7906258 -0.22677201 1.9055936 4.2587376
000180 1c 5a 0c 40 63 a1 3d c0 d2 cf 3f c0 6c 77 8e 3f
       2.1929998 -2.9629753 -2.9970593 1.1130195
000190 1b 20 a8 bf 8e c6 48 c0 bd 77 e9 3f f0 3d 2c 3f
       -1.3134798 -3.1371188 1.8239666 0.6728201
0001a0 c9 8c 85 3f 06 00 07 40 42 07 02 40 f5 cb 56 40
       1.0433589 2.1093764 2.031693 3.3561985
0001b0 c0 5e c1 3d 7d b8 b8 bf 6f 94 ef c0 4a a4 fe bf
       0.094419 -1.4431301 -7.4868693 -1.9893887
0001c0 f2 68 22 c0 a0 21 c3 bf ce 11 53 40 b4 5c 93 41
       -2.5376554 -1.5244637 3.2979617 18.420265
0001d0 4d 43 72 bf b0 33 33 bf 1e 19 05 c0 80 a6 97 3e
       -0.9463394 -0.70000744 -2.079658 0.29619217
0001e0 8f e3 22 c0 20 4a 43 bd 80 a7 9f 3d 8a 1a b8 c0
       -2.545139 -0.047678113 0.0779562 -5.7532396
0001f0 48 99 41 be f0 c7 51 c0 ec f9 ac bf 75 ad 4d 41
       -0.18906128 -3.2778282 -1.351377 12.854848
000200 1e 82 8a c0 84 3b 2d be 5f 4c 7a 40 2d c6 28 40
       -4.3283834 -0.16917235 3.9109113 2.6370957
000210 84 a3 18 3f 20 9a 7f bf 97 27 84 c0 1e 66 8a bf
       0.59624505 -0.9984455 -4.1298327 -1.0812414
000220 a6 f8 94 bf cd a6 8a c0 0c 56 74 3f b7 68 d2 c0
       -1.1638381 -4.3328614 0.954438 -6.5752826
000230 4a 24 89 40 16 44 ce c0 a0 0d 25 be 3c 76 c2 bf
       4.28568 -6.4458113 -0.16118479 -1.5192332
000240 d2 67 83 c0 d2 7d e2 3e 3f 03 02 c1 34 b7 5c c0
       -4.1064234 0.44236618 -8.1257925 -3.4486818
000250 ee a6 f5 3f 6c 18 a9 bf 01 14 94 3f 2d d3 93 41
       1.9191568 -1.3210578 1.1568605 18.478113
000260 c0 e8 24 3d 68 a1 11 c0 c6 02 d5 c0 f7 52 de c0
       0.04026103 -2.2754765 -6.6565886 -6.9476275
000270 7f d0 be 3f 73 20 ce 3f ac 76 a3 3f a2 a7 e0 c0
       1.4907378 1.6103653 1.2770591 -7.020463
000280 12 b0 a7 bf 00 08 f7 3f 82 13 b4 3f 95 de ca 40
       -1.3100607 1.9299316 1.4068453 6.3396707
000290 ca 78 10 c0 12 02 e9 bf ee 0c 06 40 24 56 db 3f
       -2.2573724 -1.8203757 2.0945392 1.7135663
0002a0 34 a7 3a bf c4 82 59 c0 ae 0f 8e c0 ce f1 96 3e
       -0.7291138 -3.3986063 -4.439414 0.29481357
0002b0 74 52 3f c0 50 1a dd be 3c e1 11 40 9a cf f4 c0
       -2.9894075 -0.43184137 2.2793722 -7.650342
0002c0 93 81 83 40 15 94 4d c0 5c 7e d4 bf 50 2d 0b 40
       4.109567 -3.2121632 -1.6601062 2.1746407
0002d0 08 06 04 bf 20 f9 b7 bd 13 d6 f4 c0 f2 8c 11 c0
       -0.515717 -0.08983064 -7.651132 -2.2742276
0002e0 e2 73 8a 3f 40 96 45 3e 5b 82 22 40 84 17 94 41
       1.0816615 0.19295597 2.5392063 18.511482
0002f0 22 61 f3 be 3a 29 44 c0 04 73 8b bf aa f5 2a c0
       -0.47535044 -3.0650163 -1.0894475 -2.6712441
000300 91 fa 95 be 90 2b b5 3e a6 a4 5b bf 87 a2 a7 c0
       -0.2929273 0.35384798 -0.8579811 -5.23859
000310 7a 10 16 3f d8 6f ba 3f 64 6f 3a bf d2 fc 3b 41
       0.5861889 1.4565382 -0.7282622 11.749224
000320 4d de 6c c0 96 15 15 3f 76 db fc 3f e0 ac 23 be
       -3.7010682 0.5823606 1.9754474 -0.15983915
000330 80 74 e0 bc 81 67 a6 bf 79 31 2b c0 b7 55 0c bf
       -0.027399302 -1.3000337 -2.6748946 -0.5481829
000340 0c 0c 77 bf a8 b2 ce bf 55 88 4f c0 c2 fb 95 c0
       -0.9650276 -1.6148272 -3.242696 -4.686982
000350 a6 c4 1b 40 13 e0 1f c0 c0 47 bc bf 10 fd 58 3f
       2.4338775 -2.4980514 -1.4709396 0.8476114
000360 63 9e 81 c0 70 5f 9a bd fc 9e f0 c0 c0 c1 91 bd
       -4.0505843 -0.075377345 -7.5194073 -0.07117033
000370 20 22 cf 3e d8 37 27 3f e2 7d 25 40 ce ac 93 41
       0.40455723 0.65319586 2.5858083 18.459377
000380 6b eb cd 3e f6 21 2e c0 9c a0 25 c0 40 4c 95 bf
       0.40218672 -2.7208228 -2.5879278 -1.1663895
000390 1e 67 70 bf 0c c5 30 40 4a 41 62 bf 91 dc 28 c0
       -0.93907344 2.7620268 -0.88380873 -2.6384623
0003a0 7c 60 ff 3e ff 80 93 c0 b8 46 6e be 55 80 51 41
       0.498783 -4.6094966 -0.23269165 13.093831
0003b0 00 92 87 3d ac 99 4b be 34 fd 14 3e 24 af eb 3f
       0.06619644 -0.1988284 0.14549714 1.8412824
0003c0 50 37 ac 3e d0 a0 cd 3e cf 2e 79 c0 4f dc 4a bf
       0.3363595 0.40161753 -3.893482 -0.79242414
0003d0 b0 17 2c 3e 37 79 af c0 88 3b 4a 3f 80 22 81 3d
       0.16805911 -5.4835467 0.7899709 0.063054085
0003e0 09 77 5d 40 65 db 11 c0 54 b0 33 bf 9c 3d 54 3f
       3.4603903 -2.2790158 -0.7019093 0.8290651
0003f0 20 11 13 c0 a4 24 ff be e3 e9 fe c0 44 8f c0 bf
       -2.2979202 -0.49832642 -7.9660506 -1.5043721
