weights/sae_policy_norm_discovery.pt (torch, 133927 bytes, 30 tensors)

encoder.key_net.net.0.weight f4 [68, 64]
0	0xbcb1ced1	-0.021705063
1	0x3dd7ed9e	0.10543369
2	0xbcb943d4	-0.02261535
3	0xbc851034	-0.016243078
4	0xbd47a064	-0.048736945
5	0xbda66a5c	-0.08125755
6	0xbca24b58	-0.019811317
7	0x3dc6e960	0.097124815
8	0xbdfbff42	-0.12304546
9	0xbdfc6e06	-0.12325673
10	0x3dca125a	0.098667815
11	0xbdde0eba	-0.108426526
12	0xbccef388	-0.02526261
13	0xbd1c09bc	-0.03809522
14	0x3dd50274	0.104008585
15	0xbd88278c	-0.06648168
16	0xbd91c3aa	-0.07117398
17	0x3d075aa0	0.03304541
18	0x3c976740	0.01848185
19	0x3bd1ac20	0.0063986927
20	0x3c053c00	0.008131981
21	0x3d29518c	0.041337535
22	0xbd8c7a42	-0.06859256
23	0x3d9cebc8	0.07662159
24	0xbc53ad90	-0.0129197985
25	0xbd07b2b0	-0.033129394
26	0x3c99ae60	0.018759906
27	0xbc5c0ec0	-0.013431251
28	0xbdf87bc6	-0.12132983
29	0x3d684538	0.056706637
30	0x3def7b06	0.11693387
31	0x3ac97880	0.0015370995
32	0x3da3a62e	0.07990681
33	0x3d482f6c	0.04887335
34	0x3c3ed3c0	0.011647165
35	0xbda685d6	-0.08130996
36	0xbb69bf80	-0.0035667121
37	0x3d3ed4b4	0.04658957
38	0x3de0699e	0.10957645
39	0x3cbae278	0.022813067
40	0xbcdeed60	-0.027212799
41	0x3d898e94	0.06716648
42	0xbd447e18	-0.047971815
43	0x3dcddbd8	0.100516975
44	0x3da851f6	0.08218758
45	0xbc884490	-0.016634256
46	0x3dd3c2a6	0.103398606
47	0x3dac5176	0.08413975
48	0x3dd4b584	0.10386184
49	0x3d57a9f8	0.05265233
50	0x3d26eb54	0.04075177
51	0x3d786504	0.06064321
52	0xbc1442d0	-0.0090491325
53	0x3dff4e62	0.12466122
54	0x3de2e308	0.11078459
55	0xbdf53e4c	-0.11974773
56	0xbd000538	-0.031254977
57	0xbd0462c4	-0.032320753
58	0x3d415e10	0.047208846
59	0xbd3870dc	-0.045029506
60	0xbd8f89cc	-0.070087045
61	0xbd4ac934	-0.04950829
62	0x3da5bdba	0.08092828
63	0xbdfbf094	-0.12301746
64	0xbdc51c4c	-0.09624538
65	0xbdc80ed3	-0.097684525
66	0xbd995ba4	-0.07488182
67	0xbda95be8	-0.08269483
68	0x3db419b0	0.08793962
69	0x3de1d532	0.11026992
70	0xbcf04790	-0.029330999
71	0xbdfa26cc	-0.12214431
72	0xbd163844	-0.036674753
73	0xbda69fa0	-0.08135915
74	0xbc84a4f0	-0.01619193
75	0xbdfe2bfe	-0.124107346
76	0xbc1ca7f0	-0.009561524
77	0xbd13caac	-0.036081955
78	0x3d8e5304	0.06949428
79	0xbd4a7500	-0.049427986
80	0x3df59348	0.11990982
81	0xbcdb5110	-0.026772052
82	0x3d49d21c	0.04927264
83	0x3dda9d3a	0.1067452
84	0x3ddc416a	0.10754664
85	0x3d2d611c	0.04232894
86	0x3deeb65c	0.11655876
87	0xbc18dc80	-0.009329915
88	0x3d284630	0.04108256
89	0x3c5a8d00	0.013339281
90	0x3d192494	0.0373884
91	0x3d3c3398	0.04594764
92	0xbdba4342	-0.0909486
93	0x3d693274	0.05693288
94	0x3bce7c00	0.006301403
95	0x3df643ce	0.120246515
96	0xbd823932	-0.063585654
97	0xbc250c90	-0.010073796
98	0x3dd1acd2	0.10238041
99	0x3d9bb040	0.076019764
100	0x3c91df88	0.017806783
101	0x3d16f1f4	0.03685184
102	0xbd1fd1fc	-0.039018616
103	0x3d0cfa44	0.03441836
104	0xbdf49d12	-0.11944021
105	0xbbeab3a0	-0.0071625262
106	0xbca9b5f8	-0.020716652
107	0xbdaa755e	-0.08323167
108	0xbd5cebc4	-0.05393578
109	0x3d7350a0	0.059403062
110	0xbdd68dc2	-0.10476257
111	0x3dbcc62a	0.09217484
112	0xbdc81f5c	-0.09771606
113	0x3c199000	0.009372711
114	0x3dd35ea4	0.10320786
115	0xbd3f6af0	-0.046732843
116	0xbcfec530	-0.031099886
117	0xbdea0fec	-0.11428818
118	0xbd5acd64	-0.053418532
119	0x3df52dd0	0.11971629
120	0x3da0066c	0.07813725
121	0xbcd7a948	-0.026325837
122	0x3dde83e8	0.10865003
123	0xbbc28da0	-0.005937293
124	0x3dbe32a8	0.09287006
125	0x3d85e560	0.065378904
126	0xbdb28132	-0.08716048
127	0x3d49bc70	0.049251974
128	0xbc0b5c12	-0.008505838
129	0xbc14c4b3	-0.0090801
130	0x3d87cf05	0.06631283
131	0x3b3b45b5	0.0028575484
132	0xbda0e990	-0.078570485
133	0xbd23a024	-0.039947644
134	0xbd91650c	-0.07099351
135	0xbd989262	-0.07449795
136	0xbd28da44	-0.04122378
137	0xbdcab3c2	-0.09897567
138	0xbd03c11c	-0.032166585
139	0xbd37198c	-0.044702098
140	0x3c9b0140	0.018921494
141	0xbd10e9e4	-0.035379305
142	0x3cf0d680	0.029399157
143	0xbdb51fbc	-0.088439435
144	0xbddd5796	-0.10807721
145	0x3dc5775a	0.09641905
146	0x3d46ece8	0.048565775
147	0xbdae0660	-0.0849731
148	0x3dad336e	0.08457075
149	0xbcb7b480	-0.022424936
150	0x3c8c5478	0.017130122
151	0xbdfc47b4	-0.12318364
152	0xbd1a4598	-0.037664026
153	0x3d61aad4	0.055094555
154	0x3cb58660	0.022158802
155	0xbd5e1a8c	-0.054224536
156	0x3d66fe48	0.056394845
157	0xbd0de4e8	-0.03464213
158	0x3dcb8688	0.09937769
159	0xbc5fbea0	-0.013656288
160	0x3cef7670	0.02923128
161	0x3dcf6030	0.10125768
162	0xbcf57078	-0.029960856
163	0xbcaecd58	-0.02133815
164	0x3c427730	0.011869237
165	0xbdf296d4	-0.118451744
166	0xbd504d0c	-0.050854728
167	0xbd9cdcc6	-0.07659297
168	0xbd8e31f0	-0.069431186
169	0xbda0540c	-0.07828531
170	0xbd59fe78	-0.053221196
171	0x3b6e8c40	0.0036399513
172	0xbdd3241c	-0.10309622
173	0x3da99f16	0.08282296
174	0xbdb1679c	-0.0866234
175	0xbd04aa70	-0.032389104
176	0x3d6f8b30	0.05848235
177	0x3de2f610	0.11082089
178	0x3c0644b0	0.008195087
179	0x3c1f4b60	0.009722561
180	0xbd4735cc	-0.04863529
181	0x3d72b3a8	0.059253365
182	0xbd47d718	-0.048789114
183	0xbcee8688	-0.029116884
184	0xbd5d71c0	-0.05406356
185	0xbda7958e	-0.08182822
186	0xbd93a718	-0.07209605
187	0x3d694d24	0.056958333
188	0xbd620d24	-0.055188313
189	0xbdcf20c4	-0.101136714
190	0xbdeda98a	-0.11604603
191	0xbca73650	-0.02041164
192	0xbcbcb484	-0.023035295
193	0xbe385dd6	-0.18004546
194	0xbdad0e13	-0.0844995
195	0x3e5cf411	0.21577479
196	0xbd5337b8	-0.05156681
197	0x3dd9dd90	0.10637963
198	0x3d16754c	0.036732957
199	0xbd2e9a94	-0.042627886
200	0xbdd7109c	-0.10501215
201	0xbcc1df60	-0.023666084
202	0x3dcc28da	0.09968729
203	0xbd523eec	-0.05132954
204	0xbdbd9c2c	-0.09258303
205	0xbd6bddb8	-0.057584494
206	0xbd2e33c8	-0.04252985
207	0xbd57667c	-0.05258797
208	0x3d5a6b00	0.0533247
209	0xbd964b84	-0.07338622
210	0x3dd306b8	0.10304016
211	0x3d2e648c	0.042576358
212	0xbdbc6c16	-0.09200303
213	0x3da758cc	0.081712335
214	0xbdc1345a	-0.094338134
215	0x3dbccf80	0.09219265
216	0x3cce4ab8	0.025182113
217	0xbc9550b0	-0.018226951
218	0x3dee4f94	0.11636272
219	0x3c86e670	0.016467303
220	0xbcfee590	-0.031115323
221	0xbdfb4900	-0.12269783
222	0x3d4684cc	0.04846649
223	0x3badafc0	0.005300492
224	0xbdb70898	-0.08937186
225	0x3ce92fe8	0.028465226
226	0x3dbdc424	0.092659265
227	0x3d7e0dfc	0.062025055
228	0xbd1f6bc8	-0.038921148
229	0x3ddfb38a	0.10922916
230	0xbde3708e	-0.111054525
231	0xbc57aa50	-0.013163164
232	0xbdd1174e	-0.10209523
233	0xbcbe6e88	-0.023246065
234	0x3db8abc0	0.09017134
235	0xb92b7400	-0.00016351044
236	0x3db492e2	0.08817078
237	0xbdfcacd8	-0.12337655
238	0x3dac84ba	0.08423753
239	0xbdf33278	-0.118748605
240	0xbdd2c662	-0.10291745
241	0xbddbfd5c	-0.10741684
242	0x3dc5ba62	0.0965469
243	0x3dd2e4cc	0.10297546
244	0x3da0c0fc	0.07849309
245	0xbd88d324	-0.06680897
246	0x3dec989c	0.115525454
247	0xbddd547e	-0.10807131
248	0xbdcf78f8	-0.10130495
249	0x3dd1be2c	0.102413505
250	0xbdff6c32	-0.124718085
251	0x3de6ba88	0.11266047
252	0x3de0679e	0.109572634
253	0x3dabbfbc	0.0838618
254	0xbd81df82	-0.06341459
255	0xbdb4a400	-0.08820343

encoder.key_net.net.0.bias f4 [68]
0	0xbdb415ea	-0.08793242
1	0xbc85c1f1	-0.01632783
2	0xbdded5db	-0.108806334
3	0x3dec4866	0.115372464
4	0xbcd98547	-0.02655281
5	0x3d5fdc3c	0.05465339
6	0xbde0b173	-0.10971346
7	0x3d676718	0.056494802
8	0x3d9f4fe4	0.0777891
9	0xbd3342ae	-0.043764763
10	0x3da3cf52	0.079985276
11	0x3b304016	0.0026893667
12	0xbcfa36c7	-0.030543698
13	0x3dbb4ca9	0.09145481
14	0xbdd23222	-0.10263468
15	0xb93c2a4e	-0.00017944837
16	0x3d6fac8e	0.05851417
17	0xbd10bbc8	-0.035335332
18	0xbd36b22a	-0.044603504
19	0xbdb0a0b9	-0.086244054
20	0xbd0263e5	-0.031833548
21	0x3c23d53e	0.009999571
22	0xbd3b3a9b	-0.045710187
23	0x3d3a4513	0.04547603
24	0x3d330664	0.043707266
25	0x3d9aee86	0.07565026
26	0xbd087952	-0.033318825
27	0xbbd30796	-0.0064401133
28	0x3d922930	0.07136762
29	0xbd28a3d4	-0.041171864
30	0xbdc31292	-0.095250264
31	0xbd95afab	-0.07308897
32	0x39d0736a	0.00039758842
33	0xb82b914f	-4.0904906e-05
34	0xbb551792	-0.003251527
35	0xbc966f79	-0.018363701
36	0xbdbcbc14	-0.092155606
37	0x3d9f4552	0.07776894
38	0xbca9c7b6	-0.020725112
39	0xbc5ed909	-0.01360155
40	0xbd8f5c1b	-0.069999896
41	0x3caf3560	0.021387756
42	0xbdb03586	-0.08603959
43	0x39f5dee1	0.000468961
44	0xbbed47fc	-0.007241247
45	0xbda7db35	-0.08196107
46	0x3c6a0915	0.014284392
47	0xbc836dfe	-0.01604366
48	0xbd827c3c	-0.06371352
49	0x3dd1fd7e	0.10253428
50	0xbd383070	-0.04496807
51	0xbc1d4fd5	-0.009601553
52	0xbda12861	-0.0786903
53	0x3d7cfd33	0.061764907
54	0x3d1c1aeb	0.03811161
55	0xbda15b1a	-0.07878704
56	0x3d300384	0.042972103
57	0x3cc46b9f	0.023977099
58	0xbc2c1fb0	-0.010505602
59	0x3d3f0582	0.046636112
60	0x3d8e305b	0.06942817
61	0xbc479458	-0.012181364
62	0xbd9b712b	-0.075899445
63	0xbc809689	-0.01569678
64	0x3c0f7fa7	0.008758462
65	0x3d960364	0.073248655
66	0xbb9a7f41	-0.004714877
67	0xbd0fc159	-0.0350965

encoder.key_net.net.1.weight f4 [68]
0	0x3f82b802	1.0212405
1	0x3f881863	1.0632442
2	0x3f818a46	1.0120323
3	0x3f92807a	1.1445458
4	0x3f4de24f	0.80423445
5	0x3f94aa92	1.1614554
6	0x3f7eb3d6	0.9949316
7	0x3f97e46a	1.1866581
8	0x3f85dbdb	1.045772
9	0x3f87551f	1.0572852
10	0x3f9fcf04	1.2485051
11	0x3f85faaa	1.0467122
12	0x3f854e14	1.0414453
13	0x3f803896	1.0017269
14	0x3f7e864a	0.9942366
15	0x3f703ee4	0.93845963
16	0x3f87190f	1.0554522
17	0x3f71856c	0.9434421
18	0x3f90ae07	1.1303109
19	0x3f7f0850	0.9962206
20	0x3f7f6aa8	0.9977212
21	0x3f8a5a8e	1.0808885
22	0x3f7d2d1c	0.98896956
23	0x3f734213	0.95022696
24	0x3f8d5e83	1.1044468
25	0x3f9c6fc6	1.222161
26	0x3f8f9068	1.1215944
27	0x3f983a24	1.1892743
28	0x3f7e72ed	0.9939411
29	0x3f75ff87	0.9609303
30	0x3f5b9042	0.85766995
31	0x3f77b39b	0.9675843
32	0x3f7af4a9	0.9802957
33	0x3f8534aa	1.0406697
34	0x3f884282	1.0645297
35	0x3f8ccd06	1.1000068
36	0x3f7e8aea	0.99430716
37	0x3f852310	1.0401325
38	0x3f632fc1	0.8874474
39	0x3f96ecdd	1.1791035
40	0x3f824705	1.0177923
41	0x3f720918	0.94545126
42	0x3f883b99	1.0643188
43	0x3f92b4ff	1.1461486
44	0x3f873aab	1.0564779
45	0x3f74af14	0.9557965
46	0x3f8ef15c	1.1167407
47	0x3f9865b3	1.1906036
48	0x3f731f51	0.9496966
49	0x3f877a1e	1.0584142
50	0x3f6fbc3c	0.936466
51	0x3f7ae9a8	0.9801278
52	0x3f6890de	0.9084605
53	0x3f7e035c	0.99223876
54	0x3f97fd99	1.1874267
55	0x3f8dda91	1.1082326
56	0x3f7283f0	0.9473257
57	0x3fa6f538	1.3043585
58	0x3f84c90a	1.0373852
59	0x3f778fb8	0.9670367
60	0x3f8e26bf	1.1105574
61	0x3f6b117c	0.91823554
62	0x3f63afe5	0.8894027
63	0x3f83fb58	1.0311079
64	0x3f8a5744	1.0807881
65	0x3f82d429	1.0220996
66	0x3f89ac94	1.0755792
67	0x3f8bddee	1.0927103

encoder.key_net.net.1.bias f4 [68]
0	0xbd0d0217	-0.03442582
1	0xbda8a798	-0.08235091
2	0xbd963e58	-0.0733611
3	0x3d926cd5	0.07149664
4	0xbbc8a4ff	-0.0061231847
5	0x3d4cd85e	0.05001103
6	0xbd85214a	-0.0650049
7	0x3d2370ba	0.039902426
8	0x3d01d66c	0.03169863
9	0x3ce049ed	0.027379
10	0x3d59560e	0.053060584
11	0xbc9454e5	-0.018106887
12	0x3c5953b0	0.013264582
13	0x3c2003b2	0.009766506
14	0xbd8465c9	-0.064647265
15	0xbc5a6556	-0.013329824
16	0x3d64e3d0	0.05588132
17	0xbc9bdb1b	-0.019025376
18	0x3d1cbb73	0.038264703
19	0xbd8ccd9e	-0.06875156
20	0xbb7888b5	-0.003792328
21	0x3d38da45	0.045130033
22	0x3c1e0280	0.009644151
23	0xbcea4789	-0.028598564
24	0x3d166b3e	0.036723368
25	0x3d42db38	0.047572345
26	0x3ced9a93	0.02900437
27	0x3dda9177	0.106722765
28	0x3d136cc6	0.035992406
29	0xbb3f8ef0	-0.0029229484
30	0x3b683c38	0.0035436284
31	0xbd204829	-0.039131317
32	0x3c81da0d	0.015851045
33	0x3d3f0d1b	0.046643358
34	0x3d2d03a2	0.042239793
35	0x3ce875ff	0.028376577
36	0xbd86001f	-0.06542992
37	0x3a8e28ea	0.0010845934
38	0x3c8c928a	0.017159719
39	0x3d7e0aa3	0.062021863
40	0xbd7e6967	-0.06211224
41	0xbcb14584	-0.021639593
42	0xbdafa2b4	-0.08575955
43	0x3cb8fc64	0.022581287
44	0x3d43aaca	0.0477703
45	0xbce9bfe9	-0.028533893
46	0x3bedfc2b	0.007262727
47	0x3d44c483	0.04803897
48	0xbc5242da	-0.0128333215
49	0x3d7c0aaf	0.061533626
50	0xbbeb8a63	-0.007188128
51	0xbcf5a861	-0.029987516
52	0xbc2b60da	-0.010460103
53	0x3c2a8732	0.01040821
54	0x3d620b84	0.055186763
55	0x3d49c211	0.04925734
56	0x3ba1fda3	0.004943566
57	0x3daa206f	0.083069675
58	0xbc44a217	-0.012001536
59	0xbc860f0d	-0.016364599
60	0x3b6a42b9	0.0035745336
61	0xbd584a4e	-0.052805237
62	0xbc5fa97b	-0.013651247
63	0xbab0de4b	-0.0013493983
64	0x39b02487	0.0003359655
65	0x3c20b606	0.009809023
66	0xbb900daf	-0.0043961625
67	0x3d2653f4	0.040607408

encoder.key_net.net.3.weight f4 [72, 68]
0	0x3e3f5ecc	0.18688506
1	0x3d930ec2	0.07180549
2	0xbdd12eda	-0.10214014
3	0x3de1cef8	0.11025804
4	0x3e2b76e9	0.1674458
5	0xbd76c797	-0.060248937
6	0x3cc47a99	0.02398424
7	0x3d8e3bd3	0.06945004
8	0xbda2829a	-0.079350665
9	0x3ded0226	0.115726754
10	0xbd1cec23	-0.038311135
11	0xbdc4cfe1	-0.09609962
12	0xbea10a21	-0.3145304
13	0xbbd46cf2	-0.006482714
14	0xbd1104fd	-0.035405148
15	0x3c88ba1d	0.016690308
16	0x3ad63782	0.0016343447
17	0xbce07d4f	-0.027403502
18	0xbc3fbeee	-0.011703236
19	0x3cf0e239	0.029404746
20	0x3e7e30ce	0.24823305
21	0x3acbe459	0.0015555724
22	0xbe348547	-0.17628966
23	0xbbcfbe7d	-0.0063398466
24	0x3dd047e5	0.10169963
25	0x3e5cf47a	0.21577635
26	0x3d359006	0.044326805
27	0xbed5a829	-0.4172986
28	0x3d0f8e2b	0.03504769
29	0xbdd0b3ce	-0.10190545
30	0x3d116a08	0.03550151
31	0xbe155ca2	-0.14586118
32	0x3d6cce98	0.05781421
33	0xbd93bce2	-0.07213761
34	0x3dde78fd	0.108629204
35	0x3e174d4b	0.14775579
36	0xbd2d01d7	-0.042238083
37	0x3da7557f	0.08170604
38	0x3c81e0ed	0.015854323
39	0x3e0a9d75	0.13536628
40	0xbe0704c5	-0.13185413
41	0xbd75b7bc	-0.059989676
42	0x3d6e4f8d	0.058181334
43	0x3e30f4af	0.1728084
44	0x3de2258d	0.110423185
45	0xbdaa7441	-0.08322955
46	0xbbb24351	-0.0054401536
47	0xbe7a20f3	-0.24426632
48	0x3e8a4763	0.2700759
49	0xbdc756e8	-0.09733373
50	0xbe0f560c	-0.13997668
51	0x3e8598d4	0.2609316
52	0xbde436b0	-0.11143243
53	0x3cecb7b2	0.028896187
54	0x3e3b5190	0.18292832
55	0xbf08ad9b	-0.533899
56	0x3d23cf1c	0.039992437
57	0x3dabf023	0.08395412
58	0xbdb96478	-0.09052366
59	0x3e75893a	0.23978129
60	0x3d41f34d	0.04735117
61	0x3e2c658d	0.16835614
62	0x3d137882	0.036003597
63	0x3e0fc037	0.14038168
64	0x3e0a17fb	0.1348571
65	0xbd26106c	-0.040543005
66	0xbe27c65a	-0.16384259
67	0x3e68a944	0.2272082
68	0x3d9ffb45	0.07811598
69	0xbd26c83b	-0.0407183
70	0xbe16903c	-0.14703459
71	0x3c9fda84	0.019513376
72	0xbcef6c65	-0.029226491
73	0xbeb6c95e	-0.35700506
74	0xbdb0acd4	-0.08626714
75	0xbf1509b8	-0.58217955
76	0xbd0811e7	-0.033220198
77	0x3db01487	0.08597665
78	0xbc6eb6ff	-0.014569997
79	0x3d306364	0.043063536
80	0x3e1d35b3	0.15352516
81	0x3dd0a450	0.1018759
82	0xbdda4bb1	-0.10658968
83	0xbddffc10	-0.10936749
84	0xbdb040fc	-0.08606145
85	0x3db31e02	0.08745958
86	0xbe0ab2a7	-0.13544713
87	0xbdc19873	-0.094529055
88	0x3e35d3c3	0.17756562
89	0xbe38dd45	-0.18053158
90	0xbd747866	-0.059685133
91	0xbd968d21	-0.07351137
92	0xbe7fb036	-0.24969563
93	0x3e383ab8	0.1799115
94	0xbeecf72f	-0.46282336
95	0x3e6ae02e	0.2293708
96	0xbd089e4f	-0.0333541
97	0x3dcb2058	0.099182785
98	0x3d9d676f	0.07685744
99	0x3d92f792	0.071761265
100	0x3bb6715e	0.0055677136
101	0x3e132277	0.14368616
102	0x3e355c2f	0.17710947
103	0xbdf2beeb	-0.11852821
104	0x3ba53de0	0.0050427765
105	0xbcf691b8	-0.030098781
106	0xbc550407	-0.0130014485
107	0xbd298358	-0.041385025
108	0xbc9598bb	-0.018261304
109	0x3e3b5bdf	0.18296765
110	0xbcb6e3be	-0.022325393
111	0xbd95b2eb	-0.073095165
112	0x3debd74c	0.11515674
113	0xbd7a6657	-0.061132755
114	0x3e305c3a	0.17222682
115	0x3e4f14ea	0.20222822
116	0x3cbebe2c	0.02328404
117	0x3db20b9f	0.08693623
118	0x3d0d77b3	0.034537982
119	0x3df9e3ec	0.12201676
120	0x3daa2f1a	0.08309765
121	0x3d8a1289	0.067418166
122	0x3dd796e6	0.105268285
123	0x3e3bab5b	0.18327086
124	0x3e04bb11	0.12961985
125	0x3e2ca09e	0.16858146
126	0xbe8c2c2f	-0.2737746
127	0xba0305ca	-0.0004998116
128	0xbe96841b	-0.29397663
129	0x3d23eaac	0.040018722
130	0xbce1a6ec	-0.027545415
131	0x3da1ba12	0.07896818
132	0xbb3a54f0	-0.0028431974
133	0x3d330ba1	0.043712262
134	0xbe7dc0f0	-0.24780631
135	0x3dc3abbb	0.09554239
136	0xbc104820	-0.008806258
137	0x3e0f4b39	0.13993539
138	0x3e2efe3e	0.17089173
139	0xbe050bf2	-0.12992838
140	0x3da08136	0.07837145
141	0x3e9ae06a	0.3024934
142	0x3d5d7f4d	0.05407648
143	0x3e898d91	0.2686582
144	0xbb2c6947	-0.0026307867
145	0xbdcf591d	-0.10124419
146	0xbe8f94cc	-0.2804321
147	0xbe30c390	-0.17262101
148	0xbd959891	-0.0730449
149	0xbcb3a658	-0.021929905
150	0xbbd9d9b4	-0.0066482667
151	0x3d91ae97	0.071133785
152	0xbdd360a9	-0.10321171
153	0xbd823ad4	-0.06358877
154	0xba284e31	-0.0006420343
155	0x3d5a89d6	0.053354107
156	0xbeabde1e	-0.335679
157	0x3e1ef412	0.15522793
158	0xbda399a4	-0.07988289
159	0xbcc4abf7	-0.02400778
160	0x3e1878f9	0.14889897
161	0x3d619697	0.055075254
162	0x3e82ea7b	0.2556952
163	0xbdea06fd	-0.11427114
164	0x3dc00611	0.09376157
165	0xbd80ed65	-0.062952794
166	0xbc670f1e	-0.014102725
167	0x3e030bcf	0.12797473
168	0xbda7e75f	-0.081984274
169	0xbc9f3946	-0.01943649
170	0xbe5934ea	-0.21211591
171	0x3d76a84c	0.060219094
172	0xbc662b8c	-0.014048468
173	0x3e3561fe	0.17713162
174	0x3de7564e	0.11295758
175	0xbd151521	-0.036397103
176	0x3dcb81fb	0.09936901
177	0xbdc950d9	-0.098298736
178	0xbd1fda9e	-0.03902685
179	0xbd861f59	-0.06548948
180	0xbe1a0792	-0.1504195
181	0x3daa11e4	0.083041936
182	0xbe26956d	-0.16267939
183	0xbe117d9c	-0.14208072
184	0x3cbfac4f	0.023397593
185	0xbd1b587b	-0.03792618
186	0x3d2ad987	0.041711356
187	0xba8645c5	-0.0010244182
188	0x3d9c38d8	0.076280296
189	0xbda70a98	-0.081563175
190	0x3c2cddc7	0.010550923
191	0x3d50fd19	0.051022623
192	0x3b32775c	0.0027231788
193	0xbdafec89	-0.085900374
194	0x3e65b91d	0.22433896
195	0xbcaa15d9	-0.02076237
196	0x3e3d99b4	0.18515664
197	0x3c32435c	0.010880318
198	0x3d7574ad	0.059925724
199	0xbe1c06a5	-0.1523691
200	0xbe019b3b	-0.12656872
201	0xbca6a4dd	-0.020342285
202	0x3dc99cae	0.098443374
203	0xbe67bd87	-0.22630893
204	0x3d8a644b	0.067574106
205	0x3d4b7b4f	0.049678143
206	0x3dbe8e53	0.0930449
207	0x3c0a48c0	0.0084401965
208	0xbcfc347f	-0.03078675
209	0x3db080d6	0.086183235
210	0x3bea3741	0.0071477
211	0x3e6cf54b	0.23140447
212	0xbce9b99c	-0.028530888
213	0x3e00197b	0.1250972
214	0xbde5c60e	-0.112194166
215	0x3dcd3586	0.100199744
216	0xbd574f26	-0.052565716
217	0x3ddb4b21	0.10707689
218	0xbdd72650	-0.105053544
219	0xbc14773f	-0.009061634
220	0x3b4f3e04	0.0031622658
221	0x3d21e16e	0.039521627
222	0xbd769a53	-0.06020577
223	0x3c999e9f	0.018752394
224	0xbd1715a4	-0.036885872
225	0xbd4e0058	-0.050293297
226	0xbcf2abc2	-0.029622916
227	0x38b79f3c	8.75578e-05
228	0x3b8dba6b	0.0043252013
229	0x3e55379c	0.20821995
230	0x3deb986c	0.115036815
231	0x3e1c0f2a	0.1524016
232	0xbcda69db	-0.026661804
233	0x3d7da3bf	0.06192374
234	0xbda9c1dc	-0.08288929
235	0x3d679c6f	0.05654567
236	0xbc8a900a	-0.016914386
237	0xb89d5193	-7.501538e-05
238	0x3d487f26	0.048949383
239	0xbe0ac91f	-0.13553284
240	0x3d87561a	0.066082194
241	0xbcfc5b76	-0.03080533
242	0xbd2080b1	-0.03918523
243	0xbe7f94b0	-0.24959064
244	0xbdedae52	-0.116055146
245	0x3e141c54	0.14463931
246	0xbd9dbf9e	-0.07702564
247	0xbe29bcb3	-0.1657589
248	0x3e43594c	0.19077033
249	0x3d235c72	0.039883085
250	0xbd33f7d8	-0.043937534
251	0xbd6d2c84	-0.05790378
252	0x3cd62461	0.026140394
253	0x3dde559c	0.108561724
254	0x3d4790ea	0.048722185
255	0xbc8a99e2	-0.01691908

encoder.key_net.net.3.bias f4 [72]
0	0xbcd466a4	-0.02592785
1	0xbd70a5f1	-0.058752004
2	0xbd1b68c9	-0.037941728
3	0x3d1d6ea6	0.0384356
4	0x3daf19ba	0.08549829
5	0xbdd584f3	-0.10425749
6	0xbe28de1c	-0.16490978
7	0x3d60d724	0.054892674
8	0x3e315c15	0.17320283
9	0x3a2e1090	0.0006640041
10	0xbdc09713	-0.09403815
11	0xbe32222f	-0.17395853
12	0x3e33860d	0.17531605
13	0x3d49f1c6	0.04930284
14	0x3c6636ff	0.014051198
15	0x3d2431c7	0.040086534
16	0x3c27bba4	0.010237608
17	0x3d543eca	0.051817693
18	0x3d882afe	0.06648825
19	0xbd9e8db5	-0.07741872
20	0x3d6d75e9	0.057973776
21	0xbe0b8766	-0.13625869
22	0xbc9b4f79	-0.018958794
23	0xbd90f2a6	-0.070775315
24	0xbe029a31	-0.12754132
25	0xbd896b11	-0.067098744
26	0xbe1bbe61	-0.15209343
27	0x3dae2975	0.08504001
28	0xbd803057	-0.0625922
29	0xbe0cd58f	-0.13753341
30	0xbd4330e8	-0.047654063
31	0x3c94629d	0.018113429
32	0xbd7a733b	-0.06114505
33	0xbd9f4798	-0.07777327
34	0x3e0e9ea1	0.139277
35	0x3d302316	0.04300221
36	0xbe0548b4	-0.13016015
37	0xbc8b6140	-0.017014146
38	0xbdc7a533	-0.09748306
39	0x3cf95efc	0.0304408
40	0xbdd36cc3	-0.10323479
41	0xbd87c8ab	-0.06630071
42	0x3e3f45cc	0.18678969
43	0xbe2ec036	-0.1706551
44	0xbdb09589	-0.086222716
45	0x3da52516	0.08063714
46	0x3dab3d5d	0.083613135
47	0xbd22a458	-0.03970751
48	0x3cb5be5b	0.022185495
49	0xbd9c1521	-0.076212175
50	0xbc7574ba	-0.014981443
51	0x3e1fa2df	0.15589474
52	0xbd6c58d4	-0.0577019
53	0xbd99c78c	-0.07508764
54	0xbe10adca	-0.14128795
55	0xbc47052e	-0.012147231
56	0xbcc91467	-0.024545861
57	0x3dfc1f88	0.123107016
58	0x3e0cb879	0.13742246
59	0x3dce4b73	0.100729845
60	0x3bc13bca	0.00589702
61	0xbd06d081	-0.03291369
62	0xbd93961e	-0.07206367
63	0x3dcf3610	0.101177335
64	0xbd9e8ba0	-0.07741475
65	0xbe33932f	-0.17536615
66	0x3e239110	0.15973306
67	0x3c398644	0.011323515
68	0xbe303daa	-0.17211023
69	0x3d17b22c	0.037035152
70	0xbdbff6cf	-0.09373247
71	0xbd66446b	-0.056217592

encoder.val_net.net.0.weight f4 [45, 18]
0	0xbcc998f3	-0.024609065
1	0x3d295e5f	0.041349765
2	0xbc8b3ae6	-0.016995858
3	0x3e2f298d	0.17105694
4	0xbc909837	-0.017650707
5	0xbdc846f9	-0.09779162
6	0xbdb1f4be	-0.08689259
7	0xbe265c80	-0.16246223
8	0xbcdd8555	-0.027041117
9	0x3e92d8ff	0.2868118
10	0xbd67e171	-0.056611482
11	0xbc8c6a5b	-0.017140558
12	0x3d838926	0.06422643
13	0x3e8b4432	0.27200466
14	0xbe5572af	-0.2084453
15	0x3eb8d748	0.36101747
16	0xbe84f349	-0.25966862
17	0x3e60ca37	0.21952139
18	0x3cd16d42	0.025564793
19	0x3ccab0bf	0.024742482
20	0x3d2c71f8	0.042100877
21	0x3d5098a7	0.05092683
22	0xbcaf7098	-0.021415994
23	0x3e5ba48d	0.2144949
24	0xbe9b2e42	-0.3030873
25	0x3e8c2897	0.27374718
26	0x3e8b5366	0.27212065
27	0xbde5e11e	-0.11224578
28	0xbe0b8b98	-0.1362747
29	0x3cfc530e	0.030801322
30	0x3d8f14b8	0.06986374
31	0xbe3d7cdb	-0.1850466
32	0x3cdc3afe	0.026883598
33	0x3e6c7a85	0.23093612
34	0xbdba4b17	-0.090963535
35	0x3e920f6f	0.285274
36	0x3cf3309a	0.029686261
37	0x3e0173f6	0.12641892
38	0x3dd001d0	0.10156596
39	0xbc29850d	-0.010346663
40	0x3e47c667	0.19509278
41	0xbe48eec7	-0.19622336
42	0xbe5ac604	-0.213646
43	0xbe57f175	-0.21088202
44	0x3e858d11	0.26084188
45	0xbe7fa070	-0.24963546
46	0x3e729df7	0.23693071
47	0x3e8c4717	0.27397987
48	0x3e00dc42	0.12584022
49	0x3e31856c	0.17336053
50	0xbe8581ed	-0.26075688
51	0xbd97f347	-0.07419448
52	0x3dfeadc4	0.12435487
53	0xbdc29f7d	-0.09503076
54	0x3c620826	0.013795888
55	0xbe4b524c	-0.19855613
56	0xbe4f8d96	-0.20268854
57	0x3e3bbced	0.18333788
58	0x3e2ad18c	0.16681498
59	0x3e274e9f	0.16338585
60	0x3dd83ba0	0.105582476
61	0xbe38da3a	-0.18051997
62	0x3e066f19	0.13128318
63	0x3e15316c	0.14569634
64	0x3dd23848	0.10264641
65	0xbe296767	-0.16543351
66	0xbe385269	-0.18000187
67	0x3e0cbd4a	0.13744083
68	0x3d98dd2d	0.07464061
69	0xbdf864ec	-0.12128624
70	0xbe4928e5	-0.19644506
71	0x3d571118	0.052506536
72	0xbc95d8db	-0.018291881
73	0xbd8548ec	-0.06508049
74	0xbb378022	-0.0027999957
75	0x3ba53888	0.0050421394
76	0x3d2e98f5	0.04262634
77	0x3e4b984c	0.19882315
78	0xbe83d24f	-0.2574639
79	0x3da973d1	0.08274043
80	0xbdf51abc	-0.1196799
81	0xbd604bd3	-0.05475981
82	0xbe50ccf2	-0.2039068
83	0x3e3c5e6b	0.18395393
84	0xbdee6d62	-0.11641957
85	0x3d4b9727	0.049704697
86	0xbd83026e	-0.06396948
87	0x3d50f01c	0.051010236
88	0xbe9cc8d0	-0.30621958
89	0xbee37071	-0.44421723
90	0x3965c66a	0.00021913057
91	0x3d75f54b	0.060048383
92	0xbe08b0c6	-0.13348684
93	0x3a5c59c9	0.0008405713
94	0x3e6d8ef4	0.23199064
95	0xbc700a4a	-0.014650891
96	0xbe1e8d67	-0.15483628
97	0x3d794e7f	0.060865875
98	0xbe88ba30	-0.2670455
99	0x3d9cd04c	0.07656917
100	0x3cf9ba3e	0.030484315
101	0x3e2518ff	0.16122817
102	0x3e3feb8c	0.18742198
103	0x3dfd760e	0.12376033
104	0xbe96b826	-0.2943737
105	0xbea446b7	-0.320852
106	0xbdc58f41	-0.09646464
107	0x3d5bfe67	0.053709414
108	0x3e02397f	0.12717246
109	0x3e358900	0.17728043
110	0xbe8a4d12	-0.27011925
111	0xbe03f588	-0.12886631
112	0x3e1a32c4	0.15058428
113	0xbdb0b5ce	-0.086284265
114	0xbe82bd75	-0.2553517
115	0x3e109998	0.14121091
116	0x3e3fa279	0.18714322
117	0xbe83a1c1	-0.25709346
118	0xbe567d97	-0.20946346
119	0x3e73b89a	0.23800889
120	0xbcdf5853	-0.027263796
121	0x3e0f223c	0.13977903
122	0x3e17e086	0.14831743
123	0x3d3941b5	0.04522868
124	0x3e70b4dd	0.23506494
125	0x3dd389cf	0.10329019
126	0xbd95b35e	-0.07309602
127	0xbc804382	-0.01565719
128	0xbd4f7591	-0.05064923
129	0xbe006963	-0.12540202
130	0x3e41d554	0.18929034
131	0xbd3cc096	-0.0460821
132	0xbe1139e6	-0.14182243
133	0xbe956244	-0.29176533
134	0xbeab70c6	-0.33484477
135	0x3d64d759	0.055869434
136	0xbd646e2a	-0.055769123
137	0xbdeb7f36	-0.11498873
138	0x3de87da5	0.1135209
139	0x3dc09f09	0.094053335
140	0xbcc5e195	-0.024155417
141	0xbdb1c1b4	-0.08679524
142	0x3e3a3923	0.18185858
143	0x3e4e0ddb	0.20122473
144	0xbb25656d	-0.0025237456
145	0xbe1f00f3	-0.15527706
146	0xbd3f39a0	-0.046685815
147	0x3e373082	0.17889598
148	0xbd89ecb3	-0.067346
149	0x3d868cbf	0.06569814
150	0x3d2df993	0.04247434
151	0xbe692a44	-0.2277003
152	0x3da0df65	0.07855109
153	0xbe653899	-0.22384872
154	0xbdbb872c	-0.09156641
155	0x3e54e980	0.20792198
156	0xbe15144f	-0.14558528
157	0xbe808283	-0.25099573
158	0xbdf0b405	-0.11753086
159	0x3d6f41bb	0.058412295
160	0x3d0b0641	0.03394151
161	0x3e20f94a	0.15720096
162	0x3bcf0fbc	0.0063190144
163	0x3b1a13dc	0.0023510372
164	0x3d037941	0.03209806
165	0x3c689d91	0.014197723
166	0xbe61ac81	-0.22038461
167	0xbe6bb6df	-0.23018979
168	0xbdf38d2d	-0.118921615
169	0x3dd9a193	0.10626521
170	0xbd20edfe	-0.039289467
171	0x3e706828	0.23477232
172	0xbd884893	-0.066544674
173	0x3e34dde1	0.17662765
174	0x3e476e8a	0.19475761
175	0x3eee0edc	0.46495712
176	0x3ed294b3	0.41129074
177	0xbd83cbdc	-0.064353675
178	0x3ed97ac3	0.42476472
179	0x3e0d76f4	0.13814908
180	0xbcc5d804	-0.024150856
181	0xbdc75e00	-0.09734726
182	0x3e27c937	0.16385351
183	0x3e96b015	0.29431215
184	0xbd5c19c6	-0.053735517
185	0x3e268568	0.16261828
186	0xbea95961	-0.33076003
187	0xbe4b0704	-0.19826895
188	0xbd805c40	-0.06267595
189	0x3dc29031	0.095001586
190	0xbe81c386	-0.25344485
191	0x3c55c0c0	0.013046443
192	0xbd9230b0	-0.07138193
193	0xbe58a51e	-0.21156737
194	0x3c2cd1de	0.010548083
195	0x3e307ca4	0.17235047
196	0x3d241bd8	0.040065616
197	0xbdd81d45	-0.10552458
198	0x3ce7ed69	0.028311448
199	0x3c6d0629	0.014466801
200	0xbe315844	-0.17318827
201	0x3d42a7ef	0.047523435
202	0x3ca4ee86	0.020133268
203	0x3d90359a	0.07041474
204	0x3d65996d	0.05605452
205	0xbdbf64f9	-0.09345431
206	0xbdf49c16	-0.119438335
207	0x3e6b564d	0.2298214
208	0xbd7bddba	-0.06149075
209	0xbed50daf	-0.41612002
210	0xbdde688d	-0.10859785
211	0xbe5920d4	-0.21203929
212	0xbdeedb66	-0.11662941
213	0xbe1e198f	-0.15439437
214	0x3ecd50c1	0.40100673
215	0xbe27a8df	-0.16373013
216	0xbd519c46	-0.051174425
217	0x3cb03606	0.021510135
218	0x3ccd21f7	0.02504061
219	0x3db2b823	0.087265275
220	0xbe57eedc	-0.21087211
221	0x3e392acc	0.18082732
222	0x3e40d26c	0.1883027
223	0x3e9689f2	0.2940212
224	0x3d8e803d	0.06958053
225	0xbe7da77f	-0.24770926
226	0x3e9a27fd	0.30108634
227	0xbe0c3999	-0.13693847
228	0x3dd656d6	0.104657814
229	0x3d751498	0.059834093
230	0xbdc1f1b3	-0.094699286
231	0xbe94e569	-0.29081276
232	0xbdb68438	-0.089119375
233	0xbb7c514d	-0.0038500607
234	0xbbe55d56	-0.006999652
235	0x3c086b62	0.008326383
236	0xbd73d20e	-0.059526496
237	0xbd1bb6aa	-0.038016
238	0x3dcc4555	0.099741615
239	0xbd6872ed	-0.056750227
240	0xbef0cb4e	-0.4703011
241	0xbc20fcc7	-0.009825892
242	0xbc66faef	-0.014097913
243	0xbd9741f1	-0.07385624
244	0x3e922cba	0.2854975
245	0xbe0a7a09	-0.13523115
246	0xbde11a33	-0.10991325
247	0xbe84e1d2	-0.25953537
248	0x3e6a6d36	0.22893223
249	0xbe76f783	-0.24117856
250	0xbb633040	-0.003466621
251	0xbe9670fc	-0.29383075
252	0xbc9ed9a7	-0.019390894
253	0x3dc76461	0.09735943
254	0x3c6b0daa	0.0143465195
255	0x3e50e257	0.20398842

encoder.val_net.net.0.bias f4 [45]
0	0xbd1bf316	-0.03807362
1	0xbcbf83d1	-0.023378285
2	0x3d8f88d2	0.07008518
3	0x3e0bff62	0.1367164
4	0x3de3ea35	0.11128656
5	0xbecb5a15	-0.39717165
6	0x3e08b398	0.1334976
7	0x3ddce8a0	0.10786557
8	0x3d9249c3	0.07142975
9	0xbddde095	-0.10833851
10	0x3e367576	0.17818245
11	0xbeb627bc	-0.3557719
12	0x3c37d234	0.01121955
13	0xbe919309	-0.2843249
14	0xbdc5de9e	-0.096616015
15	0xbec53047	-0.38513395
16	0x3e319843	0.1734324
17	0x3e63427f	0.22193335
18	0xbd30e2e7	-0.04318514
19	0x3d8a8e72	0.067654505
20	0xbeae90a6	-0.34094733
21	0xbec01140	-0.3751316
22	0xbce00944	-0.027348168
23	0xbdc54aae	-0.09633385
24	0x3e30868e	0.17238829
25	0xbc372059	-0.011177146
26	0xbd0d41f3	-0.034486722
27	0x3d9b0c25	0.07570676
28	0xbda653a0	-0.08121419
29	0x3daa7fde	0.0832517
30	0x3ace839e	0.0015755778
31	0x3c2d9992	0.010595696
32	0x3d8f713d	0.0700402
33	0x3e159ad8	0.1460985
34	0x3e487c59	0.19578685
35	0xbcf07a24	-0.029355116
36	0xbd620860	-0.05518377
37	0x3e4fd4e1	0.2029605
38	0x3d338d23	0.04383577
39	0x3cf37137	0.029717071
40	0x3e2c2da5	0.16814287
41	0x3e0287a7	0.1274706
42	0x3b9a5a22	0.0047104517
43	0x3dd6269f	0.10456585
44	0xbd99928c	-0.07498655

encoder.val_net.net.1.weight f4 [45]
0	0x3f869395	1.0513788
1	0x3fba4d8c	1.4554915
2	0x3f897eab	1.0741781
3	0x3f8209cb	1.0159239
4	0x3f874648	1.0568323
5	0x3f981ba1	1.1883432
6	0x3f810e0e	1.0082414
7	0x3f82a945	1.0207907
8	0x3f8c6126	1.0967147
9	0x3fa1ce08	1.2641001
10	0x3f71822a	0.9433924
11	0x3f8ad8e2	1.0847437
12	0x3faf7bb9	1.3709632
13	0x3f958931	1.1682492
14	0x3f784aed	0.9698933
15	0x3f91b44e	1.138315
16	0x3f7bdc83	0.9838335
17	0x3f80cebd	1.0063092
18	0x3f8e14fd	1.1100155
19	0x3f8538d7	1.0407971
20	0x3f9c6a13	1.2219871
21	0x3f8d678d	1.1047226
22	0x3fc3579f	1.5261115
23	0x3f952373	1.1651443
24	0x3f88ca49	1.0686733
25	0x3f9fd434	1.2486634
26	0x3f74f518	0.95686483
27	0x3f8bad74	1.0912309
28	0x3f70fbc9	0.94134194
29	0x3f8487b7	1.0353917
30	0x3f8792cf	1.0591677
31	0x3f8958c9	1.073022
32	0x3f8bbdfb	1.0917352
33	0x3f802d4d	1.0013825
34	0x3f7fb22d	0.9988125
35	0x3fac3d3f	1.3456191
36	0x3f86fa77	1.0545186
37	0x3f82251a	1.0167572
38	0x3f77ed66	0.96846616
39	0x3f881530	1.0631466
40	0x3f85d47d	1.0455471
41	0x3f8d35fb	1.1032099
42	0x3fa39df6	1.2782581
43	0x3f9e7c6e	1.2381723
44	0x3f6e780b	0.9315192

encoder.val_net.net.1.bias f4 [45]
0	0x3d7415b1	0.059591
1	0x3d5e7eec	0.05432026
2	0xbb9ec968	-0.004845787
3	0xbbd69a1a	-0.006549132
4	0xbd0b6094	-0.03402765
5	0xbe131061	-0.14361717
6	0xbb525ad8	-0.0032097604
7	0xbc06365e	-0.008191673
8	0x3cb7a9f4	0.022419907
9	0x3d8a072d	0.0673965
10	0xbd1213a5	-0.035663266
11	0xbdad9296	-0.08475225
12	0x3d26131a	0.04054556
13	0xbe05f9f0	-0.13083625
14	0x3de3fcc5	0.11132196
15	0x3c9ce359	0.019151377
16	0xbd144acd	-0.036204148
17	0xbb8da769	-0.0043229354
18	0x3e48ffc6	0.1962882
19	0x3baadba8	0.0052141733
20	0xbe32fd36	-0.17479405
21	0xbdc2ab80	-0.09505367
22	0x3e745a09	0.2386247
23	0x3e46b4dc	0.1940493
24	0xbb8030e8	-0.00391208
25	0x3e620db9	0.22075547
26	0x3db150b6	0.086579725
27	0x3bb60d5f	0.005555793
28	0x3dd004b2	0.101571456
29	0x3d043a1c	0.03228198
30	0x3dc1e3f6	0.09467308
31	0x3cd6b9b8	0.026211604
32	0x3d67597f	0.056481835
33	0xbc607ebb	-0.01370209
34	0xbcb8b97e	-0.022549387
35	0x3ddb48c9	0.10707242
36	0x3dcf696f	0.10127532
37	0xbad451a9	-0.0016198653
38	0xbd271acb	-0.040797036
39	0x3d02325b	0.031786304
40	0xba461c61	-0.00075573294
41	0x3d5ee9b0	0.05442208
42	0x3dbfc138	0.093630254
43	0x3d3c45c8	0.045964986
44	0x3db4a018	0.08819598

encoder.val_net.net.3.weight f4 [72, 45]
0	0x3e0dfba9	0.13865532
1	0xbe6992af	-0.22809862
2	0xbdea4102	-0.114381805
3	0x3d3c9807	0.046043422
4	0xbdb80c40	-0.089867115
5	0xbbb2d3a6	-0.0054573594
6	0xbe08fbcb	-0.13377301
7	0x3ddf611c	0.10907194
8	0xbd8370f7	-0.06418031
9	0xbdc826ec	-0.09773049
10	0x3decead7	0.1156823
11	0xbdf933dd	-0.12168095
12	0xbd433f4c	-0.047667786
13	0x3cac077f	0.020999668
14	0xbd6916a0	-0.056906343
15	0x3cc8c43e	0.024507638
16	0xbd9b8f5b	-0.07595702
17	0x3d8ac206	0.06775288
18	0xbc88fb1e	-0.016721305
19	0x3e15a243	0.14612679
20	0x3d23f581	0.040029053
21	0xbd386dd1	-0.045026604
22	0x3d996279	0.07489485
23	0xbe9ebe65	-0.31004634
24	0xbe02a7d4	-0.12759334
25	0x3d921a79	0.071339555
26	0x3ddb917a	0.10721107
27	0x3cacf224	0.021111555
28	0xbe2f4fda	-0.17120305
29	0x3dab1d1c	0.083551615
30	0xbb8c6d8f	-0.0042855213
31	0xbe906321	-0.2820063
32	0x3d87d4bc	0.06632373
33	0x3dd188f9	0.102312036
34	0xbdbe8e45	-0.093044795
35	0xbd732fed	-0.059371877
36	0xbc9476a5	-0.01812298
37	0x3dcd20a4	0.10015991
38	0xbd40ac29	-0.047039185
39	0xbe7cf22a	-0.24701753
40	0x3eaa08e2	0.33209902
41	0x3d8759e9	0.06608946
42	0x3e14b020	0.14520311
43	0x3d9ef181	0.07760907
44	0xbc58bff5	-0.01322936
45	0xbe8442e4	-0.25832283
46	0xbe78e124	-0.24304634
47	0xbdd46cb5	-0.10372297
48	0xbd38b7ed	-0.04509728
49	0xbd7057ca	-0.058677472
50	0x3ebda284	0.37038052
51	0xbde36a8d	-0.11104307
52	0xbea35375	-0.3189961
53	0xbd50c87e	-0.050972454
54	0xbec0132e	-0.37514633
55	0xbb400d4e	-0.0029304805
56	0xbe42ee83	-0.19036298
57	0x3ee37b22	0.4442988
58	0xbddb9d8a	-0.107234076
59	0x3e67f002	0.2265015
60	0xbd263d31	-0.0405857
61	0xbe123a04	-0.14279944
62	0x3e4868b2	0.19571188
63	0xbdcec7ab	-0.100966774
64	0x3dd454c3	0.103677295
65	0x3d48873e	0.048957102
66	0x3cf02250	0.029313236
67	0x3ea7f0bb	0.3280085
68	0x3e6bbcf6	0.23021302
69	0xbeeb49d0	-0.45954752
70	0x3e6e0bdc	0.23246711
71	0x3e6ade15	0.2293628
72	0xbe352c2d	-0.17692633
73	0xbe18c496	-0.14918742
74	0x3e8f4071	0.27978852
75	0x3f1553d6	0.5833105
76	0x3e04a045	0.12951763
77	0x3e4a8939	0.19778909
78	0x3db2d212	0.08731474
79	0xbd9a093d	-0.07521293
80	0xbece26ee	-0.40264076
81	0x3e5e9b42	0.21738914
82	0x3bc0090d	0.005860454
83	0x3e06dd10	0.13170266
84	0xbea8fce6	-0.33005446
85	0x3e3f7020	0.18695116
86	0x3dcd9c98	0.100396335
87	0xbe69ddf6	-0.22838578
88	0x3df7b836	0.12095682
89	0x3e08291f	0.13296936
90	0xbdb11283	-0.08646109
91	0x3d70b0e0	0.05876243
92	0xbd029caa	-0.031887688
93	0xbe2a885c	-0.1665358
94	0x3dccec13	0.10005965
95	0xbe50629b	-0.20350115
96	0x3d7c6039	0.061615203
97	0x3d03a805	0.032142658
98	0x3ec15a7f	0.37764356
99	0xbe15ce76	-0.1462954
100	0xbe1b80ed	-0.151859
101	0x3de62b18	0.11238688
102	0x3e88cdcc	0.2671951
103	0x3e1acfc2	0.15118316
104	0x3e2a474e	0.16628763
105	0x3be80dcf	0.0070817242
106	0xbcbe85b5	-0.023257116
107	0x3c567f1c	0.013091829
108	0x3dfc0874	0.123063
109	0x3d5d25ef	0.053991254
110	0x3e13eb5e	0.14445254
111	0xbd87218e	-0.06598197
112	0x3e82fb31	0.2558227
113	0xbeb0e466	-0.34549254
114	0x3d94f126	0.07272558
115	0xbea9daf9	-0.33174875
116	0xbe0af3b3	-0.13569526
117	0x3e8cb619	0.2748268
118	0xbe930d01	-0.2872086
119	0xbbba27ea	-0.0056810277
120	0xbc993732	-0.018703077
121	0xbe088ba2	-0.13334516
122	0xbe2b0e9d	-0.16704793
123	0x3e0f759c	0.14009708
124	0x3d493618	0.049123853
125	0xbd86a977	-0.065752916
126	0xbe465b53	-0.19370775
127	0xbd5d6723	-0.054053437
128	0x3de53323	0.11191394
129	0x3e19f53a	0.15034953
130	0x3dfae7f8	0.12251276
131	0xbd7ee6ce	-0.06223183
132	0x3e888e6b	0.26671156
133	0xbd3ea7c6	-0.04654672
134	0xbdb3cb74	-0.0877904
135	0x3cbf5ac3	0.023358708
136	0x3d85bfc2	0.065307155
137	0x3db8dda7	0.09026652
138	0xbddde3e1	-0.1083448
139	0xbd8947cc	-0.06703147
140	0xbe55df04	-0.20885855
141	0x3e0cf172	0.13763979
142	0xbd6b00f5	-0.05737396
143	0xbe0f00a7	-0.13965093
144	0xbb24a011	-0.002511982
145	0x3c199de0	0.009376019
146	0x3da1951b	0.07889768
147	0x3cf03655	0.029322783
148	0x3e2784c4	0.1635924
149	0x3d268663	0.040655505
150	0xbd8816f9	-0.06645007
151	0xbce476d6	-0.027888697
152	0x3ce63424	0.028101034
153	0x3dca4e7a	0.098782495
154	0xbdb874ce	-0.09006654
155	0x3c18f258	0.009335123
156	0xbde1b28e	-0.11020385
157	0x3c70a578	0.014687888
158	0xbdba9997	-0.09111326
159	0x3d9b7e6e	0.07592474
160	0x3d2251f9	0.039628956
161	0x3b48349c	0.0030548936
162	0xbd85ddf2	-0.06536473
163	0xbdc29127	-0.09500342
164	0x3cae0d66	0.021246623
165	0x3db87f5d	0.090086676
166	0xbe5f70b0	-0.2182033
167	0x3e83abac	0.25716913
168	0xbcfa7e49	-0.030577796
169	0x3d0fcf62	0.035109885
170	0x3d7e777b	0.062125664
171	0xbce55f65	-0.02799959
172	0xbdbf1532	-0.093302146
173	0xbcb25fb4	-0.02177415
174	0xbca4d011	-0.020118745
175	0x3db59c3b	0.08867689
176	0xbd1a470c	-0.03766541
177	0xbe6169ad	-0.22012968
178	0x3d0e9d18	0.034817785
179	0x3e0acda8	0.13555014
180	0xbcf53b3f	-0.029935477
181	0xbe008b0d	-0.12553044
182	0x3e7a6b45	0.24454983
183	0xbd8dfd11	-0.06933034
184	0x3e4219da	0.18955174
185	0xbdea730a	-0.11447723
186	0x3d0c46bc	0.034247145
187	0x3df0f250	0.117649674
188	0xbdbf6365	-0.0934513
189	0x3ddac1a9	0.10681469
190	0xbdbe76c7	-0.09299999
191	0x3e15e40e	0.14637777
192	0x3ec84cee	0.39121193
193	0x3e6e7265	0.23285826
194	0x3e4162f5	0.18885405
195	0xbbd07628	-0.0063617416
196	0x3d55ffc1	0.05224586
197	0x3d8b95bc	0.06815669
198	0x3ccae8d2	0.02476922
199	0x3cb83cc1	0.022489907
200	0xbd6ce7ec	-0.057838365
201	0xbd92272e	-0.07136379
202	0xbdc2ac71	-0.09505547
203	0xbe9ae277	-0.30250904
204	0x3e1b422d	0.15161963
205	0xbefe86df	-0.49712273
206	0xbea0ce8f	-0.31407592
207	0x3e617f4d	0.22021218
208	0xbe3c7291	-0.18403079
209	0x3cf8b6d9	0.030360626
210	0x3d24f677	0.04027411
211	0xbc63a074	-0.0138932355
212	0xbe0ddd71	-0.13854004
213	0xbc7f0d1f	-0.015567093
214	0x3c87a30c	0.016557239
215	0xbedb276e	-0.4280352
216	0xbe23c7b8	-0.15994155
217	0xbdc0ca2d	-0.09413562
218	0xbd55b93d	-0.05217861
219	0xbdd93d48	-0.106073916
220	0xbdc650b9	-0.096833654
221	0x3dd3cfde	0.10342382
222	0x3df3f2df	0.11911558
223	0x3ea6bc5f	0.3256559
224	0xbe64c562	-0.2234092
225	0xbe4fc3b2	-0.20289496
226	0xbe9ec705	-0.31011215
227	0x3d8f9fae	0.07012878
228	0x3e223ff5	0.1584471
229	0xbd2fad70	-0.042890012
230	0x3e0ad4f5	0.13557799
231	0xbd688c5d	-0.056774486
232	0xbc98a80d	-0.01863482
233	0x3e41387b	0.18869202
234	0x3d700ba9	0.05860487
235	0x3d9b8d1b	0.07595273
236	0xbcd411ae	-0.025887337
237	0xbdc61204	-0.09671405
238	0xbcacf06a	-0.021110732
239	0x3d5396e5	0.051657576
240	0x3df1aace	0.118001565
241	0xbd76d762	-0.060264
242	0xbc63f57c	-0.0139135085
243	0xbc947ef4	-0.018126942
244	0x3e730f01	0.23736192
245	0x3deb36b9	0.11485047
246	0x3e178b24	0.14799172
247	0xbe0915c7	-0.13387214
248	0x3d2e18d3	0.042504143
249	0xbe02be52	-0.12767914
250	0x3d53d76c	0.051719114
251	0xbdb01f1a	-0.08599682
252	0xbc71d6de	-0.014760701
253	0xbdec2c93	-0.11531939
254	0x3e878589	0.26469067
255	0x3e633e81	0.22191812

encoder.val_net.net.3.bias f4 [72]
0	0x3db73d75	0.08947269
1	0x3d809f20	0.06280351
2	0xbc9bce6a	-0.019019324
3	0xbd45bb51	-0.048274342
4	0xbe416672	-0.18886736
5	0xbe1bd236	-0.15216908
6	0xbd4dcef9	-0.050246213
7	0x3c6143a3	0.013749036
8	0xbcc111f8	-0.023568138
9	0xbdd40779	-0.10352988
10	0xbc8fb00b	-0.017539999
11	0xbda107ca	-0.07862814
12	0x3a4f513f	0.000790853
13	0xbda83b08	-0.08214384
14	0xbda3170d	-0.07963381
15	0x3e2f1bc2	0.17100433
16	0x3e1256fd	0.14290996
17	0xbe31007e	-0.17285344
18	0xbe1bf929	-0.15231766
19	0xbdbefb27	-0.09325247
20	0x3ceee42e	0.029161539
21	0xbbededc6	-0.007261011
22	0xbd8f0cc2	-0.06984855
23	0x3d6b5c84	0.057461277
24	0xbd1ab5e1	-0.03777111
25	0x3df0a88a	0.11750896
26	0xbe1ac31d	-0.15113492
27	0xbd7ae12b	-0.061249893
28	0x3dfbfad7	0.12303703
29	0xbc423a9e	-0.011854796
30	0xbd2b0e22	-0.041761525
31	0x3e127910	0.14303994
32	0x3e2daf9c	0.16961521
33	0x3d28712c	0.041123554
34	0xbda19f02	-0.078916565
35	0x3c9165c3	0.01774872
36	0x3bab7f8e	0.0052337116
37	0x3ded9cc3	0.116021655
38	0x3d65f9d9	0.056146476
39	0xbd083206	-0.03325083
40	0xbbc7faff	-0.006102919
41	0xbdadbd7b	-0.08483406
42	0x3de23971	0.11046112
43	0x3db5039e	0.088385805
44	0x3dddba30	0.10826528
45	0xbd91d5f3	-0.07120886
46	0xbe031118	-0.1279949
47	0xbdd4a790	-0.103835225
48	0x3d6f8177	0.058473077
49	0xbe3be5de	-0.18349406
50	0x3d94c67a	0.07264419
51	0x3d59793b	0.05309413
52	0x3bd6f031	0.0065593948
53	0x3def8c8c	0.11696729
54	0x3c32a5f6	0.010903826
55	0x3d4d5d2e	0.05013769
56	0x3c8067b8	0.015674457
57	0xbc216bae	-0.009852333
58	0x3d4a5d00	0.049405098
59	0x3dba87d0	0.091079354
60	0x3d90b694	0.07066074
61	0x3c404090	0.011734143
62	0xbdd97222	-0.10617472
63	0x3e23108b	0.1592428
64	0xbe37ab3e	-0.17936417
65	0x3d5c06a9	0.05371729
66	0x3d14541e	0.036213033
67	0xbe42822c	-0.18994969
68	0x3d15a402	0.036533363
69	0x3d9c0eba	0.07619996
70	0xbdc767a4	-0.09736565
71	0xbd27ba69	-0.04094926

encoder.rank.weight f4 [1, 18]
0	0x3e422c95	0.18962319
1	0x3dce1dd3	0.10064282
2	0x3d3cc052	0.04608185
3	0x3e6c565f	0.23079823
4	0x3d6f5a84	0.05843593
5	0xbe3703f4	-0.17872602
6	0x3d167816	0.036735617
7	0xbe3b6de5	-0.1830364
8	0x3e5f96da	0.21834889
9	0x3daf5cd7	0.0856263
10	0xbe5f5b7c	-0.21812242
11	0x3ca9e413	0.020738637
12	0xbdeaf1c8	-0.11471897
13	0xbe6f1746	-0.23348722
14	0xbe0ad792	-0.13558796
15	0xbe09b276	-0.13446984
16	0xbd9e6d1d	-0.077356555
17	0x3e414f3d	0.18877883

encoder.cardinality.weight f4 [72, 1]
0	0x3db7f155	0.08981577
1	0xbe1b0824	-0.15139824
2	0xbdb6c229	-0.08923752
3	0x3cd039b9	0.02541815
4	0x3e4c492f	0.19949792
5	0xbf1e1ab4	-0.61759496
6	0xbf5b155a	-0.85579455
7	0xbf2c886b	-0.6739566
8	0xbf28fdc8	-0.6601224
9	0x3e8ef857	0.27923843
10	0xbe77d1fa	-0.24201193
11	0xbf1ee2df	-0.6206493
12	0xbea5e903	-0.32404336
13	0x3e544f6f	0.20733427
14	0xbe67e778	-0.22646892
15	0x3ed4b7fe	0.41546625
16	0x3f1bd05e	0.6086482
17	0x3f596c73	0.84931105
18	0xbe9b907a	-0.30383664
19	0xbf41d8c8	-0.75721407
20	0x3e790c2d	0.24321051
21	0x3ccf8756	0.025333088
22	0xbdfdc4cd	-0.123910524
23	0xbf5a1e32	-0.85202324
24	0x3e07d711	0.13265635
25	0xbe080536	-0.13283238
26	0xbe73fa02	-0.23825839
27	0xbe881e65	-0.2658569
28	0xbed98cd6	-0.42490262
29	0x3f646cd7	0.89228576
30	0xbe706a10	-0.2347796
31	0xbe6f8bef	-0.23393224
32	0xbe6c652d	-0.2308547
33	0x3dfc6591	0.1232406
34	0xbe0b00b5	-0.13574488
35	0xbebbe672	-0.36699253
36	0x3e82b111	0.25525716
37	0x3e8373db	0.25674328
38	0x3f33d0c7	0.70240444
39	0x3e536461	0.2064376
40	0x3e5c0044	0.21484476
41	0x3df0d6b0	0.117596984
42	0xbf6806c6	-0.90635335
43	0x3ecf2fa8	0.40466046
44	0x3d9caa17	0.076496296
45	0x3dba5d72	0.090998545
46	0xbe651c76	-0.22374138
47	0xbea3be63	-0.3198119
48	0x3f70cf5a	0.94066393
49	0xbf420e70	-0.7580328
50	0x3f09620c	0.5366523
51	0x3f260c70	0.6486273
52	0x3f03da28	0.51504755
53	0x3f676fad	0.9040478
54	0x3ec92779	0.39287928
55	0x3f252e28	0.64523554
56	0xbe25409b	-0.16137926
57	0xbe4fa6c3	-0.20278458
58	0x3e44882e	0.19192573
59	0xbe229834	-0.15878373
60	0xbed6096f	-0.41804072
61	0xbe30cdd7	-0.17266022
62	0x3e10401c	0.14086956
63	0xbf036366	-0.51323545
64	0xbda44365	-0.08020667
65	0xbde57c4c	-0.11205348
66	0x3f198bae	0.5997876
67	0xbf5e882a	-0.8692652
68	0x3e649bbd	0.22325034
69	0x3f5237eb	0.82116574
70	0x3f28eb1c	0.6598375
71	0x3c255bb5	0.010092665

encoder.cardinality.bias f4 [72]
0	0xbf024282	-0.5088273
1	0x3f0cf805	0.5506595
2	0x3f56674e	0.8375138
3	0xbdc6badf	-0.097036116
4	0xbf4e161e	-0.805025
5	0x3d40c7c6	0.04706552
6	0x3f84f16f	1.038618
7	0x3f2793fa	0.6546017
8	0xbe047b33	-0.12937622
9	0xbe8d6cb1	-0.27621987
10	0x3f2c44e0	0.67292595
11	0xbe816866	-0.25274962
12	0xbdac0d18	-0.08400935
13	0xbf5338e8	-0.8250871
14	0x3f683997	0.90712875
15	0x3ec21d41	0.37912944
16	0x3f30d437	0.69073814
17	0x3e1c7e3e	0.15282533
18	0xbee1ef80	-0.44128036
19	0x3f30c774	0.6905434
20	0x3f3a12e0	0.7268505
21	0x3e8693df	0.26284692
22	0xbebaff04	-0.36522686
23	0x3f3c9737	0.73668236
24	0x3f0bd950	0.5462847
25	0x3f08e1ff	0.5346984
26	0x3f6f2b5f	0.93425554
27	0x3f87d01b	1.0610384
28	0x3ec4a16a	0.384044
29	0xbedd2862	-0.43194872
30	0x3f7119b1	0.94179827
31	0xbdf574d6	-0.11985175
32	0x3f6b9eff	0.92039484
33	0xbefcacee	-0.49350685
34	0x3ebd85cc	0.3701614
35	0xbf3e5d8e	-0.74361503
36	0x3f63876e	0.88878524
37	0x3db0753c	0.08616111
38	0xbf54f4ea	-0.8318621
39	0xbf548599	-0.83016354
40	0xbf5cff1a	-0.86326754
41	0xbeefa104	-0.46802533
42	0xbe01f6fc	-0.12691873
43	0x3f6885f7	0.90829414
44	0xbed73c0c	-0.42038
45	0xbebe1821	-0.37127784
46	0x3f650c63	0.89472026
47	0x3f000de7	0.50021213
48	0xbf7516af	-0.9573774
49	0x3e93b707	0.28850576
50	0xbf7377f5	-0.95104915
51	0xbdf6d04e	-0.1205145
52	0xbe8b3cf0	-0.2719493
53	0x3f1777c8	0.59167147
54	0xbe9be0a7	-0.30444834
55	0x3ec4e1e8	0.38453603
56	0x3da7f295	0.08200566
57	0x3f4f520a	0.80984557
58	0xbf49d32a	-0.78837836
59	0x3f36b85b	0.71375054
60	0x3f2819b5	0.65664226
61	0xbec4a8c0	-0.38409996
62	0x3f5eccfb	0.87031525
63	0xbe7adacd	-0.24497528
64	0xbf30a8a5	-0.6900733
65	0x3eff71a9	0.49891403
66	0x3ee1f90f	0.4413533
67	0xbf4df2a0	-0.8044834
68	0x3f3b9355	0.73271686
69	0x3eac8f36	0.3370301
70	0xbf04fbc2	-0.5194665
71	0x3f325250	0.6965685
