weights/sae_norm_flocking_latest.pt (torch, 132807 bytes, 30 tensors)

encoder.key_net.net.0.weight f4 [68, 64]
0	0x3d928441	0.07154132
1	0xbda7a7dd	-0.08186314
2	0xbca4cf0d	-0.02011826
3	0x3f316f2f	0.6931028
4	0xbd9492a2	-0.072545305
5	0xbc18bb70	-0.009322032
6	0x3dcdf33c	0.10056159
7	0xbd886a9c	-0.06660959
8	0x3de6363c	0.11240813
9	0x3dbfe084	0.09368995
10	0x3db6e442	0.089302555
11	0x3b6a4a40	0.0035749823
12	0xbdeed9c4	-0.11662629
13	0xbdbf1988	-0.093310416
14	0xbcc7eee8	-0.024405912
15	0xbdb0283a	-0.086014226
16	0xbdb1c3da	-0.08679934
17	0xbb9d7de0	-0.0048062652
18	0xbd81f504	-0.06345561
19	0x3d2eb8e0	0.04265678
20	0x3d8fcb4e	0.07021199
21	0xbd0a0e58	-0.033705086
22	0xbd1b4b44	-0.037913576
23	0x3db6ef94	0.08932415
24	0xbd44454c	-0.04791765
25	0xbd19cc34	-0.03754826
26	0x3bb71b60	0.00558798
27	0xbdf34ada	-0.11879511
28	0x3cba5980	0.022747755
29	0xbd7fd680	-0.062460423
30	0xbdd053cc	-0.10172233
31	0x3dc2baf0	0.09508312
32	0x3b199980	0.002343744
33	0x3c1886d0	0.009309486
34	0x3dc0d05a	0.0941474
35	0x3d99b388	0.07504946
36	0x3dd64e4c	0.10464153
37	0xbdfcbb20	-0.12340379
38	0x3c78c300	0.01518321
39	0xbd0486d0	-0.03235513
40	0xbd5d7ed8	-0.054076046
41	0xbcd0cb50	-0.025487572
42	0x3db54294	0.088505894
43	0xbc6b1e60	-0.014350504
44	0x3ddb4012	0.1070558
45	0x3dd626ae	0.10456596
46	0x3d9407c8	0.07228047
47	0x3d3538e4	0.04424371
48	0xbdc1fc16	-0.0947191
49	0xbd9026bc	-0.07038638
50	0xbd9b2e56	-0.07577197
51	0x3d3c8d44	0.04603316
52	0x3c90c3e8	0.01767154
53	0xbd1ca370	-0.038241804
54	0xbd3a751c	-0.04552184
55	0xbd312bbc	-0.0432546
56	0xbcabe378	-0.020982489
57	0x3d2186b0	0.03943509
58	0xbd838fa2	-0.0642388
59	0xbd232ebc	-0.03983949
60	0x3d7787dc	0.0604323
61	0xbdaeea42	-0.08540775
62	0xbd5df278	-0.054186314
63	0x3d0579bc	0.032586798
64	0xbd42db43	-0.047572386
65	0x3c3df875	0.011594881
66	0xbc0a2419	-0.008431458
67	0xbcafc6ca	-0.021457095
68	0x3ddda390	0.10822213
69	0x3da8c6b2	0.08241023
70	0x3def7a12	0.11693205
71	0xbd66fb78	-0.056392163
72	0xbda59bf8	-0.08086389
73	0xbd8747a4	-0.06605461
74	0xbd161c64	-0.03664817
75	0xbdcb446e	-0.09925161
76	0x3cb42178	0.021988615
77	0xbd019b90	-0.031642497
78	0x3caa8618	0.020815894
79	0xbdc08460	-0.094002485
80	0xbdafb9fa	-0.08580394
81	0xbdfe9abe	-0.124318585
82	0x3d919238	0.07107967
83	0x3df2dd7c	0.11858651
84	0x3c52cc00	0.01286602
85	0xbcd61530	-0.02613315
86	0x3c1f58e0	0.009725779
87	0x3deed498	0.11661643
88	0xbdc62894	-0.096757084
89	0xbd5157bc	-0.05110906
90	0xbc935c68	-0.017988399
91	0x3d4b9430	0.04970187
92	0xbcde3d68	-0.02712889
93	0xbd059080	-0.03260851
94	0xbccb4f98	-0.024818227
95	0x3df6a500	0.1204319
96	0xbdd929a6	-0.10603647
97	0x3dafbef4	0.08581343
98	0x3c7ba860	0.015359968
99	0xbdd8f9a0	-0.10594487
100	0x3d2fdcf8	0.04293534
101	0x3d367950	0.044549286
102	0x3c928f78	0.017890677
103	0x3ca51168	0.020149902
104	0x3d0af820	0.033928037
105	0xbdfc399e	-0.12315677
106	0xbc903570	-0.017603606
107	0x3d89b8e2	0.06724717
108	0x3da06b58	0.07832974
109	0x3c9353c0	0.017984271
110	0x3d6a6db4	0.057233527
111	0x3df42a36	0.119221136
112	0xbc456f90	-0.012050524
113	0xbd84fd90	-0.06493676
114	0x3d5257ac	0.05135314
115	0xbdd351c2	-0.103183284
116	0x3dd96cac	0.10616431
117	0x3b9f4580	0.00486058
118	0xbbd6c5a0	-0.0065543205
119	0xbd7a74b0	-0.061146438
120	0xbdf3be4c	-0.119015306
121	0xbd6f46e8	-0.05841723
122	0x3d3c03cc	0.04590206
123	0xbd1fbbcc	-0.038997456
124	0xbdfa5a2e	-0.12224232
125	0xba9d9a00	-0.0012024045
126	0xbde99852	-0.11406006
127	0x3a8cf680	0.0010754615
128	0xbeeb4bfb	-0.45956406
129	0xbd187cbb	-0.037228327
130	0x3da4f1a0	0.08053899
131	0x3b443798	0.0029940363
132	0xbd959c58	-0.07305211
133	0x3d0c2914	0.034218863
134	0x3c0487c0	0.008089006
135	0xbdf2f3c0	-0.11862898
136	0x3db95dc6	0.09051089
137	0xbdf0f8f6	-0.117662355
138	0xbd9e4d8a	-0.07729633
139	0x3d707880	0.058708668
140	0x3cafe630	0.021472067
141	0x3d6877b8	0.056754798
142	0x3d863e4a	0.065548494
143	0xbdabd104	-0.08389476
144	0x3df2628c	0.118352026
145	0x3ddd3b08	0.10802275
146	0x3da0c7ee	0.078506336
147	0xbd17c8ec	-0.03705685
148	0x3d993f8c	0.07482824
149	0x3d59df68	0.053191572
150	0x3d9421ba	0.07232995
151	0x3dfd813e	0.123781666
152	0x3cbf9340	0.023385644
153	0x3d4fe89c	0.050758943
154	0xbcc76cb8	-0.024343833
155	0x3c387a50	0.01125963
156	0xbdc4d738	-0.09611362
157	0x3df844d0	0.121225
158	0x3d52661c	0.05136691
159	0xbd93caa6	-0.072163865
160	0xbc082bc0	-0.008311212
161	0x3c99f2b8	0.018792495
162	0xbd86ebba	-0.0658793
163	0x3cc10038	0.023559675
164	0xbde76e7e	-0.113003716
165	0x3d770384	0.060306087
166	0xbd1c28d4	-0.038124874
167	0xbdc63556	-0.09678142
168	0x3d5fd070	0.05464214
169	0x3ca58e50	0.020209461
170	0x3de6d25c	0.112705916
171	0x3da5e7a4	0.081008226
172	0x3db4d164	0.088290006
173	0x3d0ac114	0.03387554
174	0xbd5ad120	-0.053422093
175	0xbde4497a	-0.11146827
176	0x3dc68a50	0.0969435
177	0xbbe9ff40	-0.007141024
178	0xbab00080	-0.0013427883
179	0xbdee9734	-0.116499335
180	0xbd3aa948	-0.045571595
181	0xbcbd6610	-0.023119956
182	0xbc7dcb00	-0.0154902935
183	0x3c1a5df0	0.0094218105
184	0xbd6c74d0	-0.05772859
185	0xbcf67218	-0.030083701
186	0x3b5e20c0	0.0033894032
187	0x3d98691e	0.074419245
188	0x3dac52d2	0.08414234
189	0x3cc21198	0.02369003
190	0xbd498054	-0.04919465
191	0x3cdb0d90	0.026739866
192	0xbed0c1c6	-0.40772837
193	0x3e82d701	0.2555466
194	0xbec0d396	-0.37661427
195	0xbc9a813b	-0.01886045
196	0xbc380e70	-0.011233911
197	0xbd16804c	-0.036743447
198	0xbda3a66c	-0.07990727
199	0x3c006b50	0.007838085
200	0xbdd89708	-0.10575682
201	0x3d829fb0	0.06378114
202	0x3d769fc0	0.060210943
203	0xbd25170c	-0.040305182
204	0xbd3c626c	-0.0459923
205	0x3c88a6f0	0.016681165
206	0x3d1976a0	0.037466645
207	0xbd96a4b2	-0.07355632
208	0x3d32e998	0.043679804
209	0x3dce0c90	0.1006099
210	0xbdb25aac	-0.087087005
211	0xbc84f578	-0.01623033
212	0x3d767e78	0.060179204
213	0x3c81a360	0.015824974
214	0x3def90a8	0.11697513
215	0xbd4898e8	-0.048973948
216	0xbcde83c0	-0.027162433
217	0xbc55ce50	-0.013049677
218	0x3dd50b7e	0.104025826
219	0x3cd69328	0.026193216
220	0xbd083b1c	-0.033259496
221	0x3d58f4d0	0.052967846
222	0x3da10ba8	0.078635514
223	0xbd919688	-0.0710879
224	0x3ded0306	0.11572842
225	0x3d26f0d0	0.040757
226	0x3c487d00	0.012236834
227	0xbd8ddee6	-0.0692728
228	0xbdca8ee6	-0.09890537
229	0xbd68edb8	-0.05686733
230	0x3da38fde	0.07986425
231	0x3b84aa60	0.0040486306
232	0x3cf3bfa8	0.029754475
233	0x3d7a6d4c	0.06113939
234	0x3c09b700	0.008405447
235	0x3c685d60	0.014182419
236	0xbc972e98	-0.018454835
237	0x3cb46560	0.022020996
238	0x3dd2d58e	0.102946386
239	0x3dfa207a	0.12213226
240	0x3d2ac86c	0.041695043
241	0x3a324300	0.0006800145
242	0x3d35ce88	0.044386417
243	0x3dad4ede	0.08462308
244	0xbd90b390	-0.07065499
245	0xbc12e100	-0.008964777
246	0xbd7064ac	-0.05868976
247	0x3de26bc8	0.11055714
248	0xbda4ef8c	-0.080535024
249	0x3d9e7274	0.07736674
250	0x3dab64e0	0.0836885
251	0x3d139280	0.036028385
252	0xbcf9bcf0	-0.0304856
253	0xbddd0c46	-0.107933566
254	0x3da3fb76	0.08006947
255	0x3d07f3cc	0.033191487

encoder.key_net.net.0.bias f4 [68]
0	0x3e29944b	0.16560476
1	0xbd76ba67	-0.06023636
2	0x3d17d7ea	0.037071146
3	0xbd22cbb8	-0.039745063
4	0xbd4e202f	-0.05032366
5	0xbd7f1149	-0.062272344
6	0xbc182a95	-0.009287496
7	0x3e43518f	0.19074081
8	0xbd966673	-0.073437594
9	0xbd30c9cf	-0.04316121
10	0xbd875843	-0.066086315
11	0x3c2b7db3	0.010466981
12	0x3d273570	0.040822446
13	0x3c812299	0.015763568
14	0xbd713dad	-0.05889671
15	0x3c0ab177	0.0084651625
16	0x3b4cfb85	0.0031277847
17	0xbd550033	-0.052002143
18	0xbe023db9	-0.12718858
19	0xbda11968	-0.07866174
20	0xbd05082b	-0.032478493
21	0x3e393e15	0.18090089
22	0xbda09122	-0.07840182
23	0xbd738c26	-0.059459828
24	0x3b3ae6a7	0.0028518827
25	0x3d58cdcc	0.05293064
26	0xbde2c160	-0.110720396
27	0xbd935354	-0.07193628
28	0xbd0b0e75	-0.033949334
29	0xbdaa566d	-0.08317266
30	0x3d54a915	0.05191906
31	0xbc3a2c24	-0.011363063
32	0x3e6b440c	0.22975177
33	0x3e758bf9	0.23979177
34	0xbdbedbd5	-0.093192734
35	0xbdc768c5	-0.0973678
36	0xbd103638	-0.035207957
37	0xbd02e0c5	-0.03195264
38	0x3d1e6542	0.038670786
39	0xbcf31ae7	-0.029675914
40	0xbe529d83	-0.20567898
41	0x3ddd28f4	0.10798827
42	0xbd897988	-0.06712633
43	0xbe66d425	-0.22541864
44	0xbe69044e	-0.22755548
45	0xbc088d73	-0.008334505
46	0x3c7dc5ab	0.015489022
47	0x3ca7490c	0.020420574
48	0xbd6d2d81	-0.057904724
49	0xbdcd236a	-0.1001652
50	0x3d9c5c2a	0.076347664
51	0xbca54a03	-0.020176893
52	0xbd9cbf88	-0.07653719
53	0x3d175438	0.03694555
54	0x3d82731e	0.06369613
55	0xbd918c3b	-0.07106825
56	0x3e27bcc6	0.16380605
57	0xbd392a31	-0.045206252
58	0xbc33fcc6	-0.010985559
59	0x3cf4ffc4	0.029907115
60	0x3dc2e930	0.09517133
61	0x3e8e890d	0.27838936
62	0xbd858821	-0.06520105
63	0x3c4e9244	0.012608115
64	0xbe7d725c	-0.24750656
65	0x3d48b010	0.04899603
66	0xbe3f2ef6	-0.18670258
67	0xbd6dc764	-0.05805148

encoder.key_net.net.1.weight f4 [68]
0	0x3f50a207	0.81497234
1	0x3f3c111e	0.7346362
2	0x3f2c81c7	0.67385525
3	0x3f46891f	0.7755298
4	0x3f5359f7	0.8255915
5	0x3f4297a4	0.76012635
6	0x3f3b3572	0.73128426
7	0x3f723b70	0.94621944
8	0x3f65dff0	0.89794827
9	0x3f80ba6a	1.0056889
10	0x3f42bfd5	0.7607396
11	0x3f249361	0.6428738
12	0x3f1d3e15	0.61422855
13	0x3f257ca1	0.64643294
14	0x3f3064d6	0.68903863
15	0x3f2883e6	0.6582626
16	0x3f2bb26e	0.6706914
17	0x3f10d3e5	0.56573325
18	0x3f0e954d	0.55696565
19	0x3f5e166b	0.8675296
20	0x3f66ef11	0.90208536
21	0x3f5fdc97	0.8744597
22	0x3f1ff49e	0.6248263
23	0x3f5502b8	0.83207273
24	0x3f437aa9	0.7635904
25	0x3f507017	0.81421036
26	0x3f2c83b2	0.6738845
27	0x3f2a3f3a	0.66502726
28	0x3f709e09	0.9399114
29	0x3f61bcf5	0.8817895
30	0x3f3b2629	0.731051
31	0x3f730d5a	0.9494225
32	0x3f6a34d8	0.91486883
33	0x3f59798c	0.8495109
34	0x3f61ac88	0.88153887
35	0x3f1ced79	0.61299855
36	0x3f5a071c	0.851671
37	0x3f2a70c5	0.6657832
38	0x3f338986	0.7013172
39	0x3f43fe56	0.7655996
40	0x3fba650e	1.456209
41	0x3f595998	0.84902334
42	0x3f6d6768	0.9273591
43	0x3fa59ba1	1.2938119
44	0x3fb77628	1.4332933
45	0x3f506620	0.8140583
46	0x3f44c83e	0.76868045
47	0x3f871544	1.0553365
48	0x3f458633	0.77157897
49	0x3f2ae14e	0.6675004
50	0x3f7e454f	0.99324507
51	0x3f294857	0.66126007
52	0x3f31827f	0.69339746
53	0x3f2cf6d4	0.6756413
54	0x3f5fe104	0.8745272
55	0x3f5a9f25	0.85399085
56	0x3f8143da	1.0098832
57	0x3f3224ea	0.69587576
58	0x3f67ada4	0.9049933
59	0x3f3cb6d7	0.7371649
60	0x3f78d188	0.9719472
61	0x3f90cf29	1.131322
62	0x3f4290d7	0.7600226
63	0x3f5b91c2	0.85769284
64	0x3f5c3a16	0.8602613
65	0x3f568af1	0.8380576
66	0x3fbab8bb	1.4587625
67	0x3f6eeee1	0.9333325

encoder.key_net.net.1.bias f4 [68]
0	0xbdf10308	-0.11768156
1	0xbdc666cf	-0.09687578
2	0xbe4b6a83	-0.1986485
3	0xbdd68336	-0.10474245
4	0xbd92dcf6	-0.07171051
5	0xbe30ae08	-0.17253888
6	0xbdaae467	-0.083443455
7	0xbddfae85	-0.10921959
8	0xbda2f018	-0.079559505
9	0xbdc0bfcc	-0.09411582
10	0xbe042db0	-0.12908053
11	0xbe13b52c	-0.1442458
12	0xbe3c7ebe	-0.18407723
13	0xbddd5b3c	-0.10808417
14	0xbe1dd40d	-0.15412922
15	0xbe229a7b	-0.15879242
16	0xbe2e1aee	-0.1700246
17	0xbdedc433	-0.11609688
18	0xbd3cbc3b	-0.046077948
19	0xbe0bb8cd	-0.13644715
20	0xbd060e44	-0.03272845
21	0xbe0ec29f	-0.1394143
22	0xbdc453ca	-0.09586294
23	0xbdc0fb72	-0.094229594
24	0xbdeb8bb1	-0.115012534
25	0xbe51d5fc	-0.20491785
26	0xbe02b48b	-0.12764184
27	0xbde13c34	-0.10997811
28	0xbd47a187	-0.04873803
29	0xbd9ff0f4	-0.0780963
30	0xbe426fc5	-0.18987949
31	0xbdc60af9	-0.096700616
32	0xbdd0fcad	-0.10204444
33	0xbdbcbe50	-0.09215987
34	0xbe24e199	-0.16101684
35	0xbdff04a0	-0.12452054
36	0xbdde72ef	-0.108617656
37	0xbdf3c10c	-0.11902055
38	0xbe311d2c	-0.17296284
39	0xbe04fe18	-0.12987554
40	0xbf019d2e	-0.5063046
41	0xbdee1a2f	-0.11626088
42	0x3c23e863	0.010004136
43	0xbeea4942	-0.45759016
44	0xbef10c84	-0.4707986
45	0xbe187ad3	-0.14890604
46	0xbe405d1e	-0.18785521
47	0xbdf298d7	-0.11845558
48	0xbe0c3d38	-0.13695228
49	0xbde41221	-0.1113627
50	0xbe170977	-0.14749704
51	0xbde6cb0c	-0.11269197
52	0xbdeaae01	-0.1145897
53	0xbe0ecbaa	-0.13944879
54	0xbe083d91	-0.13304736
55	0xbe0fb02d	-0.1403205
56	0xbd73305b	-0.059372287
57	0xbe442663	-0.19155268
58	0xbdb0c98d	-0.08632193
59	0xbe2d3ed7	-0.16918503
60	0xbc4177d6	-0.011808356
61	0xbcc0e0c2	-0.023544673
62	0xbe275128	-0.16339552
63	0xbe5d2e0f	-0.21599601
64	0xbdef89fe	-0.11696242
65	0xbe2a6ad9	-0.16642322
66	0xbeeefeee	-0.4667887
67	0xbdb746ed	-0.08949075

encoder.key_net.net.3.weight f4 [72, 68]
0	0x3c9e6e24	0.019339629
1	0x3c26519f	0.010151296
2	0x3e114dca	0.1418983
3	0x3c816d7c	0.015799277
4	0x3e6b38e1	0.22970916
5	0xbe1b7b11	-0.15183665
6	0xbe2be129	-0.1678511
7	0xbe687c1b	-0.22703592
8	0x3e3b7c3c	0.1830911
9	0xbd5a3721	-0.05327523
10	0x3e2a3eae	0.16625473
11	0xbdb72640	-0.089428425
12	0x3d381f1f	0.044951554
13	0x3c69dec4	0.014274303
14	0xbde2da6d	-0.11076818
15	0xbd814d7c	-0.06313607
16	0xbd1f09f9	-0.03882787
17	0xbdc2799f	-0.09495854
18	0x3d83a35c	0.06427643
19	0x3bbaa506	0.005695942
20	0x3ed527dd	0.41631976
21	0x3e32a6be	0.1744642
22	0xbd9bcbba	-0.07607217
23	0xbef46eda	-0.47740823
24	0x3c29cb1b	0.0103633655
25	0x3e1519c6	0.14560613
26	0x3c8b6845	0.017017493
27	0xbc10993c	-0.008825596
28	0xbeed2b3d	-0.4632205
29	0x3adcd86f	0.001684917
30	0x3e75d43e	0.24006745
31	0x3ea4f368	0.32216954
32	0xbdf1596c	-0.11784634
33	0xbcd71901	-0.02625704
34	0x3dbf8785	0.0935202
35	0xbdc0c4df	-0.0941255
36	0xbee31476	-0.44351548
37	0x3c88507c	0.01663994
38	0xbd366292	-0.044527598
39	0x3d06c427	0.03290191
40	0xbd697290	-0.05699402
41	0xbd1f1772	-0.03884072
42	0xbe36b193	-0.17841177
43	0xbd5c4563	-0.05377711
44	0x3dbe569c	0.09293863
45	0x3e3cdbb0	0.18443179
46	0xbe8ab400	-0.27090454
47	0x3dfe1f45	0.12408308
48	0x3c2d9115	0.010593672
49	0x3c80fd91	0.01574591
50	0x3db40d1d	0.08791564
51	0xbd841e54	-0.06451097
52	0xbc606ba1	-0.013697536
53	0x3cef83ab	0.029237589
54	0xbe87bbf8	-0.26510596
55	0xbe72aedc	-0.23699516
56	0xbde2eb5a	-0.11080046
57	0xbdb35ed7	-0.08758324
58	0x3e956ad7	0.29183075
59	0x3c807809	0.015682237
60	0x3e783862	0.24240258
61	0x3cf43963	0.02981252
62	0xbe35bb6e	-0.1774728
63	0x3e2aafb5	0.1666859
64	0xbd2a97b4	-0.04164858
65	0xbed493a0	-0.4151888
66	0x3d79e71e	0.061011426
67	0xbee50525	-0.44730487
68	0x3bc3e9d5	0.0059788027
69	0x3e1883ef	0.14894079
70	0xbdae2bce	-0.08504449
71	0x3e92924a	0.28627235
72	0xbf441afc	-0.76603675
73	0xbc2a0433	-0.010376978
74	0x3f1934cb	0.5984618
75	0x3e07f421	0.13276722
76	0xbe828d9d	-0.25498667
77	0x3e22f3e1	0.15913345
78	0xbf8cbf80	-1.0995941
79	0x3f29d783	0.6634447
80	0x3d5c5c03	0.053798687
81	0x3f1061af	0.56399053
82	0xbe666e45	-0.22503002
83	0xbf1b6c86	-0.6071247
84	0xbf3cdd10	-0.73774815
85	0x3fcc43c6	1.5958183
86	0xbd50547f	-0.05086183
87	0x3e221a36	0.15830311
88	0xbf9c23a6	-1.2198379
89	0xbdbb8ccc	-0.09157714
90	0xbf665814	-0.89978147
91	0xbf98cfd2	-1.1938422
92	0x3e6bfef2	0.23046473
93	0x3c45e5c9	0.012078711
94	0x3d9b533a	0.075842336
95	0xbeea676a	-0.45782024
96	0x3ddadaa6	0.10686235
97	0x3e2b17cd	0.16708298
98	0xbffe7666	-1.9879882
99	0xbe163610	-0.1466906
100	0xbdf3d92e	-0.11906658
101	0xbd2d21fc	-0.04226874
102	0xbc849589	-0.016184585
103	0x3f02d9a5	0.5111335
104	0xbf2524db	-0.6450936
105	0xbf47ff9b	-0.781244
106	0x3e80fb83	0.25191888
107	0xbe5bda9b	-0.2147011
108	0xbc8be975	-0.017079094
109	0xba97c8ff	-0.0011580287
110	0x3fed2890	1.8528004
111	0x3e17fed5	0.14843304
112	0xbdb6bb4a	-0.08922441
113	0xbed1ed45	-0.41001335
114	0xbfbb1ef2	-1.4618819
115	0x3d95c80f	0.07313549
116	0x3e14e50d	0.14540501
117	0x3ddb2682	0.10700704
118	0xbdb4f1bc	-0.0883517
119	0x40277f18	2.6171322
120	0xbf036c2f	-0.5133695
121	0x3ecca807	0.39971945
122	0x3d15ecd4	0.03660281
123	0x3e1d8fcf	0.1538689
124	0xbd4919d3	-0.049096894
125	0xbed7b17a	-0.4212759
126	0xbeab59ff	-0.334671
127	0x3d832821	0.06404138
128	0xbc3cfb2f	-0.011534496
129	0x3bfb3453	0.0076661496
130	0xbd1a91b6	-0.037736617
131	0xbda93fde	-0.08264135
132	0x3dfdf047	0.12399345
133	0xbdcfccfa	-0.10146518
134	0xbd707df1	-0.058713857
135	0xbf2d2f66	-0.6765045
136	0x3e21f87e	0.15817448
137	0x3a71ab88	0.00092189806
138	0x3e97f346	0.2967779
139	0x3ea71806	0.32635516
140	0x3c8b3791	0.01699427
141	0x3e2a437c	0.16627306
142	0xbe21922a	-0.15778413
143	0x3e92b2b1	0.28651956
144	0x3f016eaa	0.50559485
145	0x3e07cbd7	0.13261352
146	0x3c43095f	0.01190409
147	0x3c3f7ca3	0.011687431
148	0x3dccf2b0	0.100072265
149	0xbddd62b7	-0.10809844
150	0x3db6dcad	0.08928809
151	0xbc930933	-0.017948722
152	0x3e25a56a	0.16176382
153	0xbe358331	-0.17725827
154	0xbe433699	-0.19063796
155	0xbc1c4e81	-0.009540201
156	0x3ece2a74	0.40266764
157	0x3e8da8bd	0.276678
158	0x3e140d99	0.14458312
159	0xbb025680	-0.0019887984
160	0x3c0dcef5	0.008655299
161	0x3e1f535f	0.15559147
162	0x3d17a5ca	0.037023343
163	0x3c7ac977	0.015306822
164	0x3ef265da	0.47343332
165	0xbc58ff77	-0.013244501
166	0x3e612266	0.21985778
167	0x3e87a7f8	0.26495337
168	0x3e6f32f7	0.23359285
169	0x3e9e4dfe	0.30918878
170	0x3e6c8c5b	0.23100416
171	0x3dc55ca2	0.09636809
172	0x3e37c05d	0.17944475
173	0x3d9209c9	0.071307726
174	0xbe3d344c	-0.18476981
175	0x3e9ef3e8	0.3104546
176	0xbe56c53b	-0.20973675
177	0x3e0d5130	0.13800502
178	0x3e0c3374	0.13691503
179	0xbea1d71b	-0.31609425
180	0xbe0bf18d	-0.13666363
181	0x3e0a9e10	0.13536859
182	0x3dd20449	0.102547236
183	0x3e8f40cc	0.27979124
184	0x3b84e41f	0.0040555145
185	0x3cf74c69	0.030187802
186	0x3e769b32	0.2408264
187	0xbdbdda1b	-0.09270116
188	0x3c785f41	0.015159429
189	0x3d7ec39e	0.062198274
190	0x3e8d603c	0.27612484
191	0x3e332d67	0.17497788
192	0x3e87b3f3	0.26504478
193	0x3e101426	0.14070186
194	0x3ec439b3	0.3832527
195	0x3d149f39	0.03628466
196	0x3e731d17	0.23741566
197	0x3e46ff50	0.19433331
198	0x3e0dc00a	0.13842788
199	0x3ea1b41b	0.31582722
200	0xbe004ca4	-0.12529236
201	0x3ec629a3	0.3870364
202	0xbe2255fb	-0.15853111
203	0x3e5be867	0.21475373
204	0x3dae1143	0.08499386
205	0x3bbbfb7d	0.005736767
206	0xbdeb810f	-0.11499225
207	0xbca38d26	-0.019964766
208	0x3e969589	0.2941096
209	0xbd7825b5	-0.060582835
210	0x3d4309b9	0.047616694
211	0xbdb68998	-0.08912963
212	0xbe8d8b02	-0.27645117
213	0x3d97b790	0.07408059
214	0x3e9c3f3c	0.30516994
215	0xbe01e9d3	-0.12686853
216	0xbe218467	-0.15773164
217	0xbe8c13b0	-0.2735877
218	0xbdd727d5	-0.10505644
219	0xbe2ce641	-0.1688471
220	0xbe9318d1	-0.2872987
221	0x3da3f5a9	0.0800584
222	0xbc8a06ca	-0.01684894
223	0xbd9130b4	-0.070893675
224	0x3df0e827	0.117630295
225	0x3e183b79	0.14866437
226	0xbea5a910	-0.32355547
227	0x3e06f83d	0.13180633
228	0xbda70145	-0.08154539
229	0x3e090645	0.13381298
230	0x3ded26ee	0.11579691
231	0xbed6e8e1	-0.41974548
232	0xbcadf344	-0.021234162
233	0x3d422224	0.04739584
234	0xbd06cc3a	-0.03290961
235	0x3dc86ec5	0.097867526
236	0x3df5d898	0.120042026
237	0xbd4b2b20	-0.049601674
238	0xbea10200	-0.31446838
239	0xbed59a3e	-0.4171924
240	0x3c129bb8	0.008948259
241	0x3e6790d2	0.22613838
242	0x3d3803c1	0.044925455
243	0xbe84c699	-0.25932768
244	0xbd8b7fac	-0.06811461
245	0x3cd0b085	0.025474796
246	0x3daf7599	0.08567352
247	0x3d0e5f82	0.034759052
248	0xbd55c7ad	-0.05219238
249	0xbeb346f4	-0.3501507
250	0x3d80929b	0.06277963
251	0xbc9af983	-0.018917805
252	0x3d20bfdd	0.039245475
253	0x3e83bb5b	0.25728878
254	0xbcf4d9f1	-0.029889079
255	0xbe9f598b	-0.31123003

encoder.key_net.net.3.bias f4 [72]
0	0x3d4c1972	0.049828954
1	0xbe12d24c	-0.14338034
2	0x3e8bdf24	0.2731868
3	0x3db74e29	0.08950455
4	0x3d0db6ac	0.034598038
5	0x3da86cd8	0.08223885
6	0x3c115967	0.008871413
7	0x3c8761dc	0.016526155
8	0xbe8aa3e4	-0.27078164
9	0xbe5adf09	-0.21374144
10	0xbe71ca3d	-0.23612304
11	0xbdc32f50	-0.095305085
12	0x3dada097	0.08477896
13	0xbe542fbd	-0.20721336
14	0x3dd240dd	0.10266278
15	0x3db23f85	0.08703522
16	0x3dee4fba	0.116363004
17	0x3d89a6a7	0.067212395
18	0xbe687d01	-0.22703935
19	0x3cdca58d	0.02693441
20	0xbe822519	-0.25418928
21	0x3c31f7c4	0.010862295
22	0xbcb75cdf	-0.022383152
23	0x3de128fe	0.10994147
24	0xbebcaaba	-0.36849004
25	0x3d1d2e95	0.038374502
26	0x3dcd28a2	0.10017516
27	0x3abaa862	0.0014240856
28	0x3dc488a5	0.095963754
29	0xbdaf5ce7	-0.085626416
30	0xbcf02903	-0.02931643
31	0xbd739513	-0.05946834
32	0x3c392d25	0.011302267
33	0x3db04bc9	0.08608205
34	0xbe2d354b	-0.16914861
35	0xbd50ceaa	-0.05097834
36	0xbcba7339	-0.02276002
37	0xbe065bbf	-0.13120936
38	0xbd792960	-0.060830474
39	0xbdc7938a	-0.09744938
40	0x3d5a1265	0.0532402
41	0xbd94e9d2	-0.0727116
42	0xbd8228df	-0.06355452
43	0xbc02388a	-0.00794805
44	0xbd2797d4	-0.04091628
45	0xbe839e2f	-0.25706622
46	0x3bda9d6b	0.0066715977
47	0xbc9a9557	-0.018870039
48	0x3d013de6	0.03155317
49	0xbe278304	-0.16358572
50	0xbc63da78	-0.0139070675
51	0x3e042bee	0.12907383
52	0xbdb80754	-0.08985773
53	0x3e5219e9	0.20517696
54	0xbe5c0fbb	-0.21490376
55	0xbe013286	-0.1261693
56	0x3e14f783	0.14547543
57	0xbc538ce1	-0.012912006
58	0xbe08d7d2	-0.13363579
59	0x3e08fe00	0.13378143
60	0x3dfb2dec	0.12264618
61	0xbc2f7770	-0.010709628
62	0x3d694df9	0.056959126
63	0xbc5b6b1e	-0.013392238
64	0xbe32bbe9	-0.17454495
65	0x3df11ef3	0.11773481
66	0x3d710321	0.058840875
67	0x3dabc9fc	0.08388135
68	0x3e22dd14	0.15904647
69	0xbd83c33c	-0.064337224
70	0x3d308e74	0.043104604
71	0x3ce4a21f	0.027909337

encoder.val_net.net.0.weight f4 [45, 18]
0	0xbdb1bc61	-0.086785085
1	0x3dd77bdc	0.10521671
2	0x3dce663a	0.10078092
3	0x3dd4d13f	0.10391473
4	0x3dbc9855	0.092087425
5	0xbded9f36	-0.11602633
6	0x3b23ae8b	0.0024975862
7	0xbd94b55d	-0.07261155
8	0xbe238e23	-0.1597219
9	0xbd84e2d8	-0.064885795
10	0xbcbe517d	-0.023232216
11	0xbdbcaf56	-0.0921313
12	0xbe4f963a	-0.2027215
13	0x3cc78003	0.024353033
14	0xbd7d63d6	-0.06186279
15	0x3c5c6e1e	0.013453988
16	0x3c9da359	0.01924293
17	0xbd280ece	-0.041029744
18	0xbda4c161	-0.080446966
19	0x3e017b8a	0.12644783
20	0x3bb140a0	0.005409315
21	0x3be0eb7d	0.00686401
22	0x3db7bbfc	0.08971402
23	0x3e0d3d04	0.13792807
24	0xbeaed1dd	-0.34144488
25	0x3df2b704	0.11851314
26	0x3e17de4b	0.14830892
27	0xbd29f0fe	-0.041489594
28	0x3d54f63b	0.051992636
29	0xbe8a0dc8	-0.2696364
30	0x3d667546	0.056264184
31	0xbe9f1276	-0.31068772
32	0xbe352a1d	-0.17691846
33	0xbe10b1e6	-0.14130363
34	0x3dc6ee72	0.097134486
35	0x3c9468fe	0.01811647
36	0x3dd60b08	0.10451323
37	0xbe9e0fc6	-0.3087141
38	0x3f960551	1.1720372
39	0xbe89e9b4	-0.26936114
40	0xbde31599	-0.11088104
41	0x3e8b6b74	0.27230418
42	0x3e6d09da	0.2314829
43	0x3e907bbb	0.282194
44	0x3ef1c70e	0.4722218
45	0x3efc0422	0.49221903
46	0x3ced4dfe	0.028967854
47	0x3cd392bd	0.025826806
48	0x3ed5aa49	0.4173148
49	0x3e460867	0.19339143
50	0xbdacb17f	-0.08432292
51	0xbe526bd3	-0.20548944
52	0xbeab62b8	-0.33473754
53	0x3e6598d8	0.22421587
54	0xbc301e22	-0.010749372
55	0xbdf6966f	-0.12040412
56	0x3ed12025	0.40844837
57	0x3d990995	0.07472531
58	0xbb582d2e	-0.0032985914
59	0x3dd38239	0.103275724
60	0x3e587f2c	0.21142262
61	0xbe30a76b	-0.17251365
62	0xbed31fd1	-0.41235211
63	0xbeb3a125	-0.3508388
64	0xbd18e4a6	-0.03732743
65	0xbe62b84d	-0.22140618
66	0xbedf5da5	-0.43626133
67	0xbdc4612b	-0.09588846
68	0x3df7b3cd	0.12094841
69	0x3e34b5bc	0.17647451
70	0xbd52dfa7	-0.051482823
71	0xbcff5b3c	-0.031171434
72	0xbe6f1d1c	-0.23350948
73	0xbddb7f76	-0.107176706
74	0x3cb31568	0.021860793
75	0xbd38f72f	-0.045157608
76	0x3e5d6049	0.21618761
77	0x3dfa70e3	0.12228563
78	0xbe6d0b81	-0.2314892
79	0x3de0d1a3	0.10977485
80	0x3e67dfa3	0.22643904
81	0xbe6f8189	-0.23389257
82	0xbe5b8ba9	-0.21439995
83	0x3da742ad	0.08167014
84	0xbb152c33	-0.002276194
85	0x3dec2b63	0.11531713
86	0xbd0c765a	-0.034292556
87	0x3d5d9634	0.054098323
88	0x3d134d06	0.035962127
89	0x3c994c6c	0.018713199
90	0xbe446afe	-0.1918144
91	0x3cd483fb	0.02594184
92	0xbee0db14	-0.43917143
93	0x3e962e7e	0.29332346
94	0x3e4ed406	0.20198068
95	0xbcd47c24	-0.025938101
96	0xbedc35e6	-0.4300987
97	0xbeca2bbd	-0.39486495
98	0x3e8f6500	0.28006744
99	0x3e343f5a	0.17602292
100	0xbdde0b38	-0.108419836
101	0x3d588892	0.05286462
102	0x3f0be522	0.54646504
103	0x3ec33170	0.38123655
104	0xbea7889e	-0.32721418
105	0xbe9929db	-0.29914746
106	0x3de028cd	0.10945282
107	0x3c925a7f	0.017865418
108	0x3d6eae34	0.0582716
109	0xbe6e4e5e	-0.23272082
110	0xbdda1597	-0.10648649
111	0xbdb4a629	-0.08820755
112	0xbe46907d	-0.19391055
113	0x3e643fe7	0.22290002
114	0xbde9149c	-0.11380884
115	0x3d8ceb4e	0.06880818
116	0xbd61845a	-0.05505786
117	0xbea3536a	-0.31899577
118	0xbe89997e	-0.26874918
119	0xbe5c9ba7	-0.21543752
120	0x3e0cdc8a	0.13756004
121	0xbc9714b2	-0.018442485
122	0x3db34c42	0.087547794
123	0x3de41423	0.11136653
124	0x3ea0ba66	0.3139221
125	0x3e453d19	0.19261588
126	0xbd6ccfe0	-0.057815433
127	0xbde64cde	-0.1124513
128	0xbdc1c640	-0.09461641
129	0xbe2bc8b4	-0.16775781
130	0x3dc66205	0.096866645
131	0xbde5abdd	-0.11214421
132	0xbdd1c841	-0.102432735
133	0xbe1184b1	-0.14210774
134	0xbed24228	-0.41066098
135	0x3dbce65a	0.092236236
136	0x3ef5813c	0.4795016
137	0xbdd3c009	-0.10339362
138	0xbeab2779	-0.33428553
139	0x3e2ed050	0.17071652
140	0x3e2d3b5a	0.16917172
141	0xbe834dac	-0.25645196
142	0xbea21494	-0.31656325
143	0x3c275b3d	0.010214624
144	0x3df84c18	0.12123889
145	0x3dd8897b	0.10573097
146	0x3d285674	0.041098073
147	0xbd04326d	-0.032274652
148	0x3c921f43	0.017837172
149	0x3e5ce5a8	0.21571982
150	0xbdff2e0c	-0.124599546
151	0xbde87f10	-0.1135236
152	0xbe3bb2fa	-0.18329993
153	0x3c6b7990	0.0143722445
154	0x3e0c3fb2	0.13696173
155	0x3e1588c4	0.14602953
156	0xbdb83418	-0.08994311
157	0x3da2725a	0.07931967
158	0xbe0cfeca	-0.1376907
159	0x3d46c05d	0.048523296
160	0xbe78580a	-0.24252334
161	0xbe3a3c09	-0.18186964
162	0x3e47ff9e	0.19531104
163	0xbeaaa6b8	-0.3333032
164	0xbdcfb181	-0.10141278
165	0x3e38a16d	0.18030329
166	0x3d6bc7ab	0.057563465
167	0x3e5e0139	0.21680154
168	0xbe2f511e	-0.17120788
169	0x3d1aada0	0.037763238
170	0xbcdb0630	-0.026736349
171	0xbcdde36e	-0.027085986
172	0xbda7189c	-0.08158991
173	0x3beb3c4e	0.0071788197
174	0x3e5dadea	0.21648374
175	0xbd50f914	-0.05101879
176	0xbdf5b046	-0.11996512
177	0x3cb532a1	0.022118868
178	0xbd75b128	-0.059983402
179	0xbdfd42a8	-0.12366229
180	0x3e40058b	0.18752114
181	0xbdfa4e12	-0.12221922
182	0x3d7462df	0.059664603
183	0xbd354b7b	-0.044261437
184	0x3e062cdb	0.13103049
185	0xbd635156	-0.05549749
186	0x3ac6e5f9	0.0015174738
187	0x3d53fc4a	0.051754273
188	0xbd72ef95	-0.059310514
189	0xbe2fbdb4	-0.1716221
190	0x3e19b437	0.15010153
191	0xbe124837	-0.1428536
192	0xbda335ae	-0.07969223
193	0xbe456dcb	-0.19280164
194	0x3ca26a81	0.019826176
195	0xbcd8547c	-0.026407473
196	0x3d8ee940	0.06978083
197	0xbe321911	-0.17392375
198	0x3d762e60	0.06010282
199	0xba932fd9	-0.001122947
200	0xbd1a5fcc	-0.037689015
201	0x3e03db89	0.12876715
202	0xbd85d427	-0.065346055
203	0xbd794cc4	-0.060864225
204	0xbfea390f	-1.8298663
205	0xbfdcb0aa	-1.7241414
206	0xbfe927f9	-1.8215324
207	0xbf94a4c6	-1.1612785
208	0xbfaf7bc5	-1.3709646
209	0xbfb32199	-1.3994628
210	0xbffca7ee	-1.9738748
211	0xc01a8d74	-2.4148836
212	0xbfc10c61	-1.5081903
213	0xbf849508	-1.0357981
214	0xbfaddf64	-1.3583798
215	0xbfa9f7a7	-1.3278702
216	0x3e1f78f1	0.15573479
217	0x3d899a37	0.06718867
218	0x3ed0a222	0.40748698
219	0x3f4b9a4e	0.79532325
220	0xbe174c82	-0.14775279
221	0xbda44499	-0.080208965
222	0xbdf98bfc	-0.12184903
223	0xbe057207	-0.13031779
224	0xbcdf7a9b	-0.027280143
225	0x3ec312a3	0.38100156
226	0xbeaf0764	-0.34185326
227	0xbeedf988	-0.4647944
228	0xbd8f849e	-0.070077166
229	0xbddd1085	-0.107941665
230	0xbe90017c	-0.28126132
231	0xbf063d4a	-0.5243727
232	0x3df1189d	0.11772273
233	0x3ece8918	0.4033897
234	0xbe9d2ff0	-0.30700636
235	0xbdc04860	-0.093888044
236	0x3eab37fa	0.33441144
237	0x3ef7f32d	0.48427716
238	0x3e9d7948	0.30756593
239	0x3dd12fe1	0.1021421
240	0xbd8c28ad	-0.06843696
241	0xbe6c0693	-0.23049383
242	0xbe70ef52	-0.23528793
243	0x3c83accb	0.016073605
244	0xbe78ab1f	-0.24284028
245	0xbddaab72	-0.10677232
246	0xbdd1dfb2	-0.102477446
247	0xbe2b058c	-0.16701335
248	0x3eb5bbb0	0.35494757
249	0x3dfb7b8d	0.12279425
250	0xbe32f3ff	-0.1747589
251	0x3c880bf4	0.016607262
252	0x3d7ce1bd	0.06173872
253	0xbdb5dedc	-0.08880398
254	0x3e14e54c	0.14540595
255	0x3e95f706	0.29290026

encoder.val_net.net.0.bias f4 [45]
0	0x3e73d0e7	0.23810159
1	0xbe9c12b5	-0.30483022
2	0x3e933b08	0.28755975
3	0x3e479c95	0.19493325
4	0x3e4d05eb	0.20021789
5	0x3e98b980	0.29829025
6	0xbd7f9d8e	-0.062406115
7	0xbd2729c2	-0.040811308
8	0xbe0555de	-0.13021037
9	0xbddbe311	-0.10736669
10	0xbe38e67a	-0.1805667
11	0xc0014a1f	-2.020149
12	0x3e6a2eb0	0.22869372
13	0x3d89ba34	0.067249686
14	0x3e06253e	0.13100144
15	0xbe007076	-0.125429
16	0x3e4a3e1e	0.19750258
17	0xbd97912a	-0.07400735
18	0x3ebe41aa	0.37159473
19	0xbd06830d	-0.032839824
20	0x3edcbbf6	0.43112153
21	0x3cc26c4e	0.023733284
22	0xbe0984f6	-0.13429627
23	0x3e81efaf	0.25378177
24	0x3edafaf8	0.427696
25	0x3ee60c09	0.44931057
26	0x3ed0c765	0.40777126
27	0xbd074d1c	-0.03303252
28	0xbe7cc5fb	-0.24684899
29	0x3ea10345	0.31447807
30	0xbd987359	-0.07443876
31	0xbea20218	-0.31642222
32	0x3e389839	0.18026818
33	0xbe658e16	-0.22417483
34	0xbe993045	-0.2991964
35	0xbffd506c	-1.9790168
36	0xbe63aa6d	-0.22232981
37	0x3e32b9d2	0.17453697
38	0xbe174f77	-0.14776407
39	0xc0038ba2	-2.0553975
40	0x3f0bd47e	0.5462111
41	0x3e7b8d50	0.24565625
42	0x3ee50335	0.4472901
43	0x3eda3494	0.4261824
44	0x3e0c4a36	0.13700184

encoder.val_net.net.1.weight f4 [45]
0	0x3f4c3a7e	0.7977675
1	0x3f9e5aa7	1.2371415
2	0x3f2d976f	0.67809194
3	0x3f3cc225	0.7373374
4	0x3f448237	0.7676119
5	0x3f2ce1ff	0.6753234
6	0x3f7ba53b	0.98298997
7	0x3f78d708	0.9720311
8	0x3f92ca22	1.1467936
9	0x3f8b8c5a	1.0902207
10	0x3f9adafe	1.2098081
11	0x3fa0a44b	1.2550138
12	0x3f51b39b	0.8191468
13	0x3f68be4a	0.9091536
14	0x3f41694e	0.7555131
15	0x3f8d664e	1.1046846
16	0x3f59d938	0.85097075
17	0x3f8c2d4a	1.0951321
18	0x3f2681c1	0.6504174
19	0x3fc2fb1e	1.5232885
20	0x3f27fc39	0.65619236
21	0x3f6442bd	0.89164335
22	0x3f84fd52	1.0389807
23	0x3f2b0965	0.6681121
24	0x3f181a79	0.59415394
25	0x3f3f08f1	0.7462302
26	0x3f1bf8a1	0.6092625
27	0x3fa1b0ff	1.263214
28	0x3fa9790d	1.3240067
29	0x3f4cc716	0.7999128
30	0x3f85d4ed	1.0455605
31	0x3fae2d17	1.360751
32	0x3f37049c	0.7149141
33	0x3fab726b	1.3394293
34	0x3f9cd8b4	1.2253633
35	0x3fa25e1e	1.2684972
36	0x3f982105	1.1885077
37	0x3f32ff14	0.6992047
38	0x3f95529c	1.1665835
39	0x3fcc410f	1.5957354
40	0x3f29fd7e	0.66402423
41	0x3f325f22	0.6967641
42	0x3f362fff	0.71166986
43	0x3f1e5b1c	0.6185777
44	0x3f48d4b1	0.7844954

encoder.val_net.net.1.bias f4 [45]
0	0xbe1ccdd0	-0.15312886
1	0x3ea4f029	0.32214478
2	0xbedc1eec	-0.42992342
3	0xbe5fcbc2	-0.21855071
4	0xbe40419a	-0.18775025
5	0xbeba4a91	-0.36385015
6	0xbd8b8aba	-0.06813569
7	0xbd4cfaa9	-0.050043736
8	0x3cd95ff9	0.026535021
9	0xbdaa5c4a	-0.08318384
10	0x3d8046be	0.06263493
11	0xbe6b1ff3	-0.22961406
12	0xbe52842f	-0.20558237
13	0xbe21fd6d	-0.1581933
14	0xbe465a47	-0.19370376
15	0xbcd057d7	-0.02543251
16	0xbe00bcc6	-0.12572011
17	0xbe045681	-0.12923624
18	0xbed79d6c	-0.4211229
19	0xbd6a0375	-0.057132203
20	0xbeda0f05	-0.42589584
21	0xbe34149a	-0.17585984
22	0x3e7f8a96	0.2495521
23	0xbe980b53	-0.2969614
24	0xbec6c0eb	-0.3881906
25	0xbe80af38	-0.2513368
26	0xbee01f2a	-0.43773776
27	0x3c32e3b2	0.010918545
28	0x3de2d837	0.11076396
29	0xbe198fe1	-0.14996292
30	0xbcacc77b	-0.021091213
31	0x3e968753	0.2940012
32	0xbe76093f	-0.24026965
33	0x3d9600bc	0.07324359
34	0x3d5b4f4c	0.05354242
35	0xbe83e6f7	-0.2576215
36	0x3de7ab64	0.11311987
37	0xbe6e3b46	-0.23264799
38	0x3c9415b2	0.018076751
39	0xbf01a4ab	-0.5064189
40	0xbf02c8df	-0.51087755
41	0xbea0ee23	-0.31431684
42	0xbeb221f5	-0.34791532
43	0xbef61a7a	-0.48067075
44	0xbe74eb60	-0.23917913

encoder.val_net.net.3.weight f4 [72, 45]
0	0x3e54750a	0.20747772
1	0x3d7c6933	0.061623763
2	0xbe91a3ef	-0.28445384
3	0x3c9daa5a	0.019246269
4	0x3eadcec5	0.33946815
5	0x3e93d3d1	0.2887254
6	0xbea8a501	-0.32938388
7	0x3e109b58	0.14121759
8	0xbe4acb91	-0.19804217
9	0xbe636307	-0.22205745
10	0xbe06a855	-0.13150151
11	0x3f195249	0.5989118
12	0xbe506c33	-0.20353775
13	0x3ee23ceb	0.44187102
14	0xbdd83b8a	-0.10558231
15	0xbde73715	-0.11289803
16	0xbe40e6b3	-0.18838005
17	0xbf35ee70	-0.7106695
18	0x3dcbe809	0.099563666
19	0xbcd7ef8e	-0.026359346
20	0x3dda252f	0.106516235
21	0x3ee37ebf	0.44432637
22	0xbdafc104	-0.08581737
23	0xbe89a03b	-0.2688006
24	0x3a92c4a3	0.0011197518
25	0x3d35f3b4	0.044421867
26	0x3d8c4514	0.06849113
27	0xbdc64d20	-0.09682679
28	0x3d3c1020	0.045913815
29	0xbd2c8425	-0.04211821
30	0x3c3c7592	0.01150264
31	0x3d4be5fd	0.04977988
32	0x3dfbe7fc	0.12300107
33	0xbe0ea945	-0.13931759
34	0xbd9beea9	-0.0761388
35	0x3f102824	0.5631125
36	0xbe37ed7b	-0.17961685
37	0x3dec81ea	0.11548217
38	0xbc43beef	-0.011947378
39	0x3eb8a633	0.360643
40	0x3e8c97fe	0.2745971
41	0xbec7a08a	-0.3898967
42	0xbe35a7be	-0.1773977
43	0x3e9b2fd2	0.30309922
44	0x3c93f19f	0.01805955
45	0xbe745ef7	-0.23864351
46	0xbd95277b	-0.07282921
47	0x3f0daf49	0.5534559
48	0xbccbe8a1	-0.0248912
49	0xbc63b4ab	-0.013898055
50	0xbd9c2f94	-0.07626262
51	0x3e0fdca8	0.14049017
52	0xbe09c543	-0.13454156
53	0xbdb499a6	-0.088183686
54	0x3e81d435	0.25357214
55	0xbe5f71b4	-0.21820718
56	0xbf204f6f	-0.62621206
57	0xbda1d2b6	-0.07901518
58	0x3e364a8f	0.1780188
59	0x3eae803e	0.34082216
60	0x3df760c5	0.12079004
61	0xbdf89117	-0.12137049
62	0x3ea055f2	0.3131557
63	0x3f0e18c7	0.5550656
64	0x3f12277a	0.57091486
65	0xbee6d57c	-0.4508475
66	0xbdffec06	-0.1249619
67	0xc05f0280	-3.4845276
68	0xbf90a8b1	-1.130148
69	0x3e8cf298	0.27528834
70	0x3ed95f87	0.42455694
71	0x3e04418a	0.12915626
72	0x3f078d14	0.52949643
73	0x3d808c37	0.06276744
74	0x3d1448b7	0.03620216
75	0xbdb03b81	-0.086050995
76	0xbcf72efe	-0.030173775
77	0xbea444e6	-0.32083815
78	0xbc6f3e2a	-0.014602223
79	0x3e85f819	0.26165846
80	0xbf4bc14b	-0.79591817
81	0x3e3d4594	0.18483573
82	0x3d991616	0.07474916
83	0xbc0a1974	-0.00842892
84	0xbf681525	-0.90657264
85	0xbebe68c6	-0.3718931
86	0xbf9a141a	-1.2037385
87	0xbee70adc	-0.45125473
88	0x3f687324	0.9080069
89	0x3f824cd7	1.01797
90	0xbd1c94ad	-0.038227726
91	0x3d519983	0.05117179
92	0xbe11b273	-0.14228229
93	0x3d8c6c6a	0.06856616
94	0x3bab5bdf	0.0052294577
95	0x3e91cb4a	0.2847541
96	0xbdac7fc3	-0.08422806
97	0x3e859fce	0.26098484
98	0x3e279d66	0.16368636
99	0x3c73b1e5	0.014873956
100	0x3c2a45e3	0.010392639
101	0xbea1bf57	-0.31591293
102	0xbe617860	-0.22018576
103	0x3ccffc46	0.025388848
104	0xbe7939d7	-0.2433847
105	0xbe0b93dc	-0.13630623
106	0x3f195087	0.598885
107	0xbcfbeb95	-0.030751983
108	0x3db28772	0.087172404
109	0x3ec0d43e	0.37661928
110	0x3e5d018b	0.2158262
111	0xbbaa9112	-0.005205282
112	0xbf19093f	-0.59779733
113	0x3f20dfec	0.6284168
114	0xbe8690df	-0.26282403
115	0xbdd63393	-0.10459056
116	0x3e164c1f	0.14677475
117	0xbf2261fe	-0.63430774
118	0xbcac1bec	-0.021009408
119	0xbe367426	-0.17817745
120	0x3d9fd391	0.07804025
121	0x3e539141	0.20660879
122	0x3e03616f	0.12830137
123	0xbdc96db4	-0.09835377
124	0xbe31ae64	-0.17351681
125	0xbb0e8b19	-0.002175039
126	0xbe41bff3	-0.18920879
127	0xbdd78d4c	-0.10524997
128	0x3ddf18cd	0.10893402
129	0x3dfcc7fc	0.123428315
130	0x3fc7c4cb	1.5606931
131	0x3efa02f3	0.48830375
132	0x3e0d5145	0.13800533
133	0xbf50f6e2	-0.81626713
134	0xbcd29a4c	-0.02570834
135	0xbe5bd5e8	-0.21468318
136	0xbe0fdd07	-0.14049159
137	0x3e508bd7	0.20365845
138	0x3a11392b	0.000553983
139	0x3e42b8da	0.19015828
140	0xbc0442c4	-0.008072559
141	0x3d11909a	0.035538293
142	0xbe40590d	-0.1878397
143	0x3ba4cfe9	0.0050296676
144	0x3d94a830	0.07258642
145	0xbd1b8e87	-0.03797772
146	0xbeb5e18f	-0.3552365
147	0x3d6476e1	0.055777434
148	0x3e150050	0.145509
149	0xbdca34c4	-0.098733455
150	0xbdc3dd98	-0.0956375
151	0xbdf49a9b	-0.11943551
152	0x3e974cc3	0.29550752
153	0x3e138c72	0.14409044
154	0x4038c528	2.8870335
155	0xbe4adb0a	-0.1981012
156	0xbe8ba8b0	-0.27277136
157	0x3fe82180	1.8135223
158	0xbebf8efd	-0.3741378
159	0x3e4c33e0	0.19941664
160	0x3eb8985d	0.36053744
161	0xbec92a8c	-0.39290273
162	0xbcc896ef	-0.024486033
163	0x3c40b3bf	0.011761605
164	0x3e3b6f0a	0.18304077
165	0x3d38bc43	0.045101415
166	0x3d705c40	0.058681726
167	0x3d045afe	0.03231334
168	0x3e5ac16f	0.21362852
169	0x3e0aeca6	0.13566837
170	0xbf9a8e2a	-1.2074635
171	0x3cfdbf35	0.030974964
172	0xbe9910c0	-0.29895592
173	0xbdb2ddb1	-0.087336905
174	0xbe51f115	-0.20502122
175	0x3f7b7fc8	0.98241854
176	0xbeefca9c	-0.46834266
177	0xbf78f98c	-0.9725578
178	0x3f43d822	0.7650167
179	0x3cbb1cce	0.022840884
180	0x3cb172de	0.021661218
181	0xbda14cce	-0.078759775
182	0xbd927a72	-0.07152261
183	0xbda91849	-0.08256585
184	0xbe236cb5	-0.15959437
185	0xbe176266	-0.1478363
186	0x3d16b724	0.03679575
187	0x3e5d54dd	0.21614404
188	0x3d0d7a4b	0.034540456
189	0x3d6d2903	0.05790044
190	0xbd911e64	-0.07085875
191	0xbcef4f10	-0.029212505
192	0xbe31e576	-0.17372689
193	0xbdc8b05a	-0.097992614
194	0xbe422589	-0.18959631
195	0xbe75d5e2	-0.24007371
196	0xbdaf2758	-0.08552426
197	0xbe0cc17c	-0.13745683
198	0xbe232eff	-0.15935896
199	0xbe4f234a	-0.20228305
200	0xbcd4dfed	-0.025985682
201	0xbe301b38	-0.17197883
202	0xbd7ae9f1	-0.06125826
203	0xbdda7405	-0.1066666
204	0xbe8d265b	-0.27568325
205	0x3c807961	0.015682878
206	0xbd202e78	-0.039106816
207	0x3cfdfa4a	0.031003136
208	0xbdac072f	-0.08399808
209	0xbd6f472b	-0.05841748
210	0xbd22c8f8	-0.03974244
211	0x3e3353c7	0.17512427
212	0xbcfebc1a	-0.031095553
213	0x3d7da418	0.06192407
214	0x3dc24676	0.094860956
215	0x3dbda007	0.092590384
216	0x3e28503b	0.16436855
217	0xbd59face	-0.0532177
218	0xbce3fe30	-0.027831167
219	0x3e6b2265	0.22962339
220	0xbdb43bcf	-0.0880047
221	0x3d5f054a	0.054448403
222	0xbd2e5d1b	-0.04256926
223	0xbe3c66d4	-0.18398601
224	0xbe572bce	-0.21012804
225	0x3e84176b	0.25799116
226	0x3e508cb8	0.2036618
227	0x3c837d5f	0.016050993
228	0xbe25068f	-0.16115783
229	0xbc825e9c	-0.015914254
230	0x3f980da0	1.1879158
231	0x3c3f7ded	0.011687738
232	0x3c85b688	0.01632239
233	0xbdb99080	-0.09060764
234	0x3d10cba8	0.03535047
235	0xbe05c55c	-0.13063568
236	0xbf552e01	-0.8327332
237	0x3e180f3c	0.14849561
238	0xbe872c45	-0.26400962
239	0x3cd20a54	0.02563969
240	0xbe4e017f	-0.20117758
241	0xbdb6f99c	-0.08934328
242	0x3ddaea58	0.10689229
243	0xbe1f5e93	-0.15563421
244	0xbf7dadec	-0.9909351
245	0xc0444ae1	-3.0670702
246	0xbea60c78	-0.32431388
247	0x3f48510b	0.7824866
248	0xbeb65734	-0.35613406
249	0xbf43054c	-0.7617996
250	0xbd96c05d	-0.07360909
251	0xbfa43442	-1.2828448
252	0xbfa7579c	-1.3073611
253	0xbdb6eaf2	-0.08931531
254	0x3d860493	0.06543841
255	0xbdc56615	-0.09638611

encoder.val_net.net.3.bias f4 [72]
0	0x3d720573	0.059087228
1	0x3aaaeda5	0.0013040794
2	0x3e017683	0.12642865
3	0x3ca477d5	0.020076672
4	0xbe338401	-0.17530824
5	0x3d02fc19	0.0319787
6	0xbbb6911a	-0.0055714967
7	0x3d2a15fe	0.04152488
8	0xbded029e	-0.11572765
9	0x3c9a5a5c	0.018841915
10	0x3c0497f7	0.008092872
11	0xbd9c9d46	-0.07647185
12	0x3de5be28	0.1121791
13	0x3d604fca	0.054763593
14	0xbd9dc73b	-0.07704016
15	0x3cf9d531	0.030497165
16	0xbd1f09ff	-0.038827892
17	0x3c42f396	0.011898896
18	0xbdabf20c	-0.08395776
19	0x3d5216ec	0.05129139
20	0x3d11098d	0.0354095
21	0x3e028f4a	0.12749973
22	0x3e070b66	0.13187942
23	0xbc6cf7c0	-0.014463365
24	0x3b9cb86b	0.0047827265
25	0xbd2f0f44	-0.042739168
26	0x3db96dfe	0.090541825
27	0xbcc5bc81	-0.024137737
28	0x3d20f37a	0.039294697
29	0x3d37cbb1	0.04487199
30	0x3e45c3f6	0.19313034
31	0x3c9ebcc5	0.019377122
32	0x3dcf3060	0.10116649
33	0x3ded6c20	0.11592889
34	0xbd56d29a	-0.05244694
35	0xbdf519d8	-0.1196782
36	0xbd580158	-0.052735656
37	0xbd2eb34d	-0.042651463
38	0x3d8c45fb	0.06849285
39	0x3d5e6e1f	0.05430424
40	0xbd6e8fef	-0.058242735
41	0xbdf67a89	-0.120350905
42	0x3d2ae809	0.041725192
43	0x3e09b5ee	0.13448307
44	0x3cae61bd	0.02128684
45	0x3d5d3fd9	0.054015968
46	0x3dad134e	0.08450948
47	0x3d65b7d0	0.0560835
48	0xbe19e6d1	-0.15029456
49	0x3d5611ae	0.052262954
50	0xbe20135d	-0.15632387
51	0x3d9e6dbc	0.07735774
52	0xbcfef772	-0.03112385
53	0x3c8a2571	0.016863557
54	0x3d58967e	0.052877896
55	0x3deb9bc7	0.115043215
56	0x3c5ad43d	0.013356266
57	0xbdc56643	-0.096386455
58	0xbceaa8cf	-0.028644947
59	0xbbd38676	-0.006455238
60	0xbd5c36a5	-0.05376305
61	0xbc9f2394	-0.019426145
62	0x3d99ee78	0.075161874
63	0x3e307918	0.17233694
64	0xbd76ae49	-0.060224805
65	0xbcebf580	-0.028803587
66	0xbddf98bb	-0.10917803
67	0xbc8d636c	-0.017259322
68	0xba8c5236	-0.0010705653
69	0x3d4c7c00	0.049922943
70	0x3cf4a77f	0.029865025
71	0x3df32640	0.1187253

encoder.rank.weight f4 [1, 18]
0	0xbd3024bb	-0.04300378
1	0xbe2eab02	-0.17057422
2	0xbcd0f9d0	-0.025509745
3	0x3dac419c	0.084109515
4	0x3e4d0ca6	0.20024356
5	0xbe020308	-0.12696469
6	0x3e33c199	0.1755432
7	0xbc808afb	-0.015691271
8	0xbe0c5080	-0.13702583
9	0xbc11ce84	-0.008899335
10	0x3e1a44cc	0.15065306
11	0xbc7de9da	-0.015497649
12	0x3d400536	0.04687997
13	0x3e4caa98	0.19986951
14	0x3e2951d1	0.16535117
15	0x3dc83168	0.097750485
16	0xbde8149d	-0.11332057
17	0x3dd5bc5d	0.10436318

encoder.cardinality.weight f4 [72, 1]
0	0x3d40f0ec	0.04710476
1	0xbcd744a2	-0.026277844
2	0xbf00e894	-0.50354886
3	0xbe7a45ae	-0.24440643
4	0x3ebdb15f	0.37049386
5	0xbd5f4931	-0.05451316
6	0xbc96de56	-0.018416565
7	0xbb3eb209	-0.0029097816
8	0xbf27d21b	-0.6555497
9	0x3eed6e55	0.4637324
10	0x3f033ebf	0.5126762
11	0xbe355776	-0.17709145
12	0xbeca138a	-0.39468032
13	0x3f25c76d	0.64757425
14	0x3eaecc2a	0.3414014
15	0x3e0b43a9	0.13600029
16	0xbdc31754	-0.09525934
17	0xbeaf554a	-0.34244758
18	0xbf050f18	-0.51976156
19	0xbb4c3539	-0.0031159653
20	0x3f03027e	0.5117568
21	0xbe9e4f77	-0.30920002
22	0xbdc0c4a5	-0.09412507
23	0x3d4a0c66	0.04932823
24	0xbea1b2cb	-0.3158172
25	0xbce1afd7	-0.027549667
26	0xbc923430	-0.01784715
27	0x3af271bf	0.0018497034
28	0x3db84226	0.08996992
29	0xbda986a3	-0.08277633
30	0xbe7130c7	-0.23553763
31	0xbdfa6b4a	-0.12227495
32	0x3e228641	0.15871526
33	0x3e33a06d	0.17541666
34	0x3f2f3f6f	0.68456167
35	0xbebebc0e	-0.3725285
36	0x3e5c1196	0.21491084
37	0x3c85813c	0.016296975
38	0xbe56286f	-0.20913862
39	0xbea438f3	-0.320747
40	0xbd4ee3dd	-0.050510276
41	0x3d63a516	0.05557736
42	0xbe8900ed	-0.2675852
43	0x3db0ef59	0.08639402
44	0x3d739c7c	0.059475407
45	0x3ed6ecad	0.41977444
46	0x3c06756f	0.008206709
47	0xbba509cd	-0.0050365687
48	0xbdfa2ef7	-0.12215989
49	0x3c0a06d1	0.008424477
50	0xbde6e489	-0.11274058
51	0x3e83e5e8	0.25761342
52	0x3e045f36	0.12926945
53	0x3f113d64	0.567343
54	0x3f2be381	0.6714402
55	0x3e46da9d	0.19419332
56	0xbdf3dcf0	-0.11907375
57	0x3e19c755	0.15017445
58	0x3bddfbf6	0.006774421
59	0xbd929545	-0.07157377
60	0x3e55fa29	0.2089621
61	0x3e59cb9c	0.21269077
62	0x3e9bd480	0.30435562
63	0xbe207ad1	-0.1567185
64	0xbd7e0e88	-0.062025577
65	0xbe5c7621	-0.21529438
66	0xbdb53151	-0.08847297
67	0xbe9ceeb3	-0.30650863
68	0xbf454535	-0.77058727
69	0xbd55cf20	-0.052199483
70	0x3e392db5	0.18083842
71	0x3e98f10a	0.29871398

encoder.cardinality.bias f4 [72]
0	0xbe40e7b8	-0.18838394
1	0x3dd8516c	0.10562405
2	0xbe5f010b	-0.21777742
3	0x3f7a6143	0.9780466
4	0xbe88e483	-0.2673684
5	0x3e5e326f	0.21698926
6	0x3d9593eb	0.07303604
7	0x3c259ed0	0.010108665
8	0x3f8fe7dd	1.1242634
9	0xbf822584	-1.0167699
10	0xbede1f19	-0.433831
11	0x3f356355	0.70854694
12	0x3eb76d59	0.35825613
13	0xbf348cd0	-0.7052736
14	0x3e6faf65	0.23406751
15	0xbf072795	-0.5279477
16	0xbeef1b17	-0.46700355
17	0x3faf4adb	1.3694719
18	0x3f32e137	0.698749
19	0x3c4b1225	0.012394463
20	0x3f3c2f1a	0.7350937
21	0xbe94d1f5	-0.29066435
22	0x3ebf74d3	0.37393817
23	0x3e73f89a	0.23825303
24	0x3f3eb7ea	0.7449938
25	0x3ddfb7d1	0.10923732
26	0x3d921e28	0.07134658
27	0xbbc848fc	-0.006112216
28	0xbeb74a23	-0.3579875
29	0x3ea5db40	0.32393837
30	0x3e6878fb	0.227024
31	0x3efc1b7c	0.4923972
32	0xbf2285d3	-0.6348545
33	0xbf333700	-0.700058
34	0x3e429c93	0.19005041
35	0x3f9c74b0	1.222311
36	0xbf5b9eba	-0.8578907
37	0xbd85d2a1	-0.06534315
38	0x3f560535	0.83601695
39	0x3fa34d63	1.2757992
40	0x3e5047d4	0.203399
41	0xbf115d62	-0.56783116
42	0x3f88e390	1.0694447
43	0xbeb19936	-0.34687203
44	0xbe747a3e	-0.23874757
45	0xbf19113b	-0.59791917
46	0xbd0b1949	-0.03395966
47	0x3db03f04	0.08605769
48	0x3ef9e20e	0.4880528
49	0xbd141276	-0.03615042
50	0xbe21f578	-0.15816295
51	0xbf8405b5	-1.0314242
52	0xbf027f83	-0.5097582
53	0xbeb7d1bf	-0.3590221
54	0xbca9400b	-0.02066042
55	0xbe09785c	-0.1342482
56	0x3ef4156c	0.47672594
57	0xbea336b8	-0.31877685
58	0xbc22189b	-0.009893562
59	0x3e936fda	0.28796273
60	0xbf56008a	-0.8359457
61	0xbf59ed74	-0.8512795
62	0xbf9bfff7	-1.2187489
63	0xbdf77f4d	-0.120848276
64	0xbf2c6046	-0.673344
65	0xbece2ae0	-0.40267086
66	0x3eb5198e	0.3537106
67	0x3f9cfc38	1.2264471
68	0x3f156b4c	0.5836685
69	0x3e568f22	0.20953038
70	0xbf395508	-0.7239537
71	0xbf98c4f4	-1.1935105

decoder.key_net.net.0.weight f4 [68, 64]
0	0x3e76ea61	0.24112846
1	0xbe20e071	-0.15710618
2	0x3e0e1b05	0.13877495
3	0xbf20ec4d	-0.62860566
4	0xbc79c100	-0.015243769
5	0xbd9a91b8	-0.07547325
6	0xbdae4eec	-0.08511147
7	0x3d2ba524	0.041905537
8	0xbc954740	-0.018222451
9	0x3d3de584	0.04636146
10	0x3db25e24	0.08709362
11	0x3d2267ec	0.03964989
12	0x3d96c6b6	0.0736212
13	0x3c9a8d88	0.018866315
14	0xbdc22b8a	-0.09480961
15	0x3dcbf606	0.099590346
16	0xbdf03d36	-0.11730425
17	0xbd03dcec	-0.03219311
18	0x3c9d9ce0	0.019239843
19	0x3d0e3d00	0.034726143
20	0xbdfb3b02	-0.12267114
21	0x3d93275a	0.0718524
22	0xbded9eea	-0.11602576
23	0x3dd2ebac	0.10298857
24	0xbd5b3b84	-0.053523555
25	0xbdd2a912	-0.10286154
26	0x3bc04e20	0.005868688
27	0x3da24802	0.07923891
28	0x3b1288c0	0.0022359341
29	0xbdc56f60	-0.09640384
30	0xbd68fc78	-0.056881398
31	0x3ca03320	0.019555628
32	0xbd58dcc8	-0.05294493
33	0xbd9886c6	-0.07447581
34	0x3c745600	0.014913082
35	0xbd868a9e	-0.06569408
36	0x3dccaf26	0.099943444
37	0xbcf08998	-0.029362485
38	0x3c493710	0.012281194
39	0xbd948800	-0.072525024
40	0x3de73cfe	0.1129093
41	0x3d2d56a4	0.042318955
42	0xbde61fb8	-0.112365186
43	0x3d5fd620	0.054647565
44	0x3d956a78	0.07295698
45	0x3df27dde	0.118404135
46	0xbd9f7766	-0.07786445
47	0xbdc04810	-0.09388745
48	0xbc509470	-0.012730703
49	0x3dbd696a	0.09248622
50	0xbd1a4de0	-0.037671924
51	0xbdc4aefe	-0.096036896
52	0x3dceb1f2	0.10092534
53	0xbd3658fc	-0.044518456
54	0xbcb55180	-0.022133589
55	0xbd69caf8	-0.05707833
56	0x3cfce5d8	0.030871317
57	0x3d87cdb0	0.06631029
58	0x3d945c28	0.0724414
59	0x3cb88288	0.02252318
60	0x3ca73fb8	0.020416126
61	0x3d4e5ec4	0.050383344
62	0x3de1891c	0.1101248
63	0xbd92b262	-0.0716293
64	0xbcd0ee93	-0.025504386
65	0x3cb01f64	0.021499343
66	0x3c80290c	0.015644573
67	0x3aa84215	0.0012837077
68	0x3cb76810	0.022388488
69	0x3cfd6208	0.030930534
70	0xbd4368a0	-0.0477072
71	0x3df0d0ac	0.11758551
72	0x3c000480	0.007813573
73	0x3d85433e	0.06506966
74	0xbdbe58a6	-0.09294252
75	0xbdebb424	-0.115089685
76	0x3dff6eb4	0.12472287
77	0x3cfc5ee8	0.030806974
78	0xbd8a3ea0	-0.06750226
79	0x3de30374	0.11084643
80	0x3c1e04d0	0.009644702
81	0xbd64d7a4	-0.055869713
82	0xbd91efb0	-0.07125795
83	0xbde43676	-0.111432
84	0x3d28c544	0.041203752
85	0x3d2c2a98	0.042032808
86	0xbaca2980	-0.0015423745
87	0x3d34f4f0	0.044178903
88	0xbde8ba30	-0.113636374
89	0xbdf04ee0	-0.11733794
90	0x3d1c28a0	0.03812468
91	0xbdc0f51e	-0.094217524
92	0xbd88a5a0	-0.066722155
93	0xbdb68f32	-0.08914031
94	0x3cd4e2b0	0.025987
95	0x3cae2210	0.021256477
96	0x3de1b5e2	0.110210195
97	0xbd3d22cc	-0.046175763
98	0x3d80620c	0.06268701
99	0xbdba7582	-0.09104444
100	0xbdd5c96c	-0.10438809
101	0xbd7b7f48	-0.06140068
102	0x3bfa8800	0.007645607
103	0x3df06a8e	0.11739074
104	0xbdc8cd78	-0.09804815
105	0x3d09b16c	0.03361647
106	0xbcae1e00	-0.02125454
107	0xbcefdcb0	-0.029280037
108	0xbd462900	-0.048378944
109	0xbd85ad74	-0.06527224
110	0x3cd281b0	0.025696605
111	0xbcf12480	-0.02943635
112	0xbd77e99c	-0.06052552
113	0x3d0b3b78	0.03399226
114	0x3d46cf64	0.048537627
115	0xbdef6068	-0.1168831
116	0xbd5ce934	-0.053933337
117	0x3d0153fc	0.031574234
118	0x3dcbafb2	0.099456206
119	0xbd9f7b18	-0.0778715
120	0x3dc11af8	0.09428972
121	0x3dd0e5dc	0.10200092
122	0xbc913f68	-0.01773043
123	0xbc66fab0	-0.0140978545
124	0x3bc21da0	0.0059239417
125	0xbd48ba4c	-0.04900579
126	0x3d9a9eb8	0.075498044
127	0x3d79e11c	0.061005697
128	0xbf6b4092	-0.918954
129	0x3dd0b984	0.10191634
130	0x3e7b781b	0.24557535
131	0x3d7cb1b7	0.06169292
132	0x3d01eaa4	0.03171791
133	0xbced7b08	-0.02898933
134	0xbc315db0	-0.0108255595
135	0xbce51f00	-0.027968884
136	0x3da75072	0.081696406
137	0x3b9d0140	0.004791409
138	0x3db8c03a	0.09021039
139	0xbdda2120	-0.10650849
140	0x3d9796f8	0.07401842
141	0xbcca8c58	-0.024725124
142	0xbd4edca0	-0.050503373
143	0xbc534620	-0.012895137
144	0x3dff0d32	0.12453689
145	0x3d87e8fc	0.06636235
146	0x3c2b6f10	0.010463491
147	0xbb8b0200	-0.004242182
148	0xbcca10b0	-0.02466616
149	0xbbbb4320	-0.005714789
150	0xbd907aea	-0.07054694
151	0xbcdf1f80	-0.0272367
152	0xbd9037ca	-0.07041891
153	0x3d21a988	0.03946832
154	0x3d7d9990	0.061914027
155	0x3dfc0674	0.12305918
156	0xbdb60c36	-0.08889048
157	0xbd1326d0	-0.035925686
158	0xbd838e8e	-0.064236745
159	0xbd7937b8	-0.060844153
160	0x3c214310	0.009842649
161	0x3dfc4f94	0.12319866
162	0xbd0cae80	-0.034346104
163	0xbd8f4f60	-0.069975615
164	0xbb994ee0	-0.004678592
165	0x3dd11ba2	0.10210349
166	0xbd4f5558	-0.0506185
167	0xbd8b58f4	-0.06804076
168	0x3dec84a8	0.1154874
169	0x3dc90212	0.09814848
170	0xbd385558	-0.045003265
171	0x3d29162c	0.04128091
172	0xbdee4b4c	-0.116354555
173	0xbd81153e	-0.0630288
174	0x3d5d3114	0.054001883
175	0x3dea0706	0.11427121
176	0xbbf977a0	-0.0076131374
177	0x3dc907f4	0.0981597
178	0x3c901ec0	0.017592788
179	0x3d40d544	0.047078386
180	0xbda83c34	-0.08214608
181	0xbd953fac	-0.07287535
182	0x3db70c2a	0.08937867
183	0x3b98b000	0.0046596527
184	0xbd0aba44	-0.033869043
185	0x3dc824ee	0.09772669
186	0x3dd4844e	0.103767976
187	0x3c092900	0.008371592
188	0xbda0bd48	-0.078486025
189	0x3d3f6cc0	0.04673457
190	0x3dd8df8a	0.10589512
191	0xbaff1500	-0.0019461215
192	0xbf5bec44	-0.8590739
193	0x3e926b6f	0.2859759
194	0x3e32321c	0.17401928
195	0xbdb02b60	-0.08602023
196	0xbd6bdcf0	-0.05758375
197	0xbddd8040	-0.10815477
198	0xbcd86860	-0.026416957
199	0xbd4b07d4	-0.049568012
200	0x3d7b2f18	0.06132421
201	0xbded4880	-0.11586094
202	0xbd2bf800	-0.041984558
203	0x3d507b90	0.05089909
204	0x3daa03b0	0.083014846
205	0x3ded40de	0.11584638
206	0xbdb836a4	-0.08994797
207	0xbd1fe7f0	-0.039039552
208	0x3d0a858c	0.033818766
209	0xbdab7bde	-0.08373235
210	0xbdaee2e2	-0.08539368
211	0x3dd88ec0	0.105741024
212	0x3d096214	0.0335408
213	0x3d600590	0.054692805
214	0x3cb101c0	0.02160728
215	0x3dce7f82	0.10082914
216	0xbde878ce	-0.11351167
217	0x3da45dee	0.08025728
218	0xbdba109e	-0.09085201
219	0xbde37ab2	-0.11107387
220	0x3dfc03ae	0.12305389
221	0xbce3b6f0	-0.027797192
222	0x3d23c094	0.03997858
223	0x3c411030	0.011783645
224	0x3d5108f4	0.05103393
225	0xbdb46c88	-0.08809763
226	0x3d9fc6d4	0.07801595
227	0xbd803760	-0.06260562
228	0xbc9b9978	-0.018994078
229	0xbc039970	-0.008032188
230	0x3da784a6	0.081795976
231	0x3debec7c	0.11519715
232	0xbd15e16c	-0.036591932
233	0x3de50104	0.11181834
234	0xbd038324	-0.032107487
235	0x3c24bc30	0.010054633
236	0xbd4ff278	-0.050768346
237	0x3d2d64d0	0.04233247
238	0xbd0c17c8	-0.034202367
239	0x3dc7d07a	0.097565606
240	0xbdf01a0c	-0.11723718
241	0xbb04c4c0	-0.0020258874
242	0xbd34b624	-0.044119015
243	0xbdf6a830	-0.12043798
244	0xbad44680	-0.0016195327
245	0xbdc7a53e	-0.09748314
246	0xbb21a000	-0.0024662018
247	0x3d2dd7c0	0.042442083
248	0xbcaf00a0	-0.021362603
249	0xbdedac5c	-0.116051406
250	0x3df71686	0.12064843
251	0x3dae0de2	0.08498742
252	0x3d814c46	0.06313376
253	0xbce212b0	-0.027596802
254	0x3d452ce4	0.048138514
255	0xbdb8e3d6	-0.09027831
