weights/sae_norm_discovery_scaling_latest.pt (torch, 133241 bytes, 30 tensors)

encoder.key_net.net.0.weight f4 [68, 64]
0	0xbe250fae	-0.16119263
1	0x3df69578	0.12040228
2	0xbe9db08f	-0.30798766
3	0xbd89f6d4	-0.06736532
4	0x3dbeb74e	0.09312306
5	0x3d1924a8	0.037388474
6	0xbccdfc18	-0.025144622
7	0x3d90de98	0.070737064
8	0x3d4be748	0.049781114
9	0xbdf8a874	-0.12141505
10	0x3d78ff6c	0.060790464
11	0xbdc3aa82	-0.09554006
12	0xbd787548	-0.060658723
13	0xbc6caf40	-0.01444608
14	0x3d81f1b6	0.06344931
15	0x3c28f630	0.010312602
16	0x3d97f380	0.07419491
17	0x3d839c0e	0.064262494
18	0x3d8d4916	0.06898706
19	0x3ca2fcd8	0.019895956
20	0xbcf8e5f8	-0.030383095
21	0xbd2b44a8	-0.041813523
22	0x3cb577f0	0.022151917
23	0xbc9aa300	-0.018876553
24	0x3d32435c	0.04352127
25	0x3cdf28d8	0.027241156
26	0xbd66a868	-0.05631295
27	0x3d8800c0	0.06640768
28	0xbde9645a	-0.11396094
29	0x3ca47ec0	0.02007997
30	0x3d4a27b0	0.049354255
31	0x3de24f20	0.11050248
32	0xbd2e1d34	-0.04250832
33	0x3dc190de	0.09451459
34	0x3c41b500	0.011822939
35	0xbba51960	-0.0050384253
36	0x3d3df890	0.046379626
37	0x3d1029b0	0.035196006
38	0xbdad08fe	-0.08448981
39	0x3df1b3da	0.11801882
40	0xbda1e160	-0.07904315
41	0x3dc83c0c	0.09777078
42	0x3dd361d6	0.10321395
43	0xbdaf8282	-0.08569814
44	0xbdf44ecc	-0.11929092
45	0xbcdcf148	-0.02697052
46	0xbb558c40	-0.0032584816
47	0xbd7e1d54	-0.06203969
48	0x3d94cca4	0.072655946
49	0xbd96db26	-0.07366018
50	0x3bc2b500	0.005941987
51	0x3dc86f8e	0.09786902
52	0xbdf79210	-0.12088406
53	0xbdde6886	-0.1085978
54	0x3d6ad110	0.057328284
55	0x3da3766e	0.07981573
56	0xbdbc4d62	-0.09194447
57	0xbd8f2918	-0.0699026
58	0xbda7f196	-0.08200376
59	0x3ae06d80	0.0017122477
60	0xbda88132	-0.08227767
61	0x3c0b6e90	0.008510247
62	0x3d73a088	0.059479266
63	0xbcf28b58	-0.02960746
64	0xbe251102	-0.16119769
65	0xbd989acb	-0.074513994
66	0xbe1d7756	-0.15377554
67	0x3dcb32b8	0.09921783
68	0xbdb8a38c	-0.09015569
69	0x3d8fe5ae	0.0702623
70	0xbc30eb30	-0.010798261
71	0xbde232f0	-0.11044872
72	0x3d8d7cbe	0.06908558
73	0xbdb4a20a	-0.08819969
74	0x3dd0fc2c	0.10204348
75	0x3d2c69d4	0.042093113
76	0x3db25e10	0.08709347
77	0x3ca59750	0.020213753
78	0x3c141c30	0.009039924
79	0xbd853f90	-0.06506264
80	0x3dfcb74e	0.1233965
81	0x3d93ac46	0.07210593
82	0x3da01b92	0.078177586
83	0x3d6f4330	0.058413684
84	0xbd44a2fc	-0.048006997
85	0xbdeabf24	-0.114622384
86	0xbc41db20	-0.011832029
87	0x3db352e6	0.08756046
88	0x3b55b980	0.0032611787
89	0x3cde1388	0.027108923
90	0xbd6f4394	-0.058414057
91	0xbdd81c76	-0.105523035
92	0xbd494234	-0.0491354
93	0xbd7b9bb8	-0.0614278
94	0x3c84fd90	0.01623419
95	0xbd035128	-0.03205982
96	0xbda7077a	-0.08155723
97	0x3d8cb708	0.06870848
98	0x3d0e2c90	0.034710467
99	0xbd9e4a9c	-0.07729074
100	0xbcaa2970	-0.020771712
101	0xbd660768	-0.056159407
102	0x3df5258e	0.119700536
103	0xbda2b0d4	-0.079438835
104	0x3c3f14c0	0.011662662
105	0x3d314234	0.043276027
106	0x3d88ff70	0.06689346
107	0x3d2bab3c	0.04191135
108	0x3dcf2cb2	0.10115947
109	0x3d91f634	0.07127038
110	0xbdd5f690	-0.10447419
111	0xbb461600	-0.0030225515
112	0x3d8d3f40	0.068968296
113	0xbc593f70	-0.013259754
114	0x3d7b4d08	0.06135276
115	0x3de3cc6e	0.11122976
116	0x3cd28428	0.025697783
117	0xbd5601d4	-0.052247837
118	0x3d9e3cc2	0.077264324
119	0xbbeda600	-0.0072524548
120	0xbc560af0	-0.013064131
121	0xbd9518b2	-0.07280101
122	0x3ddbd4e8	0.10733968
123	0x3cd65d48	0.026167527
124	0x3d478ea0	0.048720002
125	0xbd65d434	-0.056110576
126	0x3ddd1756	0.107954666
127	0x3d360d38	0.0444462
128	0x3e6c0174	0.2304743
129	0xbe61c10c	-0.22046298
130	0xbedee8a6	-0.43536872
131	0xbdc45c8e	-0.09587966
132	0xbddaef80	-0.10690212
133	0x3cd2dfb0	0.025741428
134	0x3dcc14dc	0.09964916
135	0xbd9fe0e6	-0.07806568
136	0x3d315ac4	0.04329945
137	0xbbb47240	-0.0055067837
138	0xbd2ba6f4	-0.041907266
139	0xbd9abd44	-0.07555631
140	0xbdc5c6d6	-0.096570656
141	0xbd9552b0	-0.07291162
142	0xbd8475cc	-0.064677805
143	0xbd55c418	-0.052188963
144	0x3d80c1e0	0.06286979
145	0x3dc2a0b6	0.095033094
146	0xbae46f00	-0.00174281
147	0xbde1a37e	-0.11017512
148	0x3dc5ccac	0.09658179
149	0xbdd0259e	-0.10163425
150	0x3c596d50	0.013270691
151	0x3d9c394e	0.076281175
152	0xbd29cfc8	-0.04145792
153	0x3dc04982	0.093890205
154	0xbc899600	-0.016795158
155	0xbd4d6418	-0.050144285
156	0x3db80312	0.089849606
157	0xbd5a5588	-0.053304225
158	0xbcb50bd0	-0.02210036
159	0x3dbbf0e4	0.091768056
160	0x3de51dea	0.11187346
161	0xbd03f480	-0.032215595
162	0x3cc3be08	0.023894325
163	0xbda1e6e6	-0.079053685
164	0x3dcf0f92	0.10110392
165	0x3d7df448	0.062000543
166	0xbc221180	-0.009891868
167	0xbd88c834	-0.06678811
168	0xbd3b84b0	-0.045780838
169	0x3d845002	0.06460573
170	0x3dd5e558	0.104441345
171	0xbde57ece	-0.11205827
172	0xbdfa1e22	-0.12212779
173	0xbc099770	-0.008397922
174	0xbdf87372	-0.121313944
175	0xbd0a2524	-0.033726826
176	0x3dd87858	0.10569829
177	0x3db2642e	0.08710514
178	0xbc6aae20	-0.014323741
179	0x3d81945c	0.063271254
180	0xbdfc3b98	-0.12316054
181	0xbda011bc	-0.078158826
182	0x3de2ab12	0.11067785
183	0x3deed9b0	0.11662614
184	0xbdec8a0e	-0.11549769
185	0x3cc24cc0	0.023718238
186	0x3db1ccce	0.086816415
187	0xbbc0fda0	-0.0058896095
188	0x3d452c10	0.048137724
189	0xbd098030	-0.033569515
190	0x3d8e7b4a	0.06957109
191	0x3cc90068	0.024536327
192	0xbe5f287f	-0.21792792
193	0x3da8a67c	0.082348794
194	0xbdb4f52b	-0.088358246
195	0xbd0f9bd0	-0.035060704
196	0xbd877b58	-0.06615323
197	0xbdacd640	-0.084393024
198	0xbccb4d88	-0.024817243
199	0x3d90b1ec	0.07065186
200	0xbd0d1cec	-0.03445141
201	0x3b142780	0.0022606552
202	0x3dd18236	0.10229914
203	0xbdf8000a	-0.121093825
204	0x3d341d4c	0.043973252
205	0xbbe51e00	-0.0069921017
206	0xbc32e240	-0.0109182
207	0x3d0d5470	0.034504354
208	0x3d2fd1e0	0.04292476
209	0x3dff115a	0.124544814
210	0x3d997d88	0.07494646
211	0xbd251718	-0.040305227
212	0xbcb17938	-0.021664247
213	0x3df5bb04	0.11998561
214	0xbcf8ca70	-0.030369967
215	0xbd80df8e	-0.0629264
216	0xbcd164e0	-0.025560796
217	0xbddeb4e4	-0.10874346
218	0xbd147040	-0.036239862
219	0x3dae841a	0.0852129
220	0xbc0c14f0	-0.008549914
221	0x3d711998	0.0588623
222	0xbdb5d37c	-0.08878228
223	0xbd76d674	-0.060263112
224	0x3dd9cd70	0.10634887
225	0x3d961e0c	0.0732995
226	0x3c4dee80	0.01256907
227	0xbba0bc20	-0.0049052387
228	0xbd847ea6	-0.06469469
229	0x3de33ade	0.110952124
230	0x3d1b7fdc	0.037963733
231	0x3b80a160	0.0039254874
232	0xbd741ef4	-0.05959983
233	0x3cebdf00	0.028792858
234	0xbd00da44	-0.031458154
235	0x3ccbe720	0.024890482
236	0x3b9d5200	0.004801035
237	0x3de822c6	0.113347575
238	0xbd5eed94	-0.05442579
239	0x3c158c30	0.009127662
240	0xbdcbe986	-0.099566504
241	0xbd183df4	-0.037168458
242	0x3d0eee14	0.034895018
243	0x3dffe0d2	0.12494053
244	0x3de9cec6	0.11416392
245	0xbc460250	-0.012085512
246	0xbc005830	-0.007833526
247	0x3d9af6f8	0.07566637
248	0x3cfc7670	0.030818194
249	0x3db226cc	0.08698806
250	0xbd237048	-0.039902
251	0x3c25ad80	0.010112166
252	0x3dbf929a	0.09354134
253	0x3de9a858	0.11409062
254	0xbd7a4080	-0.06109667
255	0xbd9c0c84	-0.07619575

encoder.key_net.net.0.bias f4 [68]
0	0xbd8f31ca	-0.069919184
1	0xbd28a4b2	-0.04117269
2	0xbbd256d1	-0.0064190407
3	0xbce27b0f	-0.02764657
4	0xbc4384ba	-0.0119335
5	0xbc77b44e	-0.015118672
6	0xbe2b2cf6	-0.1671637
7	0xbcd5c7ff	-0.026096342
8	0xbc22473c	-0.009904679
9	0xbd8b9f59	-0.068175025
10	0x3e30e7d9	0.17275943
11	0xbd24a501	-0.040196422
12	0xb96f9ac6	-0.00022850474
13	0xbc5832c5	-0.013195698
14	0xbda96e77	-0.082730226
15	0xbe1df99f	-0.15427254
16	0xbd4af06d	-0.049545694
17	0xbe1103ff	-0.1416168
18	0xbe12ccbc	-0.14335912
19	0xbdd91e7e	-0.10601519
20	0xbc49c8c0	-0.012315929
21	0xbdf54066	-0.11975174
22	0x3e1f17ca	0.15536419
23	0x3ceeb66a	0.029139716
24	0xbcbd70e5	-0.023125121
25	0xbdf36b07	-0.11885648
26	0xb9f95bf5	-0.00047561494
27	0x3d822e0b	0.06356438
28	0xbd8baff7	-0.06820672
29	0xbc6dac2e	-0.014506383
30	0x3e75de0d	0.24010487
31	0x3b60dce3	0.0034311346
32	0xbc82e32b	-0.015977463
33	0xbe565069	-0.20929112
34	0xbe22a2c3	-0.15882401
35	0x3dadedaf	0.084926
36	0xbe3b059c	-0.18263859
37	0xbde86ac7	-0.11348491
38	0x3e890dc3	0.26768312
39	0xbd5972cd	-0.053088
40	0xbd486a0d	-0.048929263
41	0xbd9a5a14	-0.07536712
42	0xbcd256ae	-0.025676098
43	0xbc8dd9d8	-0.01731579
44	0x3b9529cb	0.0045521013
45	0xbe303d59	-0.17210902
46	0xbe09060b	-0.13381211
47	0x3d09b86e	0.03362315
48	0xbe15bbab	-0.14622371
49	0xbca5feea	-0.020263154
50	0x3e35f7e1	0.1777034
51	0xbd1442e9	-0.036196623
52	0xbcc75608	-0.024333015
53	0x3c5d922d	0.013523621
54	0xbca6a113	-0.020340478
55	0xbe1b0a0d	-0.15140553
56	0x3c595492	0.013264792
57	0x3d839dcd	0.064265825
58	0xbe1895d5	-0.14900906
59	0x3bba49b5	0.005685056
60	0x3dff92c2	0.12479164
61	0xbcde42c8	-0.027131453
62	0xbd79f0ce	-0.061020665
63	0x3cf0f41c	0.029413275
64	0x3d47c048	0.048767358
65	0xbdc54b97	-0.09633558
66	0x3e5c2345	0.2149783
67	0xbdb4c1fa	-0.088260606

encoder.key_net.net.1.weight f4 [68]
0	0x3f6e98e1	0.93202025
1	0x3f6234f3	0.88362044
2	0x3f91a53f	1.1378554
3	0x3f46c923	0.7765066
4	0x3f619c93	0.8812954
5	0x3f900572	1.1251662
6	0x3fa5cee4	1.2953763
7	0x3f30d1ad	0.6906994
8	0x3f9106e6	1.133023
9	0x3f1fc432	0.62408745
10	0x3f8d214a	1.1025784
11	0x3f8419b1	1.032034
12	0x3f33e9dc	0.70278716
13	0x3f6a4387	0.9150929
14	0x3f7c68cb	0.985974
15	0x3fbceaad	1.4759117
16	0x3f85d2a8	1.0454912
17	0x3f763b5c	0.96184325
18	0x3f96b6af	1.1774501
19	0x3fb452fd	1.4087826
20	0x3f7e0871	0.9923163
21	0x3f6e019f	0.92971224
22	0x3f8e3d49	1.1112453
23	0x3f5e0dca	0.8673979
24	0x3f5ddb31	0.86662585
25	0x3f898000	1.0742188
26	0x3f1f2cdc	0.62177825
27	0x3f821dd1	1.0165349
28	0x3f7ec0fe	0.9951323
29	0x3f806ccf	1.0033206
30	0x3f8f2399	1.1182739
31	0x3f69a250	0.91263294
32	0x3f93080d	1.1486832
33	0x3fb96d7c	1.4486537
34	0x3f7c22a3	0.9849035
35	0x3f987f36	1.1913822
36	0x3f8342b5	1.0254732
37	0x3f75fb0b	0.96086186
38	0x3f99b7f4	1.2009263
39	0x3f3ec251	0.74515253
40	0x3f8639fd	1.0486447
41	0x3f7b65b0	0.9820204
42	0x3f71925d	0.9436396
43	0x3f7b197f	0.9808578
44	0x3f58dc34	0.84711003
45	0x3fbe344f	1.4859713
46	0x3f8315d9	1.0241042
47	0x3f5661c8	0.8374295
48	0x3fbec775	1.490462
49	0x3f71b91c	0.9442308
50	0x3f92ac15	1.1458765
51	0x3f4856c3	0.7825739
52	0x3f497adf	0.7870311
53	0x3f2d17cd	0.6761444
54	0x3f2b370d	0.66880876
55	0x3f8b59c0	1.0886765
56	0x3f6f8cf9	0.9357448
57	0x3f78625f	0.970251
58	0x3f872fc1	1.0561448
59	0x3f69fc67	0.9140076
60	0x3f8a23b7	1.0792149
61	0x3f6ab43b	0.9168126
62	0x3f48e079	0.7846752
63	0x3f82c04a	1.0214932
64	0x3f9ae257	1.2100323
65	0x3f830728	1.0236559
66	0x3f950806	1.1643074
67	0x3f8a2799	1.0793334

encoder.key_net.net.1.bias f4 [68]
0	0x3d85051d	0.06495116
1	0xbbf76d7b	-0.007550893
2	0x3db32dc6	0.08748965
3	0xbce434a3	-0.02785713
4	0xbd08005f	-0.03320348
5	0xbd1905eb	-0.03735916
6	0xbeccd4b8	-0.40006042
7	0xbcbe11f5	-0.023201922
8	0x3c889fe0	0.016677797
9	0x3d17d032	0.037063785
10	0x3d5f12fa	0.054461457
11	0x3c996fbf	0.018730043
12	0xbc6ee8d5	-0.014581879
13	0xbd0709e7	-0.032968428
14	0xbd5c1603	-0.05373193
15	0xbf0f66ed	-0.5601643
16	0xbd43aab4	-0.047770217
17	0xbd9432c7	-0.072362475
18	0xbe8394cf	-0.2569947
19	0xbeffefe8	-0.4998772
20	0xbcb6b4d9	-0.022303032
21	0xbcfb93c9	-0.030710118
22	0x3dc3a363	0.09552648
23	0xbd4da092	-0.05020196
24	0x3bd23049	0.0064144474
25	0xbe2388d9	-0.15970172
26	0xbd256728	-0.04038158
27	0x3d0a18b3	0.03371496
28	0xbb9c29cc	-0.0047657248
29	0x3c94671a	0.018115569
30	0x3dcee179	0.10101599
31	0xbd19cfa0	-0.037551522
32	0x3d852dcb	0.06502875
33	0xbf0bf247	-0.5466656
34	0xbe02a2e7	-0.12757455
35	0xbc6bd10a	-0.0143931005
36	0xbe09ed48	-0.13469422
37	0xbc6834b6	-0.0141727235
38	0x3e2a5d10	0.16637063
39	0x3d832530	0.06403577
40	0xbd60cccc	-0.05488281
41	0xbdc48931	-0.0959648
42	0xbc91ab75	-0.017781952
43	0x39b59925	0.00034637112
44	0xbc312333	-0.010811615
45	0xbf0d9bc0	-0.5531578
46	0xbe15d721	-0.14632846
47	0xbddd716d	-0.1081265
48	0xbf0529e7	-0.5201706
49	0xbd01c9db	-0.031686645
50	0x3dbe2fd8	0.09286469
51	0xbc9d37a4	-0.01919157
52	0x3c25bfc6	0.010116523
53	0x3c42bfcb	0.011886547
54	0xbd31ccc7	-0.04340818
55	0xbe5b1d9e	-0.21398017
56	0xbce74b15	-0.028234044
57	0x3b60ee28	0.003432164
58	0xbe148f94	-0.14507896
59	0xbde8fc21	-0.11376215
60	0x3cf42801	0.029804232
61	0xbd9ef042	-0.07760669
62	0xbd245803	-0.040122997
63	0x39289fd0	0.00016081263
64	0x3dad414c	0.0845972
65	0xbacda4ba	-0.0015689351
66	0x3decd1e3	0.1156347
67	0x3ce2ecc0	0.027700782

encoder.key_net.net.3.weight f4 [72, 68]
0	0x3e9e20c7	0.30884382
1	0xbe033ee5	-0.12816961
2	0xbda67c74	-0.08129206
3	0x3e53c75a	0.20681515
4	0xbd24ff0b	-0.04028229
5	0xbe895700	-0.26824188
6	0xbd828a0c	-0.063739866
7	0xbd679a89	-0.05654386
8	0xbe1bcd8b	-0.15215127
9	0xbaeaf481	-0.0017925651
10	0x3e5e1ba3	0.2169023
11	0xbe3f1ece	-0.18664095
12	0xbd0c9717	-0.034323778
13	0x3de437c4	0.11143449
14	0xbd31a705	-0.043372173
15	0xbdcbad85	-0.099452056
16	0xbe403b7a	-0.18772689
17	0xbd9a0c2e	-0.07521854
18	0x3c0bd6c2	0.008535089
19	0x3d427e11	0.047483508
20	0xbc3f2f99	-0.011669063
21	0xbd1b4813	-0.037910532
22	0x3d85a12c	0.06524882
23	0x3e98e42c	0.2986158
24	0xbd21aad2	-0.039469548
25	0x3df96647	0.12177711
26	0xbd56d0cc	-0.052445218
27	0x3e39ec6b	0.18156593
28	0xbd286456	-0.041111313
29	0x3d37bbed	0.044856954
30	0xbe16d359	-0.1472906
31	0xbd1eaa94	-0.038736895
32	0xbe2dda06	-0.169777
33	0xbdafbfe7	-0.08581524
34	0x3d9408a9	0.07228214
35	0xbead2d36	-0.33823556
36	0xbd1f5cb3	-0.038906764
37	0xbde52142	-0.11187984
38	0x3de328d2	0.1109177
39	0x3e7e5399	0.24836577
40	0xbe633b1e	-0.2219052
41	0xbe183bf1	-0.14866616
42	0xbe525740	-0.20541096
43	0xbc98e18b	-0.018662235
44	0xbd0c10a4	-0.034195557
45	0xbc6dbb37	-0.0145099675
46	0x3ceb7fc9	0.028747456
47	0xbcc4371a	-0.023952056
48	0xbcf06db0	-0.029349178
49	0xbd19098f	-0.03736263
50	0x3e7ade6e	0.24498913
51	0xbd89f186	-0.0673552
52	0xbc443835	-0.011976291
53	0x3e4db213	0.20087461
54	0xbc5375a7	-0.0129064685
55	0xbe0675e2	-0.13130906
56	0xbe141566	-0.14461288
57	0xbd182f4c	-0.03715448
58	0xbc54f8e0	-0.01299879
59	0xbaa963a8	-0.0012923377
60	0xbe25badb	-0.16184561
61	0xbe135398	-0.14387357
62	0xbc457172	-0.012050973
63	0xbe51a621	-0.2047353
64	0x3eacc5b3	0.33744583
65	0xbe52bde2	-0.20580247
66	0xbdac503f	-0.08413743
67	0xbe160f98	-0.14654386
68	0xbe2191b1	-0.15778233
69	0x3dd1e624	0.10248974
70	0x3e1af2fb	0.15131752
71	0xbe154c49	-0.14579882
72	0x3d332e34	0.043745235
73	0x3de2c2f1	0.11072338
74	0x3ce8f90a	0.028439064
75	0x3d509dbc	0.050931677
76	0x3e85e72e	0.2615294
77	0xbd87aa5a	-0.06624289
78	0xbe3ab0b4	-0.1823147
79	0x3d918fc5	0.071075
80	0x3d2b69e1	0.04184902
81	0x3c799727	0.015233791
82	0x3dc7ab60	0.09749484
83	0x3dc94526	0.09827642
84	0x3db3e49f	0.087838404
85	0xbe0bb15c	-0.13641876
86	0x3bf4d72f	0.007471941
87	0x3e086a40	0.13321781
88	0x3db6eba8	0.089316666
89	0x3d244eb5	0.040114123
90	0xbe69e8c1	-0.22842695
91	0xbe79686f	-0.24356245
92	0x3d29f62c	0.041494533
93	0xbd831f2f	-0.06402432
94	0x3d6d64d3	0.05795748
95	0xbda6df28	-0.081480324
96	0x3e288d7b	0.1646022
97	0xbd3e2cdd	-0.046429504
98	0x3e313b32	0.17307737
99	0x3d28bb0f	0.041194018
100	0x3e301ce9	0.17198528
101	0xbcb46940	-0.022022843
102	0xbdad16f1	-0.08451641
103	0x3e6d9c41	0.23204137
104	0x3d4fcab2	0.050730415
105	0x3d18bc7f	0.03728914
106	0xbe14409a	-0.14477769
107	0xbe4877a9	-0.19576897
108	0x3e6f22a3	0.23353057
109	0x3e248b79	0.1606883
110	0x3e10d225	0.14142664
111	0x3e223704	0.158413
112	0xbd075aa2	-0.03304542
113	0x3c82a974	0.015949942
114	0xbb380aba	-0.0028082565
115	0x3dd140b8	0.10217422
116	0x3ddd293c	0.107988805
117	0x3d21c0e2	0.039490588
118	0xbe92143b	-0.2853106
119	0x3da37e7c	0.07983109
120	0x3db0080c	0.08595285
121	0xbdce8214	-0.10083404
122	0xb9b1dc16	-0.00033924048
123	0xbd2f7ade	-0.042841785
124	0x3e3b4363	0.18287425
125	0xbcbe9217	-0.02326302
126	0xbd8f1421	-0.06986261
127	0x3dea8a33	0.11452141
128	0x3d855a62	0.0651138
129	0x3dd2906b	0.10281452
130	0xbd6ab63c	-0.0573027
131	0x3e1a2175	0.15051825
132	0xbe890a21	-0.2676554
133	0x3e821886	0.25409335
134	0x3e690757	0.22756706
135	0x3e1d5cfb	0.153675
136	0xbde99a27	-0.11406355
137	0x3e251763	0.16122203
138	0xbe4fee23	-0.20305686
139	0x3cfbe9a6	0.03075106
140	0xbddc03b5	-0.107428946
141	0xbd4ad8cf	-0.04952317
142	0x3e68f8b8	0.22751129
143	0x3e29a138	0.16565406
144	0xbdaf423c	-0.08557555
145	0x3e1caf75	0.15301307
146	0xbe07ac40	-0.13249302
147	0xbdf29de5	-0.11846522
148	0xbe2ba263	-0.16761164
149	0xbe341683	-0.17586713
150	0x3e091a42	0.13388923
151	0x3e9e321c	0.30897605
152	0xbd458043	-0.048218023
153	0x3ea97d2f	0.3310332
154	0x3e87fa5c	0.26558197
155	0x3e91a096	0.2844283
156	0xbe31e5f3	-0.17372875
157	0xbdd36d56	-0.103235886
158	0xbe38d799	-0.18050994
159	0x3deb63af	0.114936225
160	0xbddad2ad	-0.106847145
161	0x3e6e0505	0.23244102
162	0xbe2135da	-0.15743199
163	0xbe980782	-0.29693228
164	0xbe1292e0	-0.14313841
165	0xbe1ae5f2	-0.1512678
166	0xbe66fa4d	-0.2255642
167	0xbdd8080c	-0.1054841
168	0xbdd7a638	-0.105297506
169	0x3e22a67e	0.15883824
170	0x3e54d4fc	0.20784372
171	0xbe53589d	-0.20639272
172	0x3e4c3607	0.19942485
173	0xbe4044f9	-0.18776311
174	0xbe04b886	-0.12961015
175	0x3d226656	0.039648376
176	0x3cbbcb5a	0.022924114
177	0x3e581f20	0.21105623
178	0xbdefefb7	-0.11715644
179	0xbe4ec4f8	-0.20192325
180	0xbde3897e	-0.11110209
181	0x3e96e595	0.29472032
182	0x3e611d79	0.21983899
183	0xbd89bca9	-0.06725437
184	0x3e14c911	0.14529826
185	0xbdd0db6a	-0.101981
186	0xbe7cd814	-0.24691802
187	0xbbd96393	-0.0066341846
188	0x3ddf7777	0.10911458
189	0xbdd37318	-0.10324687
190	0x3e50fc5d	0.20408769
191	0x3e4d94a7	0.20076238
192	0xbe4508f7	-0.19241701
193	0xbe8b4b46	-0.27205867
194	0x3e62a569	0.22133411
195	0x3e1355d8	0.14388216
196	0xbe4e3c21	-0.20140125
197	0x3e2ba203	0.16761021
198	0xbe87c7ef	-0.26519725
199	0xbe19a0dc	-0.15002769
200	0xbe891b35	-0.2677857
201	0xbe208388	-0.15675175
202	0xbe0efbbc	-0.13963217
203	0xbe2b95cd	-0.16756363
204	0xbe9ca74a	-0.3059638
205	0x3d464e41	0.048414472
206	0x3e4e1423	0.20124869
207	0xbe82b302	-0.25527197
208	0x3cd62969	0.026142793
209	0x3def01f2	0.11670293
210	0xbd6c89ef	-0.05774873
211	0x3db6a097	0.08917349
212	0x3ea4df45	0.3220159
213	0xbb21bd3c	-0.0024679443
214	0xbe6d1ad5	-0.23154767
215	0x3e3be67d	0.18349643
216	0x3d466b9f	0.04844248
217	0xbde1b6dd	-0.110212065
218	0x3dcd65d0	0.10029185
219	0x3dae10cd	0.08499298
220	0x3cec43fd	0.028841013
221	0xbc2d21a9	-0.010567107
222	0xbe1e5f2a	-0.1546599
223	0x3dc1f160	0.09469867
224	0xbd3aa591	-0.045568053
225	0x3cd020b2	0.025406215
226	0xbdccba12	-0.099964276
227	0xbec3d052	-0.38244873
228	0x3cdd5792	0.027019296
229	0x3c179512	0.00925185
230	0x3cf3b173	0.0297477
231	0xbe6518b0	-0.22372699
232	0x3e003c3c	0.12522978
233	0x3d58f9d6	0.052972637
234	0x3e3bbda5	0.18334062
235	0x3cd24432	0.025667284
236	0x3dcd6df5	0.10030738
237	0x3cbd37b8	0.023097858
238	0xbda1e289	-0.07904536
239	0x3e9da736	0.30791634
240	0xbb58da47	-0.0033089088
241	0xbca90d61	-0.020636262
242	0xbe5b5b6f	-0.21421598
243	0xbe4127bd	-0.18862815
244	0x3e84ca58	0.25935626
245	0x3dd89e86	0.10577111
246	0x3e53d63e	0.20687196
247	0x3da78154	0.08178964
248	0xbd1443d2	-0.03619749
249	0xbd21b683	-0.039480697
250	0x3cd057f7	0.02543257
251	0x3dc9fce1	0.09862686
252	0x3dd05a20	0.1017344
253	0x3ccdabee	0.025106397
254	0xbe446da6	-0.19182453
255	0x3d76877f	0.060187813

encoder.key_net.net.3.bias f4 [72]
0	0xbdbcd98c	-0.09221181
1	0x3dc39b31	0.09551085
2	0xbe376694	-0.17910224
3	0xbd7aa023	-0.061187875
4	0xbc0767a2	-0.008264454
5	0x3e5fd86e	0.21859905
6	0x3e5180be	0.20459267
7	0x3d1e1f8e	0.03860431
8	0xbc217742	-0.009855093
9	0xbc304cb8	-0.010760479
10	0xbdff9cc8	-0.124810755
11	0x3dd65caa	0.10466893
12	0x3d420fdb	0.047378402
13	0x3cde4517	0.027132554
14	0x3e7b2332	0.24525145
15	0x3ca83c0d	0.020536447
16	0xbe7e436d	-0.24830408
17	0x3d92f9ce	0.07176553
18	0xbe58ad6c	-0.21159905
19	0x3d7cfaf7	0.061762776
20	0x3cf19476	0.029489737
21	0x3d6cba02	0.05779458
22	0x3dad5878	0.0846414
23	0x3d8e670a	0.06953247
24	0xbe7b57bb	-0.24545185
25	0x3d8622e6	0.06549625
26	0xbe22077f	-0.15823172
27	0x3e26072f	0.16213678
28	0x3d6b1044	0.05738856
29	0x3e67aa83	0.22623639
30	0xbe3ba66f	-0.18325208
31	0x3d065fc6	0.03280618
32	0xbe71b5ac	-0.23604459
33	0x3d578cd6	0.052624546
34	0x3dca8408	0.09888464
35	0xbcf6ee2f	-0.030142872
36	0x3b2471c3	0.0025092221
37	0x3d32297b	0.04349659
38	0xbeae18d1	-0.34003308
39	0x3e6df087	0.23236285
40	0xbd2d5c46	-0.042324327
41	0x3d3c8a43	0.046030294
42	0x3e7d2e76	0.24724755
43	0xbeacedbc	-0.33775127
44	0xbe09ee8a	-0.13469902
45	0xbe56f838	-0.20993125
46	0xbe6b66d9	-0.22988452
47	0xbd8d22ce	-0.06891404
48	0x3d4189b0	0.04725045
49	0xbacf5c46	-0.0015820346
50	0xbdb140a9	-0.08654911
51	0xbe097d07	-0.134266
52	0x3d9248b1	0.07142771
53	0x3e1f74ca	0.15571895
54	0xbe87a763	-0.26494893
55	0x3d5475a2	0.051869996
56	0xbc411906	-0.011785751
57	0xbe3040d7	-0.17212234
58	0xbdb6dfab	-0.0892938
59	0xbd4450f8	-0.04792878
60	0xbdc1b74c	-0.09458789
61	0x3de11852	0.10990967
62	0xbc56563c	-0.013082083
63	0xba87863a	-0.0010339685
64	0xbd6cdc5c	-0.05782734
65	0x3e5f0671	0.21779801
66	0x3cc162ec	0.02360674
67	0xbeac8966	-0.33698577
68	0xbe440b61	-0.19144966
69	0xbdccabb1	-0.09993685
70	0x3d329f95	0.04360922
71	0x3da11c7c	0.07866761

encoder.val_net.net.0.weight f4 [45, 18]
0	0x3ba9f9d1	0.005187251
1	0xbca14d0b	-0.019690057
2	0xbc964183	-0.018341785
3	0xbbc6397e	-0.006049334
4	0x3bb72de3	0.005590187
5	0xbd7019d8	-0.058618397
6	0xbc8bcba9	-0.017064886
7	0xbd2c4a35	-0.042062957
8	0xbd6f8e92	-0.058485575
9	0xbdcbd904	-0.09953502
10	0x3c32948e	0.010899676
11	0xbcd64a6e	-0.026158538
12	0xbc91f04e	-0.017814782
13	0xbc31394f	-0.010816886
14	0xbd781c1d	-0.060573686
15	0xbc8055f2	-0.015665982
16	0xbc908d99	-0.017645644
17	0xbd336b14	-0.04380329
18	0xbd0c6711	-0.03427798
19	0x3c9df529	0.01928194
20	0xbc99c1bd	-0.01876914
21	0xbda62ab8	-0.08113617
22	0x3cdb54f9	0.026773917
23	0xbd072aef	-0.03299993
24	0x3d02d34d	0.031939793
25	0x3c16b008	0.009197243
26	0x3d03efb5	0.032211024
27	0xbbd8ef60	-0.0066203326
28	0xbd454241	-0.048158888
29	0xbc24118f	-0.010013952
30	0xbd091198	-0.033464044
31	0xbb686239	-0.0035458936
32	0xbd29b8e2	-0.041436084
33	0x3bc65cba	0.0060535343
34	0xbd94e395	-0.0726997
35	0xbd7e032e	-0.06201475
36	0xbd0c1de3	-0.03420819
37	0x3c29c659	0.010362231
38	0x3c531c4a	0.012885163
39	0xbc15de69	-0.009147265
40	0x3d8c2cc7	0.06844478
41	0x3ccca2dc	0.024980001
42	0x3ca3a431	0.019975754
43	0x3dbe4425	0.09290341
44	0x3d7546b0	0.059881866
45	0xbc39ed26	-0.0113480445
46	0xbc1e334d	-0.009655786
47	0x3cc039ee	0.023465123
48	0xbd48eb00	-0.04905224
49	0x3da52e35	0.08065454
50	0x3c8397e2	0.016063634
51	0x3cb69663	0.022288507
52	0xbd8ef113	-0.06979575
53	0x3ca72758	0.020404503
54	0xbd7a957f	-0.061177727
55	0x3d09ce59	0.033644054
56	0xbd53f9c8	-0.05175188
57	0xbcd16bdc	-0.025564127
58	0x3d1d5176	0.038407765
59	0xbd11dba5	-0.03560986
60	0x3d3b3808	0.045707732
61	0x3cf6e6ad	0.030139292
62	0x3c7da0b2	0.015480207
63	0xbde1f6da	-0.11033411
64	0x3cd9eb77	0.026601536
65	0xbc7302cb	-0.014832209
66	0xbd81b8c1	-0.06334067
67	0x3d3134a1	0.04326308
68	0xbc4c83ca	-0.012482593
69	0x3d03420d	0.032045413
70	0xbd3a7559	-0.045522068
71	0x3ca1e9bf	0.01976478
72	0xbaa81326	-0.001282309
73	0xbc604c85	-0.013690119
74	0x3d070c2c	0.032970592
75	0x3bafc9fd	0.005364655
76	0x3d834f0e	0.06411563
77	0xbcb53b77	-0.022123082
78	0x3cc27af6	0.023740273
79	0xbc0d96fd	-0.008641955
80	0xbcb11530	-0.021616548
81	0xbd98363c	-0.074322194
82	0xbb0e8475	-0.002174643
83	0x3d108fd0	0.0352934
84	0xbb80a68e	-0.003926105
85	0x3d46a66f	0.048498567
86	0x3d21896d	0.0394377
87	0x3d4ba989	0.04972223
88	0xbdc47e3c	-0.0959439
89	0xbd7a7ba0	-0.061153054
90	0xbd258785	-0.040412445
91	0xbc4543a0	-0.012040049
92	0x3b90a856	0.0044145985
93	0xbcfe7d2b	-0.031065544
94	0x3de287e3	0.110610746
95	0xbd71a75e	-0.058997504
96	0xbd1a048b	-0.03760199
97	0x3c83b2de	0.016076501
98	0x3d09be42	0.03362871
99	0xbd4e245d	-0.050327647
100	0xbc3c355a	-0.011487329
101	0xbd8229f2	-0.06355657
102	0x3bb39082	0.005479873
103	0x3c6aa187	0.014320738
104	0xbc82828f	-0.015931396
105	0x3ba5800d	0.0050506652
106	0x3ac1fc2d	0.0014799886
107	0x3d3ca537	0.046056
108	0x3d0da6f3	0.034583043
109	0x3d435cc1	0.04769588
110	0xbc92c99c	-0.0179184
111	0xbc10512e	-0.008808417
112	0x3d701e8b	0.058622878
113	0xbcdd3294	-0.027001657
114	0xbd6154dd	-0.055012573
115	0x3cf18ff3	0.029487586
116	0x3cf4770b	0.02984192
117	0xbcff2788	-0.03114678
118	0x3d85ef89	0.06539828
119	0x3ce9acf3	0.028524851
120	0x3c9a5dde	0.018843587
121	0x3cbda367	0.023149205
122	0xbd991e1e	-0.074764475
123	0xbc1493c0	-0.0090684295
124	0xbdd5bd7b	-0.10436531
125	0x3be65684	0.0070293564
126	0xba62fd1b	-0.00086589315
127	0xbc41987b	-0.011816139
128	0x3b8b9746	0.0042599766
129	0xbcd8de84	-0.026473291
130	0x3d14d49e	0.03633558
131	0xbcae4f9c	-0.021278195
132	0x3bec6b0a	0.0072149085
133	0x3cb1d80e	0.021709468
134	0xbbbf889d	-0.005845143
135	0xbd294d3e	-0.04133343
136	0xbc304afc	-0.010760065
137	0xbb6a566e	-0.0035757083
138	0xbc5f5c9a	-0.013632918
139	0x3d39bdad	0.045346905
140	0xbce4ddc9	-0.027937787
141	0xbb4c9685	-0.0031217646
142	0xbd10f1ab	-0.035386723
143	0x3b4c811f	0.0031204892
144	0xbcca3ee2	-0.024688188
145	0xbbdc13b0	-0.006716214
146	0xbcd53b38	-0.026029214
147	0xbdb1c14a	-0.08679445
148	0x3d109f30	0.035308063
149	0x3ca84ec8	0.020545378
150	0xbc6c7704	-0.014432672
151	0x3d5b9ff4	0.05361934
152	0xbacd6cd5	-0.0015672693
153	0xbdd6650f	-0.10468494
154	0xbc679010	-0.014133468
155	0x3d0187df	0.031623717
156	0xbbdfe5ee	-0.0068328297
157	0x3d9cdcda	0.076593116
158	0xbd45acb6	-0.048260413
159	0xbd1ef7fa	-0.038810708
160	0xbc10b1a4	-0.008831415
161	0xbc1e136c	-0.009648185
162	0x3cff8fdc	0.031196527
163	0xbb6ac482	-0.0035822694
164	0xbd60aa33	-0.054849815
165	0xbc5dccb8	-0.013537578
166	0x3d4d5763	0.050132167
167	0xbc1a11e7	-0.009403682
168	0x3d6072e0	0.054797053
169	0xbcd62433	-0.026140308
170	0xb9b5082a	-0.00034529093
171	0xbd64e92f	-0.055886444
172	0xbc827d4d	-0.015928889
173	0xbb5a4773	-0.0033306747
174	0x3d1aad8e	0.03776317
175	0x3db6984d	0.08915768
176	0xbc1868da	-0.009302342
177	0x3d332548	0.043736726
178	0xbd260dec	-0.04054062
179	0x3c4fcf1a	0.012683654
180	0xbc8806e9	-0.016604858
181	0xbd4b41d5	-0.04962333
182	0xbd313821	-0.04326642
183	0x3be076d9	0.0068501052
184	0x3d8964d9	0.06708688
185	0xbcbe7848	-0.023250714
186	0xbd427140	-0.047471285
187	0x3bf5857c	0.007492719
188	0xbacec223	-0.001577441
189	0xbccfe1b0	-0.02537617
190	0xbd11e365	-0.03561725
191	0x3b3a3579	0.002841322
192	0xbd8d27c2	-0.06892349
193	0x3db54ec1	0.08852912
194	0xbd344ac1	-0.044016603
195	0x3d08a76f	0.033362802
196	0xbd4789d9	-0.048715446
197	0xbc4c4c3a	-0.012469346
198	0xbc5e3d85	-0.013564472
199	0xbd156ac4	-0.036478773
200	0x3cd0083e	0.025394555
201	0x3d1a75b8	0.03770992
202	0x3ca54e87	0.020179046
203	0xbd3d449f	-0.04620802
204	0xbc0c0472	-0.008545982
205	0x3bf7937b	0.007555423
206	0x3c361c44	0.0111151375
207	0xbcbab0d4	-0.022789396
208	0x3c254cf6	0.01008915
209	0xbcadb6dc	-0.021205358
210	0xbd30aaf4	-0.043131784
211	0x3cb4e400	0.022081375
212	0x3cbc27c0	0.022968173
213	0xbbd9af3a	-0.006643203
214	0xbd77b477	-0.06047484
215	0xbc146110	-0.009056345
216	0x3bf85503	0.0075784936
217	0xbd824c6c	-0.063622326
218	0xbc7655ca	-0.015035102
219	0x3b5232f8	0.0032073837
220	0x3d64c758	0.05585417
221	0xbd7fd7f8	-0.062461823
222	0x3d21864f	0.039434727
223	0x3cdd28a8	0.026996925
224	0x3d0d6926	0.034524105
225	0xbdc2e337	-0.09515994
226	0xbc499b8c	-0.012305152
227	0xbc1b1f87	-0.009467966
228	0xbd1997f1	-0.03749842
229	0x3cf47606	0.029841434
230	0xbd492a51	-0.04911262
231	0x3cf81029	0.030281143
232	0xbdb3187b	-0.08744904
233	0x3bc6db64	0.006068634
234	0x3da747be	0.081679806
235	0x3c1d868f	0.009614601
236	0x3c4a962e	0.012364907
237	0xbd645ec1	-0.055754427
238	0x3d6ffb34	0.058589175
239	0xbd4a3214	-0.049364164
240	0x3c190125	0.009338652
241	0x3d2ddb62	0.042445548
242	0x3bd36f72	0.0064524943
243	0xbd821673	-0.06351938
244	0xbc242c73	-0.010020363
245	0x3c7d7faf	0.015472337
246	0xbda3490a	-0.079729155
247	0x3cdc52ed	0.02689501
248	0x3b9be8ac	0.0047579613
249	0x3c911f91	0.017715247
250	0xbc0843c9	-0.0083169425
251	0x3b48e560	0.0030654296
252	0xbd777822	-0.060417302
253	0xbd4d7fa0	-0.05017054
254	0x3c3170a0	0.010830075
255	0xbc35a235	-0.011086036

encoder.val_net.net.0.bias f4 [45]
0	0xbed783f9	-0.42092875
1	0xbec25d2e	-0.37961715
2	0xbe9de4df	-0.30838677
3	0xbfa1ac39	-1.2630683
4	0x3f0451b7	0.51687187
5	0xbe23bee8	-0.15990794
6	0xbf138939	-0.5763126
7	0xc0811a1b	-4.0344367
8	0xbe1db93f	-0.15402697
9	0xbd8226ca	-0.06355055
10	0xbd7cc543	-0.06171156
11	0x3e8dd3f6	0.27700776
12	0x3f0b37df	0.5438213
13	0xbe7ed6f3	-0.24886684
14	0xbe694152	-0.22778824
15	0xbee6f77a	-0.45110685
16	0xbe2df29a	-0.16987076
17	0x3f2226d3	0.6334049
18	0xbf1986df	-0.5997142
19	0x3ee466e2	0.44609743
20	0x3dbb1ed3	0.09136739
21	0x3ebed9c5	0.3727552
22	0x3e0eb7be	0.1393728
23	0x3e78fc2e	0.24314949
24	0x3da97b4a	0.08275469
25	0x3e0846f5	0.13308318
26	0xbf2a40a3	-0.6650488
27	0xbf741434	-0.9534333
28	0xbecddb23	-0.4020625
29	0xbf91c641	-1.1388627
30	0x3f29e691	0.6636744
31	0x3e8f6852	0.28009278
32	0x3f07b31b	0.5300767
33	0x3f02cc62	0.51093113
34	0xbf03b8c8	-0.5145383
35	0x3f07f7b2	0.5311233
36	0xbf16d10f	-0.5891275
37	0xbf5ff278	-0.8747935
38	0x3e52f97b	0.20602982
39	0x3f17e704	0.59336877
40	0xbef3ea90	-0.47639894
41	0xbee5d593	-0.44889507
42	0xbec44a9d	-0.38338175
43	0x3f3b65c6	0.7320217
44	0x3f2d32cb	0.6765563

encoder.val_net.net.1.weight f4 [45]
0	0x3f8994dd	1.0748554
1	0x3f708b12	0.93962204
2	0x3f8e2368	1.1104555
3	0x3f2a7786	0.6658863
4	0x3f5ff356	0.87480676
5	0x3f7a68e6	0.9781631
6	0x3f8fddd2	1.1239569
7	0x3e81ec4b	0.2537559
8	0x3f669d6f	0.90083975
9	0x3f5ce6ae	0.8628949
10	0x3f4d6dfa	0.80245936
11	0x3f34d89b	0.70643014
12	0x3f74c52a	0.9561335
13	0x3f8dfd6a	1.1092961
14	0x3f9aec64	1.2103391
15	0x3f547833	0.8299591
16	0x3f568b93	0.83806723
17	0x3f7286a4	0.94736695
18	0x3f5fccd8	0.8742194
19	0x3f63897f	0.8888168
20	0x3f3e5e42	0.74362576
21	0x3f51f54e	0.8201493
22	0x3f48d570	0.7845068
23	0x3f40d1e1	0.7532025
24	0x3f30ed94	0.69112515
25	0x3f3161c9	0.69289833
26	0x3f5611f0	0.8362112
27	0x3f510c32	0.81659234
28	0x3f6a4c84	0.91523004
29	0x3f2ce8c0	0.6754265
30	0x3f85f180	1.0464325
31	0x3f567b3f	0.8378181
32	0x3f7970a6	0.9743751
33	0x3f6decc5	0.92939407
34	0x3f71d26c	0.94461703
35	0x3f4e5ead	0.80613214
36	0x3f4cd119	0.8000656
37	0x3f2a9c8a	0.6664511
38	0x3f3d446b	0.7393252
39	0x3f6b85e0	0.9200115
40	0x3f418b86	0.7560352
41	0x3f58d6e1	0.8470288
42	0x3f6fd5d4	0.9368565
43	0x3f840bbd	1.0316082
44	0x3f832b95	1.0247675

encoder.val_net.net.1.bias f4 [45]
0	0x3ea674d0	0.32510996
1	0x3e82c5e4	0.25541604
2	0x3e339c4c	0.17540091
3	0x3f61588b	0.8802573
4	0x3e8d9efe	0.27660364
5	0x3dd5ab73	0.10433092
6	0x3ef76b01	0.48323825
7	0x3f4e3e09	0.8056341
8	0x3e06b76e	0.1315591
9	0x3e4391da	0.19098607
10	0x3e791238	0.24323356
11	0x3e8c1020	0.27356052
12	0x3e9a6efa	0.30162793
13	0x3da11d3d	0.07866905
14	0x3d6c74db	0.05772863
15	0x3ea81799	0.32830504
16	0x3e4c4a42	0.19950202
17	0x3ebb710d	0.36609688
18	0x3ef333f4	0.47500575
19	0x3e94e23a	0.29078847
20	0x3e8c2f05	0.27379623
21	0x3e9ad30f	0.3023915
22	0x3e511d42	0.20421317
23	0x3e6446d4	0.22292644
24	0x3d1c361b	0.038137536
25	0x3d929414	0.0715715
26	0x3f05bde3	0.5224287
27	0x3f445410	0.7669077
28	0x3e8440c3	0.2583066
29	0x3f555f0b	0.8334815
30	0x3eb4e415	0.35330263
31	0x3e4d4bf1	0.200485
32	0x3ecc553c	0.3990878
33	0x3ec2179a	0.37908632
34	0x3ecfc9ba	0.40583593
35	0x3e8e0506	0.27738208
36	0x3ed8defe	0.4235763
37	0x3f1a2df7	0.60226387
38	0x3e47867d	0.19484897
39	0x3ec224ff	0.3791885
40	0x3ea8be70	0.32957792
41	0x3e9af7b3	0.30267105
42	0x3e8011ed	0.25013676
43	0x3eba7817	0.36419746
44	0x3ec8fa61	0.39253524

encoder.val_net.net.3.weight f4 [72, 45]
0	0xbde4b7a0	-0.11167836
1	0xbdf01ca7	-0.11724215
2	0x3d26a7e8	0.04068747
3	0xbe33db9e	-0.17564246
4	0x3d68f5b0	0.05687493
5	0x3ed1ae7d	0.40953436
6	0xbdc2f3ef	-0.09519183
7	0x3ea9ad9a	0.3314026
8	0xbc3afbe7	-0.011412597
9	0x3b1e95b2	0.0024198112
10	0x3e67797d	0.22604938
11	0x3e074352	0.13209274
12	0x3e527812	0.20553616
13	0xbe271d3d	-0.16319747
14	0x3d714cbd	0.058911074
15	0xbf1b0608	-0.6055608
16	0x3dd5cb60	0.10439181
17	0xbe944652	-0.289599
18	0xbf0746ab	-0.52842206
19	0x3e9a1b59	0.3009899
20	0xbd7e1768	-0.06203404
21	0xbe6ad521	-0.22932865
22	0x3e34b02d	0.1764533
23	0x3e008a52	0.12552765
24	0x3dc95606	0.09830861
25	0x3dce06e2	0.100599065
26	0x3d5cea5a	0.053934433
27	0xbef03a28	-0.4691937
28	0x3e75f4c7	0.24019156
29	0x3db405ab	0.087901436
30	0xbc0ba4e3	-0.008523199
31	0x3dcd1faf	0.10015809
32	0xbe009610	-0.12557244
33	0xbe269058	-0.16266
34	0xbecd639d	-0.4011506
35	0xbe1360bf	-0.14392374
36	0x3f0185d1	0.5059481
37	0x3dff9e91	0.12481416
38	0xbdb7749a	-0.08957787
39	0xbbbc3c01	-0.0057444577
40	0xbe2e5915	-0.1702617
41	0x3f22b802	0.63562024
42	0x3ec74a72	0.38923985
43	0x3d650338	0.055911273
44	0x3ce52449	0.027971404
45	0xbd47f892	-0.04882104
46	0x3d4e9884	0.05043842
47	0x3d9e1eda	0.07720728
48	0xbe8080b0	-0.2509818
49	0x3defc3d1	0.11707271
50	0xbeb329c1	-0.34992793
51	0x3c10336d	0.008801323
52	0x3ded4cc9	0.11586911
53	0xbdaf2b80	-0.08553219
54	0xbe156048	-0.1458751
55	0x3e2b87ad	0.16750975
56	0xbd0d99a2	-0.034570344
57	0xbc81b4b1	-0.01583323
58	0x3eaa735d	0.3329114
59	0x3d2b968e	0.041891627
60	0xbe9d7163	-0.3075057
61	0x3cbc7666	0.023005676
62	0x3e886ce0	0.26645565
63	0x3e0ed7e0	0.13949537
64	0x3d69c0e7	0.05706873
65	0xbdfcb7b8	-0.12339729
66	0xbcf42643	-0.0298034
67	0x3dcee793	0.10102763
68	0xbe822a07	-0.2542269
69	0xbe7924ba	-0.24330416
70	0xbde7c7cb	-0.11317404
71	0x3e16c939	0.14725198
72	0x3ee8cb6e	0.45467705
73	0xbead2a34	-0.3382126
74	0x3e8716ca	0.26384574
75	0x3de7b64b	0.113140665
76	0x3e2eb5dc	0.17061561
77	0xbeb03601	-0.34416202
78	0xbd4dc49a	-0.050236322
79	0xbd5aaf6c	-0.05338995
80	0xbb91ce23	-0.0044496222
81	0x3ef9bbcb	0.48776087
82	0x3e947b00	0.29000092
83	0x3d8aea78	0.067830026
84	0xbdf1fe47	-0.11816078
85	0xbd93054a	-0.07178743
86	0xbc05a64a	-0.008157322
87	0x3dfb3b47	0.12267166
88	0x3e8210da	0.25403482
89	0xbe6b0fe9	-0.22955288
90	0x3cd8fd6d	0.02648803
91	0xbe9bc354	-0.3042246
92	0xbe034d39	-0.12822427
93	0xbe7a595e	-0.24448153
94	0xbd9825ab	-0.074290596
95	0xbe35ee2f	-0.17766641
96	0x3e6754f2	0.22590998
97	0xbd7e6d11	-0.062115733
98	0x3de27d77	0.11059087
99	0xbe87ac91	-0.26498845
100	0xbe3d7c83	-0.18504529
101	0xbda62909	-0.081132956
102	0xbd0a2cfc	-0.033734307
103	0xbd96a9aa	-0.073565796
104	0xbe55129f	-0.20807885
105	0xbeb53aad	-0.3539633
106	0x3bd9e42d	0.006649515
107	0x3e39a5fd	0.18129726
108	0x3ce1e75c	0.027576141
109	0x3df92930	0.12166059
110	0x3e2ecb09	0.1706964
111	0xbd6cf5eb	-0.057851713
112	0xbc013923	-0.007887158
113	0x3db10871	0.08644188
114	0xbddce19d	-0.1078522
115	0xbe675b07	-0.22593318
116	0x3eac3fe7	0.33642504
117	0x3e0c395e	0.13693759
118	0x3d4723da	0.048618175
119	0x3eeadd8b	0.4587215
120	0x3b690192	0.0035553914
121	0x3e02b9e3	0.12766223
122	0x3e3efe18	0.18651617
123	0xbdd56d33	-0.10421219
124	0xbea32bf7	-0.3186948
125	0x3e524902	0.20535663
126	0x3eb69ebf	0.3566799
127	0xbed9bcfc	-0.42526996
128	0x3d3bc6a9	0.045843754
129	0xbdf77893	-0.120835446
130	0xbd77eda4	-0.060529366
131	0xbdec787c	-0.11546418
132	0x3ec8e7de	0.392394
133	0xbe6c3265	-0.23066099
134	0xbd84c447	-0.064827494
135	0x3e828581	0.2549248
136	0xbea480a8	-0.32129407
137	0xbe522d97	-0.20525204
138	0xbde92a6e	-0.11385046
139	0x3e03a8c3	0.12857346
140	0xbe58bc84	-0.21165663
141	0x3c85036d	0.016236985
142	0xbe8c70db	-0.27429852
143	0xbe94ed86	-0.29087466
144	0x3d8f3432	0.06992377
145	0x3e1a5ebc	0.15075201
146	0x3df5b55d	0.11997483
147	0x3d21b913	0.03948314
148	0xbec05f3b	-0.37572655
149	0xbca57e3c	-0.020201795
150	0xbca708f2	-0.020390008
151	0x3e3da7d4	0.18521053
152	0xbdc1db7c	-0.094656914
153	0xbdaf6ffc	-0.08566281
154	0xbe208c5d	-0.15678544
155	0xbdf65218	-0.12027377
156	0x3e42fb47	0.19041167
157	0xbe804b06	-0.25057238
158	0xbe23b965	-0.15988691
159	0xbe16e98e	-0.14737532
160	0x3c23fe5c	0.0100093745
161	0x3ea4785d	0.3212308
162	0x3ea7416b	0.32667097
163	0x3f0580fd	0.52149945
164	0xbc5a8247	-0.013336725
165	0x3e8f3f5f	0.27978036
166	0x3def8618	0.11695498
167	0x3e974a13	0.29548702
168	0x3c8573ca	0.016290564
169	0xbe91a1bc	-0.28443706
170	0x3cc771e7	0.024346305
171	0x3d322e3d	0.043501128
172	0x3f20698f	0.6266107
173	0xbdd42d98	-0.10360259
174	0x3e5a2f26	0.21307048
175	0x3eeeaa59	0.4661434
176	0x3dc8d48e	0.098061666
177	0x3ea28e0b	0.31748995
178	0xbe562b76	-0.20915017
179	0xbeba3945	-0.36371818
180	0xbe056d92	-0.13030079
181	0xbe682688	-0.22670949
182	0xbc2d63c9	-0.010582873
183	0x3d3a9847	0.04555538
184	0xbe61f256	-0.220651
185	0xbc2a6551	-0.010400132
186	0x3f0d4385	0.5518115
187	0x3d31aabe	0.043375723
188	0xbd7c557d	-0.061604965
189	0x3e2c810d	0.16846104
190	0xbeacc476	-0.33743638
191	0xbe06f445	-0.13179119
192	0x3e39a37f	0.18128775
193	0x3ea620c2	0.32446867
194	0xbf38e644	-0.7222636
195	0x3e662f8e	0.22479078
196	0x3da4a0c6	0.080384776
197	0x3c5d3b90	0.01350297
198	0x3e217168	0.15765917
199	0xbe4d90fa	-0.20074835
200	0x3e996937	0.29963085
201	0x3e2fdedb	0.17174856
202	0x3d0f1050	0.034927666
203	0xbd91d924	-0.071214944
204	0xbe43bb55	-0.1911443
205	0x3d7e87be	0.062141173
206	0xbdcc50e1	-0.09976364
207	0xbe1225c6	-0.14272222
208	0xbf20ce50	-0.6281481
209	0xbeb77efc	-0.3583907
210	0x3e2dcdd1	0.16973044
211	0xbd7d4f27	-0.061843064
212	0x3d87d5e7	0.066325955
213	0xbadeb8a5	-0.0016992284
214	0xbe17f99f	-0.14841317
215	0x3d8ee458	0.06977147
216	0xbee54a56	-0.44783276
217	0x3cf81a98	0.030286118
218	0xbea707ab	-0.32623038
219	0xbd7c18b5	-0.061547
220	0xbe7912cd	-0.24323578
221	0xbed217bd	-0.41033736
222	0x3e837556	0.25675458
223	0xbda1553a	-0.07877584
224	0x3bfa15ab	0.0076319776
225	0x3d271244	0.040788904
226	0x3e97c107	0.29639456
227	0xbe8fc478	-0.2807958
228	0x3e967c79	0.2939184
229	0xbe23b222	-0.15985921
230	0x3e600ec7	0.21880637
231	0xbc94e4ed	-0.018175567
232	0xbc1941ff	-0.009354114
233	0xbe62cac0	-0.22147655
234	0x3c59f990	0.013304129
235	0x3e1fe8fc	0.1561622
236	0xbd4fa0c3	-0.050690424
237	0xbd05894f	-0.03260165
238	0xbe9cec93	-0.30649242
239	0x3d5b4d1f	0.053540345
240	0x3f012f01	0.5046235
241	0xbe4fd713	-0.20296888
242	0x3db59e95	0.08868138
243	0x3f0bb4b6	0.5457262
244	0x3dc2baef	0.09508311
245	0xbe2486c3	-0.16067033
246	0x3e27b824	0.16378838
247	0x3d2ad0bb	0.041702967
248	0xbe1a3e36	-0.15062794
249	0xbe460cfc	-0.1934089
250	0x3db5d2df	0.08878111
251	0xbea37569	-0.31925514
252	0xbe83e719	-0.2576225
253	0x3ee4cfa9	0.44689682
254	0x3e407c65	0.18797453
255	0x3e6726e1	0.22573425

encoder.val_net.net.3.bias f4 [72]
0	0xbce01b96	-0.027356904
1	0x3d37ccb4	0.044872954
2	0xbdb473f5	-0.088111795
3	0xbe7613fe	-0.24031064
4	0x3d5d56c1	0.054037813
5	0xbbe34037	-0.0069351452
6	0xbdb9cd90	-0.09072411
7	0x3d89810e	0.06714068
8	0xbc769de0	-0.015052289
9	0xbd05b7a9	-0.032645855
10	0xbd9e1998	-0.07719725
11	0xbe048646	-0.12941846
12	0x3d488481	0.04895449
13	0x3d923799	0.07139511
14	0xbd121501	-0.035664562
15	0xbca4303e	-0.020042535
16	0xbda084ce	-0.078378305
17	0x3df48fbe	0.11941479
18	0x3c2ef964	0.010679577
19	0xbe87aa91	-0.2649732
20	0x3e0ca745	0.13735683
21	0xbe0d7a4d	-0.13816185
22	0xbdbe3dd0	-0.092891335
23	0xbd79cf70	-0.060988843
24	0xbbb89e94	-0.0056341384
25	0x3cc8d706	0.024516594
26	0x3d69a735	0.057044227
27	0xbdb7eb18	-0.089803874
28	0x3e22496a	0.15848318
29	0x3d2f3582	0.04277564
30	0x3ddfab6e	0.109213695
31	0x3c77f5c9	0.015134283
32	0x3de05e06	0.109554335
33	0x3cd5c3d2	0.026094351
34	0xbd3bc7bb	-0.045844775
35	0xbda046ad	-0.0782598
36	0xbd0dbb0f	-0.03460222
37	0xbd5915f2	-0.052999444
38	0xbc9090d3	-0.017647183
39	0x3d90666d	0.07050786
40	0x3c209255	0.009800513
41	0x3d750ed3	0.05982859
42	0xbb4ff7f2	-0.003173348
43	0xbdb9eaf5	-0.090780176
44	0x3dd048ba	0.101701215
45	0x3db479ff	0.088123314
46	0xbe1b6063	-0.15173487
47	0xbdf1b8f6	-0.118028566
48	0xbde74c76	-0.11293881
49	0x3cea6a77	0.02861522
50	0x3d48b25f	0.048998233
51	0x3d36efc7	0.044662263
52	0x3edd7adf	0.43257806
53	0xbc799a47	-0.0152345365
54	0x3cfcbfa2	0.030853096
55	0xbdb7b58f	-0.089701764
56	0x3d34e379	0.044162247
57	0x3dcafa0b	0.09910973
58	0xbd2a62d2	-0.04159815
59	0x3d3eb968	0.046563536
60	0xbc6094de	-0.013707368
61	0xbd2198e7	-0.03945246
62	0x3cf038a0	0.029323876
63	0xbd6108de	-0.054940097
64	0xbd787ce9	-0.060666
65	0xbe0dd8de	-0.1385226
66	0xbb865b89	-0.0041002673
67	0x3d11b0a0	0.035568833
68	0x3daa2257	0.08307331
69	0xbd62cd89	-0.055371795
70	0xbd68dc9d	-0.05685102
71	0x3cc65afc	0.024213307

encoder.rank.weight f4 [1, 18]
0	0x3e6ef137	0.23334204
1	0xbe136411	-0.14393641
2	0x3e065cf6	0.131214
3	0xbe08d7a9	-0.13363518
4	0xbe2e1f04	-0.17004019
5	0x3c4eab25	0.012614046
6	0x3d67e3b5	0.056613643
7	0x3d7ea0a4	0.062164918
8	0xbe348b52	-0.17631271
9	0x3cf28b1b	0.029607346
10	0x3d812cda	0.06307383
11	0xbe3774de	-0.17915675
12	0xbd775e99	-0.06039295
13	0xbe2f7c69	-0.17137302
14	0x3c0b4fe0	0.00850293
15	0x3e2f0308	0.17091
16	0xbe5a6884	-0.21328932
17	0x3e65e569	0.22450794

encoder.cardinality.weight f4 [72, 1]
0	0x3ebd77b8	0.370054
1	0x3e06ff0d	0.13183232
2	0xbf4bce5b	-0.7961175
3	0xbda36c91	-0.07979692
4	0x3dd43ac8	0.10362774
5	0x3a9a75f4	0.001178442
6	0x3f113a7e	0.56729877
7	0x3ca8de25	0.02061374
8	0xbdc4e1b4	-0.09613362
9	0xbe0753ec	-0.13215607
10	0x3dca7989	0.09886462
11	0x3dfd1f3d	0.12359474
12	0x3e91f684	0.2850839
13	0x3e831839	0.25604418
14	0x3ecf598c	0.40498006
15	0xbe8e7060	-0.2782011
16	0x3e2911a5	0.16510637
17	0x3e96e4ea	0.29471523
18	0x3f858d39	1.0433723
19	0x3ec884a0	0.39163685
20	0xbeb9ec7f	-0.36313245
21	0xbe16d0f7	-0.14728151
22	0x3e549c6a	0.20762792
23	0x3c9d0511	0.019167455
24	0xbf62712f	-0.88453954
25	0x3d9f4a18	0.07777804
26	0xbf69cc74	-0.91327596
27	0x3f51c834	0.8194611
28	0x3d0ef968	0.03490582
29	0xbf44044b	-0.7656905
30	0xbdbd6e7a	-0.09249587
31	0xbdfc9184	-0.123324424
32	0x3ee39aaa	0.44453937
33	0x3e01f6f1	0.12691857
34	0xbe5677db	-0.20944159
35	0x3e797c2a	0.24363771
36	0x3e71c0bf	0.23608683
37	0xbe110824	-0.14163262
38	0xbecb10a6	-0.3966114
39	0x3e4ce4c3	0.2000914
40	0xbe1414ce	-0.14461061
41	0xbc3a370e	-0.011365665
42	0x3f59bfef	0.8505849
43	0xbf17caaf	-0.59293646
44	0xbf35e4d6	-0.710523
45	0x3f1acf34	0.60472417
46	0x3f29f9ae	0.66396606
47	0xbe7913b8	-0.24323928
48	0x3e9973a9	0.29971054
49	0x3ec0e773	0.37676582
50	0xbc347400	-0.011013985
51	0x3c129289	0.0089460695
52	0x3e84fdc9	0.25974873
53	0x3e61a42a	0.2203528
54	0xbe52e49d	-0.20595022
55	0x3db5ce91	0.0887729
56	0x3cbd5f15	0.023116628
57	0x3f60de21	0.8783894
58	0xbe9374a9	-0.28799942
59	0x3ee4c41b	0.44680867
60	0x3e36ef40	0.17864704
61	0xbe7c8344	-0.24659449
62	0xbe3e5158	-0.18585718
63	0x3ea441d2	0.32081467
64	0xbf49e99e	-0.78872097
65	0xbdd189fb	-0.10231396
66	0xbeae3fd8	-0.34033084
67	0x3ea1a302	0.31569678
68	0xbeecd02d	-0.46252576
69	0x3f38fbdd	0.7225931
70	0x3f1daf34	0.61595464
71	0x3ea70bfe	0.32626337

encoder.cardinality.bias f4 [72]
0	0xbf6382e4	-0.888716
1	0xbea4c3d6	-0.3218066
2	0xbf47a467	-0.77985233
3	0x3e546c39	0.20744409
4	0x3f236490	0.6382532
5	0xbde6c869	-0.11268694
6	0xbf07936e	-0.52959335
7	0xbe0a2a49	-0.13492693
8	0x3e55f102	0.20892718
9	0x3eab0ce1	0.33408263
10	0xbe55e7eb	-0.20889251
11	0xbe2c0ad0	-0.16801
12	0xbee39414	-0.44448912
13	0xbef6cfac	-0.48205316
14	0x3f4bdb47	0.79631466
15	0x3f364a0b	0.7120673
16	0xbebdcdb3	-0.37071
17	0x3ef8a8c3	0.48566255
18	0x3f1c2137	0.6098818
19	0xbf68d258	-0.9094596
20	0x3f5c3a05	0.8602603
21	0x3ec15cb4	0.3776604
22	0xbefea15e	-0.49732488
23	0xba797bfb	-0.0009517071
24	0x3db2e1ec	0.087344974
25	0xbe84a758	-0.25908923
26	0xbea99737	-0.3312318
27	0x3f5deaf7	0.8668665
28	0xbe65d384	-0.22443968
29	0x3e31f41a	0.17378274
30	0xbe2cb2c6	-0.16865072
31	0x3ea155f9	0.31510904
32	0x3f5652e7	0.8372025
33	0xbee80802	-0.4531861
34	0x3ed61fca	0.41821128
35	0xbf199c77	-0.6000437
36	0xbf18b8a1	-0.5965672
37	0x3ecd6eee	0.40123695
38	0xbf4ffc52	-0.81244385
39	0xbf55819b	-0.8340089
40	0x3f036283	0.5132219
41	0x3d7a9e6c	0.06118624
42	0x3f5d15ee	0.8636159
43	0x3f1d48c7	0.61439174
44	0x3f51b3dc	0.8191507
45	0xbdb46b76	-0.08809559
46	0xbf45b3d2	-0.7722751
47	0x3f1b6e84	0.6071551
48	0xbf57789b	-0.84168404
49	0xbf5a1a74	-0.85196614
50	0x3df79c22	0.12090327
51	0x3e9b51cb	0.3033584
52	0xbf32a5c5	-0.69784194
53	0xbf1196b8	-0.56870604
54	0x3e772ea9	0.24138893
55	0xbe379e73	-0.17931537
56	0x3f02a98b	0.5103995
57	0x3f0f64c1	0.56013113
58	0x3f160d79	0.5861431
59	0xbf8b3f92	-1.0878775
60	0xbed73520	-0.4203272
61	0x3f254c0e	0.64569175
62	0x3ea6847a	0.32522947
63	0xbf4b4b18	-0.7941146
64	0xbedb905d	-0.42883578
65	0xbe075378	-0.13215435
66	0x3f5e0115	0.867204
67	0xbf1dc441	-0.61627585
68	0xbfc07022	-1.503422
69	0xbeae53b1	-0.34048226
70	0x3dac62df	0.08417296
71	0xbf434fa3	-0.7629339
