weights/sae_norm_18.pt (torch, 132807 bytes, 30 tensors)

encoder.key_net.net.0.weight f4 [68, 64]
000000 4e ed 07 be cb 12 33 3e 85 90 5a bd 16 92 03 bd
       -0.13274118 0.17487638 -0.05336048 -0.03212174
000010 90 82 a3 3c 66 08 df 3d f0 8c e9 bd 42 5c 84 3d
       0.019959718 0.10890274 -0.11403835 0.06462909
000020 e0 d7 34 bd 80 6e 87 3a 38 7c 03 3d ae 02 bf bd
       -0.044151187 0.0010332614 0.032100886 -0.09326683
000030 48 92 8c 3d 18 a2 ba 3c 92 96 fa bd c8 f5 95 3c
       0.068638384 0.02278237 -0.1223575 0.018305674
000040 60 58 8d bc dc e1 d3 bd 70 ca f0 3d 90 cb a9 bd
       -0.017254055 -0.10345814 0.11757362 -0.082907796
000050 92 dd e1 bd 82 5c 93 3d a6 26 f4 bd 70 1f bf bd
       -0.11028589 0.07195379 -0.11921434 -0.09332168
000060 ca 43 ab 3d 70 65 6a bc 38 cd e4 bc b8 9e e0 3c
       0.08362539 -0.014306411 -0.027929887 0.027419433
000070 cc b0 76 3d 48 33 95 3d a6 c6 89 3d 80 52 71 3d
       0.0602272 0.07285172 0.06727342 0.05891657
000080 a8 cc d4 3d 28 1b d9 bc 80 83 c2 3d 60 84 c2 3c
       0.103905976 -0.026502207 0.09497738 0.023744762
000090 a4 f4 9b 3d 18 c7 b5 3d 30 59 6a bd a4 c7 ea 3d
       0.07615021 0.08875865 -0.057213962 0.1146386
0000a0 d0 a6 b4 3c 98 55 b8 bd b0 32 db 3d 40 38 db 3b
       0.022052199 -0.09000701 0.10703027 0.006690055
0000b0 8c ca 46 3d e8 87 bd 3d 1a c6 cd bd d8 2f c5 bc
       0.048533008 0.09254438 -0.100475505 -0.024070665
0000c0 f0 ff f5 3d 6e a1 f6 bd 08 7a b3 bc e6 83 c0 bd
       0.12011707 -0.12042509 -0.021908775 -0.09400158
0000d0 ae 84 a9 bd 58 51 d3 bd 1e 7c fe bd cc 9e 58 3d
       -0.0827726 -0.103182495 -0.12426017 0.052885816
0000e0 c0 ba fe bd 7e 4f 81 bd 8c 27 0c 3d bc dc f0 3d
       -0.124379635 -0.0631399 0.034217402 0.11760852
0000f0 f0 46 a4 bc 00 08 01 39 c6 86 d4 3d c8 17 5f 3d
       -0.020053357 0.00012305379 0.103772685 0.05446604
000100 86 fe c0 3c 73 f3 9a 3b 27 c4 04 3e 92 ca 17 bd
       0.023558866 0.0047287284 0.12965451 -0.03705842
000110 e8 f9 e7 bc ec df 57 3d 88 c6 f5 3c 30 18 97 3d
       -0.028317407 0.052703783 0.030001894 0.0737766
000120 58 50 8d 3d 14 5c 45 bd 8e 05 a4 bd 76 33 99 3d
       0.0690009 -0.048183516 -0.08008872 0.074805185
000130 a8 f4 80 bc 3c e6 98 bd 78 a8 7c 3d 36 46 83 3d
       -0.015741661 -0.07465789 0.0616841 0.06409876
000140 d0 90 1e bc fa 14 be bd 24 cf e4 3d 36 53 b5 3d
       -0.009678081 -0.09281345 0.111723214 0.08853762
000150 50 9f b0 3c 90 65 a4 bc cc ee 22 3d 08 68 d3 3c
       0.021560341 -0.02006796 0.039778516 0.025806442
000160 c8 77 63 3d e4 5b 28 bd a4 a3 69 bd c4 d0 57 3d
       0.055534154 -0.04110326 -0.057040825 0.05268933
000170 20 90 b5 3d 9a ae c1 3d 38 37 e6 bd 6e 68 fc bd
       0.0886538 0.09457131 -0.11241001 -0.12324606
000180 10 a7 63 3d f0 fb 6e 3d 88 63 0c 3d f8 08 b6 3c
       0.055579245 0.058345735 0.034274608 0.022221074
000190 a2 b5 ec 3d 44 ed 73 bd c0 96 8e bd 74 6d 8f bd
       0.11558081 -0.059552446 -0.06962347 -0.070032984
0001a0 34 cd a0 bd 54 32 a5 bd 08 9f 36 3d 12 8f e2 3d
       -0.078516394 -0.0806624 0.044585258 0.11062445
0001b0 ba 23 cf bd 36 fe fc bd 88 32 6d bd 96 1c a8 3d
       -0.10114236 -0.123531744 -0.05790952 0.08208577
0001c0 b8 4d 7a bd c0 dd 87 bb 5a 3e bf 3d 44 44 73 3d
       -0.061109275 -0.0041463077 0.093380645 0.059391275
0001d0 62 53 bb 3d b2 31 ec 3d 1c 6c a3 3d fa e1 b7 bd
       0.091467634 0.11532916 0.079796046 -0.089786485
0001e0 1e e2 8b bd 00 f7 14 bb dc 8c f6 3d c0 80 f4 bd
       -0.06830238 -0.0022730231 0.120385855 -0.119386196
0001f0 24 bc 4e bd f8 32 bc bc 7c 6b 99 bd 4c e3 07 3d
       -0.050472394 -0.022973523 -0.07491204 0.03317575
000200 0e 9f d2 bd ad 63 b4 3c bd 6d 0e 3e bf 6a b2 bd
       -0.102842435 0.022020185 0.1390905 -0.087117665
000210 00 80 f2 3b b4 04 f1 bd 80 ce e0 bb 8e ab f9 bd
       0.0074005127 -0.11768475 -0.006860554 -0.121909246
000220 be cb f2 bd e8 d3 00 3d 40 61 e9 3c 58 aa 1b bd
       -0.11855267 0.03145209 0.028488755 -0.03800425
000230 ac b6 16 3d 10 b7 22 bd c8 75 b9 3c c4 12 d0 bd
       0.036795303 -0.039725363 0.02263917 -0.10159829
000240 c4 1d 7c bd 56 cb c3 3d b4 f7 65 3d 08 94 91 3d
       -0.061551824 0.095602676 0.05614443 0.07108313
000250 68 bb 2c 3d 6c c8 d6 bd 6c ce 23 3d 4e 5e d9 bd
       0.042170912 -0.10487446 0.03999178 -0.1061369
000260 2e d0 e6 3d 40 af 21 bd 50 6a 95 bc dc 82 37 bd
       0.11270176 -0.039473772 -0.01823917 -0.04480253
000270 08 f9 52 bd d8 5d cc 3c 38 a7 d9 3d 7e ad 80 3d
       -0.051507026 0.024947092 0.106275976 0.06283091
000280 3c 53 1a bd 10 91 b3 3c 78 da 04 bd 56 4c b7 bd
       -0.037677035 0.021919757 -0.03243491 -0.08950107
000290 c2 41 bc 3d 5a 45 a2 bd c4 a8 cd 3d 20 54 3c 3c
       0.0919223 -0.07923384 0.10041955 0.011494666
0002a0 b8 73 d1 3c 1c f8 ce 3d e0 61 60 3d 58 04 81 3d
       0.025567874 0.10105917 0.05478084 0.06299657
0002b0 30 90 8f 3c 60 21 e5 bb 30 2f 7f bd 78 60 a2 bd
       0.017524809 -0.006992504 -0.06230086 -0.07928556
0002c0 68 3a 55 3d 00 f4 c4 bc f6 d9 b4 3d 40 68 c3 3d
       0.052057654 -0.02404213 0.08830635 0.095413685
0002d0 e8 83 aa 3d e6 4d 9d 3d 9c 7f da bd a6 d6 f8 bd
       0.0832594 0.076808736 -0.10668871 -0.12150316
0002e0 66 a3 ef bd 40 43 24 3c 88 a8 0a 3d cc b1 04 3d
       -0.11701088 0.010025799 0.03385213 0.032396123
0002f0 d0 eb 47 3d 86 87 ac 3d 3c 05 1d 3d 58 8d 80 bc
       0.048808873 0.084242865 0.03833507 -0.015692398
000300 b9 1a 75 3c 5c 8d 1a 3e 87 db 0f be 96 58 99 bd
       0.014959984 0.15092987 -0.14048587 -0.074875996
000310 f8 94 5f 3d 06 dc ac 3d 7c 01 11 3d c2 92 af 3d
       0.054585427 0.08440404 0.035401806 0.08572914
000320 80 06 6e 3d a6 08 c4 bd 4e 32 f0 bd 98 56 c3 3c
       0.058111668 -0.09571962 -0.11728345 0.023845002
000330 60 67 60 bd b0 4e 85 bd 4e ee cc 3d d0 e5 9d 3d
       -0.054786086 -0.06509149 0.100063905 0.07709849
000340 58 89 69 3d f0 f5 9a bc 70 47 e9 3c c0 2b 15 3c
       0.057015747 -0.0189161 0.028476447 0.009104669
000350 aa 5a c7 bd 48 0b 13 bd 9c 95 eb bd 7e 19 8e 3d
       -0.0973409 -0.03589943 -0.11503145 0.06938456
000360 ee c4 8b 3d 94 a7 1b bd ec 1d 1c bd 68 09 9b bc
       0.06824671 -0.03800161 -0.038114473 -0.018925384
000370 80 e7 04 3c 30 fd f7 bc 56 2e df 3d 64 ff 0f 3d
       0.0081118345 -0.030272096 0.1089751 0.03515567
000380 08 d7 72 bd c8 1e 02 bd 48 5d 44 3d f8 e2 4f bd
       -0.0592871 -0.031767637 0.047940522 -0.050753564
000390 0c c2 db bd e0 c1 b5 3b 80 08 6e bd d6 76 e7 bd
       -0.10730371 0.0055467933 -0.058113575 -0.11301963
0003a0 80 16 28 3b 30 1d 9e bd 50 12 ef bd 14 ad 25 3d
       0.0025648177 -0.07720411 -0.11673415 0.040448263
0003b0 58 22 e9 3d 60 f1 30 bd 68 6f a3 bd b6 c4 e3 bd
       0.11383504 -0.043198943 -0.079802334 -0.11121504
0003c0 de 16 97 3d ac f0 51 bd 26 8c d6 3d d6 90 97 3d
       0.073774084 -0.051254913 0.1047595 0.07400672
0003d0 a0 e4 e8 3c 10 33 0e bc 30 75 c1 bc 80 d8 ec bd
       0.02842933 -0.008679166 -0.02361545 -0.115647316
0003e0 4a 6d f4 3d a0 85 16 3d 7c f7 79 3d ac cc da bd
       0.11934908 0.03674853 0.061027035 -0.10683569
0003f0 fa ce 9f 3d 5c 56 ca 3d d0 c0 7f 3d f8 29 e5 3d
       0.078031495 0.09879753 0.06243974 0.111896455

encoder.key_net.net.0.bias f4 [68]
000000 b3 a7 93 3d 2d 1a 89 3c 1a b4 5a 3d ee 01 89 3d
       0.072097205 0.016736114 0.053394414 0.06689821
000010 70 0c e3 3b ca 38 a5 bc 8e fd 56 3d 0c 62 c7 3d
       0.006928973 -0.02016868 0.052487902 0.09735498
000020 4b 8e d7 bc df 3d 17 bd 1d 08 ba bc 76 59 54 3d
       -0.026312968 -0.03692424 -0.022708947 0.05184313
000030 f4 bf 8a bb 1d e8 0f bd b8 7f ea 3c be 70 e8 bc
       -0.0042343084 -0.03513347 0.028625354 -0.028374072
000040 20 03 b4 bd 46 0a d5 3a b9 5e 14 3d 24 62 ca 3d
       -0.087896585 0.0016253672 0.036223147 0.09882
000050 53 56 97 3a e7 93 ea 3c 9a db 3b bd b3 25 cd bd
       0.0011546112 0.028634978 -0.045863725 -0.10016956
000060 fb c6 81 3d de 28 e6 3c a0 ad b6 bb 9e f3 96 3d
       0.06336781 0.028095659 -0.005574897 0.07370685
000070 d6 18 3e bd e4 73 89 3d 35 a9 79 bb ec f4 1f 3d
       -0.046410404 0.067115575 -0.003809524 0.039051935
000080 29 55 1c 3d 9b e8 82 3d 81 4a ec bc d1 6f 28 bd
       0.038167153 0.06392022 -0.02884412 -0.04112226
000090 4f e1 5a 3d a9 9c 9a bd b7 15 70 bb eb 66 43 3d
       0.053437527 -0.07549412 -0.0036634037 0.047705572
0000a0 8c e2 a9 3c eb f8 3b 3d b4 73 a8 3a dc bb 35 ba
       0.020737909 0.045891684 0.0012851865 -0.0006932595
0000b0 62 9d 75 bd a8 47 59 3c 82 c1 66 bc 5f 94 4b bc
       -0.059964545 0.013261713 -0.014084222 -0.012425511
0000c0 e5 36 8c ba 20 78 e4 bc d2 d7 50 3d 4d 75 02 3c
       -0.0010697512 -0.027889311 0.050987072 0.007962537
0000d0 3f 41 c2 3c bf 2c e3 3c 09 34 58 3d 82 2b a8 3d
       0.023712752 0.027731298 0.052784 0.082114235
0000e0 88 f2 6f bd e7 fa b7 3d c8 3d 99 3d bb e6 83 3d
       -0.058580905 0.08983403 0.07482487 0.06440493
0000f0 f6 51 22 39 4a 7e 41 bd be 0b c0 3d 9e 8a c8 ba
       0.00015480057 -0.04723958 0.0937724 -0.00153001
000100 ae 30 59 bd 44 0f 8d 3c e0 56 c3 3d fe 96 5a 3d
       -0.05302494 0.017219193 0.095380545 0.053366654

encoder.key_net.net.1.weight f4 [68]
000000 d5 62 a5 3f 24 e6 84 3f 41 d5 99 3f f2 38 8d 3f
       1.2920786 1.0382733 1.2018205 1.1033003
000010 97 50 6e 3f 60 4f 67 3f 49 cf 87 3f b6 cd a0 3f
       0.9309172 0.9035549 1.0610133 1.2562778
000020 3a ce 9a 3f 88 cb 9b 3f 5a c4 9f 3f 47 78 ab 3f
       1.2094185 1.2171488 1.2481797 1.3396081
000030 b8 6e 9a 3f 67 69 96 3f 88 11 9e 3f a2 24 84 3f
       1.2065039 1.1750916 1.23491 1.032368
000040 2e 2c 7a 3f 58 e1 87 3f 7c ee 8a 3f 0a d9 9a 3f
       0.9772366 1.0615644 1.085403 1.2097485
000050 69 e2 70 3f 58 8a 94 3f a5 ec 98 3f 5c c3 80 3f
       0.94095474 1.1604719 1.1947218 1.0059619
000060 e7 88 86 3f 8b 98 80 3f 58 b0 84 3f 00 96 86 3f
       1.0510529 1.0046552 1.0366316 1.0514526
000070 86 5f 95 3f 42 49 9c 3f b5 74 99 3f 80 9f 95 3f
       1.1669776 1.2209857 1.1988741 1.16893
000080 47 b3 9a 3f d2 a0 8e 3f 13 a6 a3 3f 3c 53 84 3f
       1.2085961 1.1142828 1.2785057 1.0337901
000090 70 49 88 3f 84 4e 84 3f c3 cf 85 3f bf 84 89 3f
       1.0647411 1.0336461 1.0454029 1.0743636
0000a0 26 a3 92 3f 95 cf 95 3f ef 0d 80 3f fa a7 8b 3f
       1.1456039 1.1703974 1.0004252 1.0910637
0000b0 8f 55 8d 3f 17 72 78 3f a5 33 9c 3f 61 dd 83 3f
       1.1041735 0.9704909 1.2203261 1.0301934
0000c0 32 36 7c 3f b9 54 9e 3f af db 88 3f 5b db 8c 3f
       0.98520195 1.2369605 1.0692042 1.1004442
0000d0 c5 16 aa 3f 10 81 8b 3f 83 4f 94 3f 2d 08 9f 3f
       1.3288199 1.0898762 1.1586765 1.242437
0000e0 fa 0e 72 3f a5 21 8e 3f 94 16 9a 3f 41 b2 9c 3f
       0.945541 1.1104017 1.203814 1.2241899
0000f0 c9 06 ab 3f 0d e6 88 3f f1 d3 90 3f 0a 60 82 3f
       1.3361446 1.0695206 1.1314679 1.0185559
000100 91 3c 77 3f cb d5 a6 3f f4 02 88 3f 13 30 8d 3f
       0.9657679 1.3033994 1.0625901 1.1030296

encoder.key_net.net.1.bias f4 [68]
000000 67 a2 e3 3d ea 3b ae 3c d7 4d 9b 3d 6f 29 4d 3d
       0.1111496 0.021268804 0.07583206 0.050088342
000010 b8 94 85 bc e1 e1 4d 3d 5c 23 1a bb 39 70 c3 3d
       -0.016306266 0.050264243 -0.002351961 0.09542889
000020 16 b3 8c 3d ae 69 88 3d e0 06 92 3d bb 31 1c 3e
       0.068700954 0.06660782 0.071302176 0.15253346
000030 c6 f7 b7 3d 46 53 2f 3d a3 0f 1b 3e 4f 71 d0 bd
       0.08982806 0.042804025 0.15142684 -0.10177862
000040 e7 e3 07 bc d7 94 01 3d 06 4f 3e 3d 95 50 76 3d
       -0.008294082 0.031636085 0.04646208 0.060135443
000050 66 81 c0 3c 4c ad 8b 3d 22 33 3b 3d 09 9b 66 bc
       0.023499202 0.06820163 0.04570306 -0.014075049
000060 52 3a 6d 3d 41 d5 0c bc c0 e1 2a 3d bf d4 4a 3d
       0.057916947 -0.008595766 0.0417192 0.049519297
000070 82 f1 27 3d ec 30 04 3e d0 6a 34 3d ea c7 54 3d
       0.041001804 0.12909287 0.044047177 0.051948465
000080 44 6b e0 3d 71 6a 7c 3d 60 60 c2 3d e1 d4 ee bc
       0.10957959 0.061624948 0.09491038 -0.029154243
000090 3f 21 ef 3c 9c 95 5e bd c5 50 85 bd 11 7f a3 bd
       0.029190658 -0.054341897 -0.06509546 -0.0798322
0000a0 f7 51 2a 3d 11 2c a2 3d 7a 0a a3 3c fc 43 4c 3d
       0.041582074 0.07918561 0.019902457 0.049869522
0000b0 62 1c f1 3c d0 ac 20 bd 26 cf 95 ba 59 94 84 3c
       0.02943248 -0.039227307 -0.0011429533 0.016184019
0000c0 78 4e 0d bd d0 5d 24 3e 78 fe f1 3c 10 75 b4 3d
       -0.03449866 0.16051412 0.029540285 0.088113904
0000d0 84 64 0e 3e d8 f1 39 3d dc ca ac 3d 15 08 e7 3d
       0.13905531 0.045396656 0.0843713 0.112808384
0000e0 89 43 1f 3a df 4c aa 3d b7 e0 aa 3d 19 24 90 3d
       0.0006075432 0.08315443 0.08343642 0.07038135
0000f0 e7 2e 46 3e bb 00 2b 3d fb 99 dd 3d 25 46 e3 bc
       0.1935383 0.041748744 0.10820385 -0.027743408
000100 ed 13 29 b9 00 b3 cc 3d e1 f8 ec 3c 5c 77 c3 3c
       -0.00016124519 0.09995079 0.028927268 0.023860626

encoder.key_net.net.3.weight f4 [72, 68]
000000 bf fa 51 3e 85 ab 33 be 6a 60 b3 be 9a 08 aa 3c
       0.20505808 -0.17545898 -0.35034496 0.020756055
000010 38 16 98 bd 06 a6 0d bc d2 01 25 3e 55 7a 81 3e
       -0.07426113 -0.00864554 0.16113976 0.25288644
000020 40 39 56 3e 59 3c e9 bd 24 03 2e 3e ce 91 a6 3c
       0.20920277 -0.113884635 0.16993386 0.020333197
000030 ef 89 7c 3d 65 ec 0b bd 80 3b 38 3e a0 9c 06 bd
       0.06165498 -0.03416099 0.17991447 -0.032864213
000040 7f 03 84 3d 17 77 e0 3d 0e 56 c0 3a ec dc ca be
       0.06445979 0.109602146 0.0014674084 -0.39621675
000050 86 29 ce 3d 40 f7 e7 bd 92 c7 e2 bc 3d 8c 14 3e
       0.10066514 -0.11326456 -0.027683053 0.14506622
000060 54 f6 09 be 96 71 7a bc 82 a0 d6 3c 42 06 27 be
       -0.13472873 -0.01528587 0.026199583 -0.16310981
000070 e4 46 e4 3d 2c a3 3a 3e a2 bd 4e bc 83 f6 ca 3d
       0.11146334 0.18226308 -0.012618454 0.099103
000080 71 50 78 3d 08 61 37 be da 6a 2d bf f4 4d 04 3e
       0.06062359 -0.17908108 -0.6774117 0.12920362
000090 72 da e0 3d e2 01 00 3d 32 6a 6f 3d 47 ab 6f bd
       0.10979165 0.031251796 0.058450885 -0.058512952
0000a0 79 f5 f7 bc 63 09 59 be 50 03 b1 bd 49 d3 b7 bd
       -0.030268418 -0.21194987 -0.0864321 -0.08975846
0000b0 b2 a4 8c 3e f9 51 8d 3b e0 0c 1a be f3 f9 aa 3c
       0.27469403 0.0043127504 -0.15043974 0.020871138
0000c0 a3 bd 5d bd 4c 69 92 be 23 0f 74 3d 53 10 69 3b
       -0.05413593 -0.2859596 0.059584748 0.0035562709
0000d0 b3 ba d9 bd c4 8c 58 be ed 11 ba 3c 9b c9 0d 3e
       -0.10631313 -0.21147448 0.022713626 0.13846438
0000e0 29 5e 3a 3d bd ea 82 3d 91 6e 91 be 17 f8 d7 be
       0.045499954 0.06392429 -0.28404668 -0.42181465
0000f0 fe 57 77 3d 34 78 d4 bc ac 5f 5c bb 8a 0e e2 3d
       0.06038665 -0.025936224 -0.003362636 0.11037929
000100 16 19 83 3d f7 c3 3e 3e f8 4a 78 3c 1a 75 3c bd
       0.06401269 0.18629442 0.015154593 -0.046010114
000110 ce bc e2 bc 09 ee fb 3d dc 1b 8c 3d 3b a6 cf bc
       -0.02767792 0.12301261 0.06841251 -0.02534782
000120 e1 47 01 be b7 4d eb 3c 94 b8 9b bd 9c 17 ea 3d
       -0.12625076 0.02872358 -0.07603565 0.114302844
000130 6d db ef bd 12 80 ee bd 52 05 96 3e 47 90 b8 bd
       -0.11711774 -0.11645521 0.29300934 -0.09011894
000140 d7 fe 1e bd 63 59 90 3e c3 b5 8b 3e ec aa 9a bd
       -0.038817253 0.28193197 0.2728711 -0.07552132
000150 af cf cb bd d1 bd 8c bd 2a 4b cd bc 81 5d 18 3d
       -0.09951722 -0.06872142 -0.025060255 0.037198547
000160 07 f5 8f 3d f7 4b ab bd 8e da f8 bc a6 65 ba bd
       0.07029157 -0.083640985 -0.030377652 -0.09101419
000170 6c 1a d7 3d dd ca fe 3d 8b 40 00 3d 13 d6 c5 bd
       0.105030864 0.12441037 0.031311553 -0.09659972
000180 29 9a 61 3e d0 b3 8a bc 76 5b b2 3c dc 60 a7 3d
       0.22031464 -0.016931444 0.021772128 0.08172771
000190 e3 98 57 bd 9b 24 bf bc b7 3d 37 3d 54 f0 9a bd
       -0.05263604 -0.023332885 0.04473659 -0.0756537
0001a0 02 c6 44 3d 86 87 e3 bd b3 9a 17 be 6d 7a b0 bc
       0.048040397 -0.111098334 -0.14805107 -0.021542752
0001b0 66 2d 1a 3e 85 47 55 3c 47 c5 a0 3d e1 ab 3d 3e
       0.1505638 0.01301754 0.07850128 0.18522598
0001c0 93 e1 bf bd 9e 82 00 bd cf cc 8a 3c 0a b9 bf 3c
       -0.09369197 -0.031374566 0.016943363 0.023403663
0001d0 9c 0f cc 3c 8e 81 24 3d 67 8f 19 3e 73 8a 31 bd
       0.024909787 0.040162615 0.1499611 -0.043344926
0001e0 a1 95 44 bb ba e8 67 ba 06 e7 7f 3d 84 6c 00 3e
       -0.0029996412 -0.00088466296 0.06247618 0.12541395
0001f0 94 92 b0 3c e1 a7 0e 3c ad 3e 84 3b c2 3c 95 3d
       0.021554269 0.008707018 0.004035792 0.07286979
000200 cb 74 9f 3d 1a 5c c0 3c d8 56 ce 3d fd ae e0 3c
       0.07785948 0.023481417 0.10075158 0.02742719
000210 c2 b7 02 bd 10 93 39 3d bd b7 30 3d 3e 53 28 3e
       -0.031913526 0.045306265 0.043143976 0.16438004
000220 80 60 c3 3d 7e f8 38 bb 69 5e 25 bd 2d 11 be ba
       0.0953989 -0.0028224285 -0.04037324 -0.0014500968
000230 85 f0 ab bb 58 c4 60 bd 48 6a 07 3d 4f e0 3c bd
       -0.005247178 -0.054874748 0.033060342 -0.046112355
000240 85 ba 97 bc 74 12 42 bd 7a 56 38 3d 17 d7 82 3e
       -0.018521557 -0.04738088 0.045004345 0.25554726
000250 d8 ac b1 bd 57 23 f2 bd da 93 e8 bd ee 0f 0b be
       -0.086755455 -0.11823147 -0.113563254 -0.13580295
000260 3e 64 15 be 0c 85 6e 3d e2 3a fc 3c c3 73 80 3d
       -0.1458902 0.058232352 0.030789796 0.0627208
000270 60 84 96 bd 73 11 60 bd 18 8f 4a 3e 12 85 4a bd
       -0.07349467 -0.05470414 0.19781148 -0.049443312
000280 7d 74 0c 3e f0 20 83 bd ba 59 bc 3d 0a a8 3b 3d
       0.13716312 -0.06402767 0.091968015 0.04581455
000290 cc 8f 43 bd de eb f7 3d 03 7d fe bb c0 5e 2e bc
       -0.047744557 0.12105535 -0.0077663674 -0.010642707
0002a0 57 0b 27 3e 82 ee 12 3e dd f4 9e bd 14 9b d1 bd
       0.1631292 0.14348796 -0.07761548 -0.10234657
0002b0 ef 99 fb 3d 36 6d 61 bd b3 aa 2b 3d 60 4e 18 3d
       0.1228522 -0.055035792 0.04191084 0.03718412
0002c0 91 34 6f 3d e4 f7 0f 3e 6f f3 31 3d 17 c4 7c bc
       0.05839974 0.14059407 0.043445047 -0.015427611
0002d0 bf ce 26 3d ee 06 04 3d 19 61 cf bd 25 2d 83 bb
       0.040724512 0.03223317 -0.10125942 -0.0040031844
0002e0 7b 40 2c bc a2 16 9e 3d 1e 50 67 3d 79 bb dc 3c
       -0.01051342 0.077191606 0.05647289 0.026944863
0002f0 73 27 0b 3e 36 29 3b 3d 33 f7 d3 3d f4 c7 0f bd
       0.13589267 0.0456936 0.10349884 -0.0351028
000300 02 d2 f2 bd 2f c0 22 3d 03 ea 6f bd da d1 93 bd
       -0.11856462 0.03973406 -0.05857278 -0.072177604
000310 5b b3 6a 3e 32 ee cc 3c 0d 2f 0a 3e cf 9b 8e 3d
       0.22919981 0.025015924 0.13494511 0.06963312
000320 08 fe 22 3d 6c 8f ed 3d 61 60 41 3d 90 f9 80 bc
       0.039793044 0.11599621 0.047211055 -0.015744
000330 70 38 eb bd bf b7 d1 bc 5a b0 bc bd c0 68 75 be
       -0.11485374 -0.025600312 -0.09213324 -0.2396574
000340 09 49 cc 3b 53 1f 75 bd 09 f0 e1 bc 4f af 2f be
       0.0062342924 -0.059844326 -0.027580278 -0.17156719
000350 99 fd 2c be ef 0e dd 3d 42 a7 cf 3d ec 00 67 be
       -0.16893615 0.10793864 0.10139324 -0.22558945
000360 72 a2 0a be 08 b3 67 3e 25 89 ec 3b 76 1e 24 3e
       -0.1353853 0.22626889 0.0072184973 0.16027245
000370 78 ba a9 3d 82 76 ef 3d 5d 4f 0f bd 8b 88 c1 3c
       0.08287519 0.116925254 -0.034987796 0.02362468
000380 60 56 fc 3c dd 7b 46 be 71 b0 6b 3e cb c0 0f 3e
       0.030802906 -0.19383188 0.23016526 0.14038388
000390 67 8d 1b be d8 1f 91 bc 36 02 35 be 93 11 10 be
       -0.1519066 -0.01771538 -0.17676625 -0.14069204
0003a0 79 f5 da bd 30 f7 93 bd 1f 0b a7 3d c5 3b b7 bd
       -0.106913514 -0.07224882 0.08156418 -0.08946947
0003b0 34 bf 76 be 6d fb b1 bd 25 93 be 3d a8 ed b8 3d
       -0.24096376 -0.08690534 0.09305409 0.09029704
0003c0 75 63 99 bd 03 df 15 3e f6 28 67 3e 8b 82 6c 3d
       -0.07489673 0.14635853 0.22574219 0.057741683
0003d0 61 59 0e 3e 22 db e0 bb 6d 96 98 3c aa 41 7d 3d
       0.13901283 -0.00686206 0.018626416 0.0618302
0003e0 8c 12 28 be 4c 68 fd 3c 80 be fd bd 25 09 84 bd
       -0.16413325 0.030933522 -0.123898506 -0.06447057
0003f0 42 04 3d 3e 4e 86 bc bd ef de 33 3d 47 1c 9e 3d
       0.18458655 -0.09205304 0.043913778 0.07720237

encoder.key_net.net.3.bias f4 [72]
000000 81 7b b6 bb c5 86 a9 3b b5 ef d5 3c 92 6e 03 be
       -0.005568922 0.0051735365 0.026115278 -0.12835148
000010 83 4a 12 3e 45 63 13 3d e1 6c e6 3d 1d 27 dc bd
       0.14286236 0.035983343 0.11251236 -0.10749648
000020 fc 71 68 3d 4e cb bc 3c a5 a3 1e 3e 08 4b 9c 3d
       0.05674933 0.023046162 0.15492113 0.076314986
000030 55 85 08 3d 11 8a 98 bd 96 6a 1c 3e 61 ed b6 bd
       0.03333028 -0.07448209 0.15275034 -0.08931995
000040 1b 34 a9 bc 2c b9 77 3d 9d b8 b7 bd 8a c4 1c bc
       -0.020654729 0.060479328 -0.08970759 -0.009568343
000050 bf 5b b7 bd 86 f5 de bd 02 26 97 bd 8c 28 7a 3d
       -0.08953046 -0.10886674 -0.07380296 0.061073825
000060 ca 92 af bd 1c c7 84 3d 51 4b a9 bd cd 9a 42 3d
       -0.0857292 0.064832896 -0.082663186 0.04751091
000070 08 86 86 bb 03 33 47 bb 99 b7 0b be 92 97 c9 bc
       -0.0041053332 -0.0030395396 -0.13644256 -0.024608407
000080 43 58 4c bd 60 2e ba bd 6e 45 22 bd b8 7b 1a 3d
       -0.04988886 -0.090908766 -0.039616995 0.037715644
000090 e9 66 c4 3d e1 60 9f bc 53 a1 59 3c 8f 5b 4a 3d
       0.09589941 -0.019455375 0.013283092 0.049403723
0000a0 9c d9 0d 3d 20 1a 45 bc d9 d5 0d 3d 3f cd 86 3d
       0.034631357 -0.0120301545 0.03462777 0.06582116
0000b0 1e 17 9b 3d 20 2e 8d bd b8 28 20 be 7c cb 2b bd
       0.07572769 -0.06893563 -0.15640533 -0.041942105
0000c0 f8 2e 5e 3d f2 ae d3 bd 3f 9e db 3d b3 fc 98 bd
       0.05424401 -0.103361025 0.107235424 -0.074700736
0000d0 a9 ff 5b bd a0 c6 9b bd 93 61 d1 bd 74 99 13 3e
       -0.053710613 -0.07606244 -0.10223689 0.14414006
0000e0 14 39 0d bc 90 30 90 bd c1 e9 4e bd 52 85 bc bc
       -0.0086195655 -0.070405126 -0.050515894 -0.02301279
0000f0 32 15 8c 3d 6b a4 4d bc a3 57 21 3e b2 80 f6 bd
       0.0683998 -0.012551407 0.15756087 -0.120362654
000100 3d ed 27 bd 82 2b af bd 35 43 28 3d ba 4c a7 3d
       -0.040997732 -0.0855322 0.04107972 0.08168931
000110 96 b4 0c be c6 11 8d bd f4 51 02 be a4 bb e6 3c
       -0.13740763 -0.06888156 -0.12726575 0.028165646

encoder.val_net.net.0.weight f4 [45, 18]
000000 a9 c5 04 be 8f 9c 18 bd ef 56 bb 3d b5 b7 ca bc
       -0.12966026 -0.03725868 0.09147441 -0.024745801
000010 0d ff 84 bc 7b 02 92 3c 2c 84 89 bc 50 4a c3 3c
       -0.016234899 0.017823448 -0.016786657 0.023839146
000020 19 d6 19 bc 7f c4 eb bb b8 1c 83 bd ca 24 92 bd
       -0.009389424 -0.007195055 -0.06401962 -0.07135923
000030 68 10 e1 3c 3a 61 c5 3d 0d 06 b1 bc 83 fb 31 3d
       0.027473643 0.09637685 -0.02160933 0.04345275
000040 b8 51 6f 3d b6 f5 67 3d 46 11 b5 bd 6a 27 a3 bc
       0.058427542 0.056630813 -0.08841185 -0.019916255
000050 5f 2f 1f bd eb e1 80 3d 0d cf 44 3d 54 38 b1 bd
       -0.038863536 0.062930904 0.04804902 -0.08653322
000060 05 60 8a 3c 3b 50 7b 3c b9 d0 b1 bd d6 a8 5f bc
       0.016891489 0.015338953 -0.08682389 -0.0136510935
000070 d5 df d0 bd 09 7b e5 bd d7 e3 85 bd 4e 01 62 3c
       -0.101989426 -0.11205108 -0.065375976 0.013794256
000080 7b cd 66 bd 31 0b f4 bb e0 2e 27 3d 64 10 a3 3d
       -0.056348305 -0.007447623 0.040816188 0.07962111
000090 70 4a 59 3d bd da 85 3d 84 e0 af bb 85 5a 56 bd
       0.053049505 0.06535862 -0.0053673405 -0.05233242
0000a0 c6 46 91 3d b4 9b 36 3c 5e a4 ef 3c 2c ee a1 bd
       0.07093577 0.011145521 0.029253181 -0.07906756
0000b0 e8 bd 52 3d 98 85 25 3d d6 16 65 3d c6 61 b3 3d
       0.05145064 0.040410608 0.05592998 0.08758883
0000c0 57 48 6a 3b 70 29 f6 3d 05 52 9d 3d 35 8a 16 3d
       0.0035748684 0.12019622 0.076816596 0.0367529
0000d0 2a ff 02 3d 1a 3f 8f 3d 7c 9d f2 bb c4 f8 65 3d
       0.031981625 0.069944575 -0.0074040275 0.056145445
0000e0 57 b9 2c 3d 95 ca ef 3b 99 65 06 3d bd a4 0c 3d
       0.04216894 0.007317851 0.032811735 0.034336794
0000f0 28 8d 67 3a f9 df 33 bd 85 d4 de 3c 96 20 b7 bd
       0.00088329846 -0.04391477 0.027200947 -0.08941762
000100 47 2f c7 bd 42 1b 74 3c 58 b0 1d bd 93 c3 07 bd
       -0.09725814 0.014899077 -0.038498253 -0.0331455
000110 ba 72 53 bd d0 d4 b4 3c 1e 37 e7 3d 18 3f c2 bc
       -0.051623084 0.022074133 0.1128981 -0.023711726
000120 e6 d9 8b bd 21 13 e4 bd 4e 6d 9e 3d fb ee ad bd
       -0.0682867 -0.11136461 0.07735692 -0.084928475
000130 48 fc e6 3c 20 1a 2c 3d f3 c3 28 bd 48 21 ac bd
       0.028196469 0.042017102 -0.041202497 -0.084047854
000140 fa 69 1c 3c 27 7d 99 3c eb 5e 48 bd 71 15 74 bc
       0.009546751 0.018736435 -0.048918646 -0.01489769
000150 bb e9 2a 3c 81 8c 3c bc 85 93 1f bd 9c 1c 56 3d
       0.010431702 -0.011508108 -0.038959045 0.052273378
000160 24 50 f3 3d a6 e6 9b bd 1c 63 2b bd 07 2d e2 bb
       0.1188052 -0.07612352 -0.041842565 -0.0069023403
000170 0c ba da 3c 35 78 28 3d 6b e8 ef 3c 72 fa fd bc
       0.026700042 0.041130263 0.02928563 -0.03100321
000180 94 95 c6 bd 1c e2 5e bc 77 8d 33 bc 68 87 34 3c
       -0.096964985 -0.013603713 -0.010959021 0.0110186115
000190 a8 aa 1b 3d 8d 5f e6 bc 6c e2 27 bd 9b 6d 70 3d
       0.038004547 -0.028121734 -0.040987417 0.058698278
0001a0 24 83 6d bd 9d 93 ef 3c ad 39 2b 3e 41 ae 05 3c
       -0.057986394 0.029245192 0.1672122 0.008159221
0001b0 2a d5 18 bd 09 4a eb 3d 1e b9 51 b9 a0 09 a3 ba
       -0.037312664 0.114887305 -0.00020000755 -0.0012438782
0001c0 a2 41 9b 3d 14 2e eb bb 8a 4b 63 3c 2a 9d 5c bd
       0.07580878 -0.007177124 0.01387299 -0.05386082
0001d0 b5 13 f6 3d ec 93 52 bd 61 8f 47 bd ca d2 b7 bd
       0.120154776 -0.0514106 -0.04872072 -0.08975752
0001e0 ec bc 9f 3c d6 8d 84 bd a5 16 a4 bd 10 ed ac bc
       0.019499265 -0.064723656 -0.080121316 -0.021109134
0001f0 b8 86 bd 3c d6 5d cb 3c d4 a0 22 bd b9 64 7b bb
       0.023135528 0.024825018 -0.03970416 -0.0038359596
000200 a3 2d 50 3d 50 de aa bc 7f 71 c3 3d 8f 56 58 bd
       0.050824773 -0.02085796 0.09543132 -0.052816924
000210 50 8c ce bd 31 f9 79 bc 74 92 d0 3c 37 c1 9f 3c
       -0.10085356 -0.015257166 0.02546046 0.019501312
000220 ba a2 f9 bd 0e 03 b1 bc 0e 9e 5d bd 08 bd c3 3d
       -0.12189241 -0.021607902 -0.05410581 0.09557539
000230 8c de 4d bd 37 b5 9d bd 60 91 56 3d ae 01 6a 3d
       -0.050261065 -0.077005796 0.052384734 0.057130508
000240 a5 9d 47 3c 5e 93 4e 3d f4 a9 6c 3c c1 4f e5 3c
       0.0121835815 0.05043351 0.014444817 0.027992131
000250 8b 37 ef 3c 33 fe 9a 3d 3a e5 3f bd 6b 54 40 b9
       0.02920129 0.07568016 -0.046849467 -0.00018341995
000260 36 d4 41 3a da 4b 02 3c 3c e6 c1 bd 4f 0f 5f 3c
       0.00073939876 0.007952655 -0.09467742 0.01361449
000270 48 74 b8 3c d3 28 cb 3c 9f eb d5 3b 91 60 a3 3d
       0.022516385 0.02479974 0.0065283324 0.07977403
000280 64 61 69 3d a9 b3 47 bc d2 6e 23 bd 23 9e 69 bd
       0.056977645 -0.01218883 -0.03990061 -0.057035577
000290 bb 56 ab bd ba af 73 3d b6 3b 4a 3c 26 fc ac 3d
       -0.08366152 0.059493758 0.012343338 0.08446531
0002a0 92 6b 09 bd 5c c1 da bd e5 ed cd 3c b5 4d c3 3c
       -0.033549853 -0.106814116 0.025137851 0.023840765
0002b0 79 8c 0f bd 1a bf a2 3c b1 24 e9 bb 24 4a 13 3d
       -0.035046075 0.019866515 -0.0071149697 0.035959378
0002c0 2d 6e ea bd dd fd 92 bc d6 f4 ef 3d 62 6e 52 3d
       -0.114467956 -0.017943317 0.117166206 0.0513748
0002d0 f7 20 d3 3b 20 a3 2a 3d 97 f6 9b bd 71 b6 26 3e
       0.0064431387 0.041659474 -0.07615393 0.16280533
0002e0 f3 7b f0 3d 4c e8 ab 3d e2 6b 1b 3d 22 b6 7a bd
       0.117423914 0.083939165 0.037944682 -0.06120885
0002f0 a8 f9 17 bd 3f d8 82 bd 3d c2 69 bc dd f1 d8 bd
       -0.037103325 -0.06388902 -0.014267501 -0.10593007
000300 4b 69 21 bc c0 da 46 3e 66 fc 8f 3c f1 b1 e9 bd
       -0.009851764 0.19419384 0.017576408 -0.11410893
000310 f4 7a 99 bd 11 9a 8a 3d 95 f1 c5 ba 78 58 e7 3d
       -0.074941546 0.06767667 -0.0015101904 0.11296171
000320 26 7e 41 bd 7d d0 0d 3d a3 fb ce 3b 1e 46 e3 bc
       -0.047239445 0.034622658 0.0063166185 -0.027743395
000330 d5 7b 33 bd 9e ae 50 3b 97 4d 5d 3b 43 16 b3 3c
       -0.043819267 0.0031842361 0.003376817 0.021861201
000340 80 e2 ac bd 73 d6 16 bd d7 69 32 bd d3 99 b7 3d
       -0.08441639 -0.03682561 -0.043557968 0.089648865
000350 63 b2 65 bd 09 95 79 3c 46 96 b9 3c f1 03 f6 3d
       -0.056078326 0.015233287 0.022654664 0.120124705
000360 ec c2 4a bd df b3 1b 3d cc 74 8a 3d 4f 7b 17 bb
       -0.0495023 0.038013335 0.067605585 -0.002311427
000370 03 75 f5 3c fa 41 12 3e 74 3d 0f bd 5a b2 c6 bc
       0.029963022 0.1428298 -0.034970716 -0.024254967
000380 a8 5a ed bb dc c8 5a bd 2b b3 11 be ec 6c b4 bb
       -0.007243473 -0.05341421 -0.14228503 -0.0055061486
000390 a6 20 df bc 93 b5 18 3d 4c f6 64 3c 5f 04 10 bc
       -0.027237248 0.037282538 0.013974737 -0.008790105
0003a0 56 ce 0d 3d 2e d0 c7 3d f2 c3 86 bd c7 ed ce bc
       0.034620605 0.09756504 -0.06580342 -0.025259865
0003b0 77 5d b0 3c 3d bf 10 3e 38 f1 8d 3b 3b 5a af bd
       0.021528943 0.14135452 0.004331734 -0.08562132
0003c0 c1 19 9e bd 43 09 8a 3c ce d7 cb bb 58 6d eb bd
       -0.07719756 0.01685012 -0.0062207943 -0.11495465
0003d0 4e 82 d0 3c 37 b2 fd 3d 60 ee d0 bd 9e a6 3c 3c
       0.02545276 0.123875074 -0.102017164 0.011514334
0003e0 eb 60 81 bd f4 4b 3e 3c ad d8 82 3b 3a 00 85 3c
       -0.06317314 0.011614788 0.003993115 0.01623546
0003f0 2b 61 6d 3d b2 eb 9d 3d 08 42 83 bc c9 85 cb 3c
       0.057953995 0.07710971 -0.016022697 0.024844067

encoder.val_net.net.0.bias f4 [45]
000000 30 30 64 bf 42 82 35 3e 1e 6c 7f 3e f2 65 73 bf
       -0.8913603 0.1772547 0.24943587 -0.9507743
000010 e8 fb 49 bd 40 9e 6e bf d9 39 3d 3e 0e a8 c5 3d
       -0.049312502 -0.9321022 0.18479098 0.096511945
000020 22 c6 76 bf aa 40 4b 3e 74 ae e8 be de 21 63 bc
       -0.96396077 0.19848886 -0.45445597 -0.013863055
000030 18 dc e0 bd 0d 3f 5a 3e dc ab 1d 3e 84 21 75 bf
       -0.109794796 0.21313114 0.1539759 -0.95754266
000040 03 5c d4 3d 10 9b 7d 3d 89 a0 b4 3d 7d 37 d3 be
       0.10369112 0.061915457 0.08819682 -0.41253272
000050 da 08 68 3e f0 56 91 3d 13 e4 0a 3e cf f3 21 3e
       0.22659627 0.0709666 0.13563566 0.15815662
000060 ed bb 84 3e 3c fd 62 3e 27 60 61 3e 96 ea 27 3e
       0.25924626 0.22166914 0.22009335 0.16398081
000070 25 60 11 be b8 9d 12 3e 63 3e 87 3e 8d e3 90 be
       -0.14196832 0.14317977 0.26414785 -0.28298607
000080 4d f6 4a 3e d0 b8 cc bc ec fc 34 be 4f d4 3f 3e
       0.19820519 -0.02499047 -0.17674607 0.18733333
000090 2f 2f 06 3e 94 1d 4b bf c8 40 08 3e ac e7 2d 3e
       0.13103937 -0.7934201 0.13305962 0.16982907
0000a0 bd 08 0e bf a8 d4 14 3e f0 77 71 3e 21 7d d4 3d
       -0.55482084 0.14534247 0.23580909 0.10375429
0000b0 f8 40 10 3d
       0.03521821

encoder.val_net.net.1.weight f4 [45]
000000 e1 39 90 3f 36 80 8c 3f 88 75 91 3f 89 10 92 3f
       1.1267663 1.0976627 1.1363993 1.1411296
000010 25 d9 22 3f 24 58 8c 3f a3 4f 8b 3f 3a e0 82 3f
       0.63612586 1.0964398 1.0883678 1.0224679
000020 2d aa 79 3f 04 08 89 3f dd 7c 1c 3f e7 96 4b 3f
       0.9752529 1.0705571 0.61128026 0.79527134
000030 3b 57 12 3f ea 2e 8a 3f 91 74 8b 3f 7c cf 94 3f
       0.57164353 1.0795567 1.0894948 1.1625819
000040 e4 10 79 3f 58 dd 84 3f 4e f3 81 3f f4 de 11 3f
       0.972914 1.0380049 1.0152376 0.56980824
000050 35 60 8f 3f 84 7d 7d 3f f4 4a 80 3f 0b 60 89 3f
       1.1201235 0.99019647 1.0022874 1.0732435
000060 59 76 89 3f c3 90 91 3f 61 7f 91 3f 24 d4 89 3f
       1.0739242 1.1372303 1.1366998 1.0767865
000070 2c 8d 16 3f 05 c4 8a 3f 65 38 90 3f bc 02 1f 3f
       0.5880916 1.084107 1.126721 0.6211355
000080 eb 8f 8e 3f c4 a4 52 3f a3 f8 1c 3f 24 ce 8a 3f
       1.113767 0.8228266 0.6131689 1.0844159
000090 92 e4 86 3f 51 1d 14 3f 4c 08 8c 3f 2f ac 83 3f
       1.0538504 0.57857233 1.0940032 1.0286921
0000a0 5e db 1d 3f 63 9c 89 3f 03 52 8c 3f c3 f6 79 3f
       0.6166285 1.075085 1.0962528 0.97642154
0000b0 bc ac 69 3f
       0.91279197

encoder.val_net.net.1.bias f4 [45]
000000 fe 43 bf bd fc bb 5e 3e d7 6c 38 3e c9 5a a0 bd
       -0.0933914 0.21751398 0.18010269 -0.07829816
000010 fa 62 ab 3e 80 29 d2 bd bb ef 21 3e a3 60 49 3e
       0.3347395 -0.10261822 0.15814106 0.1966577
000020 40 57 86 3d b7 f6 cd 3d 99 1b b4 3e 52 07 56 3e
       0.0655961 0.10056823 0.35177305 0.2090123
000030 68 e5 81 3e e6 60 09 3e 3f 80 3f 3e 5a 2a d9 bd
       0.25370336 0.1341587 0.18701266 -0.10603781
000040 a0 a0 84 3e 00 90 7f 3e 40 74 5b 3e 88 b5 b2 3e
       0.25903797 0.24957275 0.21431065 0.34904122
000050 07 8c 43 3e 2d 56 4e 3e 70 68 3a 3d cf 19 1e 3e
       0.19096385 0.20150061 0.045509756 0.15439533
000060 ae bc f7 3d 88 79 54 3e d8 3f 58 3e 60 d2 0c 3e
       0.12096535 0.20749485 0.21118104 0.13752127
000070 50 af 5e 3e 87 69 22 3e 4b a5 1f 3e eb 63 85 3e
       0.21746564 0.15860568 0.15590398 0.26052794
000080 5d 81 45 3e a2 f6 6f 3e 83 7e 3b 3e 98 4c ee 3d
       0.1928763 0.23433927 0.18309979 0.11635703
000090 58 c1 2c 3e c9 ac 8f 3e fd 5e 65 3e ab e7 78 3d
       0.1687063 0.28061512 0.22399516 0.06076781
0000a0 04 3d bc 3e d9 8b 45 3e fa e0 0b 3e 47 76 96 3e
       0.367653 0.19291629 0.1366004 0.29387113
0000b0 9b 74 38 3e
       0.18013231

encoder.val_net.net.3.weight f4 [72, 45]
000000 67 da a9 3e cb d1 00 3c ab e6 8b bc fc 39 95 bc
       0.3317444 0.007862519 -0.017077764 -0.018216126
000010 17 f2 6a be 56 f2 ea 3c 47 38 c8 bc 0e d7 26 bd
       -0.22943912 0.028680008 -0.024440898 -0.040732436
000020 9f 47 f8 3b f7 5f fe 3c 79 96 3a 3e 63 f2 03 3e
       0.0075768973 0.031051619 0.18221463 0.12885432
000030 99 ee b6 bd 21 89 6a 3c 19 0d 9a bc 8e e6 29 be
       -0.08932228 0.014314921 -0.018805074 -0.16591856
000040 9a 1b 19 be b9 5c c5 bd 56 8f 5e be 3d ef a2 bc
       -0.14951935 -0.09636826 -0.21734366 -0.019889468
000050 3e cb 82 bd 48 fd 29 3e 5e 7b 33 be 2d 7e e2 3d
       -0.063864216 0.16600525 -0.1752753 0.11059222
000060 5c 26 43 be 08 b2 82 3d 83 d3 a7 3c f1 09 06 3e
       -0.19057602 0.06381613 0.020486599 0.1308973
000070 e6 b4 8d 3e da 92 8a bc 02 b7 1d be 81 73 69 3d
       0.27677077 -0.016915727 -0.15401843 0.05699492
000080 5a 2e 5d 3a ec ae 3e bd 7f 4a bd be bd 34 46 be
       0.0008437388 -0.046553537 -0.36970899 -0.19356056
000090 3e 57 af 3c b7 25 a4 bd 3e 3b 24 be 19 b5 1e 3e
       0.021403905 -0.08015006 -0.16038224 0.15498771
0000a0 a3 96 35 bc 2e d9 57 bd c9 25 71 3e a7 94 0e bc
       -0.011083278 -0.052697353 0.2354957 -0.008702434
0000b0 0c e2 c2 3b d2 fc 22 3e 20 63 19 3e 0b e8 7f 3d
       0.005947357 0.15916756 0.1497922 0.062477153
0000c0 95 25 27 3d 20 2b 0f 3e 81 e8 36 3e 5f 78 ef 3c
       0.040807325 0.13981295 0.1786213 0.029232202
0000d0 1b 38 2d bd 69 9b 92 3d a5 68 95 bc 38 6f 8c bc
       -0.042289834 0.071585484 -0.018238375 -0.017142877
0000e0 0d c0 c2 bd f9 54 9d 3d cb 80 c5 3c b5 2d c9 bd
       -0.09509287 0.07682223 0.024109265 -0.09823171
0000f0 75 5d c6 3d ed 36 ae bd 2e da b2 3c 4a 48 9a bc
       0.09685794 -0.0850657 0.021832552 -0.018833298
000100 93 ed 93 bc 52 76 c1 3d 27 52 06 3d d1 f9 f8 3c
       -0.01805762 0.09446396 0.03279319 0.03039256
000110 87 b6 4d 3d d6 a0 c5 3b ff 44 9c bd 7a f0 d0 3d
       0.0502229 0.006031136 -0.076303475 0.10202117
000120 6c 2a 29 be d6 24 53 bd be 7c 23 bd ca 11 b0 bd
       -0.16520089 -0.0515488 -0.039913885 -0.08597143
000130 46 2a 90 bc 4a af 0f be 4d 59 b1 3e 2f bf 8a bd
       -0.017598283 -0.14031711 0.34638444 -0.067747466
000140 84 c3 1d 3e 4e cf 35 3e c9 64 1d 3d 7e e4 07 be
       0.15406615 0.17754862 0.038426194 -0.13270757
000150 1d fe 16 be 5a 3e a0 3d b3 b9 b6 bd a5 fa 20 be
       -0.14745374 0.078243926 -0.08922138 -0.15720613
000160 1b 46 05 3e f0 dc ca be 29 4e 2f bc fb 73 8c 3c
       0.13015024 -0.39621687 -0.010699787 0.017145148
000170 e7 ca 14 bd 05 92 bf 3d 52 fa 4a bc 64 ef 1d 3e
       -0.036326315 0.09354023 -0.012388783 0.15423352
000180 61 df ef 3d fd c8 82 bd 62 32 37 bd 5b 8d 40 bd
       0.11712528 -0.06385992 -0.044725783 -0.047009807
000190 a8 c9 16 be 55 d5 66 3e 44 6f 91 3d 01 97 d1 bd
       -0.14725363 0.22542317 0.071013 -0.1023388
0001a0 32 49 9b 3d 01 a8 0a 3e 50 89 2e 3d 4d c9 9c 3e
       0.0758232 0.13540651 0.04261142 0.3062233
0001b0 10 79 61 be 33 14 7f bc 3f 29 8f be fe e8 af bd
       -0.22018838 -0.015568781 -0.27961156 -0.085893616
0001c0 33 95 af 3d e2 0f c3 bd d1 d8 b6 bb 4e 12 f5 3c
       0.08573379 -0.09524514 -0.0055800457 0.029915955
0001d0 76 53 4f be 74 95 b1 3c a1 51 45 be 03 4a 24 be
       -0.20246682 0.02167771 -0.1926942 -0.16043858
0001e0 c5 7f 07 3e b9 56 cb be 6d c8 e0 bd c2 0d 2c 3e
       0.13232334 -0.39714602 -0.10975728 0.16802123
0001f0 81 d7 f6 bd d8 82 68 be 2c 8d ac 3d d0 77 a7 bd
       -0.12052823 -0.22706163 0.08425364 -0.08177149
000200 b9 83 30 be bf d0 60 3c 21 e1 24 3e 88 84 b1 bb
       -0.17237748 0.013721644 0.16101505 -0.0054174103
000210 da 26 fc bc 1c 2e 64 3d 66 0e f7 bd 0c d4 8f bd
       -0.030780245 0.055708036 -0.12063293 -0.070228666
000220 a8 64 39 bd dd 6c 07 bd b9 c4 7e 3d 35 c8 8c 3d
       -0.04526201 -0.033062804 0.062199328 0.06874124
000230 dc 1d fe bc 88 1d 4c bd b5 f7 62 bd 48 42 40 3d
       -0.031020097 -0.04983285 -0.055412013 0.04693821
000240 71 ba 83 bd de b5 1a bd d9 c9 ad bd 66 ca 6e bd
       -0.06432045 -0.0377711 -0.08485765 -0.05829849
000250 55 61 83 bd 26 06 da bd 20 36 91 bd 03 03 58 3e
       -0.06415049 -0.10645704 -0.07090402 0.21094899
000260 43 9b 18 3e e4 fe 36 3e 50 4c b1 bd 83 dc 81 3e
       0.14902978 0.1787067 -0.086571336 0.2536355
000270 f7 0d e5 bd c9 02 98 3d 7e 31 0a be 95 55 43 3d
       -0.11184304 0.07422406 -0.13495442 0.04768904
000280 4d 94 8a 3d a4 85 a4 3c 98 31 6c 3d c9 40 10 bc
       0.067665674 0.020083256 0.057664484 -0.0088045085
000290 e2 c7 75 be a2 82 8a 3d 80 18 0b be 43 0d b6 3d
       -0.2400203 0.067631975 -0.13583565 0.08889248
0002a0 3f 21 b6 3d 0b dc 9c 3d 2f 3a e5 3d b4 fb 51 3e
       0.0889306 0.07659157 0.11192738 0.20506173
0002b0 34 44 45 3d 51 e3 93 3d cf 19 d1 bd fe 3f dc 3d
       0.048160747 0.072210915 -0.10210001 0.10754393
0002c0 3a 59 d5 3d d6 28 09 be 30 25 00 bc a0 0c c7 bd
       0.10417409 -0.13394484 -0.007821366 -0.09719205
0002d0 3c 01 24 3d 64 19 80 3e d7 b4 d7 bd 6b 16 bd 3d
       0.04004024 0.25019372 -0.10532539 0.092327915
0002e0 87 c7 a0 3d 00 66 87 bd 6d 93 f4 3d 59 12 8e 3c
       0.07850557 -0.06611252 0.11942182 0.017342733
0002f0 bc 62 ac 3d 84 14 55 3d 9e 58 45 3e cd c2 f2 bd
       0.084172696 0.05202152 0.19272086 -0.118535616
000300 fb 66 d8 3c 1c 33 8e bd 8c b4 16 3e 27 b2 7e bd
       0.026416292 -0.06943342 0.1471731 -0.062181618
000310 62 06 1b 3d 58 44 42 3e 04 e9 00 3e a9 d9 12 be
       0.037847884 0.18971384 0.12588888 -0.14340843
000320 7f 9f 81 bd 71 39 b0 bd 43 22 fe bd b7 9a 99 be
       -0.063292496 -0.08604706 -0.12408879 -0.3000085
000330 0f dc 8f bd a9 48 20 3e 89 8b 3d 3d 1a 64 fb bd
       -0.07024395 0.15652718 0.04627565 -0.12274952
000340 a7 e1 f4 3d 02 9d 35 3e c0 48 15 be 11 93 a8 bd
       0.11957102 0.17735675 -0.14578533 -0.08231176
000350 79 72 fd bd 79 bc f3 3c 9a ee 30 be 56 4d 9e 3d
       -0.123753496 0.029752957 -0.1727852 0.077295944
000360 86 27 45 bd 38 07 01 bd 9b 13 9d 3d 4b 71 00 3e
       -0.048133396 -0.031501025 0.07669755 0.12543218
000370 8d d4 50 be 63 e3 df 3d 94 d2 ca 3b df 09 3d 3e
       -0.20393582 0.109320424 0.0061896536 0.18460797
000380 3e 40 d6 bc 0f 2b fe 3d 99 ad 28 3e 98 77 f4 bd
       -0.02615368 0.124105565 0.16472472 -0.11936873
000390 0b 09 29 bd 10 a1 07 3e bd d6 8c 3e 18 37 6a 3e
       -0.04126839 0.13245034 0.27507582 0.22872579
0003a0 c9 ec 42 be c4 7a 52 3e d7 6b b7 bb ce 33 07 be
       -0.19035639 0.20554644 -0.0055975723 -0.13203356
0003b0 cb 3d 8c be 3d f4 19 be 48 4c c3 3d 5d 44 1c be
       -0.27390894 -0.15034576 0.09536034 -0.15260454
0003c0 ac 5c eb bb 8c 85 3e 3d 64 a7 34 be 73 18 9e be
       -0.007182678 0.04651408 -0.1764198 -0.30878028
0003d0 dd 92 0d 3e 3e cc 2f bd 7d d9 1e be 00 20 c8 3c
       0.13825555 -0.04291939 -0.15512653 0.024429321
0003e0 ac 35 c7 3d 71 8b 53 3d 54 e4 35 be f7 b1 18 3e
       0.09727034 0.051646654 -0.17762882 0.14911638
0003f0 dd 42 13 be 0a d7 b6 bd 9c 71 1d 3e 8f 22 1a 3d
       -0.14380975 -0.08927734 0.1537537 0.037630614

encoder.val_net.net.3.bias f4 [72]
000000 e4 a7 33 3d 3e 0a fb 3c 58 bf a6 3b 4e 17 94 bd
       0.043861285 0.030644532 0.005088728 -0.072310075
000010 18 1b a9 3c 4f d0 ab 3d c4 74 fd bd a5 cc 12 be
       0.020642802 0.08389341 -0.12375787 -0.14335878
000020 e9 5c 33 3e a0 df 64 bd 79 0f 4d bd da cd 65 bd
       0.17515911 -0.055877328 -0.050063584 -0.05610452
000030 8a 54 94 3b cb eb 9b 3d bb f1 99 bd 0e de 61 bd
       0.0045266794 0.07613333 -0.075168096 -0.05514341
000040 2f 41 5c 3d 16 c1 cf bd 74 3c b7 3d e2 8a 0b 3d
       0.0537731 -0.1014425 0.089470774 0.034067996
000050 ae 26 34 bd af 03 c0 3c ea be aa bd 65 d0 ab 3d
       -0.0439822 0.023439256 -0.08337195 0.083893575
000060 8f 50 e2 bc be 0d 85 bb ed 68 3d 3e 75 f8 14 be
       -0.027626304 -0.004060476 0.18497057 -0.14547904
000070 fa ec 21 3d 0a 0b 42 3d c8 8c 3f 3b 35 82 b3 3d
       0.03953264 0.04737381 0.00292282 0.087650694
000080 8d bc 83 bd e8 ad fb 3d 2b 65 10 3e 6d 44 fc bd
       -0.064324476 0.12289029 0.14101093 -0.12317739
000090 93 bc 10 3e 72 af 78 3d ec 53 79 bd e2 12 a1 3c
       0.14134435 0.060714193 -0.06087105 0.019662324
0000a0 36 07 18 bd 3a 82 11 bd 1c 9d 32 3e d5 89 b4 3d
       -0.037116252 -0.035524584 0.17442745 0.08815352
0000b0 f1 c9 23 3e 0d 83 c1 bc 85 c0 12 3d aa 7e ea 3d
       0.15995003 -0.02362206 0.035828132 0.114499405
0000c0 f4 67 ff bd 65 6b 12 be 71 47 db 3d af ef 1d ba
       -0.12470999 -0.1429878 0.10706986 -0.00060247903
0000d0 cb 62 05 be 53 ec 05 3d 8f 48 6e 3d b0 16 c2 bd
       -0.13025968 0.03269608 0.058174666 -0.094769835
0000e0 6c 35 62 bd 88 51 0e 3e 11 0f b9 bc 9a 95 13 3e
       -0.05522673 0.13898289 -0.022590192 0.14412537
0000f0 18 30 fb bd 2f bc 9e 3d 1b cb 6f bd 31 88 be bc
       -0.122650325 0.07750737 -0.058543306 -0.0232583
000100 1b eb 01 be 4d 9b 34 bd fe 59 9f bd 3b 72 12 3e
       -0.12687342 -0.04409342 -0.077808365 0.14301388
000110 23 7c da 3d 8c 19 b0 bc d6 ad 0e be 63 aa 8b 3d
       0.106682085 -0.021496557 -0.139335 0.06819608

encoder.rank.weight f4 [1, 18]
000000 5c 03 0c bc 6c 9e 0c 3e 68 18 48 be dc 58 23 3e
       -0.008545723 0.13732308 -0.1954056 0.15951866
000010 48 54 e6 3c 05 63 09 be 1a d4 27 3e 3f 92 4a 3e
       0.02811636 -0.13416679 0.16389504 0.19782351
000020 f7 4e b7 bc 39 68 2c be 31 c3 4a 3e 96 38 4a 3c
       -0.02237652 -0.16836633 0.19801022 0.012342593
000030 ed aa 8a 3d 42 c4 64 3e e6 73 f0 bd 0a 59 10 3e
       0.06770883 0.22340491 -0.11740856 0.14096466
000040 c8 7f ca bd 71 7f 3c bc
       -0.098876536 -0.011504994

encoder.cardinality.weight f4 [72, 1]
000000 67 94 a4 bd d1 e8 cc 3e b9 0e 68 3f d4 57 f6 3e
       -0.08036118 0.40021375 0.90647465 0.48113883
000010 2d 62 e2 be 1f f2 32 bf d6 09 2d 3f f7 53 98 bd
       -0.44215527 -0.699007 0.67593133 -0.0743789
000020 f3 60 5c 3f a9 a0 73 bf ed df e8 be ff d0 5c be
       0.8608543 -0.9516702 -0.45483342 -0.215641
000030 97 13 b3 be d6 55 fd bd a9 5f 43 bf 3b 33 3f be
       -0.34975883 -0.123698875 -0.7631784 -0.18671887
000040 1f 40 7c be 32 d5 50 3f 41 52 5f bf 85 ea ac be
       -0.24633835 0.8157531 -0.87234885 -0.33772674
000050 a2 df 07 be cf f9 70 bf 3a 84 6e be 9f 4c 43 bf
       -0.13268903 -0.9413118 -0.23292628 -0.7628879
000060 8e d9 8f be fc 98 ce 3d 07 77 47 3f 3e 90 92 be
       -0.2809567 0.10087773 0.77915996 -0.28625673
000070 fd fa fa be f0 13 0f be 7e d0 6a bf cd 86 0a 3f
       -0.49019614 -0.1397245 -0.91724384 0.5411194
000080 21 2a 0f be 91 e8 26 3e 62 e6 67 3f 69 83 27 3f
       -0.13980915 0.16299655 0.9058591 0.6543489
000090 7a b2 5c 3f 98 69 b5 3e c0 1b eb bd 56 a3 10 bf
       0.86209834 0.35432124 -0.11479902 -0.5649923
0000a0 ca a3 3d bf 7d 4b 60 bc c6 6f 01 3f 60 dd 3e bf
       -0.7407805 -0.013689873 0.5056118 -0.7455654
0000b0 f3 ca 14 3f 70 51 87 3d bf 34 3e 3f a6 33 be 3e
       0.58122176 0.0660733 0.74299234 0.3714878
0000c0 1e 98 25 bc 86 50 b3 3e 7f 4c 51 bf f9 e8 45 3f
       -0.010107068 0.35022372 -0.8175735 0.77308613
0000d0 07 a4 21 3f 73 5b 0f bd 54 96 4e 3f af f8 91 be
       0.6314091 -0.034999322 0.8069813 -0.28510043
0000e0 6b 1e 8e be 43 b3 fd be d5 68 92 be e4 21 c9 be
       -0.27757582 -0.49550828 -0.28595605 -0.3928367
0000f0 85 fc d1 3e a7 8d 88 be f4 17 be 3e f6 19 ff be
       0.4101297 -0.26670572 0.3712765 -0.49824494
000100 cf e6 78 be e8 3c 8a 3c c1 c3 33 3f 9d 2d 2c be
       -0.24306796 0.016874745 0.7022057 -0.16814275
000110 4d 28 5d 3f 3d 52 01 3f 3b 6d 55 3f 5e 0c 3e 3e
       0.8638962 0.5051611 0.833698 0.18559405

encoder.cardinality.bias f4 [72]
000000 a2 6f 26 bf a5 f2 19 be 99 d4 a5 be c2 44 27 3f
       -0.6501409 -0.15033968 -0.32388762 0.6533929
000010 1e 5f 7a be f7 74 47 3f 7a d9 bc be b8 0c 5a bf
       -0.24450347 0.7791285 -0.3688467 -0.8517566
000020 fd 73 df 3e 2c a7 a9 be 76 eb fc bd eb 1e 19 3f
       0.4364318 -0.33135355 -0.12349598 0.598128
000030 bd 3c 87 3a 0f df 4a 3f 6d 3e 37 bf b5 03 b2 3e
       0.0010317784 0.7924661 -0.7157963 0.34768453
000040 23 31 6c 3f e4 b2 d6 be 48 15 c3 bc 96 96 ef 3e
       0.92262477 -0.41933358 -0.023813859 0.46794575
000050 0c c8 58 3f d9 c0 09 3e d2 c9 9e 3e 12 5d 35 3f
       0.8468025 0.13452472 0.31013352 0.7084514
000060 3e 86 07 3f 4c 38 1f bf 5b 9c 58 3f 0f 5d 57 3f
       0.5293921 -0.6219528 0.8461358 0.8412637
000070 2c 2b 47 bf ac 35 c6 3e c7 b8 73 3e 37 b4 5c bf
       -0.7780025 0.38712823 0.23800956 -0.86212486
000080 6d 44 4c 3f 35 d2 d5 3e 96 34 98 be 72 a6 5a 3f
       0.7979191 0.41761938 -0.2972762 0.85410225
000090 e7 10 49 3f ae 0e 72 3f 51 41 e8 3c ea 82 2c 3f
       0.78541416 0.9455365 0.028351458 0.6738726
0000a0 77 3b be 3e fb 9e 8d be a6 37 e0 3d 23 f4 e3 be
       0.37154743 -0.27660355 0.10948114 -0.445222
0000b0 ca c8 68 3f de e5 4b bf b7 8a 5f bf b7 3f 29 bf
       0.9093138 -0.79647624 -0.8732104 -0.66112846
0000c0 85 6e 40 3d 42 8e 2a 3f 67 14 66 3f e6 b0 2e bf
       0.0469804 0.6662332 0.8987488 -0.68238676
0000d0 f7 cf 44 3f 6c dc a3 be 8f 2b 00 3f 9f 57 be 3e
       0.7687983 -0.32004106 0.50066465 0.37176225
0000e0 40 6d c8 be d6 da 45 3e cf 6a 85 be 87 f1 89 3f
       -0.3914585 0.1932176 -0.2605805 1.0776833
0000f0 72 14 02 bf 84 ed 13 3f ae a3 07 bf 43 39 46 bf
       -0.5081245 0.57784295 -0.5298413 -0.77431124
000100 83 ba 35 bf 97 18 20 bd ca 2e fc be 00 2f e5 be
       -0.7098772 -0.03908595 -0.49254447 -0.4476242
000110 15 79 a0 be 6a 9b 01 3f 91 91 04 3f b2 93 37 bf
       -0.31342378 0.5062777 0.51784617 -0.7170974
