weights/sae_policy_norm_buzz_wire.pt (torch, 202671 bytes, 33 tensors)

weight f4 [50, 64]
-0.0017551343 0.06576094 -0.10288064 -0.09199238 -0.048144296 0.03351967 -0.0024766475 0.099111184
-0.011093006 0.03307657 -0.037776634 -0.024570674 -0.11941856 -0.08278526 -0.051527888 0.0046304464
0.0494169 0.07500285 -0.084742635 -0.054432854 0.04540214 0.103798494 -0.025725022 0.09353897
-0.02014792 0.013226762 0.11318453 -0.115958795 -0.07869224 -0.031645656 -0.048724994 0.1080001
-0.08102246 -0.05754161 -0.08733006 -0.11707012 -0.07296756 0.107449755 0.055777296 0.06058407
0.0065739453 -0.06408544 0.021148086 -0.11671184 -0.09032078 -0.06444125 0.07886724 0.073290154
-0.05543688 -0.0045102984 0.07994509 0.12426664 0.049610272 0.016886607 0.08381079 -0.07360029
0.023293003 -0.09691319 -0.08663577 -0.064572945 0.05655913 0.05027005 -0.07404406 0.037763387
0.07618086 -0.010750719 0.004772693 0.028963089 0.07754707 0.120024264 -0.096327946 -0.045808718
0.049126238 0.10356867 0.10877591 0.110294595 0.024876818 -0.10869783 0.011499062 -0.07820067
-0.11649427 0.11106156 0.09504497 -0.124690995 0.023396507 -0.021057501 -0.020570144 -0.05721961
0.04806952 -0.07403794 0.045823917 0.06321351 0.08948395 0.046738893 -0.123716906 -0.08108711
0.062414378 0.026162669 -0.0975105 -0.07197744 0.11759366 0.084227234 -0.054503143 -0.031460598
-0.11907476 -0.0022467673 -0.094132364 -0.09641959 -0.006887451 0.018768132 -0.051191285 0.0741722
-0.07606739 0.11342126 0.085662484 -0.10541037 -0.03111054 0.005640328 0.018237635 0.029646784
0.049053535 0.0074875206 -0.060991094 0.059148625 -0.11990611 -0.074088335 -0.03129123 -0.06088917
-0.03328502 -0.11310608 -0.026589394 0.026719555 -0.08143322 -0.00641492 0.089481354 -0.012850031
0.003474027 -0.010783613 0.025297672 0.07947993 0.118405774 0.07938199 0.11867669 -0.009040207
-0.11229019 -0.059259653 0.08511315 -0.00081031024 -0.062130794 -0.09578897 -0.11698151 -0.105501026
-0.025354594 0.06855075 0.06758013 -0.120553985 0.077972755 -0.09781368 -0.026426286 -0.05068408
-0.024076909 -0.024542838 -0.112168744 -0.10792974 -0.019559935 0.0016165227 -0.05678436 0.0470874
-0.1125073 -0.008435905 0.10992743 -0.0509865 0.11287539 0.04526922 -0.11280762 0.07908717
-0.014424309 -0.055800855 0.09995666 -0.1010119 0.013413116 -0.026171088 0.08926408 0.034893066
0.06006317 0.04414487 -0.030059338 -0.026288182 -0.10301018 0.067730516 0.09924726 0.085528105
-0.08256604 -0.0026400147 -0.088116765 -0.06881052 -0.07283819 0.042718127 -0.07448915 -0.002727151
0.0052585155 0.08057788 -0.09449001 -0.08581403 -0.07258269 0.087491676 -0.044933125 0.10543609
0.045200944 0.015828252 -0.000930503 -0.024710193 0.015683293 -0.028543085 -0.00087830424 0.01594913
-0.09777564 -0.06551643 0.10093659 -0.101443335 -0.008975774 0.12365484 0.04515463 0.00353913
-0.10832624 0.061922237 -0.089035094 -0.035483032 -0.04193954 -0.018510923 0.0013672858 0.10310094
0.015604854 0.1119616 0.07646406 -0.079026744 0.05606301 -0.08836201 -0.052978143 0.036765337
0.04127401 0.093778506 -0.040239483 0.0002001077 0.064352944 -0.12088652 0.09037258 -0.1033653
0.0017228127 -0.021252096 -0.06583412 0.01652138 0.10336484 -0.036539942 -0.07421176 -0.046229854
00000000: 890c e6ba acad 863d 16b3 d2bd 8066 bcbd
00000010: f432 45bd ec4b 093d 404f 22bb cefa ca3d
00000020: 70bf 35bc 4c7b 073d acbb 1abd 7048 c9bc
00000030: b891 f4bd 528b a9bd e80e 53bd 00bb 973b
00000040: 6069 4a3d 189b 993d 8c8d adbd fcf4 5ebd
00000050: 98f7 393d 4e94 d43d 48bd d2bc 5c91 bf3d
00000060: 400d a5bc 10b5 583c 4acd e73d ce7b edbd
00000070: 6629 a1bd e09e 01bd dc93 47bd 282f dd3d
00000080: 1aef a5bd c0b0 6bbd 1ada b2bd 76c2 efbd
00000090: 0470 95bd 9e0e dc3d bc76 643d 0027 783d
000000a0: 406a d73b 3a3f 83bd c03e ad3c 9e06 efbd
000000b0: 1afa b8bd c6f9 83bd 2685 a13d 2619 963d
000000c0: c811 63bd 20cb 93bb 40ba a33d 827f fe3d
000000d0: 2434 4b3d c855 8a3c fea4 ab3d c0bb 96bd
000000e0: f8d0 be3c 6c7a c6bd 186e b1bd d23e 84bd
000000f0: 8caa 673d f8e7 4d3d 6aa4 97bd c8ad 1a3d
00000100: b604 9c3d c923 30bc 4064 9c3b 0044 ed3c
00000110: 00d1 9e3d 48cf f53d 9647 c5bd eca1 3bbd
00000120: 9838 493d d01b d43d e8c5 de3d 22e2 e13d
00000130: 78ca cb3c f89c debd 9066 3c3c ac27 a0bd
00000140: 8c94 eebd 3e74 e33d f0a6 c23d fe5d ffbd
00000150: 08aa bf3c c880 acbc b882 a8bc 1c5f 6abd
00000160: 8ce4 443d 34a1 97bd dcb1 3b3d 1676 813d
00000170: 5c43 b73d 4871 3f3d 4a5f fdbd 0011 a6bd
00000180: 38a6 7f3d 1853 d63c 96b3 c7bd e868 93bd
00000190: f2d4 f03d 547f ac3d b03e 5fbd d4dc 00bd
000001a0: 78dd f3bd 803e 13bb 78c8 c0bd a277 c5bd
000001b0: 20b0 e1bb a0bf 993c f4ad 51bd 98e7 973d
000001c0: 38c9 9bbd 6849 e83d d06f af3d 64e1 d7bd
000001d0: 88db febc 80d2 b83b 1867 953c d0dd f23c
000001e0: 5cec 483d e059 f53b ccd1 79bd d445 723d
000001f0: 5691 f5bd a0bb 97bd 3c2b 00bd ec66 79bd
00000200: e055 08bd 29a4 e7bd 00d2 d9bc f8e2 da3c
00000210: 76c6 a6bd 4034 d2bb 0042 b73d f088 52bc
00000220: 80ac 633b c0ad 30bc 103d cf3c 60c6 a23d
00000230: ba7e f23d 0693 a23d c40c f33d 601d 14bc
00000240: 66f8 e5bd 40ba 72bd ce4f ae3d 006b 54ba
00000250: dc7c 7ebd 022d c4bd 0094 efbd ec10 d8bd
00000260: 70b4 cfbc 5664 8c3d 7467 8a3d 02e5 f6bd
00000270: 2eb0 9f3d 8a52 c8bd f07b d8bc 1c9a 4fbd
00000280: f03c c5bc 100e c9bc bab8 e5bd 440a ddbd
00000290: 283c a0bc 80e1 d33a b896 68bd b8de 403d
000002a0: 3a6a e6bd c036 0abc a221 e13d 38d7 50bd
000002b0: 362b e73d 386c 393d ae07 e7bd 74f8 a13d
000002c0: f053 6cbc 708f 64bd 14b6 cc3d 54df cebd
000002d0: b0c2 5b3c c064 d6bc 16d0 b63d 08ec 0e3d
000002e0: cc04 763d 40d1 343d 003f f6bc 505a d7bc
000002f0: 00f7 d2bd 4cb6 8a3d 2642 cb3d 5c29 af3d
00000300: 6218 a9bd 1904 2dbb 9076 b4bd 88ec 8cbd
00000310: 302c 95bd 34f9 2e3d c48d 98bd 00ba 32bb
00000320: a04f ac3b 0406 a53d fa83 c1bd 44bf afbd
00000330: 3ca6 94bd d62e b33d cc0b 38bd e0ee d73d
00000340: a024 393d 40aa 813c 00ed 73ba 086d cabc
00000350: 407a 803c 30d3 e9bc 003e 66ba c0a7 823c
00000360: 983e c8bd 7a2d 86bd d8b7 ce3d 86c1 cfbd
00000370: 200f 13bc c03e fd3d 10f4 383d c0f0 673b
00000380: 26da ddbd 2ca2 7d3d 0858 b6bd a856 11bd
00000390: ccc8 2bbd 38a4 97bc 8036 b33a 9626 d33d
000003a0: 80ab 7f3c 204c e53d 3099 9c3d c6d8 a1bd
000003b0: 54a2 653d 24f7 b4bd 9cff 58bd 4097 163d
000003c0: f00e 293d f20e c03d 28d2 24bd 00d4 5139
000003d0: 7acb 833d 5a93 f7bd 4215 b93d 30b1 d3bd
000003e0: 00d0 e13a e018 aebc 0ad4 86bd d857 873c
000003f0: f2b0 d33d e8aa 15bd 56fc 97bd 845b 3dbd

bias f4 [50]
-0.04920741 -0.03735964 -0.029185668 -0.110667825 -0.08269048 0.00034111642 -0.03631056 -0.114122145
0.034297295 0.074677035 0.09897636 0.111445226 -0.08465014 -0.051998984 -0.057634037 0.011650492
0.025889885 0.032419804 0.07937891 0.061385255 -0.06354545 0.083253644 0.078848355 0.018782316
-0.10769522 -0.071395494 0.024841564 0.03683527 0.106650226 0.07159193 0.05667753 -0.014442209
0.08151731 -0.048554752 0.052026406 -0.07412778 -0.0026020398 0.088246584 0.057507917 -0.021537563
-0.0067374595 -0.07430728 0.059107527 0.08486638 0.038270384 -0.1191535 -0.09031007 0.08985307
-0.018729955 0.0707258
00000000: b68d 49bd 6c06 19bd c816 efbc d0a5 e2bd
00000010: a059 a9bd dfd7 b239 62ba 14bd dfb8 e9bd
00000020: 527b 0c3d 46f0 983d 1eb4 ca3d 653d e43d
00000030: 0d5d adbd e3fc 54bd ab11 6cbd b5e1 3e3c
00000040: 0617 d43c a1ca 043d 6991 a23d 1b6f 7b3d
00000050: 1e24 82bd e380 aa3d 3f7b a13d 5fdd 993c
00000060: 508f dcbd cd37 92bd 8980 cb3c 94e0 163d
00000070: 6f6b da3d ca9e 923d b326 683d 049f 6cbc
00000080: 8cf2 a63d 59e1 46bd a419 553d 4ed0 97bd
00000090: fc86 2abb a0ba b43d 6c8d 6b3d 8b6f b0bc
000000a0: e8c5 dcbb 6a2e 98bd bc1a 723d 6dce ad3d
000000b0: 68c1 1c3d c006 f4bd 7cf4 b8bd e304 b83d
000000c0: 906f 99bc b0d8 903d

weight f4 [50]
0.9919427 1.004934 0.9940169 1.002232 1.000044 1.0113407 0.98313695 0.985864
0.98952645 1.0034767 0.996185 1.0059147 0.9930241 1.0116395 0.9995957 0.9859897
0.991711 1.0038826 1.0063771 0.9946278 1.0016931 0.9975471 0.9928779 1.0014243
0.9993083 1.0044252 0.9887092 0.9949496 0.9914248 1.006975 0.99225616 0.989575
0.9957912 0.9961761 1.0016941 0.99174637 1.0056944 1.013665 0.99994 1.0071867
1.005217 1.0017115 1.0012919 1.0021278 1.002386 0.9958001 0.99100775 1.0046439
0.9988323 0.99361616
00000000: f5ef 7d3f ada1 803f e477 7e3f 2349 803f
00000010: 7101 803f 9d73 813f ddae 7b3f 9561 7c3f
00000020: 9b51 7d3f ed71 803f fb05 7f3f d0c1 803f
00000030: d436 7e3f 677d 813f 81e5 7f3f d269 7c3f
00000040: c6e0 7d3f 3a7f 803f f7d0 803f ed9f 7e3f
00000050: 7b37 803f 3f5f 7f3f 3f2d 7e3f ac2e 803f
00000060: abd2 7f3f 0191 803f 0c1c 7d3f 04b5 7e3f
00000070: 04ce 7d3f 8fe4 803f 8004 7e3f ca54 7d3f
00000080: 2cec 7e3f 6605 7f3f 8337 803f 17e3 7d3f
00000090: 98ba 803f c6bf 813f 11fc 7f3f 7eeb 803f
000000a0: f3aa 803f 1538 803f 552a 803f b945 803f
000000b0: 2f4e 803f c1ec 7e3f afb2 7d3f 2c98 803f
000000c0: 79b3 7f3f a15d 7e3f

bias f4 [50]
-0.0020727138 0.0065205065 0.0057651233 -0.0026289155 0.0019044456 0.0122954855 -0.016500998 0.013659656
0.008953532 0.006525601 -0.0038124605 0.0064896955 0.006986479 -0.011766989 0.00090724335 -0.013304802
-0.0070666326 0.0057136877 0.006486897 -0.005286868 0.00028483692 -0.0022165321 -0.006915288 0.0016608889
0.00043849566 0.0046673343 -0.010647828 -0.00459975 -0.008536826 0.007145823 0.012255067 -0.01004788
-0.0034820351 -0.0032575778 0.0022913872 -0.011027675 -0.005578351 0.013854102 0.00032150562 0.0073846444
-0.0053275316 -0.0033387612 0.0014430668 0.0024441453 -0.0026817645 0.0014582806 0.006518251 0.0047614356
-0.00075019593 -0.0061088908
00000000: 5ed6 07bb f9a9 d53b 5ce9 bc3b e249 2cbb
00000010: 979e f93a 0173 493c 1a2d 87bc c0cc 5f3c
00000020: d6b1 123c b5d4 d53b 79da 79bb 83a7 d43b
00000030: d5ee e43b 54ca 40bc 12d4 6d3a 62fc 59bc
00000040: 368f e7bb e339 bb3b 0990 d43b 773d adbb
00000050: 2a56 9539 3d43 11bb a499 e2bb 2fb2 d93a
00000060: e4e5 e539 70f0 983b 3a74 2ebc 80b9 96bb
00000070: 0bde 0bbc 8227 ea3b 7ac9 483c dd9f 24bc
00000080: db32 64bb 167d 55bb 192b 163b 6cad 34bc
00000090: 9aca b6bb 51fc 623c c18f a839 e3fa f13b
000000a0: 9392 aebb 1ecf 5abb 4925 bd3a f42d 203b
000000b0: 8bc0 2fbb c723 bf3a 0d97 d53b d105 9c3b
000000c0: cca8 44ba 172d c8bb

weight f4 [36, 50]
0.10928424 -0.041608635 -0.099615015 -0.14973788 0.037536304 0.08962477 -0.008144945 -0.15400869
-0.10465889 0.005033402 0.08103698 -0.030568575 -0.1079875 -0.115282744 0.109813474 0.06015246
-0.13206352 -0.08471387 -0.103006065 0.037134193 -0.07411719 0.016344225 -0.0057922425 -0.107229054
-0.14304362 -0.109248705 -0.042524375 0.037767418 -0.04983978 0.011621956 -0.0193075 0.14499609
-0.047873594 0.14940442 -0.09188059 -0.13470821 0.02928496 -0.06534602 0.08911256 -0.061263487
0.094627194 0.12023285 0.02587336 0.046916198 0.11538514 0.06713401 -0.14014581 0.012023665
-0.11090733 0.124674216 -0.037392683 0.0033324093 -0.08896155 -0.078991234 0.01620882 0.11865397
-0.06883505 0.0112759145 0.1261281 0.12469025 -0.025618773 0.13407925 0.049397092 0.12662876
0.0022400045 -0.12117888 -0.04029556 0.04164709 0.07711421 -0.13869461 0.107894026 -0.12444427
0.08453346 0.14167386 0.032690182 -0.031336144 0.0792411 -0.03906462 -0.10273493 -0.098177284
0.07494888 0.110395 0.008010485 -0.13505429 -0.13665646 -0.03404567 0.074272834 -0.092249714
0.040435776 -0.07549968 0.11297618 -0.03910616 -0.027339362 -0.12187707 -0.1289908 0.007476307
0.020769415 0.078732416 -0.12123308 0.02669937 -0.013448519 0.07332907 -0.058630977 0.047964685
0.062990375 0.06399368 -0.053527687 0.051577825 -0.023409316 0.026107036 -0.09191064 -0.117378145
-0.10981891 -0.08307259 -0.05391956 0.024546593 -0.026886348 -0.08521365 -0.0034801927 -0.050530743
0.09310183 -0.122294575 -0.058529243 -0.09664864 0.023453183 0.018249668 -0.012619559 0.13228747
-0.059852578 -0.026326142 0.031332478 0.11059129 0.10128162 0.01173185 -0.059843462 0.052352592
0.094866 -0.009575071 0.07208306 0.11007697 -0.06989593 -0.025342003 -0.13379662 0.026659321
0.106636584 -0.021574836 0.02847925 0.038749658 -0.009183587 0.103977434 0.014772706 -0.13101895
-0.10630205 -0.12964694 0.016201371 0.06391343 -0.028895617 0.13760878 -0.016801046 0.020851495
0.11683924 0.06087165 0.005937316 0.1466527 -0.07399113 0.04217802 0.09937786 -0.08977478
-0.14305381 0.034845546 -0.043176778 -0.0814144 0.017327012 -0.11285779 0.13757834 -0.010377854
-0.055593874 0.107515104 0.028926712 0.016382843 -0.061742485 0.12326422 -0.05353215 0.10692964
-0.02064492 0.08139539 0.10989865 -0.11574172 -0.10459687 -0.15023248 0.112390585 0.1320768
-0.06202031 -0.079721294 0.033778295 0.086598605 0.04537348 -0.03983886 -0.10003041 0.11029913
-0.10044887 -0.1226222 -0.05999422 0.024748726 0.049035642 0.058916636 -0.079045326 -0.057729714
-0.061031032 -0.057613317 -0.11547264 0.032722503 -0.044587865 -0.13933827 -0.086064324 -0.09012543
-0.06375961 -0.07939236 -0.021393739 0.054015394 -0.11788675 -0.00939307 -0.03734865 -0.06857613
-0.034873586 -0.066839196 0.008207172 -0.098003775 0.030402852 0.13312736 0.12146815 -0.05872084
0.04698216 -0.13049987 0.12230422 -0.14439027 -0.12982422 -0.12349548 -0.1278233 0.022377318
-0.040743995 0.030442301 -0.005419886 -0.00019828616 -0.054632775 -0.08735493 -0.12186179 0.07506015
-0.069522895 -0.025292443 0.06731723 -0.036819 -0.03236878 -0.0909927 -0.117887236 0.062345374
00000000: 6ad0 df3d d16d 2abd f502 ccbd e354 19be
00000010: abbf 193d 318d b73d 6072 05bc 74b4 1dbe
00000020: 6657 d6bd 3cef a43b b7f6 a53d f36a fabc
00000030: 8d28 ddbd 5c19 ecbd e3e5 e03d 6d62 763d
00000040: a93b 07be 777e adbd d8f4 d2bd 061a 183d
00000050: c1ca 97bd 53e4 853c dacc bdbb e89a dbbd
00000060: 077a 12be c9bd dfbd 0a2e 2ebd 02b2 1a3d
00000070: cc24 4cbd 046a 3e3c c32a 9ebc db79 143e
00000080: 1a17 44bd 79fd 183e e42b bcbd f3f0 09be
00000090: 03e7 ef3c 22d4 85bd a580 b63d 6cef 7abd
000000a0: e7cb c13d a43c f63d 5ef4 d33c 332b 403d
000000b0: 0b4f ec3d 8e7d 893d 6282 0fbe e8fe 443c
000000c0: 6223 e3bd 3255 ff3d 1229 19bd 8d64 5a3b
000000d0: 7931 b6bd 28c6 a1bd 5cc8 843c da00 f33d
000000e0: 64f9 8cbd 9dbe 383c ba27 013e 9a5d ff3d
000000f0: 76de d1bc 124c 093e 9b54 4a3d f8aa 013e
00000100: 0acd 123b a22c f8bd f50c 25bd 2496 2a3d
00000110: 0eee 9d3d f605 0ebe 8bf7 dc3d a3dc febd
00000120: e11f ad3d f412 113e 24e6 053d 545a 00bd
00000130: 2849 a23d 3902 20bd b166 d2bd 2c11 c9bd
00000140: cc7e 993d c616 e23d 693e 033c ac4b 0abe
00000150: acef 0bbe 7973 0bbd 5b1c 983d 6bed bcbd
00000160: fc9f 253d 949f 9abd 0e60 e73d c82d 20bd
00000170: ccf6 dfbc af9a f9bd 2a16 04be cffb f43b
00000180: 9f24 aa3c 763e a13d 0d49 f8bd a3b8 da3c
00000190: 2d57 5cbc 8d2d 963d 0927 70bd 9e76 443d
000001a0: 1901 813d 1e0f 833d d93f 5bbd 4543 533d
000001b0: e5c4 bfbc 6cde d53c a53b bcbd f463 f0bd
000001c0: bde8 e0bd f621 aabd c2da 5cbd f015 c93c
000001d0: c240 dcbc 7e84 aebd f213 64bb 53f9 4ebd
000001e0: 2cac be3d 9475 fabd 5cbc 6fbd b9ef c5bd
000001f0: e420 c03c 5480 953c 44c2 4ebc 5e76 073e
00000200: fa27 75bd eca9 d7bc 7c56 003d b07d e23d
00000210: bd6c cf3d f236 403c 6b1e 75bd ac6f 563d
00000220: 1b49 c23d c2e0 1cbc 49a0 933d 0970 e13d
00000230: 9925 8fbd 089a cfbc fb01 09be a664 da3c
00000240: 4864 da3d b6bd b0bc 514d e93c f6b7 1e3d
00000250: c176 16bc 1ff2 d43d 3809 723c d529 06be
00000260: e4b4 d9bd 2bc2 04be bdb8 843c 0be5 823d
00000270: 80b6 ecbc 51e9 0c3e 59a2 89bc c1d0 aa3c
00000280: 6949 ef3d 8d54 793d d18d c23b 202c 163e
00000290: a988 97bd dcc2 2c3d 9f86 cb3d d7db b7bd
000002a0: b37c 12be 34ba 0e3d 22da 30bd 98bc a6bd
000002b0: 61f1 8d3c fc21 e7bd 56e1 0c3e e007 2abc
000002c0: 67b6 63bd e130 dc3d b6f7 ec3c 5035 863c
000002d0: b0e5 7cbd f471 fc3d 8744 5bbd edfd da3d
000002e0: 891f a9bc a0b2 a63d 8b12 e13d ff09 edbd
000002f0: e236 d6bd 8bd6 19be 092d e63d 243f 073e
00000300: 0209 7ebd eb44 a3bd 1c5b 0a3d 9c5a b13d
00000310: 8bd9 393d 132e 23bd bedc ccbd 83e4 e13d
00000320: 23b8 cdbd 5921 fbbd 80bc 75bd d7bd ca3c
00000330: 99d9 483d 9252 713d 84e2 a1bd fe75 6cbd
00000340: adfb 79bd f1fb 6bbd eb7c ecbd 0808 063d
00000350: c4a1 36bd b1ae 0ebe 7e42 b0bd ae93 b8bd
00000360: 6694 82bd 7698 a2bd ec41 afbc 3f3f 5d3d
00000370: 9c6e f1bd 64e5 19bc e6fa 18bd a471 8cbd
00000380: 9bd7 0ebd fde2 88bd 6077 063c 34b6 c8bd
00000390: 670f f93c 8a52 083e 4bc4 f83d 4385 70bd
000003a0: 5e70 403d c2a1 05be a37a fa3d 0bdb 13be
000003b0: a4f0 04be 33eb fcbd 1ce4 02be a350 b73c
000003c0: 2de3 26bd 2262 f93c 4d99 b1bb 09eb 4fb9
000003d0: 9ec6 5fbd 24e7 b2bd ad92 f9bd 23b9 993d
000003e0: 0562 8ebd 1932 cfbc 9edd 893d 85cf 16bd
000003f0: 2095 04bd 615a babd dd6e f1bd dd5d 7f3d

bias f4 [36]
-0.120094 0.09990485 -0.033019368 -0.14913633 0.12439968 0.08831954 0.046774928 0.13216671
0.13035753 0.12594005 0.13485138 0.123182826 0.031948645 -0.0095251715 -0.015421266 -0.04323942
0.059018716 0.014070562 0.033483807 -0.0786777 -0.06435546 0.110680826 0.009623661 0.05140102
-0.11953396 -0.059054665 0.0037676387 -0.013191799 0.08238422 -0.040190138 0.11920371 -0.04110854
0.06243444 -0.100517444 0.023383815 -0.13523826
00000000: d8f3 f5bd ea9a cc3d 513f 07bd 32b7 18be
00000010: 42c5 fe3d e0e0 b43d 1197 3f3d b656 073e
00000020: 727c 053e 6ef6 003e 7b16 0a3e 4747 fc3d
00000030: 95dc 023d 770f 1cbc 7aa9 7cbc d11b 31bd
00000040: 9cbd 713d 3788 663c 5126 093d c621 a1bd
00000050: cccc 83bd a1ac e23d 8fac 1d3c e089 523d
00000060: 39ce f4bd 4ee3 71bd 7dea 763b 6a22 58bc
00000070: 0fb9 a83d 6a9e 24bd 1321 f43d 6e61 28bd
00000080: 41bb 7f3d 17dc cdbd 6a8f bf3c e67b 0abe

weight f4 [21, 6]
-0.33810353 -0.2535249 0.115222216 0.033449136 0.051423535 -0.037642103 0.34858862 0.38628715
0.1724642 0.3234738 -0.014616392 -0.16117583 0.070474185 0.27179435 -0.0541977 -0.30198184
0.12534778 -0.09797122 -0.18861255 0.2629007 -0.019190948 -0.23124042 -0.23604786 0.3921705
0.26165316 -0.28525957 -0.0012138617 -0.017161641 0.192357 -0.34315908 0.029141113 0.13654952
0.20477863 0.024468409 -0.17849284 -0.3929647 0.22132477 0.38176554 -0.12807335 -0.36883596
0.12037585 -0.2786393 -0.27105653 0.09738298 -0.040904697 -0.022779267 0.3608406 -0.08509037
0.25112498 -0.117091745 0.29665786 0.12273632 0.36701545 0.14995134 -0.13629441 0.17434128
0.346664 0.0889575 0.19625641 -0.29052228 0.21117997 -0.3830378 0.35917822 0.16486318
0.016931077 -0.38118505 0.37580398 0.26689464 0.3706559 0.15677598 0.14279166 -0.100432925
-0.16948764 0.17332657 0.13568321 -0.019324359 0.06481679 0.1500396 -0.3937289 -0.35224834
-0.108934276 0.27737135 0.19898343 -0.3817803 -0.1368341 -0.039601494 0.1301478 0.32796437
-0.005603055 -0.3131971 0.038196206 -0.15844573 -0.24793324 0.23425256 -0.0426915 0.19002168
0.3191933 0.030159952 0.2348194 -0.18447545 0.22868462 0.007947914 0.26406115 0.37936997
-0.3062691 0.38358527 0.30426267 -0.33989254 0.13034964 -0.31621218 0.13803129 0.064928316
-0.38076192 0.16093907 -0.1170779 0.4064955 0.39362216 0.14135754 0.31668344 0.14487101
0.37469736 -0.04310957 0.10135701 -0.06393796 -0.018317584 -0.12733336
00000000: e81b adbe 04ce 81be a0f9 eb3d f601 093d
00000010: 7ca1 523d 9b2e 1abd 357a b23e 6ec7 c53e
00000020: 759a 303e 5c9e a53e 9779 6fbc 470b 25be
00000030: c554 903d a128 8b3e 68fe 5dbd 5d9d 9abe
00000040: 2b5b 003e 23a5 c8bd a623 41be ec9a 863e
00000050: 5636 9dbc 4aca 6cbe 88b6 71be 92ca c83e
00000060: 67f7 853e 8b0d 92be 711a 9fba 9296 8cbc
00000070: 3cf9 443e 8cb2 afbe 58b9 ee3c a3d3 0b3e
00000080: 7db1 513e f971 c83c d4c6 36be ab32 c9be
00000090: f6a2 623e c676 c33e a925 03be 11d8 bcbe
000000a0: 9d87 f63d cfa9 8ebe ecc7 8abe ba70 c73d
000000b0: af8b 27bd 969b babc 19c0 b83e dc43 aebd
000000c0: 7493 803e cccd efbd 8ae3 973e 2e5d fb3d
000000d0: 73e9 bb3e d88c 193e c390 0bbe 8586 323e
000000e0: f27d b13e 5a2f b63d 71f7 483e 56bf 94be
000000f0: 903f 583e 881d c4be 35e6 b73e e5d1 283e
00000100: 0bb3 8a3c b02a c3be 6169 c03e 6aa6 883e
00000110: 9cc6 bd3e e289 203e fa37 123e c7af cdbd
00000120: 2b8e 2dbe 857c 313e 8af0 0a3e 1e4e 9ebc
00000130: aabe 843d fba3 193e d696 c9be e559 b4be
00000140: ef18 dfbd 9e03 8e3e 50c2 4b3e b578 c3be
00000150: 3d1e 0cbe 2d35 22bd 7745 053e f2ea a73e
00000160: d599 b7bb 5f5b a0be a073 1c3d 993f 22be
00000170: 36e2 7dbe e7df 6f3e 48dd 2ebd 0b95 423e
00000180: 4e6d a33e 0112 f73c 7f74 703e 22e7 3cbe
00000190: 4d2c 6a3e f837 023c 0633 873e c83c c23e
000001a0: 4ecf 9cbe 4a65 c43e 51c8 9b3e 6506 aebe
000001b0: 607a 053e 90e6 a1be 1358 0d3e 23f9 843d
000001c0: 3af3 c2be 36cd 243e 8ac6 efbd 2e20 d03e
000001d0: d888 c93e 08c0 103e 5524 a23e 1159 143e
000001e0: 55d8 bf3e a993 30bd 4494 cf3d e8f1 82bd
000001f0: c20e 96bc ad63 02be

bias f4 [21]
-0.16724591 0.22033554 0.15930317 -0.19027239 -0.35737872 0.19942917 -0.37407556 0.0026389458
-0.34682566 0.3427908 0.35300642 -0.33102977 -0.378844 -0.24722409 0.12763314 -0.19589305
-0.10120008 -0.08618798 0.056491118 -0.18346372 0.17798205
00000000: 8342 2bbe a49f 613e 5f20 233e c4d6 42be
00000010: 58fa b6be 2937 4c3e d586 bfbe 2af2 2c3b
00000020: 2293 b1be 4782 af3e 42bd b43e bc7c a9be
00000030: d7f7 c1be 5028 7dbe 43b2 023e 3098 48be
00000040: fd41 cfbd 5383 b0bd 3b63 673d eadd 3bbe
00000050: ed40 363e

weight f4 [21]
1.0048625 0.9885296 0.9821119 1.0095148 1.0048243 1.0008856 1.0243971 1.0167369
0.9922229 1.0017877 1.0119838 0.9992411 1.0069582 1.0063357 1.0096449 0.99275285
1.0004392 0.9801597 0.98006594 0.9892305 0.9941006
00000000: 569f 803f 4710 7d3f af6b 7b3f c837 813f
00000010: 159e 803f 051d 803f 721f 833f 6f24 823f
00000020: 5202 7e3f 943a 803f af88 813f 44ce 7f3f
00000030: 02e4 803f 9ccf 803f 0b3c 813f 0d25 7e3f
00000040: 640e 803f bfeb 7a3f 9ae5 7a3f 363e 7d3f
00000050: 607d 7e3f

bias f4 [21]
-0.0068807662 -0.009819526 -0.01754462 -0.010016914 -0.0059522297 0.0010087169 -0.02419821 0.01632933
0.00867461 0.0019547914 0.013153422 0.0011693486 -0.007701101 -0.009125566 0.010630855 0.0068679126
-0.0037409372 0.016722595 -0.019395854 0.009880212 -0.005388049
00000000: 0d78 e1bb 14e2 20bc bcb9 8fbc fc1d 24bc
00000010: ec0a c3bb ec36 843a 533b c6bc 16c5 853c
00000020: f41f 0e3c f51b 003b 7381 573c d444 993a
00000030: 8459 fcbb 6683 15bc 0a2d 2e3c 3a0c e13b
00000040: 832a 75bb d3fd 883c 0ee4 9ebc 9de0 213c
00000050: 3b8e b0bb

weight f4 [36, 21]
-0.13818799 -0.037160233 0.1652346 -0.103185214 0.18520348 0.095882714 -0.05288369 0.057500526
-0.12982374 -0.00016897474 0.044430222 0.20635726 -0.10448077 -0.10644604 -0.12638201 -0.194983
0.061734807 -0.16397046 -0.075837344 -0.08010606 -0.0053549907 0.06411574 -0.15640785 -0.062203392
-0.024127223 -0.1286741 0.05314924 0.07816131 -0.15366995 0.1689802 0.15762012 -0.06266771
0.029859364 0.023990553 -0.031298686 -0.14341207 0.1770209 0.10379207 -0.182215 -0.16686767
0.2045802 0.037295327 -0.037008442 0.13479197 0.049556367 0.091378435 0.18637888 -0.029893374
0.22081704 -0.16645867 -0.11990343 0.023992663 -0.039291974 0.13741869 -0.046431627 0.047711417
-0.058156736 0.1766599 -0.0013804408 0.018694801 0.14658636 0.22477272 0.19582607 -0.2248313
-0.1120586 -0.036037914 -0.05500183 0.11502576 0.10872386 -0.028357018 0.01692683 0.036356717
0.19877075 0.12297307 -0.120476976 -0.12223557 0.056058303 -0.012306865 -0.15025339 -0.21989359
0.021511523 -0.053224474 -0.13686275 0.051640004 0.20867525 0.18473348 0.12808785 -0.16433808
0.12201499 0.11410406 0.07118973 -0.050378487 -0.0054674293 -0.116355464 -0.048667576 -0.037605163
-0.03273473 -0.22364403 0.0774164 -0.17972764 -0.1633794 0.08177148 -0.17532997 0.20819697
0.21084608 -0.06897743 -0.038000803 -0.16732648 0.014208144 0.04036782 -0.12017938 0.06881013
-0.0084973 -0.063947774 -0.0011182928 -0.21202157 -0.15333901 0.02925686 0.21104334 -0.12996751
0.14035642 0.020788824 -0.09365324 1.0324692e-05 0.10511227 0.025581429 0.18380986 -0.03153034
-0.13615099 0.18734907 -0.072157525 0.1486974 0.13400882 0.0487476 -0.18904278 -0.20423661
0.11357972 0.043467734 0.117064744 -0.20235889 -0.01979231 0.1783644 0.10659077 0.18292268
0.17863047 -0.06375947 -0.13906863 -0.13377005 0.07856202 -0.08212058 -0.0061644283 0.029421566
0.14177583 0.1158756 0.12873451 0.0031015559 0.12875785 -0.09566005 -0.09313696 -0.040269163
-0.12948304 0.20142801 -0.03944692 0.055464454 -0.012903594 0.0026059358 -0.12313662 -0.010540885
-0.19614966 -0.103199236 0.16889429 -0.20744565 0.03435649 0.03704946 -0.21077497 0.04352666
0.09944859 0.15980774 0.043149285 0.16870847 0.006386947 0.08294561 0.066981226 -0.16305804
-0.050897945 -0.1518143 0.17032191 0.10151048 -0.09086552 -0.03648533 0.05479165 -0.19368254
0.011782158 0.10812278 0.022580229 -0.015529878 0.13715737 0.09946087 -0.19832844 0.123199925
-0.16759084 0.12702408 0.18524657 0.01485035 -0.0689645 -0.107241325 -0.095548645 -0.04386048
-0.08524392 0.21223035 -0.09630812 0.093981355 -0.19916207 0.10372333 0.18102886 -0.15062287
-0.06087364 0.055359237 -0.21400402 -0.13319024 0.082037665 0.20032635 -0.07024276 -0.002577525
-0.20411168 -0.21491975 0.18253274 0.18206015 -0.062194012 -0.09291634 -0.00946286 0.09063916
-0.20049092 -0.11031948 -0.07894617 -0.10468735 0.0024533735 0.1504018 0.058497343 -0.20628642
0.2109758 0.1834385 0.05989504 0.09790918 0.068964384 0.18617845 -0.21823563 -0.14221935
-0.03986792 -0.031307735 -0.15247689 -0.20004855 -0.16718137 -0.032680504 0.18667924 0.14263523
00000000: 2781 0dbe 5435 18bd 4233 293e c552 d3bd
00000010: fba5 3d3e 285e c43d 919c 58bd ac85 6b3d
00000020: 84f0 04be d02e 31b9 77fc 353d 514f 533e
00000030: 04fa d5bd 6200 dabd 496a 01be a0a9 47be
00000040: a3dd 7c3d dfe7 27be 9c50 9bbd a50e a4bd
00000050: eb78 afbb 1d4f 833d 6129 20be fcc8 7ebd
00000060: 74a6 c5bc 25c3 03be 04b3 593d 0913 a03d
00000070: a85b 1dbe 2509 2d3e 2b67 213e ee57 80bd
00000080: a09b f43c d687 c43c 0d33 00bd 9dda 12be
00000090: f844 353e f090 d43d 9296 3abe 5cdf 2abe
000000a0: 797d 513e fcc2 183d 2a96 17bd e806 0a3e
000000b0: 9efb 4a3d 9e24 bb3d 1bda 3e3e f3e2 f4bc
000000c0: dd1d 623e 2474 2abe ee8f f5bd 438c c43c
000000d0: 9ff0 20bd 7cb7 0c3e 172f 3ebd 0c6d 433d
000000e0: c235 6ebd 55e6 343e e8ef b4ba d725 993c
000000f0: bc1a 163e d22a 663e a186 483e 2d3a 66be
00000100: fb7e e5bd 7e9c 13bd 9949 61bd a092 eb3d
00000110: 9daa de3d fa4c e8bc 23aa 8a3c c8ea 143d
00000120: 8f8a 4b3e 4ed9 fb3d a2bc f6bd a456 fabd
00000130: 649d 653d bca2 49bc 06dc 19be c92b 61be
00000140: ef38 b03c e801 5abd c025 0cbe 7884 533d
00000150: f7ae 553e c62a 3d3e 7629 033e 3e48 28be
00000160: ffe2 f93d 64af e93d eccb 913d ac59 4ebd
00000170: 1f28 b3bb c64b eebd a757 47bd df07 1abd
00000180: da14 06bd f102 65be 7d8c 9e3d 860a 38be
00000190: ee4c 27be ce77 a73d b389 33be 9631 553e
000001a0: 09e8 573e 0a44 8dbd bba6 1bbd a257 2bbe
000001b0: 46c9 683c ba58 253d 9b20 f6bd 53ec 8c3d
000001c0: 4238 0bbc 0df7 82bd ae93 92ba 2f1c 59be
000001d0: e704 1dbe 15ac ef3c bf1b 583e 3416 05be
000001e0: 98b9 0f3e 534d aa3c 45cd bfbd 3738 2d37
000001f0: 1a45 d73d 2590 d13c a738 3c3e f525 01bd
00000200: 2a6b 0bbe 6fd8 3f3e 53c7 93bd 2244 183e
00000210: 9c39 093e 90ab 473d 6e94 41be 6723 51be
00000220: 7c9c e83d 390b 323d a4bf ef3d 2b37 4fbe
00000230: 7c23 a2bc 28a5 363e 434c da3d 1550 3b3e
00000240: e8ea 363e 5394 82bd 0268 0ebe 04fb 08be
00000250: 20e5 a03d d62e a8bd f9fe c9bb 7f05 f13c
00000260: af2d 113e 3050 ed3d fbd2 033e 7943 4b3b
00000270: 19d9 033e 6be9 c3bd 97be bebd 47f1 24bd
00000280: 3497 04be 2543 4e3e 1893 21bd b22e 633d
00000290: 9969 53bc 59c8 2a3b 0d2f fcbd adb3 2cbc
000002a0: 75db 48be 1f5a d3bd a0f2 2c3e a26c 54be
000002b0: 64b9 0c3d 2dc1 173d 65d5 57be 0349 323d
000002c0: b4ab cb3d a4a4 233e 4ebd 303d eac1 2c3e
000002d0: 9849 d13b 63df a93d 742d 893d b0f8 26be
000002e0: 5d7a 50bd 3575 1bbe de68 2e3e bae4 cf3d
000002f0: b417 babd a471 15bd 366d 603d b754 46be
00000300: f409 413c 7a6f dd3d 2cfa b83c 0871 7ebc
00000310: fb72 0c3e 24b2 cb3d 9c16 4bbe 3e50 fc3d
00000320: ef9c 2bbe 9a12 023e 47b1 3d3e e24e 733c
00000330: 433d 8dbd 57a1 dbbd 02af c3bd 0ca7 33bd
00000340: 5d94 aebd ea52 593e 313d c5bd 4c79 c03d
00000350: 24f1 4bbe e66c d43d a15f 393e e23c 1abe
00000360: a356 79bd 5ec0 623d df23 5bbe 0663 08be
00000370: 5d03 a83d 5a22 4d3e 70db 8fbd b2eb 28bb
00000380: a702 51be ec13 5cbe dde9 3a3e fa6d 3a3e
00000390: 26bf 7ebd ec4a bebd 1d0a 1bbc 06a1 b93d
000003a0: 7e4d 4dbe 2eef e1bd 88ae a1bd 5266 d6bd
000003b0: c7c8 203b ee02 1a3e e99a 6f3d bf3c 53be
000003c0: 0a0a 583e 4dd7 3b3e 8054 753d 9c84 c83d
000003d0: 333d 8d3d 90a5 3e3e 2979 5fbe f3a1 11be
000003e0: 8b4c 23bd 8a3c 00bd e722 1cbe 87d9 4cbe
000003f0: 9831 2bbe fedb 05bd d828 3f3e f80e 123e

bias f4 [36]
-0.05147837 -0.184231 -0.14306663 0.14570019 0.11657889 0.15022658 -0.06718318 -0.09566304
-0.19104035 0.010514124 -0.042017862 0.21583627 -0.096192464 -0.13705805 0.108780526 -0.09397813
-0.021188691 0.22709553 0.1383427 -0.23039931 -0.00090821745 0.004290237 0.20775042 -0.19233696
0.13910608 -0.1988366 -0.20458357 -0.1098755 -0.20082533 -0.014886506 0.17832269 -0.07494702
-0.17187375 -0.028424634 -0.17656414 0.12951349
00000000: fcda 52bd 0da7 3cbe 0f80 12be 6e32 153e
00000010: eac0 ee3d ffd4 193e 5697 89bd fcea c3bd
00000020: 15a0 43be 6f43 2c3c ec1a 2cbd 2f04 5d3e
00000030: 8e00 c5bd f258 0cbe 53c8 de3d 9b77 c0bd
00000040: e893 adbc bb8b 683e b5a9 0d3e cced 6bbe
00000050: 7115 6eba 1e95 8c3b 87bc 543e fbf3 44be
00000060: d371 0e3e d29b 4bbe 5b7e 51be 6806 e1bd
00000070: 28a5 4dbe 88e6 73bc 399a 363e d37d 99bd
00000080: acff 2fbe c7da e8bc 3bcd 34be 2f9f 043e

weight f4 [1, 6]
0.05902532 0.3620718 0.17318654 0.14597635 0.13756245 0.37920812
00000000: 89c4 713d 7a61 b93e d057 313e d37a 153e
00000010: 2cdd 0c3e 9127 c23e

weight f4 [36, 1]
-0.5948806 0.7674561 0.37578827 0.90608263 0.23555155 0.36551714 0.62834626 0.64453787
0.55205667 -0.78612477 0.28098124 -0.6741451 0.1295584 0.54872185 -0.35441118 0.881728
0.88197106 0.27752197 -0.7232163 0.008685331 0.7675222 0.17406973 0.8773333 0.073738135
-0.45729017 0.65085894 0.32405838 0.55478144 -0.6054147 -0.7568846 0.67288554 0.36456046
0.7238694 -0.83554655 -0.46177343 -0.029366512
00000000: 184a 18bf 0178 443f 5267 c03e 08f5 673f
00000010: 6d34 713e 1025 bb3e 4ddb 203f 6f00 253f
00000020: 9653 0d3f 793f 49bf c6dc 8f3e c694 2cbf
00000030: f5aa 043e 0979 0c3f 6275 b5be edb8 613f
00000040: dbc8 613f 5c17 8e3e b424 39bf eb4c 0e3c
00000050: 567c 443f 563f 323e ea98 603f 0504 973d
00000060: f021 eabe b19e 263f fbea a53e 2806 0e3f
00000070: 75fc 1abf 30c3 41bf 3a42 2c3f aba7 ba3e
00000080: 814f 393f 61e6 55bf 916d ecbe 0a92 f0bc

bias f4 [36]
-0.50275105 0.6231508 0.80708665 0.8558337 0.14290206 -0.9046072 -0.34666127 0.2249501
-0.26653835 0.42514876 -0.2757293 0.8365228 0.86670333 0.9921153 0.3110174 -0.6628549
-0.26719832 -0.5440311 0.44998854 -0.099921755 0.38984096 0.2847297 -0.30075052 0.13991953
-0.1477577 0.1714371 -0.6688632 0.021173425 0.75433654 0.5187205 -0.6180351 0.8490597
-0.39004472 0.89199567 -0.20552075 0.9669654
00000000: 4bb4 00bf d086 1f3f 3b9d 4e3f eb17 5b3f
00000010: eb54 123e 5694 67bf 967d b1be 5259 663e
00000020: b777 88be 19ad d93e 642c 8dbe 5c26 563f
00000030: 45e0 5d3f 45fb 7d3f ac3d 9f3e dcb0 29bf
00000040: 38ce 88be 9f45 0bbf e664 e63e c7a3 ccbd
00000050: 3c99 c73e 17c8 913e f9fb 99be 1147 0f3e
00000060: cb4d 17be 358d 2f3e 9e3a 2bbf e473 ad3c
00000070: 331c 413f deca 043f 8c37 1ebf fa5b 593f
00000080: f1b3 c7be d459 643f 0874 52be 0b8b 773f

xs f4 [1000, 6]
-0.042574666 -0.079566166 0.00022931505 -0.000260517 -0.041241687 -0.08151792 0.053880297 -0.06951477
0.0009258056 -0.0010676006 0.055213273 -0.07146652 -0.042559385 -0.07957155 -0.000700216 0.0012314916
-0.04122641 -0.0815233 0.053872228 -0.069514446 0.0005776605 -0.0020023058 0.055205204 -0.07146619
-0.042584457 -0.07955563 -0.00019129264 0.0028922115 -0.04125148 -0.08150738 0.053870637 -0.069511995
0.000495202 0.0016075125 0.05520361 -0.07146374 -0.04257507 -0.07955337 -0.00067469414 0.0013005186
-0.04124209 -0.08150512 0.05387786 -0.069533154 0.0008906489 0.00026110996 0.055210836 -0.0714849
-0.04256632 -0.07955769 -0.001474805 0.00037501118 -0.041233346 -0.08150943 0.05385363 -0.069531865
-0.0016710752 -0.0013077434 0.055186607 -0.07148361 -0.04259198 -0.07954907 -0.0004382534 0.0003783539
-0.041259002 -0.08150081 0.053839527 -0.069511086 -0.001234228 -0.0012973245 0.055172503 -0.07146283
-0.042593192 -0.079578854 -0.0018509602 0.0011932186 -0.041260216 -0.0815306 0.053874563 -0.06952666
0.0012088212 0.00055900536 0.05520754 -0.07147841 -0.042558502 -0.07957 0.00084873167 -0.00020844326
-0.041225526 -0.08152175 0.05382995 -0.06949704 -0.00048432974 -0.002104553 0.055162925 -0.07144879
-0.042608134 -0.07957402 0.00012128833 0.0002933853 -0.04127516 -0.081525765 0.053875692 -0.06950885
-0.00084836705 0.0013477342 0.055208664 -0.0714606 -0.0425577 -0.07955812 0.00080598687 -0.0010925242
-0.041224726 -0.08150987 0.053833723 -0.06950641 -0.001066354 0.00041746703 0.0551667 -0.07145815
-0.042576768 -0.07954979 -0.001029235 -7.518595e-05 -0.041243788 -0.081501536 0.05389778 -0.069530025
0.0005469271 -0.001095856 0.055230755 -0.07148177 -0.04255084 -0.079546526 0.0016166879 0.00033456157
-0.04121786 -0.08149827 0.05387596 -0.06951388 -0.0008494675 -0.0014947029 0.055208933 -0.07146563
-0.042591564 -0.079519354 -0.0009719968 0.0025977104 -0.041258585 -0.0814711 0.05389925 -0.06951014
0.00035698753 -0.00055809197 0.055232227 -0.071461886 -0.04257003 -0.07953682 -0.00028031124 0.0012421184
-0.04123705 -0.081488565 0.05386736 -0.06950935 -0.0001648758 -0.00014948021 0.05520033 -0.0714611
-0.042599548 -0.0795328 -0.00029413644 -0.0018013777 -0.041266568 -0.08148455 0.053862732 -0.06949432
-0.00021428168 0.00048439577 0.055195708 -0.071446076 -0.042593583 -0.07950072 -7.934766e-05 -0.00059950456
-0.041260608 -0.08145247 0.05386738 -0.06952676 -0.0014749301 0.0009095625 0.055200357 -0.07147851
-0.04260099 -0.07945995 -0.0012834597 0.00053424883 -0.041268013 -0.081411704 0.053871524 -0.06951625
-0.0006075082 0.0003764287 0.0552045 -0.071467996 -0.04259964 -0.079432346 -2.5061821e-05 1.7886981e-05
-0.041266665 -0.08138409 0.053887945 -0.06951992 0.00066802994 -6.4171894e-05 0.05522092 -0.071471676
-0.042622272 -0.07939924 -0.00019373492 -0.0007325513 -0.041289292 -0.08135099 0.053881355 -0.069509685
0.0010389205 -0.0007197068 0.055214327 -0.07146143 -0.042658787 -0.07934713 0.0011988719 -0.0006958138
-0.04132581 -0.08129888 0.05389105 -0.06952154 -0.00022452185 0.000485792 0.055224024 -0.071473286
-0.042641826 -0.07924564 -0.0004856269 -0.0014171547 -0.041308846 -0.08119739 0.05388109 -0.069521524
-0.0011521319 -0.0004689345 0.055214066 -0.07147327 -0.042682577 -0.07914991 -0.00046464623 -0.0011124382
00000000: c662 2ebd 96f3 a2bd 4a74 7039 0096 88b9
00000010: 0bed 28bd def2 a6bd 96b1 5c3d c25d 8ebd
00000020: c3b1 723a bbee 8bba 5027 623d 0a5d 92bd
00000030: c052 2ebd 69f6 a2bd b38e 37ba 006a a13a
00000040: 06dd 28bd b0f5 a6bd 20a9 5c3d 975d 8ebd
00000050: 246e 173a 1e39 03bb da1e 623d de5c 92bd
00000060: 0a6d 2ebd 10ee a2bd ba95 48b9 428b 3d3b
00000070: 50f7 28bd 57ed a6bd 75a7 5c3d 4e5c 8ebd
00000080: 72d0 013a 2bb3 d23a 2e1d 623d 955b 92bd
00000090: 3263 2ebd e1ec a2bd f5dd 30ba 2a76 aa3a
000000a0: 77ed 28bd 28ec a6bd 08af 5c3d 6667 8ebd
000000b0: 707a 693a 96e5 8839 c224 623d ad66 92bd
000000c0: 065a 2ebd 24ef a2bd 3e4e c1ba 269d c439
000000d0: 4ce4 28bd 6bee a6bd a095 5c3d b966 8ebd
000000e0: fb07 dbba 9668 abba 5a0b 623d 0066 92bd
000000f0: ee74 2ebd 9fea a2bd 60c5 e5b9 cd5d c639
00000100: 33ff 28bd e6e9 a6bd d686 5c3d d45b 8ebd
00000110: d2c5 a1ba fd0a aaba 90fc 613d 1b5b 92bd
00000120: 3376 2ebd 3dfa a2bd eb9b f2ba c665 9c3a
00000130: 7900 29bd 84f9 a6bd 93ab 5c3d fe63 8ebd
00000140: 4f71 9e3a 378a 123a 4d21 623d 4663 92bd
00000150: d351 2ebd 99f5 a2bd 6b7d 5e3a 9091 5ab9
00000160: 19dc 28bd e0f4 a6bd cb7c 5c3d 7754 8ebd
00000170: a3ed fdb9 8aec 09bb 85f2 613d be53 92bd
00000180: de85 2ebd b4f7 a2bd 2d5c fe38 82d1 9939
00000190: 2410 29bd fbf6 a6bd c2ac 5c3d a85a 8ebd
000001a0: f364 5eba 75a6 b03a 7b22 623d ef59 92bd
000001b0: fc50 2ebd 5eef a2bd dd48 533a 0733 8fba
000001c0: 42db 28bd a6ee a6bd c080 5c3d 6059 8ebd
000001d0: e7c4 8bba 7adf da39 7af6 613d a758 92bd
000001e0: fa64 2ebd 00eb a2bd 65e7 86ba 26ad 9db8
000001f0: 3fef 28bd 47ea a6bd ebc3 5c3d c265 8ebd
00000200: a85f 0f3a d3a2 8fba a539 623d 0965 92bd
00000210: ca49 2ebd 4ae9 a2bd 0be7 d33a 1868 af39
00000220: 0fd4 28bd 91e8 a6bd 0aad 5c3d 4b5d 8ebd
00000230: cdae 5eba e8e9 c3ba c322 623d 925c 92bd
00000240: 7e74 2ebd 0bdb a2bd 9acd 7eba 593e 2a3b
00000250: c3fe 28bd 52da a6bd 76c5 5c3d 555b 8ebd
00000260: 0e2a bb39 eb4c 12ba 303b 623d 9c5a 92bd
00000270: e95d 2ebd 33e4 a2bd bdf6 92b9 94ce a23a
00000280: 2ee8 28bd 7ae3 a6bd 05a4 5c3d eb5a 8ebd
00000290: 83e2 2cb9 cabd 1cb9 be19 623d 325a 92bd
000002a0: dd7c 2ebd 18e2 a2bd 5336 9ab9 351c ecba
000002b0: 2207 29bd 5fe1 a6bd 2b9f 5c3d 0a53 8ebd
000002c0: cdb0 60b9 80f6 fd39 e514 623d 5252 92bd
000002d0: 9c76 2ebd 46d1 a2bd 7367 a6b8 1228 1dba
000002e0: e200 29bd 8dd0 a6bd 0ba4 5c3d 0c64 8ebd
000002f0: 7152 c1ba b56f 6e3a c519 623d 5363 92bd
00000300: 607e 2ebd e6bb a2bd c339 a8ba d50c 0c3a
00000310: a608 29bd 2ebb a6bd 63a8 5c3d 895e 8ebd
00000320: 2f41 1fba 685b c539 1d1e 623d d05d 92bd
00000330: f67c 2ebd 6dad a2bd da3b d2b7 000c 9637
00000340: 3c07 29bd b4ac a6bd 9bb9 5c3d 7660 8ebd
00000350: bb1e 2f3a 0694 86b8 552f 623d be5f 92bd
00000360: b194 2ebd 129c a2bd 5225 4bb9 b008 40ba
00000370: f61e 29bd 599b a6bd b2b2 5c3d 185b 8ebd
00000380: 632c 883a b5aa 3cba 6b28 623d 5f5a 92bd
00000390: fbba 2ebd c080 a2bd 7723 9d3a 4667 36ba
000003a0: 4145 29bd 0780 a6bd ddbc 5c3d 4f61 8ebd
000003b0: a06d 6bb9 e6b1 fe39 9632 623d 9660 92bd
000003c0: 32a9 2ebd 8a4b a2bd bd9b feb9 d2bf b9ba
000003d0: 7733 29bd d14a a6bd 6bb2 5c3d 4d61 8ebd
000003e0: 2203 97ba 53db f5b9 2528 623d 9460 92bd
000003f0: edd3 2ebd 5919 a2bd c39b f3b9 3bcf 91ba

z f4 [500, 36]
-1.755718 2.5614197 1.6786425 1.1860416 0.92429256 0.037752315 1.0144475 1.2481939
1.0568312 -1.1418722 0.22412904 -0.031775296 1.1484793 2.1220865 -1.4984148 1.0680573
1.4374118 -0.0023152065 -0.98171556 -0.42385027 1.9750805 0.5754781 2.0064735 0.22399226
-0.9006509 1.4190029 0.10945718 1.3055141 -0.69953346 -1.1191077 1.246897 2.448215
0.5892302 -0.79243875 -1.4251095 0.8648804 -1.7554711 2.5616078 1.6786326 1.1862637
0.92435056 0.037738934 1.0142993 1.2481499 1.0566108 -1.1418223 0.22403736 -0.031794727
1.1486508 2.1221595 -1.49858 1.0677975 1.4374828 -0.0023724046 -0.98172104 -0.42386517
1.9749281 0.57546926 2.0062828 0.22417915 -0.9006412 1.4189897 0.10951501 1.3056191
-0.69949764 -1.1192065 1.2468493 2.4485073 0.589351 -0.7924395 -1.4249122 0.8648156
-1.7550592 2.5623815 1.6786647 1.1864114 0.9243137 0.037662417 1.0141559 1.2477069
1.0560683 -1.1417792 0.22424501 -0.0312801 1.1483427 2.1222396 -1.4992706 1.0682886
1.4373542 -0.0024677971 -0.9816685 -0.42345345 1.97489 0.5753837 2.006465 0.22366658
-0.89967453 1.4189935 0.10923961 1.3050452 -0.6999947 -1.1189382 1.245882 2.450067
0.5897791 -0.7923949 -1.4253736 0.8648323 -1.7553723 2.5619462 1.6786523 1.1863034
0.9243351 0.03770414 1.014288 1.2479787 1.0564065 -1.1418264 0.22418782 -0.031659156
1.1483535 2.1221635 -1.4988357 1.068198 1.4373713 -0.0023582587 -0.981694 -0.42364445
1.9749293 0.57543373 2.0064232 0.22380494 -0.90018475 1.419026 0.10934974 1.3053015
-0.69969916 -1.1190212 1.2464211 2.4491014 0.58953214 -0.79241735 -1.4252315 0.8648193
-1.7555491 2.5621705 1.678616 1.1866693 0.9245149 0.037733167 1.014351 1.2482762
1.0564764 -1.1418513 0.22410557 -0.032176465 1.1487769 2.1221197 -1.4985862 1.0678759
1.4374906 -0.0022929246 -0.9816853 -0.42385936 1.9749254 0.5753597 2.0056643 0.22435689
-0.90071464 1.4188912 0.1094697 1.3059349 -0.69923687 -1.1194481 1.2470773 2.4482036
0.5898296 -0.79243016 -1.4243551 0.8648708 -1.7555814 2.5619602 1.6786244 1.1864601
0.92443013 0.03773904 1.014374 1.2482139 1.0565896 -1.141853 0.22410081 -0.031943828
1.1487695 2.122119 -1.4985313 1.0678793 1.4374889 -0.0023337184 -0.9816906 -0.42385054
1.9750012 0.575385 2.0058937 0.22430432 -0.9006741 1.4188918 0.10946831 1.3058162
-0.6993731 -1.1193695 1.2469838 2.4482703 0.5896672 -0.79243183 -1.4245334 0.86490434
-1.7553415 2.5620658 1.6786523 1.1864464 0.9243778 0.037693277 1.0142603 1.2480143
1.0563197 -1.1418275 0.22421077 -0.03185758 1.1482171 2.1221602 -1.4988127 1.0682925
1.4373369 -0.0022969842 -0.98169243 -0.42359886 1.9748393 0.57543033 2.0063426 0.22371519
-0.90017855 1.4190719 0.10932869 1.3053111 -0.6996071 -1.1190059 1.2464242 2.44908
0.5896062 -0.79241574 -1.4252505 0.8647656 -1.7557597 2.561448 1.6786306 1.1860983
00000000: 5ebb e0bf 4dee 2340 c2dd d63f 36d0 973f
00000010: 709e 6c3f 2ca2 1a3d 6ad9 813f d1c4 9f3f
00000020: 3f46 873f de28 92bf 1582 653e d026 02bd
00000030: 5f01 933f 44d0 0740 0ecc bfbf 1ab6 883f
00000040: 1cfd b73f b8ba 17bb b651 7bbf e702 d9be
00000050: 70cf fc3f 8852 133f 106a 0040 3a5e 653e
00000060: 0f91 66bf e3a1 b53f 162b e03d 161b a73f
00000070: a014 33bf ec3e 8fbf 529a 9f3f 8eaf 1c40
00000080: cad7 163f 44dd 4abf fd69 b6bf cd68 5d3f
00000090: 47b3 e0bf 62f1 2340 6fdd d63f 7dd7 973f
000000a0: 3da2 6c3f 2494 1a3d 8fd4 813f 60c3 9f3f
000000b0: 063f 873f 3c27 92bf 0d6a 653e 303b 02bd
000000c0: fd06 933f 76d1 0740 78d1 bfbf 97ad 883f
000000d0: 70ff b73f 587a 1bbb 1252 7bbf db04 d9be
000000e0: 72ca fc3f f451 133f f066 0040 388f 653e
000000f0: 6c90 66bf 74a1 b53f 6849 e03d 871e a73f
00000100: 4712 33bf 2942 8fbf c298 9f3f 58b4 1c40
00000110: b5df 163f 51dd 4abf 8663 b6bf 8e64 5d3f
00000120: c8a5 e0bf 0ffe 2340 7cde d63f 54dc 973f
00000130: d39f 6c3f e843 1a3d dccf 813f dcb4 9f3f
00000140: 3f2d 873f d225 92bf 7ca0 653e 901f 00bd
00000150: e5fc 923f c6d2 0740 19e8 bfbf aebd 883f
00000160: 39fb b73f c4ba 21bb a04e 7bbf e4ce d8be
00000170: 32c9 fc3f 594c 133f ec69 0040 da08 653e
00000180: 1251 66bf 94a1 b53f 04b9 df3d b90b a73f
00000190: da32 33bf 5e39 8fbf 1079 9f3f e6cd 1c40
000001a0: c3fb 163f 64da 4abf a472 b6bf a665 5d3f
000001b0: 0ab0 e0bf edf6 2340 14de d63f cad8 973f
000001c0: 3aa1 6c3f a86f 1a3d 30d4 813f c4bd 9f3f
000001d0: 5438 873f 5e27 92bf 7e91 653e 08ad 01bd
000001e0: 3ffd 923f 87d1 0740 d9d9 bfbf b6ba 883f
000001f0: c8fb b73f 048d 1abb 4c50 7bbf ede7 d8be
00000200: 7cca fc3f a04f 133f 3d69 0040 1f2d 653e
00000210: 8272 66bf a5a2 b53f c2f2 df3d 1f14 a73f
00000220: 7c1f 33bf 163c 8fbf ba8a 9f3f 14be 1c40
00000230: 94eb 163f dddb 4abf fc6d b6bf cc64 5d3f
00000240: d5b5 e0bf 9afa 2340 e4dc d63f c8e4 973f
00000250: 02ad 6c3f 188e 1a3d 41d6 813f 84c7 9f3f
00000260: 9e3a 873f 2f28 92bf ee7b 653e 78cb 03bd
00000270: 1f0b 933f cfd0 0740 acd1 bfbf 28b0 883f
00000280: b1ff b73f e444 16bb ba4f 7bbf 1804 d9be
00000290: 5bca fc3f c64a 133f ce5c 0040 d0bd 653e
000002a0: 3c95 66bf 3a9e b53f a631 e03d e028 a73f
000002b0: 3001 33bf 134a 8fbf 3ba0 9f3f 5eaf 1c40
000002c0: 13ff 163f b4dc 4abf 4551 b6bf 2c68 5d3f
000002d0: e4b6 e0bf 28f7 2340 2add d63f eddd 973f
000002e0: 74a7 6c3f 4094 1a3d 02d7 813f 79c5 9f3f
000002f0: 543e 873f 3d28 92bf af7a 653e 88d7 02bd
00000300: e10a 933f ccd0 0740 e0cf bfbf 45b0 883f
00000310: a3ff b73f 4cf1 18bb 1350 7bbf f002 d9be
00000320: d7cc fc3f 6e4c 133f 9060 0040 08b0 653e
00000330: 9492 66bf 3f9e b53f ec30 e03d fc24 a73f
00000340: 1e0a 33bf 8047 8fbf 2a9d 9f3f 76b0 1c40
00000350: 6ef4 163f d0dc 4abf 1c57 b6bf 5f6a 5d3f
00000360: 08af e0bf e3f8 2340 14de d63f 7add 973f
00000370: 06a4 6c3f 4464 1a3d 48d3 813f efbe 9f3f
00000380: 7c35 873f 6727 92bf 8297 653e 187d 02bd
00000390: c7f8 923f 79d1 0740 18d9 bfbf cfbd 883f
000003a0: a8fa b73f 0089 16bb 3250 7bbf f3e1 d8be
000003b0: 89c7 fc3f 674f 133f eb67 0040 9815 653e
000003c0: 1a72 66bf 26a4 b53f b8e7 df3d 6f14 a73f
000003d0: 7319 33bf 963b 8fbf d48a 9f3f babd 1c40
000003e0: 6ff0 163f c2db 4abf 9c6e b6bf 4761 5d3f
000003f0: bcbc e0bf c4ee 2340 5edd d63f 12d2 973f

weight f4 [50, 64]
0.07350862 -0.010333031 0.08422086 0.10617155 -0.09777054 0.022469327 0.085568935 -0.012943864
0.079120636 0.097504705 -0.09913997 0.06815681 -0.11485253 0.078263685 -0.0691178 -0.03890507
0.0305707 -0.10763554 -0.0043090433 -0.043731347 0.039549634 -0.007409245 -0.11359751 -0.03086166
0.01949723 0.06844349 -0.07136437 -0.07599652 0.05631508 -0.07503317 -0.049407095 -0.12493925
-0.030112445 -0.09967232 0.019583598 0.10122487 0.055511415 -0.10420969 0.11205059 -0.11170758
-0.047961473 0.07013048 0.059312522 0.06888653 -0.02974695 -0.109466314 -0.1223886 0.010242358
-0.12092878 -0.08239913 0.08168702 -0.019243598 0.04362759 -0.09833905 0.019814014 0.11263551
0.022725195 0.02204831 -0.07713848 -0.090381294 0.07287066 -0.11190997 -0.0076572746 -0.10016063
0.008785307 -0.122486055 0.041381344 0.00021269917 -0.08219586 -0.046543628 -0.049952343 -0.056111187
-0.031170815 0.023030445 -0.07192117 0.03154689 -0.103002414 0.11771765 -0.07492013 0.053152844
-0.08556166 -0.08531955 -0.018348232 -0.07120855 -0.034972996 -0.054372072 -0.03495872 -0.09663068
0.1219116 0.0705006 -0.04465446 0.09077175 -0.05569145 -0.10211277 0.04003769 -0.04301405
0.09400995 -0.03363678 -0.101774976 0.10540323 0.028058082 0.03793691 -0.01208888 -0.09939325
0.0402409 0.0003376007 -0.0827612 0.071232796 -0.117051944 -0.077578574 -0.029145464 -0.11716457
-0.11253159 -0.037554488 -0.023563445 0.09169415 0.058331206 0.11622159 0.038826942 0.016717747
-0.024089247 -0.052732766 -0.111981735 -0.114173636 0.053187072 -0.079122275 -0.05127813 0.058416456
-0.07727124 0.046215862 -0.0069170594 0.025793657 -0.05694008 0.09114511 -0.10224098 -0.11669721
0.09752722 -0.08444978 0.119993374 0.05552107 0.048243612 -0.015479475 0.023511827 0.032055497
-0.058779746 0.09200773 0.07682729 0.007349521 0.035840273 -0.015171528 -0.045150876 -0.09635311
-0.048019826 -0.11970663 -0.039309725 0.06539893 0.12128079 -0.114383385 -0.10391161 0.10317075
-0.044122458 0.00016911328 0.07843414 0.11072016 0.047338605 0.03096287 -0.0030140132 0.0031500757
0.05043736 -0.11758265 -0.12100656 0.08428565 -0.12235956 0.065688506 0.090479195 0.082892716
0.03812714 0.013887912 0.057727873 0.074486494 0.0039360225 -0.089942575 0.077769294 0.01392518
0.07529895 -0.0837677 -0.031246603 -0.08029984 0.007159412 0.1062243 0.023758784 0.10625465
0.09184219 -0.08597763 0.11999081 0.006942868 0.104660526 0.024205059 -0.021342278 0.10611582
-0.09249164 0.0028038323 -0.017509788 0.0056480616 -0.035862684 0.09924446 -0.006533593 0.05165015
0.05382879 0.11389227 0.04494697 -0.12460804 -0.103628054 -0.11809598 -0.12254679 -0.10400103
-0.0018219501 0.11830613 -0.0809007 0.052588016 -0.057034075 0.09683564 0.08129723 0.058080062
0.11012103 -0.094279215 -0.10614206 -0.0638618 0.02533473 0.11050637 0.08252995 0.039072126
-0.022191092 -0.07097311 0.12431368 -0.109412804 -0.08622615 0.073563755 0.09751353 0.032853067
-0.0021837652 -0.0148513615 0.01628083 -0.06289397 0.12358154 0.12484081 -0.048375502 0.08678801
-0.029710963 -0.09067616 0.021460488 -0.023890108 0.10394898 0.008662507 -0.027417451 -0.09929484
00000000: b08b 963d e04b 29bc fc7b ac3d 7870 d93d
00000010: ec3b c8bd 9811 b83c c43e af3d 8012 54bc
00000020: 000a a23d 8cb0 c73d e609 cbbd cc95 8b3d
00000030: ce37 ebbd b648 a03d a28d 8dbd ec5a 1fbd
00000040: 686f fa3c 0670 dcbd e032 8dbb a41f 33bd
00000050: ccfe 213d 40c9 f2bb d0a5 e8bd 98d1 fcbc
00000060: a8b8 9f3c 1a2c 8c3d 7c27 92bd 10a4 9bbd
00000070: a4aa 663d feaa 99bd 185f 4abd 26e0 ffbd
00000080: 60ae f6bc 0021 ccbd c86d a03c fc4e cf3d
00000090: f05f 633d e46b d5bd c87a e53d f2c6 e4bd
000000a0: 4073 44bd 92a0 8f3d b0f1 723d 6214 8d3d
000000b0: e0af f3bc e02f e0bd e0a6 fabd 90cf 273c
000000c0: 82a9 f7bd e0c0 a8bd 864b a73d c0a4 9dbc
000000d0: d8b2 323d fc65 c9bd 0051 a23c 72ad e63d
000000e0: 302a ba3c a89e b43c c8fa 9dbd d419 b9bd
000000f0: 363d 953d 0e31 e5bd e0e9 fabb 0421 cdbd
00000100: 40f0 0f3c f8d9 fabd 7c7f 293d 0008 5f39
00000110: 4e56 a8bd 88a4 3ebd d49a 4cbd d8d4 65bd
00000120: f059 ffbc 58aa bc3c 684b 93bd 5037 013d
00000130: eef2 d2bd f415 f13d ba6f 99bd ccb6 593d
00000140: f43a afbd 04bc aebd 084f 96bc cad5 91bd
00000150: d83f 0fbd 40b5 5ebd e030 0fbd 4ee6 c5bd
00000160: caac f93d 9e62 903d 98e7 36bd 8ae6 b93d
00000170: b81c 64bd 8020 d1bd 90fe 233d 802f 30bd
00000180: 4a88 c03d b8c6 09bd 666f d0bd a6dd d73d
00000190: 10da e53c bc63 1b3d 7010 46bc b08e cbbd
000001a0: a4d3 243d 0000 b139 b47e a9bd 80e2 913d
000001b0: eeb8 efbd 84e1 9ebd 78c2 eebc faf3 efbd
000001c0: f676 e6bd bcd2 19bd 2008 c1bc 24ca bb3d
000001d0: b4ec 6e3d 9605 ee3d 0009 1f3d a8f3 883c
000001e0: d056 c5bc 50fe 57bd ae56 e5bd ded3 e9bd
000001f0: b0da 593d dc0a a2bd 0409 52bd 1846 6f3d
00000200: 6240 9ebd d84c 3d3d 80a8 e2bb 384d d33c
00000210: 003a 69bd 4aaa ba3d b863 d1bd f2fe eebd
00000220: 5abc c73d 02f4 acbd 16bf f53d 106a 633d
00000230: 189b 453d a09d 7dbc e09b c03c a04c 033d
00000240: 08c3 70bd 8c6e bc3d a057 9d3d 40d4 f03b
00000250: 40cd 123d 0092 78bc 20f0 38bd c854 c5bd
00000260: 70b0 44bd c028 f5bd 3c03 21bd e0ef 853d
00000270: 1062 f83d d641 eabd 9ccf d4bd 304b d33d
00000280: c0b9 34bd 0054 3139 14a2 a03d 40c1 e23d
00000290: 20e6 413d d8a5 fd3c c086 45bb 8071 4e3b
000002a0: 6897 4e3d 2ccf f0bd 4ad2 f7bd f49d ac3d
000002b0: a697 fabd b287 863d 284d b93d a8c3 a93d
000002c0: 342b 1c3d 208a 633c 1074 6c3d 608c 983d
000002d0: c0f9 803b d033 b8bd 8245 9f3d 7026 643c
000002e0: 5636 9a3d 668e abbd e0f8 ffbc 3e74 a4bd
000002f0: 8099 ea3b 208c d93d c8a1 c23c 0a9c d93d
00000300: c217 bc3d 0a15 b0bd bebd f53d 0081 e33b
00000310: 4258 d63d b049 c63c 00d6 aebc 4053 d93d
00000320: 426c bdbd 80c0 373b b070 8fbc 6013 b93b
00000330: c0e4 12bd ae40 cb3d c017 d6bb 1c8f 533d
00000340: 947b 5c3d 5a40 e93d 501a 383d 8032 ffbd
00000350: f23a d4bd 4edc f1bd d0f9 fabd 7efe d4bd
00000360: 80ce eeba 7c4a f23d 44af a5bd 8866 573d
00000370: 909c 69bd c451 c63d 2a7f a63d 5ce5 6d3d
00000380: 2287 e13d 7615 c1bd 0261 d9bd fac9 82bd
00000390: c88a cf3c 2a51 e23d 7605 a93d 180a 203d
000003a0: 18ca b5bc 5a5a 91bd 2c98 fe3d d213 e0bd
000003b0: 5697 b0bd 98a8 963d 2cb5 c73d f090 063d
000003c0: 801d 0fbb 2053 73bc 605f 853c 8ece 80bd
000003d0: 5218 fd3d 8aac ff3d 6425 46bd eabd b13d
000003e0: 6864 f3bc 6cb4 b9bd e8cd af3c 30b5 c3bc
000003f0: 34e3 d43d 30ed 0d3c 909a e0bc 185b cbbd
