weights/sae_norm_navigation_latest.pt (torch, 132875 bytes, 30 tensors)

encoder.key_net.net.0.weight f4 [68, 64]
000000 69 20 4e be 4b b3 6c be 50 07 50 be de 12 40 3e
       -0.20129551 -0.2311527 -0.2031529 0.18757197
000010 e0 8f a1 3d 70 a8 b6 3d 40 60 b3 3b cc 77 5e bd
       0.0788877 0.08918846 0.0054741204 -0.054313466
000020 3c 05 5a bd 60 08 f9 bc 50 39 f8 3d 00 0d f3 bb
       -0.05322765 -0.030399501 0.121203065 -0.007417321
000030 32 1b c4 bd 1c 99 1c bd 20 61 6a 3c 38 68 0e 3d
       -0.095754996 -0.038231954 0.014305383 0.03476736
000040 c0 78 ef bb 64 ef 15 bd 10 6c 3d bd f6 28 9d bd
       -0.0073080957 -0.036605254 -0.046245635 -0.07673828
000050 e0 53 1f 3d de cf 99 3d 8c 64 61 3d 80 16 22 3d
       0.03889835 0.07510351 0.05502753 0.03957224
000060 2e ff b7 bd f8 e6 64 bd dc 05 e1 bd a4 af d1 bd
       -0.089842185 -0.05588433 -0.10987446 -0.10238579
000070 10 d8 eb 3c 30 2e 46 3d 48 00 28 3d 38 f2 b7 bd
       0.02878955 0.04838389 0.041015893 -0.089817464
000080 e2 9e aa bd 68 c8 83 bd 08 15 42 bd 94 50 0d 3d
       -0.08331086 -0.06434709 -0.04738334 0.034500673
000090 04 b3 77 bd de 0c 93 bd cc dd a1 3d 10 bf 96 bd
       -0.060473457 -0.071801886 0.079036325 -0.07360661
0000a0 38 8d b5 bd e2 31 a4 bd f8 a8 84 bc 40 40 65 3d
       -0.08864826 -0.08017327 -0.016193852 0.055969477
0000b0 98 ed 59 bd a4 17 fb bd 08 7d f1 3d 84 a0 65 bd
       -0.053205103 -0.122603685 0.11791426 -0.056061283
0000c0 a4 46 f3 bd dc ab 18 3d 00 40 b5 38 c0 8b e5 bc
       -0.11878708 0.037273273 8.6426735e-05 -0.02802074
0000d0 5e e8 fd 3d 80 91 bc 3a 10 f7 18 3d e4 b9 11 bd
       0.12397836 0.0014386624 0.037344992 -0.03557767
0000e0 50 d8 0b bc 10 88 45 bc f6 43 bb 3d b8 8c 7e bd
       -0.00853546 -0.012056366 0.09143822 -0.06214592
0000f0 e0 06 60 bc d4 ed 48 bd 28 65 45 3d 94 c2 67 3d
       -0.013673514 -0.049054936 0.048192173 0.05658205
000100 e0 5a 14 3e 84 e6 45 be 63 5b 32 be de 66 46 be
       0.14487791 -0.19326216 -0.17417674 -0.19375178
000110 b4 7d 47 bd b6 15 ff bd 3c c9 ee 3d 1a 92 d2 3d
       -0.048703864 -0.12455313 0.11659476 0.10281773
000120 38 09 c1 bd 40 da b4 3d e4 6d 75 bd 20 1c f7 bb
       -0.094255865 0.088306904 -0.059919253 -0.0075411946
000130 0a 1d e1 bd f0 eb 9d bc d0 46 89 3d a0 e8 b5 3d
       -0.10991867 -0.019277543 0.067029595 0.0888226
000140 00 73 3b 3a 40 9b f5 bd 00 57 2a ba 80 a4 94 bb
       0.000715062 -0.11992502 -0.00064979494 -0.0045362115
000150 70 37 79 bd 06 76 ff bd 30 13 9b bd 6c 33 59 bd
       -0.060843885 -0.12473683 -0.07572019 -0.053027555
000160 2a ad 97 3d ca 32 b1 bd 2c ef f8 3d e0 72 93 3b
       0.07406075 -0.08652265 0.121549934 0.004499778
000170 5a eb f1 3d 5e d3 99 3d d0 33 30 3d 74 22 a8 3d
       0.11812468 0.07511018 0.043018162 0.082096964
000180 14 4f 32 3d bc 08 c0 bd b2 d5 9b bd 94 20 28 3d
       0.043532446 -0.09376666 -0.076091185 0.041046694
000190 40 54 b9 bb f4 66 0c 3d 48 cd e3 3c 20 54 0a bc
       -0.0056557953 0.03427787 0.027807847 -0.0084429085
0001a0 36 68 82 bd 00 d0 27 b8 7a 01 c4 bd e0 e7 3b 3c
       -0.06367533 -4.0009618e-05 -0.09570594 0.0114688575
0001b0 6c d8 04 3d 00 08 0f 39 20 20 aa bd a8 c3 b5 bd
       0.03243296 0.00013640523 -0.083069086 -0.08875209
0001c0 f8 1c 34 3d c8 39 6f 3d e0 16 71 bd 20 9c 85 3b
       0.04397294 0.058404714 -0.058859706 0.0040774494
0001d0 c0 d7 cf 3c 8e 0e 90 bd 36 84 9d 3d b2 8f dc bd
       0.025371432 -0.07034026 0.07691233 -0.10769595
0001e0 3c f2 f3 bd c0 cf a1 bd dc bf 04 bd 78 e1 a2 3d
       -0.11911437 -0.07900953 -0.032409534 0.07953161
0001f0 9a 7a ea 3d 9e 56 a0 3d 20 75 d9 3b 78 de 2d bd
       0.11449166 0.07829021 0.006636277 -0.04244849
000200 07 09 a3 bd e8 80 83 be d3 df 8f 3d ff 23 5f be
       -0.07960706 -0.25684285 0.07025113 -0.21791075
000210 44 e2 33 3d 18 bf b4 3d 00 aa ca bb e0 0d fd bc
       0.043916956 0.08825511 -0.0061848164 -0.030890405
000220 50 15 46 3d 68 61 7e bd e0 e7 e4 3c 64 35 79 bd
       0.04836017 -0.062104613 0.027942598 -0.060841933
000230 5a 95 f0 bd ce 8f a6 3d 08 54 af 3d d8 27 86 bc
       -0.117472365 0.08132897 0.085609496 -0.01637642
000240 8c 44 30 bd 70 55 13 bd 68 63 96 bd 42 29 91 3d
       -0.04303412 -0.03597015 -0.07343179 0.070879474
000250 4c 98 71 3d 8a 99 e4 3d 38 ca fd 3c 88 03 2c bd
       0.058983132 0.11162098 0.030980214 -0.041995555
000260 c0 91 ad bc f8 0c df 3d a4 92 fe bd 96 83 95 bd
       -0.021187663 0.108911455 -0.12430313 -0.07300489
000270 e0 5e 45 bd a4 be a6 3d 30 24 18 3c 6a 78 88 bd
       -0.048186183 0.081418306 0.0092859715 -0.06663592
000280 c0 c5 39 3b 6a 76 e6 3d 38 ca 4a 3d cc 0c 46 3d
       0.0028346628 0.112530544 0.049509257 0.048352048
000290 48 db b2 3c b0 51 3f 3c 54 93 f9 bd d0 22 af 3d
       0.021833077 0.011677191 -0.12186304 0.08551562
0002a0 34 46 0a 3d 76 67 95 bd 02 7e 95 bd cc 8c e4 3d
       0.033758357 -0.07295124 -0.07299425 0.111596674
0002b0 c8 ce e6 3c c0 23 e3 3b 0e 90 eb bd ac 50 7a bd
       0.028174773 0.006931752 -0.115020856 -0.06111209
0002c0 2c 43 96 3d 48 6a 86 3d b4 d9 89 3d 30 b8 88 bd
       0.07337031 0.0656324 0.06730977 -0.06675756
0002d0 e6 a6 f3 bd 80 ea dd 3c 90 5d 61 bc 38 5a 53 bd
       -0.11897068 0.027089357 -0.013755217 -0.05159971
0002e0 10 f3 55 bd a4 85 f1 3d b8 e7 d8 3c 82 c7 ff bd
       -0.052233756 0.11793068 0.02647768 -0.12489225
0002f0 74 cf 51 bd 02 d3 fc bd 00 92 ef 3b b8 64 74 3d
       -0.051223233 -0.12344934 0.0073111057 0.059666365
000300 16 04 83 3e 3b fc a2 be bc d5 34 bc ac 77 84 3d
       0.25589055 -0.31833062 -0.011037286 0.06468138
000310 26 2e a8 3d c8 84 5f 3d 98 54 a7 3d 4a 81 ba bd
       0.08211927 0.05456999 0.08170432 -0.09106691
000320 a0 f4 0f 3c 20 a8 fc bb c4 fa f9 3d 7c ee 40 3d
       0.0087863505 -0.0077104717 0.12206033 0.047102436
000330 a2 80 dc bd 10 b8 0d bd 8c 08 2e 3d 2a 35 e6 3d
       -0.10766722 -0.034599364 0.04248862 0.11240609
000340 90 82 db bc 10 be 8f 3d 4e 20 df bd a8 5a f7 3d
       -0.026795655 0.070186734 -0.108948335 0.12077838
000350 b0 18 5a bc 8a b2 a6 bd 40 23 b9 bd 10 b9 ac 3c
       -0.01331155 -0.081395224 -0.090399265 0.021084338
000360 7c 59 73 3d 54 58 00 3d b8 6b 00 3d 96 44 99 bd
       0.05941151 0.031334236 0.03135273 -0.07483785
000370 80 e9 69 3c 22 52 fc 3d 40 92 60 bc fc 4a b2 bd
       0.014276862 0.12320353 -0.013706744 -0.087057084
000380 50 51 54 3c 54 60 25 bd 90 30 7f 3c 00 5e b3 bd
       0.01295884 -0.04037507 0.015575543 -0.087581635
000390 be a0 dd bd 3c 84 fc bd e4 e4 76 bd d0 50 f3 bd
       -0.10821675 -0.12329909 -0.06027688 -0.11880648
0003a0 4c 9c fa 3d 78 61 0c 3d a8 da 0a bd 00 c7 3f bc
       0.122368425 0.03427264 -0.033899933 -0.01170516
0003b0 26 9e e0 3d d6 b1 9d bd f4 58 26 3d 12 84 f5 bd
       0.109676644 -0.07699935 0.040612176 -0.11988081
0003c0 84 5d d9 bd b0 5b 78 3c 38 d4 38 3d 74 dc 9b bd
       -0.1061354 0.015158579 0.045124263 -0.076104075
0003d0 8c 81 f1 3d 88 12 0e bd d8 0d df 3d 5c 31 77 bd
       0.11792287 -0.03468564 0.10891312 -0.060349807
0003e0 f6 db b9 3d d8 e3 ad bd c8 45 76 bd aa f5 d3 bd
       0.09075157 -0.08490723 -0.060125142 -0.10349591
0003f0 d8 14 b6 3d f4 5b 07 bd c0 54 80 3d c0 34 1c bd
       0.088906944 -0.033046678 0.06266165 -0.038136244

encoder.key_net.net.0.bias f4 [68]
000000 4e 67 97 3c f5 7a ec bb 3c c6 de 3c e0 42 b7 3d
       0.018481877 -0.007216806 0.027194135 0.08948302
000010 5d 89 41 bd 7d f1 72 bd 9b 79 9a bc a4 a8 1c bb
       -0.04725014 -0.059312332 -0.018856814 -0.0023904229
000020 d5 e1 a4 3c c8 2e 10 3e dd b2 50 3d a0 2c 77 3d
       0.020127216 0.14080346 0.050951827 0.060345292
000030 8c 54 09 3d b9 25 c4 bb 45 db de 3d 50 7b a2 3d
       0.033527896 -0.005985942 0.10881666 0.07933676
000040 be ae 86 3d d9 d3 b2 bc dd 82 51 bd 4a ac c4 bd
       0.06576298 -0.021829532 -0.05115019 -0.09603174
000050 a2 5a 45 bd 46 8c c2 3c 9c 35 45 be 16 a9 83 3d
       -0.048182137 0.023748528 -0.19258732 0.06428735
000060 88 5f d2 bc 61 1a 54 bb 26 64 aa 3d eb af 4b bd
       -0.025680318 -0.0032364356 0.08319883 -0.049728315
000070 69 58 10 3e ed b4 c7 3d 82 c1 33 3d 3b 4b 6e bd
       0.14096226 0.09751306 0.043885715 -0.058177214
000080 05 80 67 bb 05 0c 4f bd 31 d6 b3 3c f9 a7 96 bd
       -0.0035324108 -0.050548572 0.02195272 -0.07356257
000090 f7 ce 29 3c 17 53 cb bd dc 89 35 3d 84 84 66 bd
       0.010364286 -0.099279575 0.044320926 -0.05627872
0000a0 64 9c 9e 3c 38 15 ad 3b 74 88 3f bd 78 6a 11 ba
       0.019361682 0.0052820705 -0.04676099 -0.0005547176
0000b0 84 52 66 bd ed 14 02 bd 69 54 b7 bc 4f 14 d7 3d
       -0.056231037 -0.031758238 -0.022379117 0.105019204
0000c0 9b a6 2d 3c 6e f0 cb bc 96 48 94 3c 9a 99 97 3c
       0.010598804 -0.02489492 0.018101018 0.01850586
0000d0 dd 3f 21 3e 67 53 b0 3b 78 51 19 be 07 54 fd bd
       0.15747018 0.005381036 -0.14972484 -0.123695426
0000e0 17 b4 ed 3d 0b cb 8f 3c 28 a7 50 bd 9a 52 9c 3a
       0.11606615 0.017552873 -0.050940663 0.0011926473
0000f0 57 26 10 bd 7b 15 65 bd 15 29 6b bd 78 19 d1 3c
       -0.035192814 -0.05592869 -0.057412226 0.02552484
000100 8d fc e8 3d 6f df 35 3c 1a 62 93 bb dc eb 59 3d
       0.11376295 0.011100634 -0.0044977786 0.05320345

encoder.key_net.net.1.weight f4 [68]
000000 37 c5 8e 3f 37 d9 7e 3f 1d 1c 6b 3f 25 8d 82 3f
       1.1153935 0.99550194 0.9183977 1.0199324
000010 a7 39 79 3f 18 0a 7c 3f 8a fe 80 3f e9 fc 62 3f
       0.97353595 0.984529 1.0077679 0.8866716
000020 26 4f 88 3f 90 44 71 3f 21 9f 78 3f 7b c7 83 3f
       1.0649154 0.94245243 0.9711781 1.0295252
000030 2b 28 8c 3f 4d 29 82 3f ef 30 88 3f df 84 6e 3f
       1.0949758 1.0168854 1.0639933 0.93171495
000040 4f 8c 6d 3f 23 4c 7d 3f f5 be 7f 3f d4 fc 55 3f
       0.9279222 0.989443 0.9990075 0.8358891
000050 99 74 82 3f 67 35 7d 3f 41 3c 84 3f 70 ce 87 3f
       1.0191833 0.9890961 1.0330888 1.0609875
000060 e4 d6 67 3f a9 e8 3d 3f 06 a1 80 3f c4 7c 87 3f
       0.9056227 0.74183136 1.004914 1.058495
000070 00 96 80 3f 10 1d 79 3f 3b b8 89 3f 54 ab 41 3f
       1.0045776 0.9730997 1.0759348 0.7565205
000080 72 7c 64 3f a4 6c 59 3f 4a 77 5d 3f 70 f6 81 3f
       0.8925239 0.849314 0.86510146 1.0153332
000090 1e fb 5e 3f b9 e2 80 3f b9 f9 6a 3f fa 78 84 3f
       0.87101924 1.006919 0.91787297 1.0349419
0000a0 6c 4f 6a 3f 5c ee 70 3f 77 e7 aa 3f 5f e0 4d 3f
       0.9152744 0.9411371 1.3351887 0.8042049
0000b0 2c e9 4b 3f 4a 98 63 3f 55 48 79 3f 1c 7b 77 3f
       0.7965267 0.8890425 0.97375995 0.96672225
0000c0 92 6a 7b 3f bc 58 61 3f 51 91 73 3f 6c bc 59 3f
       0.9820949 0.8802602 0.9514361 0.85053134
0000d0 d8 6e 83 3f aa d0 66 3f 79 c6 a9 3f 99 19 7d 3f
       1.0268202 0.90162146 1.3263694 0.98867184
0000e0 d6 55 7e 3f f1 fb 6d 3f ea b3 82 3f 22 f5 89 3f
       0.99349725 0.9296256 1.0211155 1.0777934
0000f0 e0 c3 4e 3f ce a2 80 3f d5 68 49 3f 0b 56 6e 3f
       0.8076763 1.0049684 0.78675586 0.9310004
000100 c4 7a 6c 3f 6e 09 54 3f 65 74 81 3f 0b 43 70 3f
       0.92374825 0.8282689 1.0113646 0.938523

encoder.key_net.net.1.bias f4 [68]
000000 07 b5 fb 3c b8 e3 4c bd be 07 1d bc 7d 36 9f 3c
       0.030725969 -0.050021857 -0.009584365 0.019435162
000010 42 82 a0 bc 49 c3 a1 bc 03 d9 15 bd 19 92 a7 bd
       -0.019593362 -0.01974644 -0.03658391 -0.08182163
000020 bc 00 5c bb a2 39 10 bd d4 9b 82 bc 32 36 37 bd
       -0.0033569774 -0.035211213 -0.015943445 -0.04472942
000030 cb eb 54 3c 3f 3b 2e bd 83 46 56 bc 10 ee 33 bd
       0.012995671 -0.04253697 -0.013078335 -0.043928206
000040 ef 4a ab bd e2 72 d1 bb 70 8e 1f bd 15 6d 3c bc
       -0.08363902 -0.006391869 -0.0389542 -0.011500617
000050 32 72 82 3c 33 0c ad bc d5 40 e9 bd f8 1e a9 3c
       0.015923593 -0.021123981 -0.11389319 0.02064465
000060 7b df ab bd 4f 78 4a bd 43 33 d8 3a f7 d2 b1 bc
       -0.08392235 -0.04943114 0.0016494769 -0.021707041
000070 bc 6b c8 bc 40 01 69 bd 1b 04 02 bc 06 c7 b2 bc
       -0.024465434 -0.056885958 -0.007935549 -0.021823417
000080 ea 48 9d bd 69 92 9d bd 1a f1 17 be c6 45 9e bd
       -0.07679923 -0.07693941 -0.14838067 -0.07728152
000090 d0 5f b7 bd b4 18 ee bc 1f eb 83 bd 9a b7 7f 3b
       -0.08953822 -0.029064514 -0.0644133 0.0039019347
0000a0 91 2e 83 bd 42 2a 8e bd 6e 49 ad be b4 a3 b4 bd
       -0.06405366 -0.06941654 -0.33845085 -0.088202864
0000b0 e1 f4 5f bd bf 31 9f bc 65 3b 44 3c c9 03 12 bd
       -0.054676894 -0.0194329 0.011977051 -0.03564814
0000c0 9c 0b 2d bd 6a e2 6a bb f9 c2 b6 bd 1e 2b d2 bd
       -0.0422474 -0.003584052 -0.08923907 -0.1026213
0000d0 72 6f d6 3a a1 a3 a5 bd b8 a3 b2 be 63 67 bc bd
       0.0016360118 -0.0808785 -0.34890532 -0.09199407
0000e0 26 92 b5 bc 47 86 9c bd c2 b3 b9 bc 8b 15 1a 3d
       -0.022164416 -0.07642799 -0.022668723 0.0376182
0000f0 98 c0 83 bd 76 aa 0f bd 61 3c 04 bd 9b 20 89 bd
       -0.06433219 -0.035074674 -0.032284144 -0.06695672
000100 dd 56 82 bd 32 9b ae bd 37 a3 e7 bc b2 ea 2d bd
       -0.06364224 -0.08525695 -0.02827607 -0.04246015

encoder.key_net.net.3.weight f4 [72, 68]
000000 b7 85 e2 bd 12 ea 7b 3d b3 6e 39 3e e8 87 6a 3d
       -0.1106066 0.061502524 0.18108635 0.057258517
000010 19 29 e6 3d 39 22 8d bd 00 5e c3 3c 6a 93 05 3e
       0.112383075 -0.06891293 0.023848534 0.13044515
000020 5e e5 52 3d ba fa ad bc cd 01 93 3d b5 14 5b 3d
       0.051488273 -0.02123772 0.07178078 0.053486545
000030 65 bf 4f bd 0e 3c 08 3e 12 3f db 3d df b9 93 bd
       -0.050719637 0.13304159 0.10705389 -0.072131865
000040 04 3a 80 3d 6a 94 07 be 4f f4 09 3e bf a2 17 be
       0.062610656 -0.13240209 0.13472103 -0.14808176
000050 60 b9 ed bd 72 38 3e 3e 15 91 1e be da d4 95 3d
       -0.11607623 0.1857622 -0.15485032 0.07315989
000060 8c 94 a0 ba 9b 58 81 bd 3a 17 ff 3d 96 41 f0 3c
       -0.0012251302 -0.06315728 0.12455602 0.029328149
000070 19 f8 6f bd 51 35 8a 3c 4d 01 74 3d cb e5 20 3d
       -0.058586214 0.016871126 0.059571553 0.039281648
000080 b4 a9 54 bc 98 e1 bc 3d 33 5e 49 3d 2a 27 89 3c
       -0.0129799135 0.09222716 0.0491621 0.016742308
000090 e8 81 2f 3e 8a 61 f9 bb dc a2 1e 3d 6b 3a 92 bc
       0.17139399 -0.0076105045 0.038729534 -0.017850121
0000a0 a4 b6 d2 3d 0a e9 36 bd 40 57 f1 bd 6d 40 89 3d
       0.10288742 -0.044655837 -0.1178422 0.06701741
0000b0 dd d3 42 be dc a2 3f 3d 73 f9 bb 3d c8 cf 43 3d
       -0.19026132 0.046786174 0.09178438 0.047805578
0000c0 b3 8d 3c be 16 f0 31 3d 6e b5 b0 3d 61 90 bc bd
       -0.18413429 0.043441854 0.08628355 -0.092072256
0000d0 2c ae 9b 3d 50 39 e4 bc 6a d8 cb bb 09 19 ac bd
       0.0760158 -0.02785936 -0.006220867 -0.084032126
0000e0 60 69 93 bc 4a 95 38 3e 6a 1c c0 3d d4 37 1d bc
       -0.017994583 0.180257 0.093804196 -0.00959583
0000f0 42 91 f5 3b 40 c4 71 be c8 90 e1 bd 0b 28 0e 3e
       0.0074941227 -0.2361002 -0.11013943 0.13882463
000100 c8 88 ff 3d 53 80 1e 3e 8b 38 22 3d 51 e8 19 3d
       0.12477261 0.1547864 0.039604705 0.03757507
000110 0f 81 72 bd 4c d1 24 3e e1 24 f7 bc a6 eb 10 3d
       -0.05920511 0.16095465 -0.030168952 0.03538098
000120 6a 85 f3 3d 62 31 ac 3c 9f 35 12 3e da 52 0a be
       0.11890681 0.021019641 0.14278267 -0.13508168
000130 97 62 88 bd c6 e9 f5 3c 6f 93 ca 3c d1 e2 ae 3d
       -0.066594295 0.030018698 0.024728505 0.085393555
000140 e1 d9 f6 3c c0 62 06 3e 2b d5 28 bd 95 33 38 bc
       0.03013319 0.13123608 -0.041218918 -0.011242767
000150 23 e8 0b 3e 04 9a 86 bd 0a f7 34 bc 20 52 15 bd
       0.13662772 -0.06572345 -0.011045227 -0.036455274
000160 05 ce b9 3e f5 75 14 3c fd 57 6d bd 27 1d 30 3e
       0.36289993 0.009061326 -0.05794524 0.1719862
000170 62 c8 f8 3d c2 4d 50 3e 58 39 3f 3d b7 d8 37 3e
       0.12147595 0.20342162 0.046685547 0.17953764
000180 b8 3a c3 3d 5f 39 d5 bc 92 51 91 bd 80 03 f9 3d
       0.09532684 -0.026028333 -0.070956364 0.12158871
000190 bc cd 2d bd 64 8c dc bc 49 71 ff 3d 6b fe d5 bc
       -0.04243253 -0.026922412 0.12472779 -0.026122293
0001a0 54 0a 99 be 3c 8f c6 3d 35 b9 0e 3e b2 2c bb 3e
       -0.29890692 0.096952885 0.13937838 0.36557537
0001b0 5c 1d 6d 3d 70 3f 13 3d ea 4d 35 bd 0d df f1 bc
       0.057889327 0.03594917 -0.044263758 -0.029525304
0001c0 6c 43 a2 bd 85 84 c2 bd 48 50 ac 3d 26 c3 dc 3d
       -0.07923016 -0.09497932 0.0841375 0.10779409
0001d0 44 b3 31 3e c7 34 fe 3c 15 03 a3 3d af f0 aa 3d
       0.1735354 0.031031026 0.07959572 0.08346688
0001e0 82 60 a7 3d 3b 61 83 bd 32 35 b3 3c e7 a5 ce bc
       0.08172704 -0.064150296 0.021875951 -0.025225593
0001f0 46 93 9f 3d fa 9c 21 3d 4b 07 95 3c 00 78 03 3e
       0.07791762 0.039456345 0.018191954 0.12838745
000200 c3 c1 97 39 7b 63 8e be 90 66 ac bd 59 64 40 bd
       0.00028945328 -0.27810273 -0.08418 -0.0469707
000210 ac e4 91 bd 93 c4 06 3f ff 84 07 3e e2 3e 93 bd
       -0.07123694 0.526437 0.13234328 -0.07189728
000220 25 fa 3c bb 7f da c4 bd 24 aa 89 3d d7 f3 82 bd
       -0.0028835621 -0.09611987 0.06721905 -0.06394165
000230 0e 6c 93 3d 01 00 25 3d 9e b9 5d 3c b3 87 dc bc
       0.07198344 0.040283207 0.013533024 -0.026920175
000240 0a 37 63 bd b5 d2 3c bd d0 f6 1b be 34 85 02 be
       -0.05547241 -0.046099383 -0.1523087 -0.12746125
000250 44 6e 37 be c2 cc 8e bd ab fb ac 3d 0b 36 be bd
       -0.17913157 -0.06972648 0.08446439 -0.09287652
000260 6f 31 92 bb b9 da 17 bd 6b 61 ae 3d 7d ec 7e bd
       -0.0044614593 -0.037073825 0.08514675 -0.06223725
000270 1f d8 b4 3d 2b b3 06 be 7c 42 c6 3d db 23 c1 3d
       0.08830284 -0.13154285 0.0968065 0.09430667
000280 ef 06 f6 bd b3 f4 4a bd 7e 71 26 3e 73 83 df 3c
       -0.12013041 -0.04954977 0.16254231 0.02728436
000290 3b 81 cd bd 02 ce cd 3b fa 31 61 3d 5d 56 49 bd
       -0.100344144 0.0062806616 0.054979302 -0.049154628
0002a0 a5 73 49 bd 31 d8 63 3d 96 f2 05 bd fb 8d c2 3c
       -0.049182553 0.055626098 -0.03270205 0.023749342
0002b0 54 e3 64 bd 62 30 97 bd aa dc 61 bd 1b e3 d1 3d
       -0.05588086 -0.07382275 -0.055142082 0.10248395
0002c0 b8 5d cd bd 18 49 01 3e 69 92 2b 3e 6c 72 fb 3c
       -0.10027641 0.1262554 0.1675507 0.030694209
0002d0 cd 2c 06 bd 0a 46 b2 bd 3a 52 de bd 30 20 de bc
       -0.03275757 -0.08704765 -0.10855527 -0.027114958
0002e0 48 6d e0 bc ea c4 d6 3d ba 54 15 be a9 8f 09 b7
       -0.02739586 0.10486777 -0.14583102 -8.199285e-06
0002f0 2f b8 11 bd d8 43 36 be b1 b5 28 3e 5d fc cd 3d
       -0.03557604 -0.17799318 0.1647556 0.100579
000300 2e cc 9a 3d 7b ad d3 3c 77 58 1f 3d 35 15 47 3e
       0.075584754 0.025839558 0.038902726 0.19441684
000310 b9 f7 05 bd 03 6e a5 3d dc 0a 7e bd 16 9e e2 bd
       -0.03270695 0.08077624 -0.062022075 -0.11065309
000320 82 11 fe bc 17 a0 16 bc 26 a7 45 be 7f 82 1c bd
       -0.031014208 -0.009193442 -0.19302043 -0.03821039
000330 fd a4 46 bd e6 94 ba 3d 73 b4 f0 bd ae 32 0c 3e
       -0.04849719 0.091104314 -0.11753168 0.13691208
000340 5e 51 be bc 1f 00 f9 3d c2 39 53 3d 4b e1 80 bd
       -0.023232158 0.12158226 0.051568754 -0.06292971
000350 45 73 9e 3d f3 9a 0b 3e d1 d3 12 3e 41 2c d3 3c
       0.0773683 0.13633327 0.14338614 0.025777938
000360 44 49 d2 bd 9f d2 63 3d e4 88 09 3d 25 01 f5 3c
       -0.102678806 0.055620786 0.033577815 0.029907772
000370 25 19 23 3d 77 3a df 3c ec d3 f6 bc 94 2e 61 3d
       0.0398189 0.027249558 -0.03013035 0.05497606
000380 0c c3 cf ba bc 91 45 3d 9c 98 06 3d 86 e0 a9 bd
       -0.0015850975 0.048234686 0.032860383 -0.082947776
000390 b4 00 cd 3c 77 24 f4 bd aa 5b bc 3c 53 68 ac 3d
       0.02502475 -0.119210176 0.022992928 0.08418336
0003a0 99 46 b5 3c cd 10 71 bd 9f a0 2a bd 27 3f 65 be
       0.02212839 -0.058853913 -0.041657086 -0.22387372
0003b0 11 2a 47 bd 1f b6 84 3d 1e 70 9e 3d 3f 80 ad 3d
       -0.048624102 0.06480049 0.077362284 0.084717266
0003c0 9c 15 ae 3d 69 34 a7 bd c0 40 7b bd da e0 b0 3d
       0.085002154 -0.08164293 -0.061341047 0.08636637
0003d0 d5 6a 67 bd cf 3b f1 3d d8 53 07 be 74 a4 b2 3c
       -0.056498367 0.11778986 -0.13215578 0.021806933
0003e0 e4 0b 75 3c 45 0e 99 bd a6 7b 31 bd 47 9c e0 3c
       0.014956448 -0.07473425 -0.04333081 0.027418269
0003f0 27 a7 f3 3b 21 29 9b bd be a4 51 bd 04 12 04 bb
       0.0074356976 -0.07576204 -0.0511825 -0.002015234

encoder.key_net.net.3.bias f4 [72]
000000 7f 7f 74 3d 29 00 25 3d 19 01 6f bd f5 6a 63 3d
       0.059691902 0.040283356 -0.058350656 0.055521924
000010 72 55 c7 3d 8e 0a 2e 3e cc a3 f1 3d 04 75 0a be
       0.09733094 0.16996214 0.1179882 -0.135212
000020 56 a2 ea bd ee 74 fb bd b2 2b 16 be 0b 90 e6 bd
       -0.114567444 -0.12278162 -0.14665106 -0.11257943
000030 b3 c4 c2 bc d0 96 97 bd 1a 7c f1 3d 3c b6 3b 3d
       -0.023775434 -0.07401812 0.117912486 0.04582809
000040 47 5f 4a bd 86 be 35 be 66 f5 f7 bc 4c f4 18 3d
       -0.04940727 -0.1774846 -0.030268382 0.037342355
000050 38 fd 03 bd 24 ed f3 ba d0 71 bf 3d 66 df a8 bc
       -0.03222391 -0.0018610102 0.0934788 -0.020614337
000060 8d 90 97 3b fb 88 87 3d f5 93 19 bc ec c9 06 be
       0.004625386 0.06617924 -0.009373655 -0.13162965
000070 7a ab 1d 3e de 1b a4 3d 12 59 9a bc 6e 7e 9e 3d
       0.15397444 0.08013128 -0.0188413 0.07738958
000080 be ae 14 bd 2a a9 02 3e 58 8f c0 bd 91 30 4d bd
       -0.03629946 0.12759843 -0.09402341 -0.050095145
000090 26 e8 03 3d d8 8c 9e bd 05 39 95 3d d4 6e f3 bd
       0.032203816 -0.077417076 0.07286266 -0.11886373
0000a0 73 5c 8f 3d 7d 84 ef 3c 8d b9 5c 3d 84 5a b1 3d
       0.07000055 0.02923798 0.053887893 0.086598426
0000b0 6c 15 db 3d 22 9c 05 be 67 f3 11 3e fb 65 ff bd
       0.10697445 -0.13047841 0.14253007 -0.12470623
0000c0 0b 3c 12 3e 0f 63 24 be 56 0e be bc 01 46 06 3e
       0.14280717 -0.16053413 -0.023200195 0.13112642
0000d0 21 fb ad bd ed 36 71 3d ad f6 24 3e b5 93 e6 bd
       -0.08495165 0.058890272 0.16109724 -0.11258642
0000e0 e5 f5 0c bd d0 08 42 bd 63 a5 18 be b1 aa b8 bd
       -0.03441419 -0.047371686 -0.1490684 -0.09016932
0000f0 2b c7 39 bb 8b 09 f4 bb 46 82 33 bd 83 68 a9 bd
       -0.0028347473 -0.0074474267 -0.04382541 -0.08271887
000100 b2 10 f6 bd 4a 31 9e bc 01 bf 2f 3c cb dc 25 be
       -0.12014903 -0.019310612 0.010726691 -0.16197507
000110 9c d6 73 3d b1 55 7f bd 47 1d 94 3c 4c 3a 85 bc
       0.05953084 -0.06233758 0.018080367 -0.01626315

encoder.val_net.net.0.weight f4 [45, 18]
000000 aa be 5e be 0f 0b e0 3c 37 17 3f 3e 55 fc 9f 3e
       -0.2175242 0.027349023 0.186612 0.31247202
000010 2a dc 27 3e d2 b2 18 3c 4d 99 e1 bd b2 7b d5 3d
       0.1639258 0.009319978 -0.11015568 0.10423984
000020 c2 34 1c 3e 40 e7 17 3e bc 0a 71 3d a4 91 9c 3b
       0.152545 0.14834309 0.058848128 0.004778104
000030 41 12 a7 3d 15 3e 61 bc d5 37 0c be c7 cf da bd
       0.081577785 -0.013747712 -0.13693173 -0.10684162
000040 1d 66 b3 3b e3 0d 0f 3e 2e 75 19 be ee 73 5c be
       0.0054748193 0.13970141 -0.14986107 -0.21528599
000050 b2 ad ef 3d 43 b3 07 be 05 e0 b0 3d f4 d4 30 3e
       0.117030516 -0.13251977 0.08636478 0.17268735
000060 c5 52 43 be e3 36 e4 bd 63 17 19 3e 68 43 51 be
       -0.19074543 -0.11143281 0.14950328 -0.2043587
000070 ce eb 2e 3e 64 1c 4b be 50 0c d6 bd 94 6c 9d bd
       0.1708214 -0.19835049 -0.10451567 -0.07686725
000080 9d b4 3f 3e 7b 1c 1f be 88 39 a3 bb 0d 7b 26 3e
       0.18721242 -0.15538208 -0.0049812235 0.16257878
000090 ca 43 dd 3b 13 d4 34 3d c0 8a da bd d6 d6 58 3c
       0.006752466 0.044147562 -0.10670996 0.013234815
0000a0 53 14 b4 3d 5e fa 0c be 88 8c 43 3e 28 eb 30 3e
       0.08792939 -0.13767383 0.19096577 0.17277205
0000b0 e9 47 aa 3d 16 0d 4b 3e 46 17 5e bd 72 38 5c 3c
       0.08314497 0.1982921 -0.054221414 0.013441192
0000c0 bd a8 e7 3d 15 df 11 be d0 b4 91 bd ff ed 05 be
       0.11311481 -0.14245255 -0.07114565 -0.1307907
0000d0 bb e3 56 be 6f 45 29 be 6e 2e f3 3d 70 f2 d3 3d
       -0.2098531 -0.16530393 0.1187409 0.10348976
0000e0 e1 a5 d9 bd 06 57 db bd 63 b2 05 be 0e e4 1d 3d
       -0.10627342 -0.10709958 -0.1305633 0.038547568
0000f0 0c 46 5a 3e f5 90 01 3e 66 3f 35 3e 71 b0 e8 3c
       0.21315783 0.12652953 0.17699966 0.028404446
000100 a1 62 60 3e 9a 12 b9 bd d6 e3 54 3e 1a 95 f5 3d
       0.21912624 -0.09036751 0.20790038 0.119913295
000110 a3 80 52 be aa b5 ba bd 31 90 46 be 50 43 00 be
       -0.20556884 -0.09116681 -0.19390942 -0.12525678
000120 e8 08 49 3e 70 ea 8a be 65 69 14 3e 30 a9 62 be
       0.19632304 -0.27131987 0.1449333 -0.22134852
000130 d7 85 58 be 6f 55 8b 3e 29 55 f3 bd 7b c8 b5 3d
       -0.21144806 0.27213618 -0.118814774 0.08876129
000140 1a f9 43 3e c8 ff ad 3d d1 b4 22 be 19 6e 4f 3d
       0.19137993 0.08496052 -0.15889288 0.050642107
000150 99 f1 37 3d 64 53 4f be 74 1d 4f 3e 73 a4 5d 3e
       0.04490814 -0.20246655 0.20226079 0.21644764
000160 17 7e ee bd e6 80 00 3e 57 41 d8 bd 74 c8 13 3e
       -0.116451435 0.12549171 -0.105593376 0.14431936
000170 4c 64 68 3d 2d 35 ae 3c 35 02 e7 3d 64 fe 92 bd
       0.056736276 0.02126559 0.11279718 -0.071774274
000180 11 58 44 3d 57 cf ab 3c 6f 41 83 bd b1 e7 eb bc
       0.04793555 0.02097289 -0.06408965 -0.028797003
000190 cb 1b 1e 3d 0d 3f ec 3d e8 21 16 3e 48 6c 3a be
       0.038600724 0.115354635 0.14661372 -0.18205369
0001a0 bb 6b 04 bd d4 6b 21 3e c3 bd 6c 3e 84 d4 9a 3d
       -0.032329302 0.1576379 0.23119263 0.075600654
0001b0 0a 38 f5 bd 55 25 f0 bb 08 cd cc bd 00 3e 7f bd
       -0.11973579 -0.007328669 -0.10000044 -0.062314987
0001c0 7f 11 30 3d af c6 05 be 91 13 47 3e 99 5b 5d 3d
       0.042985436 -0.13064073 0.19441058 0.054042432
0001d0 7b ff 97 bd 0a e5 78 3c 58 5b e2 bd 9e 1b ab 3b
       -0.07421776 0.015191326 -0.11052579 0.005221798
0001e0 81 9a 20 be 4d 3c 1c 3e d7 35 72 3c 07 f5 58 bd
       -0.15683939 0.15257378 0.014783344 -0.05296805
0001f0 6d 96 ee bd 1f db 01 be c4 7a 5c bd 4d b3 53 3d
       -0.11649785 -0.12681244 -0.053828016 0.051684666
000200 c0 b6 03 3f cd 71 7e 3e b7 8f ba 3d 52 f9 ba 3c
       0.5145073 0.24848099 0.09109443 0.022823963
000210 38 f5 6f be ca d9 19 be 3c dd 46 be eb cb 3f be
       -0.23433387 -0.15024486 -0.19420332 -0.18730132
000220 db a3 30 be 9d 0a 4c 3e 00 b7 8f bb ac 12 0f be
       -0.17250006 0.19925924 -0.004385829 -0.13971967
000230 c7 e5 03 be 47 c3 f9 bd 48 d4 df bd 32 ec 8f 3d
       -0.12880622 -0.12195449 -0.10929161 0.070274726
000240 2a eb b5 bd 34 6b 8e 3d 0c 00 6f 3d 97 db cb 3d
       -0.088827446 0.06954041 0.058349654 0.09953993
000250 65 b5 e4 3d 30 02 0b 3e c8 ec b0 3c 06 f9 0a 3e
       0.11167411 0.13575053 0.021597281 0.13571557
000260 4b 72 ab bc 52 8b cd bd 27 dd 1b bd 41 b4 d1 bb
       -0.020928523 -0.10036339 -0.038052704 -0.006399662
000270 74 d8 75 bd 06 a6 07 3e 68 62 4e 3e 52 b5 1c bd
       -0.06002088 0.13246927 0.20154727 -0.038258858
000280 66 3f 36 3e 93 1e 62 3e c6 70 35 be 44 84 99 3d
       0.17797622 0.22081976 -0.17718801 0.07495931
000290 8e 6d d4 bd e0 48 4a be 67 be 35 3e 5f 88 cc bc
       -0.103724584 -0.19754362 0.17748414 -0.02496737
0002a0 63 3d 20 3d 5b dd 01 3e b2 72 63 be b6 d9 2f 3e
       0.039121043 0.12682097 -0.22211722 0.17172894
0002b0 96 e7 02 be 7b 10 29 3e 83 d0 28 be 50 42 95 bd
       -0.12783656 0.16510193 -0.16485791 -0.07288039
0002c0 ec 5d 52 be 99 1b 4c bd 12 34 8f bd fa 42 38 bc
       -0.20543641 -0.049831007 -0.069923535 -0.011246437
0002d0 45 b9 3d be 6f d6 06 3d be 32 27 bd 55 5b 31 bd
       -0.18527706 0.032919344 -0.040819876 -0.04329999
0002e0 05 e5 47 3e 3c c0 0e 3d a7 c6 49 be 75 cb 10 be
       0.19520958 0.034851298 -0.19704686 -0.14140113
0002f0 24 da 07 be 11 ab 5b 3e 5f 46 98 3d cc 3f ff bc
       -0.13266808 0.21451975 0.07435297 -0.03115835
000300 d3 50 39 3e 66 f4 5a 3e 92 14 0e be 34 f6 1f bc
       0.18097238 0.21382293 -0.13875034 -0.009763289
000310 51 c6 59 be 9a fa 3e be 87 87 25 bc 0e 6a 16 3e
       -0.21267058 -0.18650284 -0.010103113 0.14688894
000320 d4 86 2d 3f ff aa dd 3e 95 89 8d 3b 26 85 ea bd
       0.67783856 0.43294522 0.0043193796 -0.11451177
000330 2f ee 6f bd b3 d2 63 3e 11 13 0d bd 6c fd ec bd
       -0.05857676 0.22248344 -0.03444201 -0.11571774
000340 6a 3e 18 be 93 39 28 3e 84 11 d7 3d f1 9f 6a be
       -0.14867559 0.16428213 0.10501388 -0.22912575
000350 ab 7b c2 bd 20 75 24 3e a7 f9 1f bd e0 c0 71 bd
       -0.09496244 0.16060305 -0.039056446 -0.05902183
000360 3b cc 25 3e d1 46 18 be cc 9e a4 be 4a 25 fb be
       0.16191189 -0.14870764 -0.32152402 -0.49051887
000370 12 45 11 be da f7 2e 3e b7 5f 87 bd 3f ce 6f 3d
       -0.14186504 0.17086735 -0.06610053 0.0585463
000380 c7 73 a1 3d bb 53 1e 3e 88 58 4b 3e 61 97 18 be
       0.07883411 0.15461628 0.1985799 -0.14901496
000390 73 a6 04 3c aa 4f 21 be 03 3b 26 3d 70 a2 2b 3c
       0.008096325 -0.15753046 0.04058362 0.01047574
0003a0 bc ad e8 bd c0 da 3d be d4 9b e2 3b 70 af ea bd
       -0.11361262 -0.18540478 0.006915549 -0.11459243
0003b0 78 b9 29 3e 85 46 03 3f b7 f4 ea bd f8 48 f7 3d
       0.16574657 0.5127948 -0.11472457 0.120744646
0003c0 19 90 40 be 4a b2 ab 3d 2f 22 38 3e a6 c9 9b bd
       -0.18804969 0.08383615 0.1798179 -0.07606821
0003d0 75 15 39 3e 35 d7 c0 bd 01 92 12 3e 31 f7 0d be
       0.18074591 -0.094160475 0.14313509 -0.13863827
0003e0 d3 b4 83 3d b6 ac bb 3d 34 65 d7 bd 21 a4 12 be
       0.06430974 0.09163801 -0.1051735 -0.14320423
0003f0 a6 a3 b9 bd 9b 44 bf 3d b2 6f ee ba 57 24 3f bd
       -0.090644166 0.09339257 -0.0018191247 -0.046665516

encoder.val_net.net.0.bias f4 [45]
000000 20 b2 51 3d 19 75 1b 3d 23 db 03 be f9 b4 36 bc
       0.051195264 0.03795347 -0.12876563 -0.011151546
000010 08 56 05 3e b5 1e a2 bf 43 1d 2f be 1f b7 35 3e
       0.130211 -1.2665621 -0.17101006 0.17745636
000020 68 39 2a be 0d ef 22 bf 6f ce 59 3e 3e cb 0e be
       -0.16623461 -0.6364601 0.21270154 -0.13944718
000030 2a 78 a6 3d b1 63 8d 3d 13 25 1f be 55 8a d2 bd
       0.08128388 0.0690378 -0.15541486 -0.10280291
000040 b3 ac 21 3e 33 29 a2 3e d4 00 7b bd 80 de 45 3e
       0.15788536 0.31672058 -0.061280087 0.19323158
000050 f8 b0 2b 3e d7 02 61 be 48 53 54 be 6d 74 e8 3d
       0.16766727 -0.2197374 -0.20734894 0.113503315
000060 28 53 15 3e 51 13 0e be cc eb 72 3e e6 64 54 be
       0.14582503 -0.13874556 0.23722762 -0.20741615
000070 20 2b e0 3d ae 98 45 3e bd 94 25 3e 95 f4 af bf
       0.109457254 0.19296524 0.1617002 -1.3746516
000080 e5 08 2a 3d e8 12 ed 3d 89 e0 99 bf 6d 5d 6e 3d
       0.04151239 0.11575872 -1.2021648 0.058194567
000090 65 03 21 be 8d 07 d3 3d a5 8f c3 bf a5 09 54 be
       -0.15723951 0.103041746 -1.5278212 -0.20706804
0000a0 31 44 1c be 45 b8 6e be 40 ac 3e 3e 9f 7f 88 3e
       -0.15260388 -0.23312481 0.18620396 0.26659867
0000b0 b2 26 0b be
       -0.1358898

encoder.val_net.net.1.weight f4 [45]
000000 72 4f 84 3f ed 36 7c 3f b6 99 97 3f b3 c0 84 3f
       1.0336745 0.9852131 1.1843784 1.0371307
000010 c3 91 6a 3f 11 1e 9a 3f 53 c0 a8 3f 1d 0e 6d 3f
       0.91628665 1.2040426 1.3183693 0.9259966
000020 0d bf 9b 3f 2f 53 a0 3f ec 89 62 3f 50 e4 84 3f
       1.2167679 1.2525386 0.884917 1.0382175
000030 21 72 63 3f 71 83 7e 3f 1a 72 a2 3f 01 4f 90 3f
       0.8884602 0.99419314 1.2691071 1.127411
000040 c7 df 74 3f b1 6e 48 3f fe b3 89 3f 4e 29 74 3f
       0.9565396 0.782939 1.0758054 0.95375526
000050 e3 30 6a 3f 67 ae c7 3f da 42 9d 3f eb d7 67 3f
       0.91480845 1.5600098 1.2286026 0.9056384
000060 1a f3 83 3f 59 6e 93 3f 31 06 71 3f 8b 55 99 3f
       1.0308564 1.151805 0.9415007 1.1979231
000070 52 31 82 3f e9 bf 79 3f 57 6f 71 3f 2b 96 8c 3f
       1.0171301 0.97558457 0.94310516 1.0983328
000080 db 79 78 3f 64 65 75 3f 1e 11 9b 3f 9f 96 7b 3f
       0.97060937 0.95857835 1.2114599 0.98276705
000090 46 7d a0 3f 0b 03 5c 3f 12 c1 8d 3f 4b 7e ac 3f
       1.253823 0.85942143 1.1074545 1.3476042
0000a0 af d4 a4 3f 5a 1d ba 3f 92 f1 70 3f bf ea 76 3f
       1.2877406 1.4540207 0.9411861 0.96451944
0000b0 4e f5 82 3f
       1.0231111

encoder.val_net.net.1.bias f4 [45]
000000 0a f2 33 bd 6a 0b 6b bc 61 e4 16 3d be d6 cc 3b
       -0.043932 -0.014345983 0.036838893 0.006251185
000010 20 e1 0a be b7 76 35 be 42 10 c5 3d 8f 5b 43 bd
       -0.13562441 -0.17721067 0.096222416 -0.04769474
000020 68 e0 4b 3c c7 3a 0d be c8 f6 0b be 72 9e 88 3d
       0.012443639 -0.13791953 -0.13668358 0.06670846
000030 6d 6c fe bd fa 68 42 bc 67 e1 d4 3d ad 4e be 3c
       -0.12423024 -0.011865849 0.103945546 0.023230875
000040 28 fb f0 bb 4b 08 5d be 0f 4e b1 bb 2c 98 eb bc
       -0.007354159 -0.21585195 -0.0054109166 -0.028759085
000050 28 42 85 bd 12 bb 0e 3e 17 f5 57 3e 07 35 ae bd
       -0.06506759 0.13938549 0.21089588 -0.08506208
000060 0d 50 60 bc 1e 0e 1d 3d 7d 4b ad bd 9f a5 4a 3e
       -0.013690961 0.03834354 -0.08461664 0.19789742
000070 8a be d9 ba cf 11 cf 3b d4 0f 42 bd 57 17 ca bd
       -0.0016612571 0.0063192616 -0.047378376 -0.09867733
000080 39 6e 92 bc 52 42 33 bc c5 b8 81 be 0a ec 49 bd
       -0.017874824 -0.010941105 -0.2533628 -0.04929737
000090 de 77 23 3c f0 1c 04 be 27 13 d7 bd 3b 20 d5 3d
       0.009977309 -0.12901664 -0.105017 0.10406538
0000a0 9d a8 92 3d a0 e6 ad 3d 29 4c 78 bd 91 0a 51 bd
       0.07161067 0.08491254 -0.060619507 -0.051035468
0000b0 90 86 8f 3d
       0.07008088

encoder.val_net.net.3.weight f4 [72, 45]
000000 b7 ce a9 ba 3b 2c b9 bc da 46 73 be ce fe 89 bd
       -0.0012955283 -0.022604099 -0.23757496 -0.06738053
000010 f4 98 a9 bd 74 f9 a7 bd ef 3d 54 be 4c 0e 30 be
       -0.082811266 -0.08201876 -0.20726751 -0.17192954
000020 89 de 06 be 84 3a 2f bd 76 a6 43 bd 5d 84 97 3d
       -0.13170828 -0.042780414 -0.04776617 0.07398293
000030 4e 48 97 bd 6b b6 56 3e 9a 58 8c be 1a 0c e2 3d
       -0.07386838 0.20968024 -0.27411348 0.110374644
000040 8c 65 5a bd d7 15 46 bd 3a a4 90 bd d9 c1 17 bd
       -0.0533195 -0.04836067 -0.07062574 -0.037050102
000050 bd 1e 16 3e b4 5e 08 3e b4 1a 3c 3d a9 69 1d bd
       0.14660163 0.13317376 0.045923904 -0.038430844
000060 52 42 92 3d f2 2a 71 3d a3 df c1 bd a7 6b f6 bd
       0.07141556 0.058878846 -0.094664834 -0.12032252
000070 d4 17 04 3e 4c 23 30 be 78 83 7c bd d2 cc a4 3d
       0.12899715 -0.17200965 -0.061648816 0.08046879
000080 71 43 0b be c5 a5 f5 bd 0a 8f 49 bc 55 db ba 3d
       -0.13599946 -0.11994509 -0.01230217 0.091238655
000090 06 9c 06 3e 0f 88 93 bb d0 1d 28 ba f4 5f d0 3d
       0.13145456 -0.0045023034 -0.0006413134 0.101745516
0000a0 36 f5 93 3d b7 25 b7 3c ce 61 23 3c bf ef 24 be
       0.07224505 0.022356851 0.009972049 -0.16107081
0000b0 f1 75 43 bd 34 b6 46 be 73 43 32 be a0 5b 40 3c
       -0.0477199 -0.19405442 -0.17408542 0.011740595
0000c0 9a 25 e4 3d 15 11 21 3d c6 1e a8 3d 6d e1 e1 3d
       0.111399844 0.03932293 0.082089946 0.11029325
0000d0 e3 dd 95 bd 08 42 ee bd e9 00 2a 3d 89 e6 33 bc
       -0.07317712 -0.11633688 0.041504774 -0.010980257
0000e0 18 d3 65 3e 99 67 da bd c4 a5 32 be 27 d2 59 3b
       0.22443807 -0.10664291 -0.17446047 0.0033236833
0000f0 1c 1b 5a 3d 5f 19 95 bd 1b dd 82 3d 91 4c 6c be
       0.05324851 -0.0728023 0.06389829 -0.23076083
000100 f5 51 b2 bd 6b 32 fa bd 3f 7b ce 3c d0 f0 bb 3d
       -0.08707038 -0.12216648 0.025205253 0.09176791
000110 a5 c8 42 bd e4 c1 c1 bb ea 9a 75 3e 4a d3 ee bd
       -0.04755463 -0.005913006 0.23984876 -0.11661394
000120 f6 75 2e 3e 4f 1d c4 3b 79 5e ab bb a0 8d b2 bd
       0.17037186 0.005984939 -0.005229768 -0.08718419
000130 ff 4e 3b 3e a1 01 96 bd f9 75 7a 3c 1c 00 05 bd
       0.18291853 -0.073245294 0.015286916 -0.032470807
000140 e6 96 05 bc 8f 72 6c 3d 24 75 68 be 06 e6 45 3e
       -0.008153653 0.05772644 -0.22700936 0.19326028
000150 00 f5 97 bd 1e 5e 79 bd c6 06 80 3e a6 c5 e2 bd
       -0.07419777 -0.060880773 0.25005168 -0.11072855
000160 3a eb ac 3d 1c ba f8 3a 3b 9f d2 bc c6 9c 70 3d
       0.084433034 0.0018976363 -0.025710693 0.05874326
000170 5c f9 15 be 12 ae 00 3d 96 68 97 3d d6 d9 a6 bb
       -0.14645904 0.031416006 0.07392995 -0.005091886
000180 fd 36 36 3e c6 52 bc bd 4d 67 eb bd 23 86 db bc
       0.17794414 -0.09195475 -0.114943124 -0.02679736
000190 0c 1f 1b 3e 62 fc 57 bd 24 78 8d bd 59 1c 98 3d
       0.15148562 -0.052730925 -0.06907681 0.07427282
0001a0 03 55 3b 3e 4a 02 90 3c a9 a3 20 be 68 0d 2d 3d
       0.18294148 0.017579217 -0.15687431 0.042249113
0001b0 ee b7 13 bd 92 04 91 bd 87 2e 5d 3d 94 86 94 3e
       -0.03606408 -0.0708095 0.05399945 0.29008925
0001c0 01 e0 ac 3d 56 58 c6 3d 2e 6f c6 bd a6 a0 06 be
       0.08441163 0.096848175 -0.096891746 -0.1314722
0001d0 8a 42 e3 3d 6b 46 66 3d 4d 2b 4b bd 81 8f dd bd
       0.11096676 0.0562195 -0.04960184 -0.10818387
0001e0 ec 43 b7 3b b4 bc aa 3d f2 04 16 3e 6e f5 d2 bd
       0.0055928137 0.083367735 0.14650324 -0.10300718
0001f0 83 a4 0b 3e b6 15 26 be 83 5d 46 be 77 cc ec bc
       0.13636975 -0.1621922 -0.1937161 -0.02890609
000200 bc cd 13 bc 1e cf 85 be 61 75 7a 3e 24 ac fb bd
       -0.009021219 -0.2613458 0.24458839 -0.122886926
000210 cb 60 38 be a3 2d 25 3e 7c b8 ab 3c f5 24 10 be
       -0.18005674 0.1613069 0.020961992 -0.14076598
000220 82 2e 49 bd ee 2d 68 3d 72 98 c5 bd de a7 92 bd
       -0.04911662 0.056684427 -0.09648217 -0.071609244
000230 ac 65 31 bd 9f f5 f4 3b e7 32 20 3c 78 6b b7 bc
       -0.043309852 0.0074755694 0.009777761 -0.022390112
000240 70 da 20 3e fd 07 3c bd db 85 b1 bc c9 c1 34 be
       0.15708327 -0.045906056 -0.021670273 -0.17652048
000250 6a 37 b5 3d 28 5b a8 3d 37 b9 e4 3c 6f 5d d1 3c
       0.0884846 0.08220512 0.027920349 0.025557248
000260 fc e1 37 be 93 cd 7c bd 08 0e 5b 3a 13 08 ac 3c
       -0.179573 -0.06171949 0.0008356278 0.020999944
000270 8f 47 32 3c d2 c2 c2 3c 07 fa 44 bd ca d5 1c be
       0.010881319 0.023774538 -0.048090007 -0.15315929
000280 84 0b 55 bd 22 07 df bc 4a b1 97 3b 5d 67 35 bd
       -0.052012935 -0.02722508 0.004629289 -0.044288028
000290 3c c7 9f bd 55 ae bd 3d 51 bf b2 bd df ee bc bd
       -0.07801673 0.09261767 -0.08727897 -0.092252485
0002a0 34 6a fc 3b ad e4 e2 3b aa a1 6f bc 98 53 cc 3d
       0.00770309 0.006924233 -0.014625946 0.09976882
0002b0 51 cf aa 3b 26 20 5a 3d 59 d5 98 3d 67 02 8c ba
       0.0052127023 0.053253315 0.07462568 -0.0010681868
0002c0 3a 4c eb 3d a5 dd d8 bd 7e f9 09 bd e6 d1 a9 3d
       0.114891484 -0.1058915 -0.0336852 0.08291988
0002d0 51 48 a9 bd 5e d2 0f bd 46 53 7b be e1 9f c9 3d
       -0.082657464 -0.03511273 -0.24543485 0.098449476
0002e0 87 ed 69 be d6 3a a8 3d c2 09 1a be 15 87 84 be
       -0.22844516 0.08214347 -0.15042785 -0.2588431
0002f0 73 08 cd bd db e1 ea 3d f0 f3 a0 3c 54 1e ea 3e
       -0.10011377 0.1146886 0.019647568 0.45726264
000300 37 5b a4 3c 8c 3e 14 be 9a e6 86 be 76 1a d3 3d
       0.020063026 -0.14476985 -0.2634781 0.103077814
000310 4b b5 ba bc a1 0f 8c bd 7e 4e 0c 3b e0 44 0f be
       -0.022791525 -0.068389185 0.002140909 -0.13991117
000320 fb 21 dd 3d 28 22 6f 3d f6 a1 16 3e bf 5c bc bd
       0.10797497 0.058382183 0.1471022 -0.091973774
000330 07 90 90 3c 9a 4c c3 3c 7b fa 01 be c5 80 3d 3c
       0.017646803 0.023840237 -0.12693207 0.011566346
000340 f0 39 2c 3c 43 59 1c be aa 16 2c 3b 3e ca 89 3d
       0.01051186 -0.15268426 0.0026258626 0.06728028
000350 e7 82 51 be 35 21 a3 bc bf ed e8 bd 55 a8 fd bd
       -0.20460092 -0.019913295 -0.113734715 -0.123856224
000360 2b af 2b 3d a7 99 82 be ec bc 9e 3d 8e 25 36 be
       0.0419151 -0.25507852 0.07750878 -0.17787763
000370 80 c8 27 be 45 16 06 3e 4a 78 f1 bd 65 ee 70 bd
       -0.16385078 0.13094433 -0.117905214 -0.0588211
000380 47 21 80 3e f9 f7 c0 bd 65 41 87 be c1 4a 30 3e
       0.2502539 -0.09422297 -0.2641708 0.17216016
000390 3b 3f c6 3d 5f b4 ec bd 78 52 c3 bd 06 31 f8 3d
       0.09680029 -0.115578406 -0.09537214 0.121187255
0003a0 04 f8 3c be d2 f5 59 be 4e 4c c4 3d bd e4 ea bc
       -0.18453985 -0.2128518 0.095848665 -0.028673524
0003b0 e5 7d 55 be da 1e f5 3d 9f d9 18 be 32 e5 13 3e
       -0.20848806 0.11968775 -0.14926766 0.144429
0003c0 7e c3 29 3d 03 87 9e bd 60 00 c1 bc 45 a4 20 3e
       0.0414462 -0.07740595 -0.02355975 0.15687664
0003d0 4d 7b fd bd 42 e7 48 3c fa 9f 55 3e 2d d7 0c 3e
       -0.123770334 0.012262167 0.20861807 0.13753958
0003e0 fa d7 32 3b 8f 99 54 3c 56 b6 46 be 5c 0f c4 3d
       0.0027289377 0.012976064 -0.19405493 0.09573242
0003f0 98 28 00 3e 2b 7b 4e 3e 4f 95 50 bd dd 27 5f 3d
       0.12515485 0.20164172 -0.05092364 0.054481376

encoder.val_net.net.3.bias f4 [72]
000000 6b b9 f4 bc bf 82 63 3d a2 56 78 3d 12 09 e2 3c
       -0.02987357 0.05554461 0.060629494 0.027592216
000010 f4 05 d0 3d bd a1 e8 bc 5a ce 4d 3e 54 c6 0f be
       0.101573855 -0.028397435 0.20098248 -0.140405
000020 54 e5 fb 3b c0 44 3d 3c b0 12 40 3e e3 f3 a7 3d
       0.00768725 0.011552036 0.18757129 0.082008146
000030 b5 5d a2 bd 84 3a 42 bd 7c 71 be 3d 78 21 45 3d
       -0.079280294 -0.047419086 0.09298989 0.04812762
000040 a7 79 37 3c 72 f7 a2 bd a4 81 52 3d 7e 00 da 3c
       0.011198438 -0.07957353 0.051393166 0.026611563
000050 cb e8 4a bd 59 e7 d9 bd 2a db ee 3d d3 d6 d4 3d
       -0.049538415 -0.10639829 0.11662896 0.10392537
000060 2b 17 12 3d ca 30 28 bd d6 54 14 bd c1 56 3f be
       0.035666626 -0.041062154 -0.03621372 -0.18685438
000070 e1 a9 b0 bd 64 72 23 3d 65 22 d9 bb d4 a2 19 3e
       -0.08626152 0.039904013 -0.0066264146 0.1500352
000080 80 1c 10 be db d8 84 bd eb 2d 03 3e 48 9b 0b 3d
       -0.14073372 -0.064866744 0.12810485 0.034083635
000090 b6 b5 1b 3e 13 83 29 bd da 70 8d bd 1a bf 76 bd
       0.15206036 -0.041384768 -0.0690629 -0.060240842
0000a0 38 ff e3 3d 5f 47 26 3d 73 65 a6 bd 88 52 20 3c
       0.111326635 0.04059541 -0.08124819 0.009785302
0000b0 5c 6f 3f 3b f6 10 10 3e 10 5a 96 bc 80 a2 d8 bc
       0.0029210662 0.1406897 -0.018353492 -0.026444674
0000c0 1e a2 f4 3d d9 76 eb 3d e2 85 55 3d 44 70 0d be
       0.11944984 0.11497278 0.052129634 -0.13812357
0000d0 7c aa 1a 3c be 04 be bd 93 1c 5d 3c b0 12 3c bd
       0.009440061 -0.09278248 0.013495582 -0.04591626
0000e0 df 95 6c 3c 61 08 43 3e 0d 97 22 bd a1 8d ec bb
       0.014440029 0.19046165 -0.039694835 -0.007219032
0000f0 10 0d b6 3d fb 17 d3 3d 8d 2f 4d 3d 44 c9 6b bd
       0.0888921 0.10307308 0.050094176 -0.05756499
000100 cd d0 a4 bd e5 fa aa bd 38 52 58 bd 89 65 02 3e
       -0.08047638 -0.083486356 -0.052812785 0.12734045
000110 a1 6f e9 3c 78 ac e8 bd de 01 34 3a 81 25 2f be
       0.028495612 -0.11361021 0.00068667333 -0.1710415

encoder.rank.weight f4 [1, 18]
000000 b6 a1 22 be 99 21 4f 3e 94 81 51 be 46 8c 4d be
       -0.15882 0.2022766 -0.20459586 -0.20073041
000010 17 09 c3 bd 82 bf 58 3e d9 9b 67 3e a1 53 4a be
       -0.09523218 0.21166804 0.22618045 -0.19758464
000020 87 65 26 3d 07 21 5f bb ad 03 5c bd 56 88 06 3e
       0.040624168 -0.0034046785 -0.053714443 0.13137946
000030 93 db 5c be 80 22 19 3e 87 f4 cb 3b ca 19 66 3e
       -0.21568136 0.14954567 0.0062242183 0.22470775
000040 23 7b 3b be 03 4e 69 3d
       -0.18308692 0.056959163

encoder.cardinality.weight f4 [72, 1]
000000 b7 65 1c 3e 35 d4 03 3f 24 7c ae 3d af 6d b2 3e
       0.15273176 0.5149568 0.08519772 0.34849307
000010 9d f5 20 3f fd ab a8 bc 57 88 3e bf b5 84 f4 be
       0.62874776 -0.020589823 -0.7442679 -0.47757497
000020 f6 ba 32 3f ed d9 7e be 59 03 b2 3e 11 88 58 be
       0.6981653 -0.2488782 0.3476818 -0.21145655
000030 d6 5e 48 3f 74 cf ec 3d bf e3 4f bf af 75 ff bd
       0.7826971 0.11563006 -0.8120689 -0.12473618
000040 01 27 90 be 2b 22 56 be 02 ee e0 be 61 cc 37 bf
       -0.28154758 -0.20911472 -0.43931586 -0.7179623
000050 68 1e 37 bf 4a 23 07 be f6 00 80 3e 48 f4 06 be
       -0.7153077 -0.13197055 0.25000733 -0.13179123
000060 f8 24 2f 3f 76 8c 1e bf f9 83 36 bf c5 d7 34 bf
       0.68415785 -0.61933076 -0.71295124 -0.7064174
000070 22 81 14 3f 9a ff 9b bd c9 90 27 bf ba 90 5c be
       0.5800954 -0.076171115 -0.654553 -0.21539584
000080 86 a9 9f be ee a0 d5 3e 9c 99 f6 3e 94 b1 ef 3e
       -0.31184024 0.41724342 0.4816407 0.4681517
000090 d7 3e 87 be f6 f2 69 be 1a 56 38 be 7f e8 ab 3d
       -0.2641513 -0.22846588 -0.18001595 0.083939545
0000a0 78 4c 05 3e f9 fd f5 bd 91 13 46 bf dd a4 6d be
       0.13017452 -0.12011332 -0.77373606 -0.23207422
0000b0 3a 27 df be 99 13 37 3e 73 37 04 be 12 ea 43 3f
       -0.43584615 0.1787857 -0.12911777 0.7652904
0000c0 ee 47 01 bf 01 1b 33 3f 9c f2 75 be 59 19 24 3f
       -0.5050038 0.6996308 -0.2401833 0.6410118
0000d0 85 29 9f 3e 9a b3 79 3e aa f2 56 3f 81 bf 8e 3d
       0.31086364 0.24384919 0.83964026 0.0697012
0000e0 de c8 e1 3e 7f 46 4a 3f 63 77 96 be 38 df 0f be
       0.44098562 0.7901382 -0.2938796 -0.14049995
0000f0 5b 7b c7 be f9 b4 21 3f a4 51 03 3f 5f d6 e8 3e
       -0.389613 0.6316677 0.5129645 0.45476052
000100 34 ff 4f 3f 63 aa 92 3e a2 07 73 3e a0 9f 34 3f
       0.81248784 0.2864562 0.2373338 0.7055607
000110 62 55 d8 bd 6b 28 d3 be 92 e9 3e 3f a6 cc 5a 3f
       -0.105631605 -0.41241774 0.7457515 0.8546852

encoder.cardinality.bias f4 [72]
000000 34 37 3c 3f f7 f9 96 be e2 f5 d5 be cd 2d 92 be
       0.73521733 -0.29487583 -0.41789156 -0.28550568
000010 fb b1 be 3e ae 3c 5b 3f 2c a5 cd 3e 84 fe 2d 3e
       0.37245163 0.85639465 0.4016508 0.16991621
000020 cf ad 12 3f 0c ab a3 be f0 20 17 3f da f1 22 bf
       0.5729646 -0.31966436 0.59034634 -0.63650286
000030 38 3d 19 bf 08 3f f1 be 82 20 2c bf c1 5b fb 3e
       -0.5985904 -0.47118402 -0.67237103 0.4909344
000040 89 d5 8b 3e 16 00 60 bf e5 e5 35 3e 7a 44 31 bf
       0.27311352 -0.8750013 0.17763479 -0.6924511
000050 f6 3b a1 3e c0 0d 07 bf 0a 0e 23 bf e8 25 bd 3e
       0.3149106 -0.52755356 -0.63693297 0.36942983
000060 a1 1a 52 3e c0 13 82 3f 8f 69 63 3f 38 4b 43 3f
       0.2051797 1.0162277 0.88832945 0.7628665
000070 ac 95 83 be 94 91 13 3e a8 a2 9b 3f a2 ae 67 3f
       -0.25700128 0.14411002 1.2159014 0.90500844
000080 81 a7 1c 3d fa 9e a9 3d 3a 26 33 bf 77 25 32 3f
       0.03824568 0.082822755 -0.69980204 0.69588417
000090 c9 be 14 3f 77 00 a1 3d ac 94 bf be 3b 47 a3 be
       0.58103615 0.07861417 -0.37418115 -0.31890282
0000a0 41 5e 20 bf 4f dc fd 3e 0e 5c 62 3f 7b b4 6e 3f
       -0.6264382 0.49582145 0.88421714 0.9324414
0000b0 a3 20 11 3f d8 4b 15 bf e6 0b 18 3f 15 5c a2 3e
       0.56690425 -0.58318853 0.59393156 0.31710878
0000c0 2c bf 16 3f 41 2c 63 3f 97 29 f1 be 5b 14 50 bd
       0.58885455 0.887394 -0.47102043 -0.050800662
0000d0 34 74 37 bf b9 f4 78 bf 41 0d d9 3e 57 2b 93 be
       -0.71661687 -0.9724842 0.42392924 -0.28744003
0000e0 e5 c1 8b bf f1 ce 72 bf b9 50 b3 bd 04 74 df 3e
       -1.0918547 -0.9484702 -0.08755631 0.436432
0000f0 0c 76 92 3e 2c 9f 55 bf d5 df dd 3b ee 9e bc be
       0.28605688 -0.83446 0.0067710676 -0.36840004
000100 f7 6c 4e be 87 13 74 bf be 5d 56 bf 53 68 62 3e
       -0.20158754 -0.95342296 -0.8373679 0.22110109
000110 ac 3c df 3e 49 2e 3b 3f 6c 5e 1a bf 32 07 5c 3f
       0.43600976 0.731175 -0.60300326 0.8594848
