weights/sae_scaling_discovery_latest.pt (torch, 161935 bytes, 30 tensors)

encoder.key_net.net.0.weight f4 [74, 64]
000000 29 2c b0 bd b8 86 93 bd 91 0e 24 3e 5e b5 df 3d
       -0.08602173 -0.0720343 0.16021182 0.10923265
000010 ae 80 cd bd 18 64 2c bd ae 18 93 3d c4 d4 0e 3d
       -0.10034309 -0.042087644 0.07182442 0.034870878
000020 b8 35 b2 bd b8 30 25 3d 48 94 cd 3d 10 09 c5 bc
       -0.08701652 0.040329665 0.10038048 -0.024052173
000030 84 5e 4e 3d 54 f9 00 3d 88 5e b4 bd d0 37 a1 bd
       0.050383106 0.031487778 -0.08807093 -0.078719735
000040 30 a7 a7 bc 30 9a 2c 3c 80 8c 8d 3b fe fb d9 bd
       -0.020465463 0.010534808 0.0043197274 -0.10643767
000050 a6 53 fe 3d 9c d8 29 bd bc 50 1d 3d 10 df 8e 3d
       0.124182984 -0.04146634 0.038407072 0.069761395
000060 f0 6b 62 3c 00 a1 31 3a 80 4c ab bc 5c 1a 4c 3d
       0.01381968 0.0006776005 -0.020910501 0.049829826
000070 80 2c 62 3c e0 17 57 bc ba a8 f5 3d e4 cf 2f bd
       0.013804555 -0.013128251 0.11995073 -0.04292287
000080 d8 56 34 bd c6 f2 ec 3d 78 e7 d9 3d e2 fa ce bd
       -0.044028133 0.11569743 0.10639852 -0.10106446
000090 ac 3d f8 bd 18 20 95 3c 74 97 ec 3d 50 27 fe bc
       -0.12121138 0.01820378 0.11552325 -0.031024605
0000a0 e4 17 c3 bd 18 f5 ec bc d8 a4 c8 3d 00 93 63 3a
       -0.09526041 -0.028925464 0.097970665 0.00086812675
0000b0 10 68 85 bc 40 e0 cc 3d 72 9a a3 3d 80 77 9b bb
       -0.016284972 0.1000371 0.079884425 -0.00474447
0000c0 68 0b 0a 3d b6 de 83 3d c8 ed c7 3d 92 09 b2 3d
       0.033702284 0.06438963 0.0976215 0.08693232
0000d0 64 98 4d bd dc 83 15 bd e8 ef db bc e4 4e 04 bd
       -0.05019416 -0.036502704 -0.026847795 -0.0323018
0000e0 b8 94 fa 3d 58 9e c0 bc 1c 8c 1f 3d d4 61 c0 bd
       0.12235397 -0.023513004 0.038951978 -0.09393659
0000f0 e8 40 95 bd bc b9 4b bd 70 96 13 3c 16 33 c9 bd
       -0.072877705 -0.049737677 0.009008035 -0.09824197
000100 eb 1d ec bd e7 71 93 3d ea 5e 91 bd 1c 6c b9 bd
       -0.11529144 0.071994595 -0.070981815 -0.09053823
000110 90 31 88 bd c0 31 65 bd e0 9d 91 3b 76 bf 91 bd
       -0.06650078 -0.05595565 0.004443869 -0.071165964
000120 e0 cc f2 bb a8 0e c1 bc 8c 40 4d bd f0 03 f5 3c
       -0.007409677 -0.023566559 -0.050110385 0.029909104
000130 f0 12 4c 3d 9a d2 ed bd 84 a4 96 bd 32 d2 cb bd
       0.049822748 -0.11612435 -0.073555976 -0.09952201
000140 c4 fc 34 bd c4 96 48 bd 76 cf c0 bd 18 6a 3a 3d
       -0.04418637 -0.048971906 -0.0941457 0.045511335
000150 20 53 55 bc e0 6e 6a bc 42 ec 82 bd 20 da cb 3b
       -0.013020307 -0.014308661 -0.06392719 0.006221071
000160 de cb a4 bd e6 bf a5 bd 7e 7a e6 bd d0 f4 44 bd
       -0.08046697 -0.08093242 -0.11253832 -0.048085034
000170 70 ca c3 3c 18 96 93 bd d8 e3 14 3d 98 ac b6 bc
       0.02390024 -0.072063625 0.0363501 -0.022299096
000180 44 92 e3 bd 70 c7 7e 3d 14 45 b3 3d 80 d6 dd 3b
       -0.11111882 0.062201917 0.0875341 0.006769955
000190 b8 2a 53 3d b6 e7 b8 3d 40 c5 b2 3d 18 0d b1 3c
       0.05155441 0.0902857 0.08729029 0.021612689
0001a0 ec a7 d5 3d fe b2 ca bd 4e 72 a9 bd d8 89 ce bd
       0.10432419 -0.09897421 -0.08273755 -0.10084885
0001b0 a4 a3 c4 3d c0 d6 c0 bc 28 63 18 3d 40 de fb bb
       0.096015245 -0.0235399 0.037203938 -0.0076864064
0001c0 d0 58 db bd 38 ba ab 3d 6e 90 cd 3d 04 80 86 bd
       -0.10710299 0.08385128 0.100373134 -0.06567386
0001d0 50 8d 0f bd 48 34 7c bd 80 d2 da bd 56 f0 dd bd
       -0.035046875 -0.061573297 -0.10684681 -0.10836856
0001e0 cc d2 8c bd a2 6b e4 bd 38 66 e9 bc 66 1b b7 3d
       -0.06876144 -0.11153342 -0.028491125 0.08940773
0001f0 10 4d b9 3c c4 1f 0f bd 70 67 77 3c c0 27 4a bc
       0.022619754 -0.034942403 0.015100345 -0.012338579
000200 fa 93 b9 3d 77 27 6c 3c ac 45 be 3b 60 6c cc 3d
       0.090614274 0.014413706 0.0058066454 0.099816084
000210 f8 1f ac bc 94 5b 21 bd 80 dd d5 ba 70 dd f5 bc
       -0.021011338 -0.039393976 -0.0016316622 -0.030012816
000220 7c 7e c4 3d 88 a8 71 3d b2 66 a4 bd 54 50 14 3d
       0.095944375 0.058998615 -0.080274 0.03620942
000230 08 ac 4d 3d 50 36 c3 bc 60 ce d9 bb 68 a7 44 3d
       0.05021289 -0.02382961 -0.0066469163 0.048011214
000240 f2 8c f8 3d e8 28 e4 3c f2 56 fd 3d 9e 56 a5 bd
       0.12136258 0.027851537 0.12370099 -0.080731615
000250 48 25 b7 3d c0 88 1b bd 00 a3 5a ba 18 ae 29 bd
       0.08942658 -0.03797221 -0.0008340329 -0.041425794
000260 ce 09 c7 3d 3a 05 d2 3d 70 b7 40 3c 00 7f 2d bc
       0.09718667 0.10254903 0.011762485 -0.010589361
000270 68 dd ff bc 54 ee b8 3d 6c ad 1e bd bc 43 f4 3d
       -0.031233504 0.090298325 -0.038739607 0.11926982
000280 5e cc 91 bd e0 7b 15 3d 50 84 48 bc 00 b6 ad 3b
       -0.07119058 0.03649509 -0.012238577 0.005301237
000290 40 98 f4 bc 04 0d ef 3d 0a 5e 81 3d 7c 2b 1e bd
       -0.029857755 0.116724044 0.06316765 -0.03861569
0002a0 78 fa f3 3c ec df 70 3d 6a 1a de 3d 50 b7 5e 3c
       0.029782519 0.0588073 0.10844882 0.01359351
0002b0 48 54 c4 bd 6c bf b6 bd e8 d2 a1 bc 54 75 fd bd
       -0.09586388 -0.089232296 -0.019753888 -0.12375894
0002c0 c8 0e 9c 3c 50 f9 91 bd 94 2b 4f bd 28 a3 20 bd
       0.019050017 -0.07127631 -0.05057867 -0.039218098
0002d0 b0 67 7c bc b8 9b c7 bc d8 95 10 bd 00 16 ae b9
       -0.01540558 -0.024366245 -0.035299152 -0.00033204257
0002e0 7c e8 d5 bd c0 e8 dc 3b f8 ed 1c 3d 9e 3e c4 3d
       -0.104447335 0.006741613 0.038312882 0.09582256
0002f0 c0 70 e4 3d c0 c3 92 bc d0 69 c0 bc a6 cb eb 3d
       0.11154318 -0.017915606 -0.023487955 0.11513452
000300 a2 ef 79 bd 0d f8 ce bc dd 0d 3d bd f0 86 3e bc
       -0.061019547 -0.025264764 -0.0461558 -0.011628851
000310 30 d0 21 3c 8e a1 f6 3d 80 6d ee ba 96 0c c7 bd
       0.009876296 0.12042533 -0.0018190593 -0.097191975
000320 90 41 3a bc fc 92 14 bd 88 82 ab 3c 7e d8 91 3d
       -0.01136817 -0.036272988 0.020936266 0.07121371
000330 38 d7 14 bd 44 68 98 3d f4 56 fd bd fc 99 70 bd
       -0.03633806 0.07441762 -0.123701006 -0.0587406
000340 00 6f 79 3d 58 e8 90 3d e8 35 e8 bd 80 ba 0f 3d
       0.060896873 0.07075566 -0.11338407 0.03508997
000350 d6 f7 a6 3d 84 c5 0a 3d a0 d6 bc bb 80 f4 f0 bc
       0.0815274 0.03387977 -0.00576289 -0.029413462
000360 ac 78 34 bd 20 3b 54 bc e0 51 a0 3b 98 f7 0c 3d
       -0.044060394 -0.01295355 0.0048925728 0.03441581
000370 0c bf 59 bd 10 f6 69 bd f6 38 be bd e0 03 24 bd
       -0.053160712 -0.05711943 -0.09288208 -0.040042758
000380 10 ee e0 bc 2a 42 e3 bd 20 a2 cb 3c a4 d1 fc bd
       -0.027457267 -0.11096604 0.02485758 -0.12344673
000390 50 fa 0d bc 70 68 35 3d 1e dd cd bd 10 5d ed 3d
       -0.008665636 0.044289052 -0.100519404 0.11590016
0003a0 c8 74 dc bd 14 03 8c 3d 38 61 95 3d 86 c6 8d bd
       -0.10764462 0.068365246 0.07293934 -0.06922631
0003b0 e4 91 93 bd b8 80 bd 3d c8 8f b8 bc c8 2b 89 3c
       -0.07205561 0.09253067 -0.022529498 0.01674451
0003c0 fc a7 2b bd 9c 87 6a bd 90 cc b6 3d c0 d6 28 bb
       -0.04190825 -0.057258233 0.08925736 -0.0025762767
0003d0 9c 00 95 3d 2a 30 ea bd d0 f4 1b 3d 60 7f ee bd
       0.07275507 -0.11434968 0.03807527 -0.116453886
0003e0 00 57 88 bd 30 7f d4 3d ca 21 8e 3d d8 1e 91 bc
       -0.06657219 0.103758216 0.069400385 -0.017714903
0003f0 ac a9 7b bd c8 7b 28 3d b8 c9 da 3d 48 60 d7 bd
       -0.06144111 0.041133672 0.10683006 -0.10516411

encoder.key_net.net.0.bias f4 [74]
000000 82 e5 9c bc d8 ac e4 3c b6 9d d0 bd 41 63 4a bd
       -0.019152407 0.02791445 -0.10186331 -0.049411062
000010 15 df 40 3c e7 9f 5f 3d 82 fa 11 bd a4 ba b3 bc
       0.011771937 0.054595854 -0.035639293 -0.021939583
000020 95 10 91 bc 86 b8 56 bd f0 19 c8 bd 7c 4e b4 3d
       -0.017708102 -0.05242207 -0.09770572 0.08804032
000030 48 7b 89 bc 72 eb 1e 3d db b8 7f bd 0f 88 54 3c
       -0.016782418 0.038798757 -0.06243215 0.012971892
000040 e5 e7 8e bd 04 9c 60 3c c1 6c c6 bd 78 6f 3a bc
       -0.06977824 0.013709072 -0.09688712 -0.011379115
000050 fc 92 8e 3d fb 9e 71 bc 79 42 a7 bd c4 a3 b8 bd
       0.06961629 -0.014747377 -0.081669755 -0.09015611
000060 98 9a d6 3c a3 c4 71 bd e8 f6 82 bd 51 25 24 3d
       0.026196763 -0.059025418 -0.0639475 0.04007465
000070 87 8d 8c bc 8e 09 f3 bd 3b 6c 3e bd e4 e5 de bd
       -0.01715733 -0.11867057 -0.046489935 -0.10883692
000080 c8 ab 52 3c de ae 17 bd c7 d7 5a bd 3a 70 9a bd
       0.012858339 -0.037032 -0.053428438 -0.07540937
000090 f9 64 8c bd cd fb 0a bc c6 6f 1f bd 3b 40 f1 bd
       -0.068551965 -0.008482886 -0.038924955 -0.11779829
0000a0 5d 2b 85 bd ef 79 3f 3d 9f fb c2 3d b0 4f bf 3c
       -0.065024115 0.046747144 0.09520649 0.023353428
0000b0 4a 82 3c bd f3 cd 55 3c 70 1e a6 bd 14 b6 0c 3e
       -0.04602269 0.01304959 -0.08111274 0.13741332
0000c0 99 46 19 be 5f d0 23 3d 6c fe 65 bd 28 a2 00 3c
       -0.14968337 0.03999364 -0.05615084 0.007851161
0000d0 b5 e3 5b 3d f5 c6 36 bd 70 4c 8c 3c d5 f6 40 bc
       0.053683955 -0.044623334 0.017126292 -0.011777599
0000e0 02 34 7e bd 2c af 7a bc f4 25 dd 3d e7 f0 8f bd
       -0.062061317 -0.015300553 0.107982546 -0.0702837
0000f0 83 62 1d bb d6 37 87 bd 05 5d 05 3d 33 e9 ce bb
       -0.0024015016 -0.06602447 0.032559413 -0.0063144206
000100 3b e7 b0 bb 82 94 0a bd e4 ac 7e bc 08 d7 01 bd
       -0.0053986586 -0.033833034 -0.01554415 -0.03169921
000110 8c 43 2d bd fb 40 fe bd 46 3d 62 bd 33 bd c2 bd
       -0.042300746 -0.12414738 -0.055234216 -0.09508743
000120 10 01 12 be f1 da 17 3d
       -0.14258218 0.037074033

encoder.key_net.net.1.weight f4 [74]
000000 a4 1e a2 3f c5 6a 83 3f 3a 46 88 3f 53 8b 8b 3f
       1.2665601 1.0266958 1.0646431 1.0901893
000010 e2 a6 91 3f 31 22 86 3f 94 38 8a 3f 94 0e 7d 3f
       1.1379054 1.0479184 1.0798516 0.9885037
000020 ad 74 a1 3f 2e 1b 88 3f 21 09 89 3f 5a 51 87 3f
       1.2613732 1.0633295 1.0705911 1.0571702
000030 dd 72 85 3f 78 56 96 3f 2f d8 82 3f a8 c7 83 3f
       1.0425678 1.1745138 1.0222224 1.0295305
000040 20 d1 93 3f 33 f2 82 3f 8e ef 86 3f 99 18 8d 3f
       1.1548195 1.0230163 1.0541856 1.1023132
000050 e5 5a 85 3f c2 87 82 3f 29 75 82 3f db 5c 89 3f
       1.0418364 1.019768 1.0192004 1.0731462
000060 d0 db 8f 3f cb c8 84 3f 31 2a 8f 3f c8 21 98 3f
       1.1238956 1.0373777 1.1184751 1.1885309
000070 f2 f8 87 3f a2 0d 70 3f e2 5a 82 3f de 41 87 3f
       1.0622847 0.937708 1.0183985 1.0566976
000080 2d 43 84 3f f1 9d 8e 3f 19 5d 81 3f a6 e6 88 3f
       1.0333 1.114195 1.0106536 1.0695388
000090 a0 cf 87 3f bd 14 8b 3f 13 0a 82 3f 39 e5 86 3f
       1.0610237 1.0865704 1.0159324 1.0538703
0000a0 37 e2 85 3f 92 23 83 3f b7 6b 87 3f d0 2b 84 3f
       1.045966 1.024523 1.0579747 1.032587
0000b0 c9 f7 8c 3f 8c f7 99 3f 4b 49 87 3f 3d a7 9e 3f
       1.1013118 1.202867 1.0569242 1.2394787
0000c0 6e ce 83 3f ea 43 8e 3f a4 07 94 3f 2e 02 a0 3f
       1.0297372 1.1114476 1.1564832 1.2500665
0000d0 84 34 88 3f 2b 6f 86 3f 71 fd 7f 3f 08 cd 88 3f
       1.0641026 1.0502676 0.99996096 1.068757
0000e0 e2 ec 86 3f 77 cb a0 3f d9 c8 84 3f 08 87 74 3f
       1.0541041 1.2562093 1.0373794 0.9551854
0000f0 38 ed 85 3f c0 09 85 3f 76 e3 8e 3f 11 21 81 3f
       1.0463018 1.03936 1.1163166 1.0088216
000100 f6 0c 8d 3f e1 32 8d 3f ed 84 8d 3f 18 56 84 3f
       1.101958 1.1031152 1.1056191 1.0338774
000110 91 5f 86 3f a6 b0 82 3f 0e 0a 8e 3f ef 91 8b 3f
       1.0497915 1.0210159 1.1096818 1.090391
000120 1e 00 83 3f fe 2d 83 3f
       1.0234411 1.0248411

encoder.key_net.net.1.bias f4 [74]
000000 a0 20 b3 3d 31 e3 77 3b b7 f0 9e 3c 84 17 93 bd
       0.08746457 0.0037824626 0.019401891 -0.071822196
000010 f6 c1 98 3d 1b 51 1b 3d 28 83 ac bd 63 e8 59 bb
       0.0745887 0.037919145 -0.084234536 -0.0033250086
000020 82 e2 0e 3e f0 8b ad bd 64 ca bf bd 05 70 30 3d
       0.13953593 -0.084739566 -0.09364775 0.04307558
000030 b0 06 a3 3c 22 19 e8 3d 3f f4 2d 3d 91 27 08 3d
       0.01990065 0.11332919 0.04246926 0.03324086
000040 76 de 0e be 43 24 bb 3c 2e db 85 bd c2 59 a1 3d
       -0.1395205 0.02284444 -0.06535946 0.07878448
000050 8d 26 fb 3c c9 8e 34 3d da a9 90 bd 79 65 98 bd
       0.03065803 0.044081483 -0.070636466 -0.074412294
000060 c3 e0 61 3d a7 fa 2b bd 09 fe 77 3d f3 a0 01 3e
       0.05514599 -0.041987088 0.060545 0.12659054
000070 56 7b 93 bd ae 3a 5d 3b af af fd 3a 3a 4e 92 bd
       -0.07201259 0.00337569 0.0019354726 -0.07143827
000080 3f 47 f3 3c f7 74 92 3c 0a b7 b1 3c ee a4 2b 3d
       0.029697059 0.017878039 0.021693725 0.041905336
000090 3c ce 02 3d 40 6c 95 3d 0c b3 0c bd dc 0e 0b bd
       0.03193496 0.07296038 -0.03435044 -0.033949718
0000a0 6f e5 1f 3d ad 85 2a 3d 85 f6 8c 3d d5 4c 3f 3d
       0.039037164 0.04163139 0.06882957 0.046704132
0000b0 7b 80 b9 3c de 2a 28 3d a0 c0 63 3d c2 e7 fa 3d
       0.022644272 0.041056506 0.055603623 0.122512355
0000c0 dd 21 84 bd 26 5f 9d 3d 31 3c 49 3d 69 02 b8 3d
       -0.064517714 0.07684164 0.04912967 0.08984835
0000d0 69 a5 30 3d aa 38 86 3d e1 20 fb 3c 51 7e 2d 3d
       0.043126497 0.065537766 0.030655326 0.042356793
0000e0 1e 2f 19 3d c6 bd bb 3d 49 61 48 3d 74 bc e7 3c
       0.03739845 0.09167056 0.048920903 0.028288104
0000f0 b0 c4 01 3d 42 48 4a bd 3d b7 a5 3d 98 31 09 3c
       0.031681716 -0.049385317 0.080915906 0.0083736405
000100 ac 6c 5e 3d 72 fb 99 3d 7c d1 df 3c 58 8e b5 3c
       0.054302856 0.075186625 0.02732157 0.022162601
000110 77 b1 53 bd 94 71 e3 bc 69 fd 99 3d c5 a5 55 3d
       -0.051682916 -0.02776412 0.07519037 0.052160043
000120 b0 17 3c bd d7 6e 5d 3c
       -0.045921028 0.013515196

encoder.key_net.net.3.weight f4 [84, 74]
000000 1b a2 e4 3d e2 b1 45 bc 7a ce 85 bd 39 a8 26 3d
       0.11163732 -0.012066336 -0.06533523 0.040687773
000010 7b 64 f7 bc 2d f2 62 3d 96 8a 10 bd 0e f3 ec 3c
       -0.03019928 0.055406738 -0.035288416 0.028924491
000020 99 0a dd 3c bd bb b9 bd f3 2f bc bd 01 1a 2b bd
       0.026982592 -0.09069011 -0.09188833 -0.041772846
000030 01 46 bd 3d b3 e5 71 3e 73 4f 13 3e ba f0 8e 3d
       0.09241868 0.2362278 0.14385776 0.06979509
000040 34 d0 07 be 3e 25 36 3e 5b fe a5 bc da 90 9d 3d
       -0.13263017 0.17787644 -0.020262888 0.07693644
000050 86 12 e7 3d 91 ab 11 3e 42 2b 00 be 99 de 82 bc
       0.1128283 0.14225604 -0.12516502 -0.015975283
000060 c0 81 8d 3d 4c 7e e0 b8 0e bb 11 3e 2b 94 32 3d
       0.069095135 -0.00010704677 0.14231512 0.043598335
000070 bd c2 22 bd 9e 91 2e 3d f4 0e 98 3d 89 4c 23 be
       -0.0397365 0.04261934 0.07424727 -0.15947165
000080 a8 1b 1c 3c 9b 6c 37 3d f4 28 1d bd a6 e3 37 3d
       0.009528078 0.04478131 -0.038369134 0.044894837
000090 4b b8 99 bd f5 47 55 3d 39 12 32 be 61 a3 e3 bd
       -0.07505854 0.052070577 -0.17389764 -0.111151464
0000a0 0e 1d cc 3d c8 77 23 3e 0d 35 c5 3a b4 49 08 3e
       0.09966479 0.15963662 0.0015045718 0.13309366
0000b0 c5 e9 26 3d 88 66 36 3d ae b5 d1 3c 99 3c 6a 3e
       0.040750284 0.044531375 0.025599327 0.22874679
0000c0 0a 85 eb bd 47 d3 95 bd 28 04 81 38 42 2b 10 3c
       -0.114999846 -0.073156886 6.1519735e-05 0.008799376
0000d0 c8 9c f2 3d be 53 87 3b 1b 8f c1 3c fc 9d 20 3e
       0.1184631 0.004129856 0.023627808 0.15685266
0000e0 10 16 03 bc 72 a5 4e bd be bc 87 3c ec bb e3 bb
       -0.008000866 -0.05045075 0.016569491 -0.0069498923
0000f0 b5 8f f0 3d 9c b3 aa bd 21 12 3b 3d 0c 49 05 3e
       0.1174616 -0.08335039 0.045671586 0.13016146
000100 20 8a 32 be 9d b9 9c 3d 28 66 17 3e 62 73 01 3e
       -0.17435503 0.076525904 0.14785063 0.12641671
000110 5c 70 58 3d c4 ba 0d be 74 a8 32 3e de c3 d0 3d
       0.05284153 -0.13840777 0.17447072 0.10193609
000120 55 b9 a6 bd 67 d1 de bc 30 1b 44 be 51 69 17 3e
       -0.08140818 -0.02719946 -0.19150996 0.14786269
000130 c1 92 6b 3d 75 e5 8d bd d3 c3 7c 3e 42 82 76 bc
       0.057513002 -0.06928531 0.24684076 -0.015045704
000140 5e 0a 82 bd a4 7c 01 3d ac 8e 89 3b ae 64 07 be
       -0.06349634 0.031613007 0.004197916 -0.13222
000150 8a 33 3f bd e2 35 f9 3d 02 c9 67 be 2b 6f a7 bd
       -0.04668001 0.121684805 -0.22635272 -0.081755005
000160 c9 0e 1f 3e ee a6 47 3e 41 08 ca bd 74 bc 15 3d
       0.15532984 0.19497272 -0.098648556 0.036556676
000170 9a f6 81 bc 25 4e ef 3d d1 7e 73 bd 31 1c de 3d
       -0.01586466 0.11684827 -0.059447113 0.10845221
000180 2b c8 9b bd 14 fc 2d 3d b8 e6 52 be 80 1d e8 bc
       -0.076065384 0.04247673 -0.20595825 -0.02833438
000190 f6 a8 d1 3c 71 66 41 be 69 50 0d be 9e e8 c4 3c
       0.025593262 -0.18886735 -0.13800205 0.024036702
0001a0 06 9f 1b 3e d5 0b 31 be 21 4c f1 3d 72 68 df bd
       0.15197381 -0.1728967 0.117820986 -0.10908593
0001b0 54 d7 5b 3e 4b 3a 4a 3e 65 d1 b2 3d 90 a9 8d 3e
       0.2146886 0.197488 0.08731345 0.27668428
0001c0 a3 82 ab bc c9 b6 57 3d 8d 99 b2 3d b6 af d5 3d
       -0.020936316 0.052664552 0.08720694 0.10433905
0001d0 17 1f 2e 3e 43 be f3 bb 31 31 70 be 2f 91 70 be
       0.17004047 -0.0074384524 -0.23456265 -0.23492883
0001e0 10 72 f8 3d 9d 66 91 3d 2a 37 24 3d 4c 38 46 3e
       0.12131131 0.0709965 0.04009167 0.19357413
0001f0 cf 34 4f be 97 79 9f bd 0d 7f 83 3d 4a 61 f9 3c
       -0.20234989 -0.07786863 0.064207174 0.030441899
000200 3d ed 5b 3d 46 a6 f9 3c 18 a5 d2 bd 3e e9 08 3e
       0.053693045 0.030474793 -0.102853954 0.13370225
000210 02 90 dd 3d 3a a9 08 be 9b e2 45 bc 70 fb 30 be
       0.10818483 -0.13345805 -0.012077953 -0.17283416
000220 8b f4 c8 3d d5 a5 f4 3c b3 f1 6c 3e 60 6f b6 3d
       0.09812268 0.029864231 0.23139076 0.08907962
000230 64 cd 7e be db ba 8e 3d 91 d7 41 bd 11 d8 ca 3c
       -0.24883038 0.069692336 -0.04732472 0.024761232
000240 09 f6 7d 3e 46 4e 72 3e 25 1c 1c 3d fb 82 67 3d
       0.24800886 0.23662671 0.03811278 0.056521397
000250 2a d9 f4 bc 21 43 85 bd 8d 2c 50 bd 1c 7a 17 3e
       -0.029888708 -0.065069444 -0.050823737 0.14792675
000260 b1 14 66 3d ee c1 cd bd f5 cd 05 bd 46 e5 5b 3d
       0.056172077 -0.10046755 -0.03266712 0.05368545
000270 62 e1 7a be 87 16 ce 3c 95 47 f0 3d 66 90 99 bd
       -0.24500039 0.025157226 0.11732403 -0.07498245
000280 ce a2 83 bd 74 d7 33 bd c5 02 01 bd 98 6b 57 3d
       -0.06427537 -0.043906644 -0.03149678 0.052592844
000290 76 36 2d 3e 8a 8c 1d be 64 ff 35 bd c8 44 ab 3d
       0.16915306 -0.15385643 -0.044433013 0.08362728
0002a0 2a 02 da bd af 7a 3e 3d fe 61 c4 3d e4 6c 91 3d
       -0.10644944 0.04650372 0.09589003 0.07100847
0002b0 ed 6a e8 bd 91 6c cc 3d 77 e5 4d be 61 23 10 be
       -0.113485195 0.09981645 -0.20107065 -0.14075996
0002c0 cb 8e e5 3c b6 f6 d1 3d d6 b9 ff bd 7c 55 34 bd
       0.02802219 0.102521345 -0.12486617 -0.044026837
0002d0 33 bf 5c 3b 72 0a 4d bd b3 2a 1a 3c 2f ed 1b be
       0.00336833 -0.05005879 0.009409594 -0.15227197
0002e0 e3 c8 3d 3e 6f 6c 9d bd 83 3a 53 bd 3d bc e3 3c
       0.18533663 -0.07686698 -0.051569473 0.02779972
0002f0 52 2a f0 bd cc 66 79 bd 9f e2 76 3c f5 1c b3 bd
       -0.11726822 -0.06088905 0.015068679 -0.087457575
000300 ea b7 a6 bd d4 b7 2a be 64 d2 19 bc e1 78 0f be
       -0.081405476 -0.16671687 -0.00938854 -0.14010955
000310 b3 c6 88 3d 2a ab 7c bd 53 41 54 bd 7a f6 19 be
       0.06678524 -0.061686672 -0.05182011 -0.1503543
000320 5b 9d 37 bd 5d 1c 0e be 75 44 10 be 3a 83 36 be
       -0.0448278 -0.13878007 -0.14088614 -0.17823496
000330 4b 59 d6 3d 21 27 fd 3c d2 f6 f4 3c ce 35 d9 3d
       0.1046625 0.030902447 0.02990285 0.106059656
000340 95 20 94 bd a1 f3 00 3b 28 4b be bd 50 46 57 bd
       -0.07232777 0.0019676464 -0.09291679 -0.05255729
000350 71 e7 0e bd 5b b5 03 be 20 3e 01 bd 26 d4 aa bd
       -0.03488869 -0.1286215 -0.031553388 -0.08341245
000360 9a 0d f6 3d 81 52 58 3d 7d a8 80 bd 9d ec 43 bd
       0.12014313 0.052813057 -0.062821366 -0.047833074
000370 1a c7 11 3e 3d b1 78 3d 03 c4 35 3e f0 83 8d 3d
       0.14236107 0.060715903 0.17750554 0.06909931
000380 ff 70 92 bd 3a 84 6e 3d e6 e7 39 3c df ee fe 3d
       -0.071504585 0.05823157 0.011346793 0.12447905
000390 4c 69 ba 3c 42 ee 92 bd 86 81 84 3c 59 d4 96 3d
       0.022755288 -0.0717435 0.016175043 0.07364721
0003a0 80 09 a1 3d 4e 21 5a 3c 33 e6 ac 3d c0 5b ef 3c
       0.0786314 0.0133136045 0.084423445 0.029218554
0003b0 41 1f 9c bd c9 b3 c4 bc a8 22 0b 3e 7b 25 b3 3d
       -0.07623149 -0.02401151 0.13587439 0.08747383
0003c0 7c b0 43 3d ac 57 fd bd b0 fa 01 be 68 63 d9 bd
       0.04777573 -0.12370238 -0.12693286 -0.10614663
0003d0 a8 60 46 bd 9b 3e 4b bc f2 1e 52 3d ac 52 0a 3e
       -0.048432022 -0.012405063 0.051299043 0.135081
0003e0 f0 16 ee ba 9e 67 f4 3a 25 12 26 3c 15 32 1a 3d
       -0.0018164795 0.0018646603 0.010136162 0.03764542
0003f0 0b 99 5a 3d 98 b6 4b bd 46 15 34 bd 49 c4 fa bc
       0.05336861 -0.04973468 -0.0439656 -0.030611174

encoder.key_net.net.3.bias f4 [84]
000000 64 de 20 bd 09 2b 90 3d 87 be f5 bd 81 ed d6 bd
       -0.03927459 0.07039458 -0.11999231 -0.10494519
000010 6e c7 7a bd 5e 4d 20 3b d0 b9 21 3e 72 1b 2b 3e
       -0.061225347 0.0024460177 0.15793538 0.16709688
000020 81 1b e0 3d 92 79 43 3c b9 a7 b0 bd e2 32 6a 3c
       0.10942746 0.01193084 -0.086257406 0.014294358
000030 57 9d 09 bd e8 09 49 3d 74 88 13 3d a0 8e 03 3e
       -0.033597317 0.049081713 0.036018804 0.12847376
000040 5c a3 af 3d 8c 52 83 3d bb a8 f4 bd 4f 44 53 3b
       0.0857608 0.06412229 -0.11946245 0.003223676
000050 1c f0 71 bc 35 dc 1e 3d 4a 34 91 3d 73 52 e7 3d
       -0.014766719 0.038784225 0.070900515 0.11295023
000060 b2 b5 0c 3e 88 86 1c 3e 15 49 6e bc 0d 52 08 3c
       0.13741186 0.15285695 -0.014543791 0.008320344
000070 4b 89 24 be 30 64 9b 3d 66 54 d5 bc ce 1e 34 3d
       -0.16067998 0.075874686 -0.02604122 0.04397469
000080 fb e6 48 3d 30 cb 21 3d db fa 8d bd 18 8a 7a bc
       0.049048405 0.039500415 -0.069326125 -0.015291713
000090 81 5c 0b 3e fa 2f 6c bd 49 67 13 bc 5b 2a 16 be
       0.13609506 -0.05766294 -0.008996793 -0.14664595
0000a0 8f b8 f7 bd 3d 78 db 3c 97 9b 1d bb 71 56 a7 bd
       -0.12095749 0.026790733 -0.0024049038 -0.08170784
0000b0 e0 7b ee 3d c3 b2 17 bd c5 71 76 3d 9d 54 9f 3d
       0.11644721 -0.037035715 0.060167093 0.077798106
0000c0 2a f5 05 3d b0 3f a4 3d 9c 38 bb bd a2 7e f1 3c
       0.03270451 0.0801996 -0.09141657 0.029479329
0000d0 25 e9 1c 3e 74 24 7c 3d 62 bd 65 3c 6d 33 ae bd
       0.15323313 0.061558202 0.014022203 -0.085059024
0000e0 dc 29 09 3e 79 52 1c be 51 ad eb ba 12 01 2f 3e
       0.13394874 -0.15265836 -0.001798073 0.17090252
0000f0 af 3b 9e bd ab 1a 27 3d 9d 7f 9c 39 18 7f f1 3d
       -0.077262275 0.040796917 0.00029849718 0.11791819
000100 53 28 98 3c ac 0c 25 bd 4f 92 d0 bd f3 c9 2f 3d
       0.018573916 -0.040295288 -0.10184156 0.042917203
000110 2f ab ff 3d 6c 00 8c bd fc 82 3a 3b 9c 5c ae 3c
       0.124838226 -0.06836018 0.002845942 0.021284394
000120 f2 b4 08 bd bc 23 64 3d 55 98 76 3d ca d7 4e bd
       -0.033375688 0.05569814 0.06020387 -0.05049876
000130 cc 9a d6 bd 38 97 2c bd 53 14 08 3c 2a 4e 1e be
       -0.10478744 -0.0421364 0.008305627 -0.15459505
000140 eb 60 52 3e 20 e4 c6 3d 13 cc 05 3d 51 9e d4 bd
       0.20544784 0.0971148 0.032665323 -0.10381759

encoder.val_net.net.0.weight f4 [52, 21]
000000 2a 55 0f 3e 1e a0 43 be fc 5f 33 bc 3e c1 48 bd
       0.13997331 -0.19104049 -0.010948177 -0.049012415
000010 65 d5 e7 bd 1d 19 dd bc 60 3d c9 bd a8 5f ba bd
       -0.11319999 -0.026989514 -0.098261595 -0.09100276
000020 be 2c d5 bd 61 37 06 3e 8d 1d 9d bb e7 aa f4 3d
       -0.104089245 0.13107063 -0.0047947825 0.119466595
000030 c1 ae 54 bd d7 bd 38 3e 36 2e 77 bd 50 a9 b6 3c
       -0.05192447 0.18041168 -0.060346805 0.022297531
000040 a8 cd dc 3d bb 1c e6 3d bd 2d 48 bd 04 86 e2 3d
       0.10781413 0.11235949 -0.048871744 0.11060718
000050 3c 47 42 bd 01 21 92 3d 64 cc 2f 3e 36 c0 f1 3c
       -0.047431216 0.07135201 0.17167813 0.029510599
000060 50 7e 3d be 64 0e de bd 53 80 18 3d 38 83 85 bd
       -0.18505216 -0.108425885 0.037231755 -0.065191686
000070 8b d8 9b 3d 10 4f 3d be 49 84 a7 3d ea 0a 73 3e
       0.07609662 -0.18487191 0.08179528 0.23734632
000080 4e 06 d7 3d 5c 83 7b bd 97 19 16 3e 9e 55 54 bd
       0.104992494 -0.06140457 0.14658199 -0.051839463
000090 7f d7 8b 3d 75 13 70 3e d7 fd a2 3e d4 89 1a be
       0.06828212 0.23444922 0.3183429 -0.1509164
0000a0 c4 be 5e 3c 2e e5 4a bd d5 e8 8e 3d 49 f2 10 3e
       0.013595287 -0.04953497 0.06978003 0.14154924
0000b0 96 22 06 3c 95 c9 46 be 89 f9 f8 3c f7 eb 12 be
       0.008186957 -0.19412835 0.030392425 -0.14347826
0000c0 30 f3 98 bd ce b3 7d be 41 9b 1e 3d 65 35 f4 bd
       -0.07468259 -0.24775621 0.03872228 -0.11924247
0000d0 be f7 d8 3b 11 f2 11 3e e9 e2 4d be 44 df 7d be
       0.00662133 0.14252497 -0.2010609 -0.247922
0000e0 4b 1c 41 3d 7c 0e 80 3d 09 53 6e be bd 5e 36 bd
       0.047146123 0.06252763 -0.23273863 -0.044523943
0000f0 76 92 c7 bd 8f f8 4b 3e 4a 7d 16 3d 04 01 9c 3d
       -0.09744732 0.19919036 0.03674058 0.07617381
000100 b6 45 f5 bc 26 92 09 be b7 01 20 be e3 c3 84 bc
       -0.029940467 -0.13434657 -0.15625654 -0.016206687
000110 69 43 26 bd f4 66 9b bd 03 fe 53 be 8a 51 97 3e
       -0.04059163 -0.07587996 -0.20702367 0.29554397
000120 28 ee 15 be 4b 78 b2 3d 85 26 a0 bd 0d 94 03 bd
       -0.1464163 0.0871435 -0.07819847 -0.032123614
000130 21 b3 9a 3e b4 8a 9f bd 1e 63 16 bc 03 f1 2c be
       0.3021479 -0.077901274 -0.009178905 -0.16888814
000140 01 e5 29 be 76 89 d6 bc 4c ff 92 be 1a 35 28 ba
       -0.16591264 -0.026188593 -0.287104 -0.0006416604
000150 a6 23 2a 3e 41 f8 17 be 00 ea 48 be 03 11 9a 3d
       0.16615161 -0.14840795 -0.19620514 0.07522776
000160 60 1c d1 bd 9e 34 16 3e 41 f9 3f 3e aa 57 01 3e
       -0.1021049 0.1466851 0.18747427 0.12631097
000170 5b e0 31 be 28 15 3d bc 2b cb 21 be 77 59 5c bd
       -0.17370741 -0.011540689 -0.15800159 -0.053796258
000180 13 a2 8b be 4e ad 34 3e f2 2f 9c 3d 03 f0 07 be
       -0.2727209 0.17644235 0.07626332 -0.13275151
000190 10 62 03 bd 30 93 c1 bd 66 11 c2 bd dc cd b0 be
       -0.03207594 -0.09451902 -0.09475975 -0.34532058
0001a0 28 23 68 bd cb 87 11 be 7b d7 c7 3d 96 3b f5 bc
       -0.056674153 -0.14211957 0.097578965 -0.02993564
0001b0 76 43 b0 3c e7 7e 25 bd 0f 08 0a be 5a 61 0a be
       0.021516543 -0.040404227 -0.13479637 -0.13513699
0001c0 f8 a7 53 be a3 27 19 be ac 2c 75 3e c7 e5 10 3e
       -0.20669544 -0.14956526 0.23942822 0.14150153
0001d0 72 b4 50 be 0e f3 cc bd cc 73 0e bc 4b ee 21 be
       -0.20381334 -0.100072965 -0.0086946 -0.15813558
0001e0 9b e2 44 be 85 6e d3 3d e4 f7 fe bd c3 c9 12 3e
       -0.19227068 0.10323814 -0.12449625 0.14334778
0001f0 c1 cf 1b bd 34 3c 0f 3e 10 4c 58 3d ff 17 c4 bd
       -0.038039926 0.1398781 0.052806914 -0.095748894
000200 4d 87 8d be fa cf e4 3d 45 38 42 ba 66 51 b3 3d
       -0.2764229 0.11172481 -0.00074088975 0.0875576
000210 21 7c 40 3e de d6 12 3e 8f 20 d5 3b e6 54 a4 3e
       0.18797351 0.14339778 0.0065041254 0.32096022
000220 5b 6a 92 3d ec 5c 75 bd 1d bc 8c bd 1e bc 14 be
       0.07149192 -0.05990307 -0.06871817 -0.14524886
000230 3d b9 08 be 7f 13 4f be 2d 4f 64 3e 54 af c1 bd
       -0.13351913 -0.20222281 0.22295828 -0.09457269
000240 90 1b 18 3d df 37 3c 3a 58 c3 2e 3e 3a 77 f1 3d
       0.03713566 0.00071799563 0.17066705 0.11790319
000250 50 7a 81 3c 25 fb 94 3d 76 0a 2f be c7 aa 17 3e
       0.015805393 0.072744645 -0.17093834 0.1481124
000260 8c cf ad bd ae a7 88 bd db a4 06 3e 63 77 3e be
       -0.08486852 -0.06672607 0.13148825 -0.1860023
000270 93 aa 11 3e 2a 02 28 3d 14 cd ea bd af d8 2e 3e
       0.14225225 0.04101769 -0.11464897 0.17074846
000280 ee 01 07 bd 3d c6 63 be ec 2a 16 3e ce 0f 3a ba
       -0.032960825 -0.2224359 0.14664811 -0.0007097692
000290 63 a6 ce 3d 8d 6d bc bd ae 49 94 bd dd 75 04 3e
       0.100903295 -0.09200583 -0.07240616 0.12935586
0002a0 14 fa 1d 3e 45 6f 0b 3d 64 4a 9c bd eb 77 41 bd
       0.15427428 0.03404166 -0.076313764 -0.047233503
0002b0 f8 d1 2b be 97 53 08 be 74 37 e2 3d c7 eb 82 3d
       -0.16779315 -0.13313137 0.11045733 0.06392627
0002c0 bc 81 2b be 56 dd 65 be 63 4c 8b bd 83 0d 21 be
       -0.16748708 -0.22447714 -0.06801679 -0.1572781
0002d0 9d ce fd 3d 47 3a a5 3c 20 73 3f bd 20 39 c0 bd
       0.12392924 0.02016939 -0.04674065 -0.09385896
0002e0 3b 9f 5b be 41 d2 1a 3e 52 bd c5 3c 9c 08 be 3d
       -0.2144746 0.15119268 0.024138127 0.09278986
0002f0 d6 42 00 be 48 0a 34 bd f4 e5 27 be ab c5 b1 bd
       -0.12525496 -0.043955117 -0.16396314 -0.0868028
000300 47 0b 7d bd 60 0c ca bd 7d bf 36 3d 46 6a 56 be
       -0.061778333 -0.098656416 0.04461621 -0.20938978
000310 78 d4 66 3e 82 1d d5 bd 6b 0c 2b 3e a0 a6 da 3d
       0.22541988 -0.10406019 0.16703956 0.106763124
000320 a0 ef 3c bc ce 8c ec 3d 40 a8 0e 3e 41 38 9e 3d
       -0.01153174 0.11550294 0.1393137 0.07725573
000330 ac cb 64 3e 67 06 12 be 18 01 41 3e 27 42 31 3e
       0.2234332 -0.14260255 0.18848073 0.17310391
000340 2b e5 f3 3d ca a2 84 bc c7 79 f6 3c 17 af 3b be
       0.11908945 -0.016190905 0.030087365 -0.1832851
000350 dd 32 f3 bc f7 d5 2c be 42 f6 b0 bc a9 86 c0 3c
       -0.02968734 -0.16878496 -0.0216018 0.023501711
000360 7e 21 ea 3d 04 45 a8 3d 82 ea 01 3e 85 45 8b bd
       0.114321694 0.08216289 0.12687114 -0.06800369
000370 fc 30 82 3e 6c df 07 3e 77 9c 74 be 07 a7 f9 bc
       0.25427997 0.13268822 -0.23887812 -0.030475153
000380 22 ff 8f 3e 4d 44 4a 3e 32 cb ff 3d 3d 15 14 3e
       0.28124338 0.19752617 0.12489928 0.14461227
000390 20 6d f1 bd d3 62 db 3c 6e 5d 51 3e e1 a5 1b be
       -0.11788392 0.026780521 0.20445797 -0.15199997
0003a0 64 92 be bd 83 bb 8e bd 90 f9 4a bd 8d 4e 31 3e
       -0.093052655 -0.06969359 -0.049554408 0.17315121
0003b0 66 76 d6 3d 9f c4 a9 bd 3a af 70 be a2 f1 a0 be
       0.104718015 -0.082894556 -0.23504344 -0.3143435
0003c0 af 1b b9 bd 88 d2 eb bd 5a 18 a0 bd 64 46 2f be
       -0.09038483 -0.11514765 -0.07817145 -0.17116696
0003d0 ea f5 29 3c 91 4a 7d be 8c 5b 31 be 43 7d 3b be
       0.010373572 -0.24735476 -0.17320079 -0.18309502
0003e0 03 97 c1 3d ec 3c 01 3d 58 19 9a be 81 4e 16 be
       0.09452631 0.03155224 -0.3009746 -0.14678384
0003f0 aa 9c 64 3d 72 24 76 3b 17 f8 1d 3c 36 d4 2b 3d
       0.05581347 0.0037558344 0.009641669 0.041950427

encoder.val_net.net.0.bias f4 [52]
000000 4c d8 2d 3d 6f ec 4e 3d 81 46 d1 3d ef 1c b5 3d
       0.042442605 0.05051845 0.10218526 0.08843409
000010 25 ef f7 3d 7d b4 37 3e 28 60 99 3d 52 77 42 3e
       0.1210616 0.17939945 0.074890435 0.1899083
000020 30 2d aa 3d 24 fd a2 3d a3 7e 58 3a 6a 04 38 be
       0.083094 0.07958439 0.00082586164 -0.17970434
000030 7d bf a9 be 10 ad ba be b2 90 3f 3d 49 d1 8b bc
       -0.33153906 -0.3646016 0.04676885 -0.017067568
000040 c1 56 16 3c af 0b 0f 3d 3b 1f 4f 3d 43 d9 c8 3d
       0.009175957 0.03492325 0.050566893 0.098070644
000050 65 be 92 3d 2e 16 2e 3e a6 a0 1a bc 49 87 f0 3d
       0.07165221 0.17000648 -0.009437716 0.117445536
000060 c8 05 97 3d c5 57 99 bc 1e 6b 9b be fd 4f 8c 3d
       0.073741496 -0.01871861 -0.3035516 0.06851194
000070 d9 2d 0e 3e 82 46 e3 bd 9e 0e 95 bd c5 50 a6 be
       0.13884677 -0.11097433 -0.07278179 -0.32483497
000080 c6 e1 13 3d d8 96 28 3e 8c 70 8d 3d 7b 97 59 3e
       0.036103986 0.16463792 0.06906232 0.21249191
000090 09 6a 95 3d 82 59 10 3d d3 66 b4 3d 9f 69 2e 3d
       0.07295615 0.03524161 0.08808675 0.042581197
0000a0 08 25 0b 3e 51 fe 2a 3d 59 24 d1 bb 89 70 1a 3e
       0.13588345 0.04174644 -0.006382507 0.15081991
0000b0 e2 ad 80 3a 04 ab 14 bd 1a 9a 94 be 9b fb 91 3c
       0.0009817446 -0.036295906 -0.2902382 0.01782017
0000c0 8a b1 0e 3d f0 08 ac bc 9a 92 ec bd a4 c9 95 be
       0.034837283 -0.021000355 -0.115513995 -0.29255402

encoder.val_net.net.1.weight f4 [52]
000000 ab 51 86 3f b8 64 8b 3f 4b 3d a5 3f 32 f2 92 3f
       1.0493673 1.0890112 1.290933 1.1480162
000010 a2 8a 81 3f d6 89 81 3f d0 7c 84 3f 03 10 83 3f
       1.0120432 1.0120189 1.035059 1.0239261
000020 98 6d 8c 3f 72 60 82 3f 41 17 8c 3f c8 6f 87 3f
       1.0970945 1.0185683 1.0944597 1.0580988
000030 19 0a 93 3f 12 f9 8a 3f 58 92 86 3f 95 1b 77 3f
       1.1487457 1.085726 1.051341 0.9652646
000040 2d e8 9c 3f 4c f6 99 3f 0d a9 86 3f b5 72 81 3f
       1.2258354 1.2028289 1.052034 1.0113131
000050 85 24 98 3f f0 72 84 3f d2 3d 77 3f 32 6d 7f 3f
       1.1886145 1.0347576 0.96578705 0.99775994
000060 aa 67 93 3f 14 b0 8e 3f bf d3 84 3f 0a 14 93 3f
       1.1516011 1.1147485 1.037712 1.149049
000070 74 30 7a 3f 4c b6 4a 3f c4 2b 9d 3f 39 38 8e 3f
       0.97730184 0.7918441 1.2278981 1.1110908
000080 a3 e3 88 3f b7 a0 80 3f ab 82 81 3f 24 36 83 3f
       1.0694469 1.0049046 1.0118002 1.0250897
000090 25 f0 87 3f da 9c 86 3f 7b b9 8b 3f 47 fd 78 3f
       1.0620161 1.0516617 1.0915979 0.9726147
0000a0 28 40 79 3f 91 6d 88 3f 4c ed 98 3f 93 e7 83 3f
       0.9736352 1.0658437 1.1947417 1.0305046
0000b0 ad 11 a1 3f 4d 90 87 3f 0b 23 8c 3f a1 da 74 3f
       1.2583519 1.0590912 1.0948194 0.956461
0000c0 b1 d5 84 3f 7a cb 96 3f cc 56 b1 3f 67 7b 89 3f
       1.0377713 1.1780846 1.3854613 1.0740784

encoder.val_net.net.1.bias f4 [52]
000000 34 c8 fc 3c 35 b3 3a 3d dd ac 49 3d 0c 2e 9a 3c
       0.030857183 0.04558106 0.04923712 0.018820785
000010 e2 23 0e bd c6 b3 fe 3b fa 3f 1b bc 29 3b 47 3b
       -0.03470219 0.0077728955 -0.009475702 0.0030400252
000020 fe 68 0c 3d f7 5c b4 bb f9 b5 aa 3c a1 1c 41 bd
       0.034279816 -0.0055042463 0.020838724 -0.047146443
000030 02 cd d0 bd d8 b6 ca bd 6e f3 cb 3b 4e 95 2b 3e
       -0.10195352 -0.09898156 0.0062240874 0.16756174
000040 04 54 3f 3d d4 e8 66 3d 6f 05 08 bc a7 f6 ef 37
       0.046710983 0.056374386 -0.008302077 2.8605877e-05
000050 6e 66 e1 3c 86 ee 7f 3c 7a 36 c6 3d f2 e4 f7 bc
       0.027514663 0.015620833 0.09678359 -0.030260537
000060 0f 84 35 ba 85 f9 7f 3d 4c ff 41 bd 45 32 58 3d
       -0.00069242803 0.06249382 -0.04736261 0.052782316
000070 01 87 9e bc be 00 ba 3d ea 5f d2 3d 85 98 bf bd
       -0.019351484 0.09082173 0.102722004 -0.09355263
000080 f1 44 d0 3c 75 2a 0f bc 1c a8 a1 38 65 ec 3c 3c
       0.025423499 -0.00873815 7.708391e-05 0.01153097
000090 48 39 80 bb aa 4e d3 bc 21 27 bc 38 05 7c 0f bd
       -0.0039130785 -0.025794346 8.971827e-05 -0.035030384
0000a0 5f 02 4b bd a1 a4 33 3d 04 42 89 ba 0c 58 ec bb
       -0.049562808 0.043858174 -0.0010471945 -0.0072126444
0000b0 3a 37 6a 3d 0d 42 76 3d c4 69 bc bd da 3c 93 3d
       0.057181574 0.060121585 -0.09199861 0.07189341
0000c0 fa 97 bb 3c 09 fd af 3d ff 01 b8 3d 2b 5d b2 bd
       0.022899617 0.085931845 0.08984756 -0.08709177

encoder.val_net.net.3.weight f4 [84, 52]
000000 5d c4 a4 3d c2 2f 32 be 0f c3 0d bc 8a 96 ff 3d
       0.08045266 -0.1740103 -0.008652463 0.12479885
000010 11 3e e4 3c 3b 05 25 3d b5 5d e7 bd 3e b5 69 3d
       0.027861627 0.04028819 -0.1129717 0.05705761
000020 d8 e9 df 3d 91 fb 49 3d ac bf 3c 3d 8b 9c 07 3e
       0.10933274 0.049312178 0.04608123 0.1324331
000030 d5 d7 c9 3c dc b1 cc bd 20 1b 3a be 49 2c f5 3c
       0.02463905 -0.099948615 -0.1817441 0.029928343
000040 a4 f5 43 be c8 7b 47 3d 20 9c 3d be 80 a9 e2 bc
       -0.19136673 0.04870203 -0.18516588 -0.027668715
000050 81 5c d1 3c 4b cb 3c be 62 cc bb bd 9f 8a f3 3d
       0.025556805 -0.18436925 -0.09169842 0.11891674
000060 73 31 f1 bc 3c d7 4a be 96 ca b9 bd 5b 6e e9 3d
       -0.029442525 -0.19808668 -0.09071843 0.11398002
000070 f1 9f c9 bd a9 cd 82 3d 6c df 5f 3d 19 bc 2f 3d
       -0.098449595 0.06386883 0.05465643 0.042903993
000080 36 fd 65 bc 43 4a cc 3d c5 b0 45 3e df b2 39 bd
       -0.014037421 0.09975102 0.19305713 -0.0453366
000090 cf 3d ee bd 07 20 58 bc 4e bf 00 bc 2f 09 bc bc
       -0.11632883 -0.01319123 -0.007858111 -0.022953598
0000a0 45 5e 50 3d b4 83 c6 bd 7a 5d 6a 3e 8c 6c 82 bd
       0.050871152 -0.09693089 0.22887221 -0.0636836
0000b0 f1 eb 28 bb 60 80 18 3b ee 5b ad 3d db 83 57 3d
       -0.0025775398 0.0023269877 0.084648 0.05261598
0000c0 0b fb 3b 3e b7 48 92 3e 75 2c 65 3d 88 01 b1 3d
       0.18357484 0.28571102 0.0559506 0.0864287
0000d0 75 2e 84 be 8d 97 0f bb d6 91 87 bb eb c5 f5 bc
       -0.25816694 -0.00219104 -0.004137258 -0.030001601
0000e0 9f 87 09 be 65 8b da bc 96 7b 29 3b 5a 57 35 bd
       -0.13430642 -0.026677797 0.0025861016 -0.044272758
0000f0 9e 89 a7 3c 7d 64 44 3d b5 ca 4a 3e aa 56 dc 3d
       0.020451363 0.047947396 0.19803889 0.10758717
000100 9c 9c 99 bd fc ad 61 bc 66 8d cf bd a9 8b a0 be
       -0.07500574 -0.013774391 -0.101343915 -0.31356552
000110 33 34 40 3d 04 5e 8e be 84 f1 81 bd e4 b6 13 bd
       0.04692478 -0.27806103 -0.063448936 -0.03606309
000120 31 fc e6 be 85 09 17 3e 7d 2d 58 3e a8 13 60 3e
       -0.45114282 0.14749725 0.21111102 0.21882498
000130 bc dc 57 be 8a d2 d0 3d c0 74 29 3d 81 2b 5c be
       -0.21080297 0.10196407 0.041371107 -0.2150097
000140 c9 65 e0 3d 88 95 7b bd de dd a1 be 61 85 ea bd
       0.10956914 -0.0614219 -0.31614584 -0.11451221
000150 95 cd 5a 3e e2 31 77 3d ec 13 b3 bc 57 2c 22 3b
       0.21367486 0.060350306 -0.021860085 0.0024745667
000160 e5 5c 92 3d 27 03 e2 3d a2 83 b9 3d 68 01 ae bd
       0.071466245 0.110357575 0.0905831 -0.08496362
000170 5e be 31 3e 56 7f 7e be e4 8e 66 3d 12 d0 15 be
       0.17357776 -0.24853262 0.056288615 -0.14630154
000180 78 2d ba 3c a3 da 99 ba f7 8b ba bd ba a7 01 3d
       0.02272676 -0.0011738132 -0.091087274 0.031654097
000190 15 0b 18 be b5 56 7d be c4 3f 0f bd 6a 21 4b bd
       -0.14847977 -0.24740107 -0.03497292 -0.049592413
0001a0 1d 76 a3 3e 85 5a 12 3e 2c 9e ab 3c e1 ce cc 3d
       0.3192605 0.14292343 0.020949446 0.100003965
0001b0 75 c7 95 3d 85 b8 1e be 15 0d f7 bd 86 a8 3f bd
       0.07313434 -0.15500076 -0.12063042 -0.046791576
0001c0 8d a2 88 be e6 2b 01 bc a1 74 75 bd fd 55 85 3b
       -0.26686516 -0.007884001 -0.05992568 0.0040690885
0001d0 5d 5a cc 3d cb bc 18 bd 15 f7 82 bd ba 37 fe 3b
       0.09978173 -0.037289422 -0.063947834 0.007758108
0001e0 dc b1 4f 3e c0 e7 b2 3e 28 2b 68 3e 1c 1b 3f bd
       0.20282692 0.34942436 0.22672713 -0.046656713
0001f0 88 48 29 3e 9e 73 ca bd d5 9d 92 be 73 fa 2b be
       0.16531575 -0.098853335 -0.2863604 -0.16794758
000200 5b 02 8a 3d d6 ad b9 bd e6 9a 9d bc 5f d1 2e 3d
       0.067387305 -0.0906636 -0.0192389 0.04268014
000210 58 3f 2a be 4c 60 36 bd 79 19 61 3e 15 a2 1b 3e
       -0.16625726 -0.04452543 0.21982373 0.15198548
000220 19 49 41 be 08 5d d4 bd 06 fd eb bd 06 13 6d 3d
       -0.18875541 -0.10369307 -0.1152287 0.05787947
000230 43 bd 04 bd a4 e4 d6 bd c7 69 6b bd 49 3c c2 3d
       -0.032407057 -0.104928285 -0.057473924 0.09484155
000240 d0 79 15 3c 19 41 81 bd de 11 e2 3d c1 3f 20 3d
       0.009123281 -0.063112445 0.11038564 0.0391233
000250 05 6a e8 3b 04 a1 2d be 8e 91 2a 3e 71 40 95 3d
       0.0070927166 -0.16955954 0.16657087 0.07287682
000260 f2 4c 46 bd 7c dc 0e 3e 15 8f 7a 3c 9e f0 c0 bd
       -0.048413225 0.13951296 0.0152929025 -0.09420894
000270 46 3f c8 bd 7a 55 cc 3b 44 76 07 3e e9 16 af bd
       -0.097776935 0.0062357755 0.13228709 -0.08549292
000280 26 c8 aa bd dd 34 ec bc 55 e7 d2 3c 8b 92 e7 bc
       -0.083389565 -0.0288338 0.025745073 -0.02826812
000290 f0 a8 04 3d b6 44 9e bd b2 0b 68 be 6d 17 62 bd
       0.032387674 -0.07727949 -0.22660711 -0.05519812
0002a0 1b dc 35 3d 6a 9f f4 3d 55 fc f2 3d 68 d8 ce 3d
       0.044399362 0.11944468 0.11864535 0.1009987
0002b0 8f 24 7b bd 0b 64 5b be 27 f2 2a 3d 51 0c 24 bd
       -0.061314162 -0.21424882 0.04173484 -0.04005081
0002c0 4e 29 d9 3d e6 b3 3a 3d 3a da 0f 3e 51 56 6b 3d
       0.10603581 0.04558172 0.1404809 0.057455365
0002d0 3a e4 32 3e 38 df f3 3c c5 b5 d8 3c e3 fa d5 3d
       0.17469874 0.029769525 0.026453862 0.104482435
0002e0 77 f2 00 3e ae e0 be 3d 9c 4d 23 3e 22 66 80 bb
       0.12592493 0.09320198 0.15947574 -0.003918425
0002f0 70 bf cc bd 38 ea 98 3d 73 57 63 bd 4e 08 b1 3d
       -0.09997451 0.07466549 -0.05550332 0.08644162
000300 05 a7 27 3c 4f c8 64 bb fb 8e bf 3d 4e 3c 9c bd
       0.010232692 -0.0034909432 0.09353443 -0.0762869
000310 15 a7 e5 3d af d7 fb bb 0a c5 bb 3d dc 1f 6a bd
       0.11213509 -0.0076856236 0.091684416 -0.05715929
000320 6f 3a 83 3d c7 8b 96 3c 09 e7 01 3e 4e 06 7a bd
       0.0640763 0.018377198 0.12685789 -0.06104117
000330 99 8c 8e bd a1 ca 05 be 2a c7 60 bd cd f3 e5 bd
       -0.069604106 -0.13065578 -0.054877438 -0.11228142
000340 70 4b c9 3d fb d9 4d be fd 8e 00 bf de fc 24 3e
       0.09828842 -0.20102684 -0.5021818 0.16112086
000350 89 8d 42 3e cd 67 d1 3d 87 98 81 3b 3c 5a 29 bc
       0.18999304 0.102248766 0.0039549503 -0.010336455
000360 08 e7 c6 3d c9 50 82 bd a0 2d 16 bb 5f 16 8f 3d
       0.097120345 -0.06363065 -0.0022915378 0.06986689
000370 e0 b5 5a 3c 94 4d 90 3d b7 dc 69 bd 14 c2 79 3c
       0.013349026 0.07046047 -0.057095256 0.015244026
000380 f3 8e 02 bc 0d 54 d1 bd 9d 3c 15 be 12 26 d7 3d
       -0.007968652 -0.102211095 -0.14573903 0.10505308
000390 74 59 34 3e af ee 3b bc 4c 90 00 bd 48 f8 44 3c
       0.17612249 -0.011470481 -0.031387612 0.0120220855
0003a0 e2 5b 85 3a a6 b5 46 be 89 6f 82 3d 06 e8 67 be
       0.0010174478 -0.19405231 0.0636893 -0.22647104
0003b0 75 6a 63 bd 01 02 e1 bd 8f 62 c6 3e d0 da 19 bc
       -0.055521447 -0.1098671 0.3874707 -0.009390548
0003c0 ff 04 80 be 98 99 32 be 4b 78 6c bd a5 bb 2b bd
       -0.25003812 -0.17441404 -0.057731908 -0.041927
0003d0 5c ca 92 bd 4a af f5 bd e1 e2 1b 3e 32 e6 4d bc
       -0.07167503 -0.11996324 0.15223266 -0.01256709
0003e0 c7 f5 08 3d 29 1f 03 3e df c9 b8 bd 6f c0 27 3d
       0.033437517 0.12804855 -0.09022879 0.040955003
0003f0 77 23 45 3d 35 2f e0 3e ad 4e a6 bc 2b 7e d3 bb
       0.048129525 0.43786016 -0.020301187 -0.0064542494

encoder.val_net.net.3.bias f4 [84]
000000 f8 24 70 3d ed f1 49 3d 78 5d c9 3d b4 bd 96 3b
       0.058629006 0.049302984 0.09832281 0.004600251
000010 a6 04 b1 3d d8 93 12 3e 75 ec 31 3d fd 46 db 3d
       0.08643465 0.1431421 0.043438394 0.10706899
000020 17 41 00 ba b4 a0 ab bd 8a fe 39 bd a7 a8 69 3d
       -0.00048925116 -0.08380261 -0.045408763 0.057045605
000030 a9 e9 92 3c f8 8c a6 bd c4 cc 0a 3e 19 d0 e0 3d
       0.017933683 -0.081323564 0.13554674 0.109771915
000040 78 64 df 3d 0e b0 a9 ba fb fd b9 3d 56 68 c1 3d
       0.10907835 -0.0012946145 0.09081646 0.094437286
000050 f3 09 17 bd e7 a6 9f 3d ef 99 b2 bd 0c 37 c5 3d
       -0.036874723 0.07795506 -0.08720767 0.0962964
000060 a7 6d a6 bd 42 5c 71 3d ea da 61 bc ba b1 54 3c
       -0.08126383 0.058925875 -0.013785103 0.012981826
000070 2e b9 f1 bd c3 30 7f 3d f2 ad 99 bb e3 1e b4 bc
       -0.11802898 0.062302362 -0.0046899254 -0.021987384
000080 fa 2d ff bc 73 57 c0 bd e3 5b 39 3d f8 cc 06 bd
       -0.031149853 -0.093916796 0.045253646 -0.032910317
000090 71 be b7 bd 9b 1d 94 bc 70 cf 09 3e 7b 64 ad bd
       -0.08971871 -0.018080523 0.13458037 -0.08466431
0000a0 1b c7 46 3d 1d a4 fc 3b 6f 45 02 3e 71 ea e0 bd
       0.048529726 0.0077099935 0.127218 -0.10982216
0000b0 3d 45 11 be d7 24 ef 3d c5 43 a6 3d 17 7f 98 3d
       -0.14186569 0.116769485 0.08118395 0.074461155
0000c0 ff b3 14 bd 20 b5 c5 3d 8a f3 5c bc ae 3e b5 bd
       -0.03630447 0.096536875 -0.013485799 -0.08849846
0000d0 7d 93 00 3e 72 d0 34 bd c6 22 ad 3d 50 27 15 be
       0.12556262 -0.0441441 0.08453898 -0.14565778
0000e0 73 6b eb 3d 02 6d 09 3e 6c 16 a3 b9 98 a9 62 39
       0.11495104 0.1342049 -0.00031106488 0.00021616218
0000f0 42 b9 c9 3d 6b a3 b8 3d 12 d6 e2 3d 95 7d 8d 3d
       0.09849788 0.090155445 0.11075987 0.069087185
000100 7d 72 34 3d 89 24 e6 bd 57 15 9c bd 38 22 aa bd
       0.044054497 -0.11237437 -0.07621258 -0.08307308
000110 9b ac 78 bd 65 12 5e 3d 67 df 99 bd d3 65 dc 3b
       -0.060711484 0.05421676 -0.07513314 0.0067260056
000120 d3 62 c1 bd 24 ad 01 bd 2e ca c8 3d be 12 6b 3d
       -0.09442677 -0.03165926 0.09804188 0.05739092
000130 aa e5 c3 bd c8 a2 9a 3d 2a 8c f9 37 99 cc e5 3c
       -0.09565289 0.07550579 2.9748382e-05 0.028051661
000140 d9 43 a1 3d 0d 56 df bc 95 bf a8 bd 3f c1 31 bd
       0.07874269 -0.027262712 -0.082396664 -0.043397184

encoder.rank.weight f4 [1, 21]
000000 17 aa d4 bb 44 0d 18 be ac 2b 1c be a6 91 38 3e
       -0.006490003 -0.1484881 -0.15251034 0.1802431
000010 f6 c3 05 be 36 55 02 3e ec 37 ea bd 23 55 1b 3d
       -0.13063034 0.12727818 -0.114364475 0.03792299
000020 2e 76 4c 3d b4 c0 ef bd 8a 17 87 bd e3 7a 1c bd
       0.049917392 -0.11706677 -0.065962866 -0.03820313
000030 d0 ac 88 3d c8 d3 41 3e bd e4 5d bb 18 d3 55 be
       0.06673586 0.18928444 -0.0033858262 -0.20881307
000040 0f b3 33 bc 04 ff 4d be 37 8d 1a be 52 7c 31 3e
       -0.010967984 -0.20116812 -0.15092932 0.1733258
000050 98 b0 f8 3d
       0.121430576

encoder.cardinality.weight f4 [84, 1]
000000 1e 2c e1 3e b9 fc 24 bf 0a 5d 74 bf 63 d1 90 be
       0.4397897 -0.64448124 -0.95454466 -0.2828475
000010 0b 43 61 bf a2 34 06 3f 28 94 59 bf 08 62 19 bf
       -0.87992924 0.5242406 -0.84991693 -0.5991521
000020 b3 b5 20 3f 6b 5e c8 be c3 f5 02 be 03 37 32 bf
       0.6277725 -0.39134535 -0.12789063 -0.6961519
000030 c3 5a a0 be 38 03 59 bf dd 50 3d bf d6 bd fc 3e
       -0.31319246 -0.84770536 -0.7395151 0.49363583
000040 14 b1 4e 3d 4f be 16 bd a4 b7 62 be 89 ee 16 3f
       0.050461844 -0.036802586 -0.22140366 0.58957726
000050 ce 28 e7 be 9b 86 fe be 43 7e 50 bf ec 1d c8 be
       -0.4514832 -0.4971207 -0.8144266 -0.3908533
000060 00 77 84 be 77 d1 0f 3f 2a 34 e8 3e 1d 63 a3 3e
       -0.2587204 0.56178993 0.45352298 0.31911555
000070 42 ec d7 3e c5 16 c2 3e 2b 59 d7 3e 89 ad 1d bf
       0.42172438 0.37907997 0.42060217 -0.6159292
000080 31 01 08 bf a2 d5 95 3e 3f 7d 6d 3e 57 fe 07 3e
       -0.5312682 0.2926455 0.23192309 0.13280617
000090 39 38 28 bf df 32 61 be 2f 06 1c bf 00 95 7e be
       -0.6571079 -0.21992062 -0.60946935 -0.24861526
0000a0 d9 be 4f bd 1d 38 10 bf 09 6e 8d bd 75 44 4d 3e
       -0.050719116 -0.5633562 -0.06905753 0.20045646
0000b0 b3 54 5f 3f 84 b0 41 be 84 d1 8e 3e a0 1b 4c 3f
       0.87238616 -0.18914992 0.27894223 0.7972965
0000c0 9c 0e e6 bc cc 06 11 3f bc f9 bd bc 9b 1d c2 3e
       -0.028083138 0.56650996 -0.023190372 0.37913212
0000d0 4b 9f 2a bf 99 29 55 bf 04 db 51 bf f2 ef e6 be
       -0.6664931 -0.832666 -0.81974816 -0.4510494
0000e0 e5 0a 2a bf aa 94 0b 3f 95 51 08 bf da 18 13 bf
       -0.66422874 0.5452372 -0.53249484 -0.57459795
0000f0 b0 03 a3 3e ac 53 1d 3e 7d 42 71 3f c5 23 04 bf
       0.3183875 0.1536395 0.9424208 -0.5161708
000100 5f 88 e7 3e ca e2 28 3f 68 b8 49 bc 44 33 32 3f
       0.4522123 0.6597105 -0.012312032 0.69609475
000110 4b 6c 4f be 87 68 8a 3e 69 66 e2 3d ac c0 4d 3f
       -0.20256154 0.27032873 0.110546894 0.8037212
000120 c0 5d 10 bf b6 70 04 3f 0c ca 30 3f 95 97 79 3d
       -0.5639305 0.51734483 0.690583 0.060935576
000130 7b cf 52 bf 54 4a 29 3f 54 ae a6 be 95 97 ac bd
       -0.8234784 0.6612904 -0.32554877 -0.084273495
000140 81 81 2c 3f 02 ac 55 bf 6a 95 57 bf 70 f0 15 bf
       0.6738511 -0.8346559 -0.8421236 -0.58570004

encoder.cardinality.bias f4 [84]
000000 51 f9 b4 bd 27 66 70 3f 27 91 2a 3f 10 3c 32 3f
       -0.08836616 0.9390587 0.66627735 0.696229
000010 e1 76 0d 3f 59 2d 6d 3f 64 10 29 3f 8c 55 f6 be
       0.5525952 0.9264732 0.66040635 -0.48112142
000020 65 89 51 bf bf 58 2b bf cf 3a 28 3e a9 67 76 3f
       -0.8185027 -0.6693229 0.16428684 0.9625192
000030 54 b8 70 3f 1f af f9 3c c6 38 30 3d 4c 9b 43 bf
       0.9403126 0.030479012 0.043022893 -0.7640884
000040 ee d4 63 bf bd d7 b0 3d 63 81 45 bf ce 79 0f bf
       -0.8899678 0.08634899 -0.77150553 -0.56045234
000050 e8 9d 1c 3f 5c dd 31 3e 41 95 e1 3e 11 f1 ed be
       0.61178446 0.17369598 0.44059184 -0.46472982
000060 26 b4 ff 3e 58 bc 82 bc d5 56 4b 3f 7c de ea bd
       0.4994213 -0.01595895 0.7942937 -0.11468217
000070 88 c7 1e 3f 14 6a 0f bf f7 e4 60 be 16 6d 57 3f
       0.6202321 -0.5602124 -0.21962343 0.84150827
000080 1c 74 34 3f 15 72 14 3f fa 1e e3 3e 47 e9 23 be
       0.7048967 0.57986575 0.4435957 -0.16006957
000090 a0 1c 45 3f 87 3c aa be fe 0b 0e 3f 9f 0c 9a be
       0.76996803 -0.33249304 0.5548705 -0.30087754
0000a0 cc bc 26 3e 22 17 89 3e ad 13 66 3f 4c 07 5d 3f
       0.16282958 0.2677546 0.8987377 0.8633926
0000b0 7f 1e 2f 3f 50 78 8b 3e fe 30 2a 3c ea 9d 0f 3d
       0.6840591 0.2724023 0.010387657 0.035062708
0000c0 f0 bd 96 be d3 b1 03 bf 22 f7 63 3d 80 97 d8 3e
       -0.29441786 -0.51443213 0.055655606 0.42303085
0000d0 bd 38 19 bf a3 df 7c 3f 3f 1f 1a 3f 77 5a 1c 3e
       -0.598522 0.9877874 0.6020393 0.15268885
0000e0 c3 4c 6f 3f 1f c6 8c be 9d 50 0d bf 89 a8 81 3f
       0.93476504 -0.27494904 -0.5520113 1.0129558
0000f0 61 ee 72 3f 0d bf 69 be 6a b1 12 bf 3d af 82 bd
       0.9489499 -0.22826786 -0.5730196 -0.0638108
000100 07 94 fb be 94 72 d3 3e ec 7e ce bd 36 58 50 be
       -0.49136373 0.41298354 -0.10082802 -0.2034615
000110 5d be 08 bf 8e af e4 bd f1 78 3f bf b6 0a 1c 3f
       -0.5341547 -0.11166297 -0.74793917 0.60953844
000120 14 ed e3 be af aa 9c be 7b c6 41 be d9 39 23 bd
       -0.44516814 -0.3059897 -0.1892337 -0.03985009
000130 97 06 3b 3e 22 98 0b 3e b3 76 62 bf d0 9b 82 be
       0.18264233 0.13632253 -0.8846237 -0.255095
000140 50 6e 32 3f 2b 17 5d 3f 99 d0 71 3f 8a c0 fe 3e
       0.69699574 0.86363477 0.9445892 0.4975627
