weights/sae_policy_give_way.pt (torch, 202671 bytes, 33 tensors)

weight f4 [50, 64]
0	0xba603e33	-0.000855419
1	0x3d947ad6	0.072499916
2	0xbdd2b316	-0.10288064
3	0xbdbc6680	-0.09199238
4	0xbd4532f4	-0.048144296
5	0x3d094bec	0.03351967
6	0xbb224f40	-0.0024766475
7	0x3dcaface	0.099111184
8	0xbc35bf70	-0.011093006
9	0x3d077b4c	0.03307657
10	0xbd1abbac	-0.037776634
11	0xbcc94870	-0.024570674
12	0xbdf491b8	-0.11941856
13	0xbda98b52	-0.08278526
14	0xbd530ee8	-0.051527888
15	0x3b97bb00	0.0046304464
16	0x3d4a6960	0.0494169
17	0x3d999b18	0.07500285
18	0xbdad8d8c	-0.084742635
19	0xbd5ef4fc	-0.054432854
20	0x3d39f798	0.04540214
21	0x3dd4944e	0.103798494
22	0xbcd2bd48	-0.025725022
23	0x3dbf915c	0.09353897
24	0xbca50d40	-0.02014792
25	0x3c58b510	0.013226762
26	0x3de7cd4a	0.11318453
27	0xbded7bce	-0.115958795
28	0xbda12966	-0.07869224
29	0xbd019ee0	-0.031645656
30	0xbd4793dc	-0.048724994
31	0x3ddd2f28	0.1080001
32	0xbda5ef1a	-0.08102246
33	0xbd6bb0c0	-0.05754161
34	0xbdb2da1a	-0.08733006
35	0xbdefc276	-0.11707012
36	0xbd957004	-0.07296756
37	0x3ddc0e9e	0.107449755
38	0x3d6476bc	0.055777296
39	0x3d782700	0.06058407
40	0x3bd76a40	0.0065739453
41	0xbd833f3a	-0.06408544
42	0x3cad3ec0	0.021148086
43	0xbdef069e	-0.11671184
44	0xbdb8fa1a	-0.09032078
45	0xbd83f9c6	-0.06444125
46	0x3da18526	0.07886724
47	0x3d961926	0.073290154
48	0xbd6311c8	-0.05543688
49	0xbb93cb20	-0.0045102984
50	0x3da3ba40	0.07994509
51	0x3dfe7f82	0.12426664
52	0x3d4b3424	0.049610272
53	0x3c8a55c8	0.016886607
54	0x3daba4fe	0.08381079
55	0xbd96bbc0	-0.07360029
56	0x3cbed0f8	0.023293003
57	0xbdc67a6c	-0.09691319
58	0xbdb16e18	-0.08663577
59	0xbd843ed2	-0.064572945
60	0x3d67aa8c	0.05655913
61	0x3d4de7f8	0.05027005
62	0xbd97a46a	-0.07404406
63	0x3d1aadc8	0.037763387
64	0x3d977659	0.0739562
65	0xbc35f3fd	-0.011105535
66	0x3b9c6440	0.004772693
67	0x3ced4400	0.028963089
68	0x3d9ed100	0.07754707
69	0x3df5cf48	0.120024264
70	0xbdc54796	-0.096327946
71	0xbd3ba1ec	-0.045808718
72	0x3d493898	0.049126238
73	0x3dd41bd0	0.10356867
74	0x3ddec5e8	0.10877591
75	0x3de1e222	0.110294595
76	0x3ccbca78	0.024876818
77	0xbdde9cf8	-0.10869783
78	0x3c3c6690	0.011499062
79	0xbda027ac	-0.07820067
80	0xbdee948c	-0.11649427
81	0x3de3743e	0.11106156
82	0x3dc2a6f0	0.09504497
83	0xbdff5dfe	-0.124690995
84	0x3cbfaa08	0.023396507
85	0xbcac80c8	-0.021057501
86	0xbca882b8	-0.020570144
87	0xbd6a5f1c	-0.05721961
88	0x3d44e48c	0.04806952
89	0xbd97a134	-0.07403794
90	0x3d3bb1dc	0.045823917
91	0x3d817616	0.06321351
92	0x3db7435c	0.08948395
93	0x3d3f7148	0.046738893
94	0xbdfd5f4a	-0.123716906
95	0xbda61100	-0.08108711
96	0x3d7fa638	0.062414378
97	0x3cd65318	0.026162669
98	0xbdc7b396	-0.0975105
99	0xbd9368e8	-0.07197744
100	0x3df0d4f2	0.11759366
101	0x3dac7f54	0.084227234
102	0xbd5f3eb0	-0.054503143
103	0xbd00dcd4	-0.031460598
104	0xbdf3dd78	-0.11907476
105	0xbb133e80	-0.0022467673
106	0xbdc0c878	-0.094132364
107	0xbdc577a2	-0.09641959
108	0xbbe1b020	-0.006887451
109	0x3c99bfa0	0.018768132
110	0xbd51adf4	-0.051191285
111	0x3d97e798	0.0741722
112	0xbd9bc938	-0.07606739
113	0x3de84968	0.11342126
114	0x3daf6fd0	0.085662484
115	0xbdd7e164	-0.10541037
116	0xbcfedb88	-0.03111054
117	0x3bb8d280	0.005640328
118	0x3c956718	0.018237635
119	0x3cf2ddd0	0.029646784
120	0x3d48ec5c	0.049053535
121	0x3bf559e0	0.0074875206
122	0xbd79d1cc	-0.060991094
123	0x3d7245d4	0.059148625
124	0xbdf59156	-0.11990611
125	0xbd97bba0	-0.074088335
126	0xbd002b3c	-0.03129123
127	0xbd7966ec	-0.06088917
128	0xbd043d25	-0.032284874
129	0xbde01293	-0.10941043
130	0xbcd9d200	-0.026589394
131	0x3cdae2f8	0.026719555
132	0xbda6c676	-0.08143322
133	0xbbd23440	-0.00641492
134	0x3db74200	0.089481354
135	0xbc5288f0	-0.012850031
136	0x3b63ac80	0.003474027
137	0xbc30adc0	-0.010783613
138	0x3ccf3d10	0.025297672
139	0x3da2c660	0.07947993
140	0x3df27eba	0.118405774
141	0x3da29306	0.07938199
142	0x3df30cc4	0.11867669
143	0xbc141d60	-0.009040207
144	0xbde5f866	-0.11229019
145	0xbd72ba40	-0.059259653
146	0x3dae4fce	0.08511315
147	0xba546b00	-0.00081031024
148	0xbd7e7cdc	-0.062130794
149	0xbdc42d02	-0.09578897
150	0xbdef9400	-0.11698151
151	0xbdd810ec	-0.105501026
152	0xbccfb470	-0.025354594
153	0x3d8c6456	0.06855075
154	0x3d8a6774	0.06758013
155	0xbdf6e502	-0.120553985
156	0x3d9fb02e	0.077972755
157	0xbdc8528a	-0.09781368
158	0xbcd87bf0	-0.026426286
159	0xbd4f9a1c	-0.05068408
160	0xbcc53cf0	-0.024076909
161	0xbcc90e10	-0.024542838
162	0xbde5b8ba	-0.112168744
163	0xbddd0a44	-0.10792974
164	0xbca03c28	-0.019559935
165	0x3ad3e180	0.0016165227
166	0xbd6896b8	-0.05678436
167	0x3d40deb8	0.0470874
168	0xbde66a3a	-0.1125073
169	0xbc0a36c0	-0.008435905
170	0x3de121a2	0.10992743
171	0xbd50d738	-0.0509865
172	0x3de72b36	0.11287539
173	0x3d396c38	0.04526922
174	0xbde707ae	-0.11280762
175	0x3da1f874	0.07908717
176	0xbc6c53f0	-0.014424309
177	0xbd648f70	-0.055800855
178	0x3dccb614	0.09995666
179	0xbdcedf54	-0.1010119
180	0x3c5bc2b0	0.013413116
181	0xbcd664c0	-0.026171088
182	0x3db6d016	0.08926408
183	0x3d0eec08	0.034893066
184	0x3d7604cc	0.06006317
185	0x3d34d140	0.04414487
186	0xbcf63f00	-0.030059338
187	0xbcd75a50	-0.026288182
188	0xbdd2f700	-0.10301018
189	0x3d8ab64c	0.067730516
190	0x3dcb4226	0.09924726
191	0x3daf295c	0.085528105
192	0xbde38c86	-0.11110787
193	0x3bfaff5a	0.007659835
194	0xbdb47690	-0.088116765
195	0xbd8cec88	-0.06881052
196	0xbd952c30	-0.07283819
197	0x3d2ef934	0.042718127
198	0xbd988dc4	-0.07448915
199	0xbb32ba00	-0.002727151
200	0x3bac4fa0	0.0052585155
201	0x3da50604	0.08057788
202	0xbdc183fa	-0.09449001
203	0xbdafbf44	-0.08581403
204	0xbd94a63c	-0.07258269
205	0x3db32ed6	0.087491676
206	0xbd380bcc	-0.044933125
207	0x3dd7eee0	0.10543609
208	0x3d3924a0	0.045200944
209	0x3c81aa40	0.015828252
210	0xba73ed00	-0.000930503
211	0xbcca6d08	-0.024710193
212	0x3c807a40	0.015683293
213	0xbce9d330	-0.028543085
214	0xba663e00	-0.00087830424
215	0x3c82a7c0	0.01594913
216	0xbdc83e98	-0.09777564
217	0xbd862d7a	-0.06551643
218	0x3dceb7d8	0.10093659
219	0xbdcfc186	-0.101443335
220	0xbc130f20	-0.008975774
221	0x3dfd3ec0	0.12365484
222	0x3d38f410	0.04515463
223	0x3b67f0c0	0.00353913
224	0xbdddda26	-0.10832624
225	0x3d7da22c	0.061922237
226	0xbdb65808	-0.089035094
227	0xbd1156a8	-0.035483032
228	0xbd2bc8cc	-0.04193954
229	0xbc97a438	-0.018510923
230	0x3ab33680	0.0013672858
231	0x3dd32696	0.10310094
232	0x3c7fab80	0.015604854
233	0x3de54c20	0.1119616
234	0x3d9c9930	0.07646406
235	0xbda1d8c6	-0.079026744
236	0x3d65a254	0.05606301
237	0xbdb4f724	-0.08836201
238	0xbd58ff9c	-0.052978143
239	0x3d169740	0.036765337
240	0x3d290ef0	0.04127401
241	0x3dc00ef2	0.093778506
242	0xbd24d228	-0.040239483
243	0x3951d400	0.0002001077
244	0x3d83cb7a	0.064352944
245	0xbdf7935a	-0.12088652
246	0x3db91542	0.09037258
247	0xbdd3b130	-0.1033653
248	0x3ae1d000	0.0017228127
249	0xbcae18e0	-0.021252096
250	0xbd86d40a	-0.06583412
251	0x3c8757d8	0.01652138
252	0x3dd3b0f2	0.10336484
253	0xbd15aae8	-0.036539942
254	0xbd97fc56	-0.07421176
255	0xbd3d5b84	-0.046229854

bias f4 [50]
0	0xbd34e9ce	-0.044168286
1	0xbd20e538	-0.0392811
2	0xbcb7fd6e	-0.022459712
3	0xbe01b5c6	-0.12666997
4	0xbdbb1ebe	-0.09136723
5	0xbc80f08a	-0.015739698
6	0xbbb70a65	-0.005585956
7	0xbe081a39	-0.13291253
8	0x3cb68201	0.022278788
9	0x3d7e90a2	0.06214965
10	0x3de0415a	0.10949965
11	0x3dc447f8	0.095840394
12	0xbdc532cf	-0.096288316
13	0xbd078aae	-0.03309124
14	0xbd77e0aa	-0.06051699
15	0x3ccc07e6	0.02490611
16	0x3d1bc44e	0.038029008
17	0x3d00cc67	0.031444933
18	0x3d8f13f5	0.069862284
19	0x3d92cfeb	0.071685635
20	0xbda6b95e	-0.08140825
21	0x3dbf2dc2	0.093348995
22	0x3dafa082	0.08575536
23	0x3c9a9ef0	0.018874615
24	0xbde66b60	-0.11250949
25	0xbd9e58dd	-0.07731793
26	0x3cf9d933	0.030499076
27	0x3d175093	0.036942076
28	0x3df3f1d6	0.11911361
29	0x3d86dae9	0.065847225
30	0x3d1eca63	0.03876723
31	0xbbfee1c8	-0.00777838
32	0x3d9cfd1a	0.07665463
33	0xbd3614ba	-0.04445336
34	0x3d62a33e	0.05533146
35	0xbd81acc3	-0.0633178
36	0xbbc6861f	-0.006058469
37	0x3d8199e1	0.06328178
38	0x3d7579da	0.05993066
39	0xbcd86d49	-0.026419299
40	0xbbb39b94	-0.005481193
41	0xbda1999e	-0.07890628
42	0x3d742c2e	0.059612446
43	0x3db994ba	0.090615705
44	0x3d5555ba	0.05208371
45	0xbe019418	-0.1265415
46	0xbdd3e2ec	-0.10346016
47	0x3d997b2a	0.07494195
48	0xbcb6d263	-0.022317117
49	0x3da1a8fc	0.07893559

weight f4 [50]
0	0x3f7e6c3a	0.9938389
1	0x3f7efc65	0.99603873
2	0x3f7ca225	0.9868491
3	0x3f817598	1.0114012
4	0x3f805cb7	1.0028294
5	0x3f7868e9	0.9703508
6	0x3f80def4	1.006804
7	0x3f80b71d	1.0055882
8	0x3f7fca0f	0.9991769
9	0x3f7b8b27	0.98259205
10	0x3f7fab0a	0.9987036
11	0x3f7c9fd3	0.9868137
12	0x3f7e90f5	0.99439937
13	0x3f7df038	0.9919467
14	0x3f7f9dba	0.99850047
15	0x3f7eae49	0.9948469
16	0x3f80330f	1.0015582
17	0x3f82494b	1.0178617
18	0x3f7df1db	0.9919717
19	0x3f7ff0b0	0.99976635
20	0x3f840149	1.0312892
21	0x3f803dd0	1.0018864
22	0x3f7f2401	0.9966431
23	0x3f7fa140	0.9985542
24	0x3f7f405b	0.99707574
25	0x3f7e0fd5	0.9924291
26	0x3f7d2707	0.98887676
27	0x3f7e0fb6	0.99242723
28	0x3f7f7d30	0.99800396
29	0x3f7eba71	0.99503237
30	0x3f8035d1	1.0016423
31	0x3f7db568	0.9910493
32	0x3f7b6bc1	0.98211294
33	0x3f7fb2f9	0.99882466
34	0x3f7fa1a4	0.9985602
35	0x3f7f84cf	0.99812025
36	0x3f80446d	1.0020882
37	0x3f7c34a5	0.9851783
38	0x3f7f1492	0.9964076
39	0x3f7f877e	0.9981612
40	0x3f8080f4	1.0039353
41	0x3f7bd7a5	0.9837592
42	0x3f7f6d57	0.99776214
43	0x3f802289	1.0010539
44	0x3f7e14e8	0.9925065
45	0x3f844c32	1.0335753
46	0x3f81582e	1.0105035
47	0x3f7bd8b9	0.9837757
48	0x3f7dd475	0.9915231
49	0x3f7fa7ee	0.99865615

bias f4 [50]
0	0xba914661	-0.0011083597
1	0x3b0ce204	0.002149702
2	0x3c2b9a21	0.010473759
3	0xbc499cd7	-0.01230546
4	0xba247c48	-0.0006274623
5	0xbbcc1c04	-0.0062289257
6	0x3c171003	0.009220126
7	0xbc14f3b2	-0.009091305
8	0xbbd8df8c	-0.0066184457
9	0xbc03e741	-0.008050741
10	0x3a669e13	0.00087973586
11	0xbc49baf8	-0.012312643
12	0x3bb4842e	0.005508921
13	0x3bc3a7a5	0.0059709125
14	0x3a883134	0.001039064
15	0xba454e21	-0.0007526596
16	0x3aeedfb6	0.001822463
17	0x3a5c4abb	0.00084034697
18	0xbbc286ee	-0.005936495
19	0x3a340076	0.0006866524
20	0xbcecef83	-0.028922802
21	0x3b814bcb	0.003945803
22	0xbb2f3df3	-0.0026739805
23	0xba3d0469	-0.0007210435
24	0xb9a1fff2	-0.00030899007
25	0xbb9df8ed	-0.004820934
26	0xbbb7641f	-0.005596652
27	0xbc0887e4	-0.00833318
28	0xbac8cf82	-0.0015320631
29	0xbb8e07ad	-0.004334411
30	0xbc0901b6	-0.008362224
31	0xbbbaca28	-0.0057003684
32	0xbc40793e	-0.011747656
33	0xbb163cb5	-0.0022924368
34	0x39f1c36f	0.0004611271
35	0x3b266d18	0.0025394615
36	0xbb0ead54	-0.0021770792
37	0xbc6c856c	-0.014436107
38	0xba9e8026	-0.0012092635
39	0xba80c6e5	-0.00098249
40	0xbba205da	-0.004944545
41	0x3c1be546	0.009515112
42	0xbaf13de9	-0.0018405291
43	0x3a9fe8ee	0.0012200156
44	0x3bafa97f	0.0053607817
45	0x3a189c2b	0.00058216107
46	0xbc4397c5	-0.01193804
47	0xbc77a5aa	-0.015115181
48	0xbbf37688	-0.0074299015
49	0xb7e9f72d	-2.7890865e-05

weight f4 [36, 50]
0	0x3de92477	0.11383908
1	0xbd3e1e3c	-0.046415552
2	0xbdb64349	-0.088995524
3	0xbe0e3925	-0.13888986
4	0x3d45dd01	0.04830647
5	0x3d8ad210	0.067783475
6	0xbc9ad24c	-0.018899105
7	0xbe1238a9	-0.14279427
8	0xbdc2b116	-0.09506433
9	0xbc496ccc	-0.012294006
10	0x3d909b12	0.07060827
11	0xbd23fbec	-0.040035173
12	0xbdc6c568	-0.09705621
13	0xbdd75600	-0.1051445
14	0x3df79b17	0.12090128
15	0x3d6bde94	0.057585314
16	0xbe01b734	-0.12667543
17	0xbdd6f191	-0.10495294
18	0xbde711ea	-0.11282714
19	0x3cd71808	0.026256576
20	0xbd816f2d	-0.06320033
21	0x3b9ac294	0.0047229026
22	0xbc8b909f	-0.017036734
23	0xbdf22a1e	-0.118244395
24	0xbe071e1d	-0.13195081
25	0xbde08170	-0.10962188
26	0xbd568269	-0.052370463
27	0x3cc82191	0.024430068
28	0xbd786b69	-0.06064931
29	0x3a269699	0.0006354838
30	0xbcae1071	-0.021248074
31	0x3e075233	0.1321495
32	0xbd6ac214	-0.057313994
33	0x3e0e72ce	0.13910982
34	0xbdd39004	-0.10330203
35	0xbdfd9bde	-0.12383245
36	0x3d24c88f	0.04023033
37	0xbd9de7c1	-0.07710219
38	0x3da135b8	0.07871574
39	0xbd92cb58	-0.07167691
40	0x3dd83653	0.105572365
41	0x3e06491c	0.13113827
42	0x3c6f57f7	0.014608375
43	0x3d1408b6	0.03614112
44	0x3e019639	0.12654962
45	0x3d9fd31e	0.07803939
46	0xbe043a0c	-0.12912768
47	0x39ebaa4c	0.00044949574
48	0xbdf9b121	-0.12191988
49	0x3de81420	0.113319635
50	0xbd058408	-0.032596618
51	0x3c8f376a	0.017482478
52	0xbdaa2b69	-0.08309061
53	0xbd9618a4	-0.073289186
54	0x3cb50577	0.022097332
55	0x3dced659	0.10099477
56	0xbd98e892	-0.07466234
57	0x3c888ef9	0.016669737
58	0x3e036e0c	0.12834948
59	0x3e03bd90	0.12865281
60	0xbd028685	-0.03186657
61	0x3e01d589	0.12679113
62	0x3d61721c	0.055040464
63	0x3e07623b	0.13221066
64	0x3bfd2c6f	0.007726244
65	0xbdfc28e4	-0.12312487
66	0xbcf260f7	-0.029587252
67	0x3d4cf043	0.05003382
68	0x3d90fa02	0.07078935
69	0xbe13b87c	-0.14425844
70	0x3de88148	0.113527834
71	0xbe0427a5	-0.12905748
72	0x3da1f113	0.079073094
73	0x3e0b1a06	0.13584146
74	0x3d1c8ce2	0.038220294
75	0xbcc8a3e0	-0.024492204
76	0x3d94eab7	0.07271331
77	0xbd36c674	-0.044622853
78	0xbdddd448	-0.10831505
79	0xbdd44e68	-0.10366517
80	0x3d8bd565	0.06827811
81	0x3dd584f7	0.10425752
82	0x3a3442bc	0.0006876399
83	0xbe111507	-0.14168178
84	0xbe113469	-0.14180149
85	0xbce81a14	-0.028332748
86	0x3da39936	0.07988207
87	0xbdc63f48	-0.09680039
88	0x3d0bab38	0.034098834
89	0xbda66dc3	-0.08126404
90	0x3df2b4fa	0.11850925
91	0xbd092702	-0.033484466
92	0xbd055a1c	-0.032556638
93	0xbe020235	-0.12696154
94	0xbdfbbb7e	-0.12291621
95	0x3c5680bd	0.013092217
96	0x3cd7cbd7	0.026342316
97	0x3d9603db	0.07324954
98	0xbe00fc0a	-0.12596145
99	0x3caf4cbd	0.021398896
100	0xbd11fc8c	-0.035641238
101	0x3db63cc9	0.088983126
102	0xbd747135	-0.059678275
103	0x3d3f3ff1	0.04669184
104	0x3d7c7c01	0.061641697
105	0x3d9a4606	0.07532887
106	0xbd5a1468	-0.053242117
107	0x3d4d3645	0.050100584
108	0xbcb033c1	-0.021509053
109	0x3d299a6b	0.04140703
110	0xbdbb3746	-0.09141402
111	0xbdee28e5	-0.11628894
112	0xbde39601	-0.11112595
113	0xbdacf208	-0.08444601
114	0xbd625874	-0.055260137
115	0x3c6ee7c6	0.014581626
116	0xbcb9424b	-0.022614619
117	0xbd2d2e24	-0.04228033
118	0xba8c27ac	-0.0010692975
119	0xbd4a56c7	-0.049399164
120	0x3dbbe358	0.09174222
121	0xbdf71ccd	-0.1206604
122	0xbd6cab67	-0.05778065
123	0xbdc39f56	-0.09551875
124	0x3cb48b52	0.02203909
125	0x3c1fac2c	0.009745639
126	0xbc52e82b	-0.012872736
127	0x3e0b7b20	0.13621187
128	0xbd6ff290	-0.058580935
129	0xbcceebb7	-0.025258882
130	0x3d2a85ae	0.041631393
131	0x3de7d11b	0.113191806
132	0x3dd5aa7e	0.104329094
133	0x3c41116b	0.011783938
134	0xbd70f54d	-0.058827687
135	0x3d503e9c	0.05084096
136	0x3dbf79df	0.09349417
137	0xbbfbae8e	-0.0076807206
138	0x3d976561	0.07392383
139	0x3de4f5b9	0.111796804
140	0xbd91de56	-0.07122485
141	0xbcda870c	-0.026675723
142	0xbe070bba	-0.13188067
143	0x3ce810bf	0.028328298
144	0x3dd84591	0.10560144
145	0xbcbc18cb	-0.022961041
146	0x3cde238a	0.027116556
147	0x3d270821	0.040779237
148	0xbbf73d36	-0.0075451387
149	0x3dd7b423	0.10532405
150	0x3cd2bce0	0.025724828
151	0xbe06656d	-0.13124628
152	0xbdf05edf	-0.11736845
153	0xbe10429a	-0.14087906
154	0x3ba992c5	0.005174967
155	0x3d6686fc	0.056281075
156	0xbc925533	-0.017862892
157	0x3e017744	0.12643152
158	0xbcca43a6	-0.02469046
159	0x3cc48b62	0.023992244
160	0x3e032e2a	0.12810579
161	0x3d956f43	0.07296612
162	0xbbaf17e6	-0.005343425
163	0x3e088e01	0.1333542
164	0xbdae1125	-0.08499364
165	0x3d62cdcd	0.05537205
166	0x3da32c68	0.07967454
167	0xbdcb9078	-0.099396646
168	0xbe05c6ef	-0.13064168
169	0x3d3b73af	0.04576462
170	0xbd5ec0bb	-0.05438302
171	0xbd90adec	-0.07064423
172	0x3ceac113	0.028656518
173	0xbdcf921d	-0.10135291
174	0x3e01483b	0.1262521
175	0xbc59460a	-0.0132613275
176	0xbd2e892c	-0.042611286
177	0x3def185b	0.11674567
178	0x3d24810f	0.040162142
179	0x3ce388b6	0.02777515
180	0xbd85c6ae	-0.06532036
181	0x3e06a59a	0.1314911
182	0xbd252ef7	-0.040327992
183	0x3df2d517	0.1185705
184	0xbc27c363	-0.010239455
185	0x3d8efb5a	0.06981535
186	0x3dca1142	0.09866573
187	0xbdd5ca31	-0.104389556
188	0xbdbe0a41	-0.092792995
189	0xbe0d7014	-0.13812286
190	0x3dcf115d	0.10110734
191	0x3df76bc5	0.12081102
192	0xbd501db6	-0.050809585
193	0xbd8c54fe	-0.068521485
194	0x3cbe55d1	0.02323428
195	0x3d9a3768	0.07530099
196	0x3d0bc48e	0.034122996
197	0xbcf0b0d2	-0.02938119
198	0xbdb51afe	-0.08843039
199	0x3df71bb7	0.12065833
200	0xbd7b858d	-0.06140666
201	0xbe1465f9	-0.14492024
202	0xbd5141da	-0.05108819
203	0x3d0a69d0	0.033792317
204	0x3d6f31dd	0.058397163
205	0x3d616985	0.055032272
206	0xbdb05142	-0.08609249
207	0xbd448eb3	-0.04798765
208	0xbd68df60	-0.056853652
209	0xbd907504	-0.07053569
210	0xbdfc1ed5	-0.12310568
211	0x3cd40227	0.025879933
212	0xbd10f014	-0.035385206
213	0xbe06ccda	-0.13164082
214	0xbd9cf4ab	-0.07663854
215	0xbda8105b	-0.082062446
216	0xbd810db3	-0.06301441
217	0xbdb93531	-0.090433486
218	0xbcd7add8	-0.026328012
219	0x3d37eece	0.044905476
220	0xbdde7fad	-0.10864196
221	0xbc8e1d34	-0.01734791
222	0xbd462b9d	-0.048381437
223	0xbd9fc400	-0.07801056
224	0xbccf74fd	-0.025324339
225	0xbd3e7707	-0.046500232
226	0x3aa8f396	0.0012889977
227	0xbde7e28b	-0.113225065
228	0x3cab8279	0.020936238
229	0x3dfd1f6d	0.123595096
230	0x3df6e6ee	0.12055765
231	0xbd978736	-0.07398836
232	0x3d1b26ef	0.037878927
233	0xbe09a69d	-0.13442464
234	0x3de416d7	0.11137169
235	0xbe0a8d8b	-0.13530557
236	0xbdf7008a	-0.1206065
237	0xbe08e886	-0.1336995
238	0xbe0b31e4	-0.1359325
239	0x3c744c14	0.014910717
240	0xbd020e04	-0.031751648
241	0x3d22350f	0.039601382
242	0xbc8469d3	-0.016163742
243	0xbc0b091c	-0.008486059
244	0xbd39458a	-0.045232333
245	0xbd9fe09f	-0.07806515
246	0xbde66bc6	-0.11251025
247	0x3d82694a	0.063677385
248	0xbda15fc3	-0.07879593
249	0xbd0e2f9e	-0.03471338
250	0x3d635062	0.05549658
251	0xbd32b1bf	-0.043626543
252	0xbcfe5799	-0.03104763
253	0xbdb79727	-0.08964377
254	0xbded3e90	-0.115841985
255	0x3d8ebc10	0.06969464

bias f4 [36]
0	0xbe062f65	-0.13104017
1	0x3dc115c9	0.09427983
2	0xbd01c9a7	-0.03168645
3	0xbe0d36f2	-0.13790491
4	0x3debd56f	0.115153186
5	0x3db22b93	0.086997174
6	0x3d8ab3c2	0.06772567
7	0x3e10b547	0.14131652
8	0x3e087a49	0.13327898
9	0x3dfb594c	0.122728914
10	0x3e00702c	0.1254279
11	0x3debfb29	0.115225144
12	0xbba9903c	-0.005174665
13	0xbc84874d	-0.016177798
14	0x3d0a3eaa	0.033751167
15	0xbd80ab9e	-0.062827334
16	0x3d80bb5b	0.06285735
17	0xbb1d6c60	-0.0024020895
18	0x3cde38af	0.027126638
19	0xbdc6150d	-0.09671984
20	0xbd4c72dd	-0.04991423
21	0x3dcd2316	0.10016458
22	0x3cc5e14a	0.024155278
23	0x3d3972ea	0.045275606
24	0xbdfd81d4	-0.123782784
25	0xbd68b805	-0.05681612
26	0xbbece575	-0.007229502
27	0xbc6d76d6	-0.014493665
28	0x3dab3d77	0.08361333
29	0xbd32a608	-0.04361537
30	0x3de92117	0.113832645
31	0xbcbf177b	-0.023326626
32	0x3d712611	0.058874194
33	0xbdc564d6	-0.096383736
34	0x3cbf4363	0.023347562
35	0xbe0cfffa	-0.13769522

weight f4 [21, 6]
0	0xbed10983	-0.4082757
1	0xbd9cbbac	-0.07652983
2	0x3da96e16	0.0827295
3	0x3d87f301	0.06638146
4	0xbc978b28	-0.018498972
5	0x3e0f75cd	0.14009781
6	0x3e8ec3e1	0.2788382
7	0x3ef237ce	0.473082
8	0x3d3e1e19	0.046415422
9	0x3e83f980	0.2577629
10	0xbdaccc14	-0.08437362
11	0xbd9d8672	-0.07691659
12	0x3e40e478	0.18837154
13	0x3e272f0e	0.16326544
14	0x3cded224	0.027199812
15	0xbe53eb70	-0.20695281
16	0x3e79ac62	0.24382165
17	0xbe5643c8	-0.20924294
18	0xbe3a390f	-0.18185829
19	0x3eb3b729	0.35100678
20	0x3d2d040e	0.042240195
21	0xbe569fad	-0.20959349
22	0xbe6b226e	-0.22962353
23	0x3ef48a9d	0.47762004
24	0x3ec01b86	0.37521
25	0xbed1f11a	-0.41004258
26	0x3d2baa3d	0.0419104
27	0xbdb0a837	-0.086258344
28	0x3e9bc868	0.30426335
29	0xbeef1497	-0.46695396
30	0xbc792cad	-0.015208405
31	0x3ea8a152	0.32935578
32	0x3eb55d38	0.35422683
33	0x3ca2b7df	0.019863067
34	0xbe64ff8c	-0.22363108
35	0xbe4b5ba7	-0.19859181
36	0x3e9b8f86	0.30382937
37	0x3e5644ee	0.20924732
38	0xbd47750b	-0.048695605
39	0xbee03e30	-0.43797445
40	0x3e4f7a53	0.20261507
41	0xbee63dc1	-0.4496899
42	0xbe6c635b	-0.23084776
43	0x3c5bdead	0.013419789
44	0xbe438fd0	-0.19097829
45	0x3c21ecfe	0.0098831635
46	0x3ecddafc	0.40206134
47	0xbe2d897b	-0.16946976
48	0x3e9a5cd5	0.3014895
49	0xbe8ebcdc	-0.27878463
50	0x3e8a7c40	0.2704792
51	0x3dd393f3	0.103309534
52	0x3ed5635b	0.41677365
53	0xbc19123e	-0.009342728
54	0xbe0bbeb7	-0.1364697
55	0x3e0dd4eb	0.13850753
56	0x3eff6b43	0.49886522
57	0x3d2f8cbd	0.042858828
58	0x3e4910dd	0.19635339
59	0xbea73de6	-0.32664412
60	0x3e6c9358	0.23103082
61	0xbf0320f5	-0.51222163
62	0x3e27db91	0.16392352
63	0x3dfc19e0	0.12309623
64	0x3d164ca4	0.036694184
65	0xbf022736	-0.5084108
66	0x3edabc9f	0.4272203
67	0x3dfa4bc1	0.1222148
68	0x3ee9d7a3	0.4567233
69	0x3df31948	0.118700564
70	0x3e461c03	0.19346623
71	0xbe79b469	-0.24385227
72	0xbd545e99	-0.051848028
73	0x3cc05a5a	0.023480583
74	0x3db9eb84	0.09078124
75	0xbd9b322c	-0.07577929
76	0x3e38b7b3	0.18038826
77	0x3af77f43	0.0018882531
78	0xbed6f375	-0.41982618
79	0xbef0cd20	-0.47031498
80	0xbe1d45d5	-0.1535867
81	0x3e6bd99d	0.23032232
82	0x3e32096b	0.17386405
83	0xbeff7528	-0.4989407
84	0xbdb7e7d7	-0.08979767
85	0xbe42428b	-0.18970697
86	0x3e3bea0c	0.18351
87	0x3e955217	0.29164192
88	0x3d2ad59a	0.041707613
89	0xbeedbbe8	-0.46432424
90	0xbd7b14b8	-0.061299056
91	0x3ca9c221	0.02072245
92	0xbe8b4222	-0.27198893
93	0x3e67aae0	0.22623777
94	0xbe1095a8	-0.1411959
95	0x3ebe1752	0.37127167
96	0x3e59c1f0	0.21265388
97	0x3cdae50b	0.026720544
98	0x3e479394	0.1948989
99	0xbdf5990e	-0.119920835
100	0x3dfb348b	0.12265881
101	0x3b3e80c9	0.002906846
102	0x3e9cc13d	0.3061618
103	0x3e57647a	0.21034423
104	0xbec0f79a	-0.37688905
105	0x3ecb3f66	0.39696807
106	0x3eb169c2	0.34651
107	0xbf024314	-0.50883603
108	0x3e10becf	0.14135288
109	0xbe3a5ce9	-0.18199505
110	0x3e90435b	0.28176388
111	0x3dc9b6c3	0.09849312
112	0xbebc6f53	-0.36803684
113	0x3e98dd87	0.29856512
114	0xbe2b5e46	-0.16735181
115	0x3f011cd6	0.50434625
116	0x3e7fbbea	0.24974027
117	0x3db7a314	0.089666516
118	0x3e887dac	0.2665838
119	0x3e7abdd5	0.24486478
120	0x3ec23b9e	0.3793611
121	0xbe765428	-0.2405554
122	0x3af9c6b7	0.0019056414
123	0xbd694e94	-0.056959704
124	0xbc65a583	-0.014016512
125	0xbea6eb84	-0.3260156

bias f4 [21]
0	0xbe23bdca	-0.15990368
1	0x3e7328b4	0.23745996
2	0x3e2fa18c	0.17151469
3	0xbe2cb811	-0.16867091
4	0xbec22c4d	-0.37924424
5	0x3e4c8eca	0.19976345
6	0xbecbe418	-0.3982246
7	0xbcc5cd8e	-0.024145868
8	0xbebeafac	-0.37243402
9	0x3ead975e	0.33904546
10	0x3ea94c0c	0.33065832
11	0xbebb7773	-0.3661457
12	0xbecb4a29	-0.39705017
13	0xbe713d45	-0.23558529
14	0x3dd9842c	0.10620913
15	0xbe419e6e	-0.18908092
16	0xbdc4c9e8	-0.09608823
17	0xbdd3a34d	-0.103338815
18	0x3db803fc	0.08985135
19	0xbe430be8	-0.1904751
20	0x3e3d5ad6	0.18491682

weight f4 [21]
0	0x3f8046ae	1.002157
1	0x3f7f6b2c	0.99772906
2	0x3f7e78fb	0.9940335
3	0x3f7b3591	0.9812861
4	0x3f70fe3a	0.9413792
5	0x3f7f013c	0.9961126
6	0x3f81219f	1.0088385
7	0x3f7dc27a	0.9912487
8	0x3f76e168	0.9643769
9	0x3f7d8bf3	0.9904167
10	0x3f7d319d	0.9890383
11	0x3f823ae3	1.0174221
12	0x3f7e1e48	0.99264956
13	0x3f7f06cb	0.9961974
14	0x3f7c4ad5	0.98551685
15	0x3f7e6bf6	0.99383485
16	0x3f75a8dc	0.95960784
17	0x3f809027	1.0043992
18	0x3f80f5a7	1.0074967
19	0x3f7ff584	0.99984
20	0x3f7e514f	0.9934282

bias f4 [21]
0	0x3a337170	0.00068452116
1	0xbb08875f	-0.002083264
2	0xbbd175a9	-0.0063922
3	0x3bf57626	0.007490891
4	0x3d51b90b	0.05120186
5	0xbb923915	-0.004462371
6	0xbc527edb	-0.0128476275
7	0xbc1e7751	-0.009672002
8	0x3c91b5ed	0.017786944
9	0xbc1d92ac	-0.009617489
10	0xbc37771f	-0.011197834
11	0xbcb7a987	-0.022419704
12	0x3b5f33b0	0.0034057908
13	0x3bd70129	0.0065614176
14	0xbc7460e7	-0.014915681
15	0x3c512059	0.01276406
16	0xbb82e407	-0.003994468
17	0xbb1040a6	-0.002201119
18	0x3c1b3c78	0.009474866
19	0xb80e490b	-3.3923465e-05
20	0xbbd506a0	-0.006501034

weight f4 [36, 21]
0	0xbe1bb8ce	-0.15207216
1	0xbce276c6	-0.027644526
2	0x3e342608	0.17592633
3	0xbdec1252	-0.11526932
4	0x3e34c5f6	0.17653641
5	0x3dd28dbd	0.10280941
6	0xbd7defce	-0.061996274
7	0x3d8cd137	0.06875842
8	0xbe0cf039	-0.13763513
9	0x3c0f79aa	0.008757034
10	0x3d5c3083	0.053757202
11	0x3e4a8883	0.19778638
12	0xbde8084a	-0.11329706
13	0xbdefe213	-0.11713042
14	0xbdf25a93	-0.11833682
15	0xbe5417ce	-0.20712206
16	0x3d79710f	0.060898837
17	0xbe1c9061	-0.15289451
18	0xbd9008e7	-0.07032948
19	0xbdb74757	-0.08949154
20	0x3ba6a6cc	0.0050858017
21	0x3d947115	0.07248131
22	0xbe23e748	-0.16006196
23	0xbd889c46	-0.06670432
24	0xbc563a91	-0.013075487
25	0xbe013c9d	-0.12620778
26	0x3d58e87c	0.05295609
27	0x3da74b54	0.081686646
28	0xbe221878	-0.15829647
29	0x3e2eff67	0.17089616
30	0x3e1e3769	0.15450825
31	0xbd8b5f34	-0.06805268
32	0x3d065b4d	0.032801915
33	0x3ce01777	0.027354939
34	0xbcdbb7fd	-0.02682113
35	0xbe14f688	-0.14547169
36	0x3e3ce229	0.18445648
37	0x3daef82a	0.08543427
38	0xbe641fc2	-0.2227774
39	0xbe27b87a	-0.16378966
40	0x3e56ce96	0.20977244
41	0x3d0021cb	0.031282227
42	0xbd51c6ab	-0.051214855
43	0x3e1d1433	0.15339737
44	0x3d8c4b74	0.06850329
45	0x3da2846f	0.07935416
46	0x3e2b25aa	0.16713586
47	0xbc26cb02	-0.010180237
48	0x3e4e74c1	0.20161726
49	0xbe16e79f	-0.14736794
50	0xbe0decc1	-0.13859846
51	0x3d30540a	0.043048896
52	0xbcaf4997	-0.021397395
53	0x3df2d5db	0.11857196
54	0xbd863e5b	-0.06554862
55	0x3cf5aa3c	0.0299884
56	0xbd1f10cc	-0.038834378
57	0x3e2339cf	0.15940021
58	0xbcb30342	-0.02185214
59	0xbba576d9	-0.005049568
60	0x3e2be397	0.16786037
61	0x3e53d8cf	0.20688175
62	0x3e5abd76	0.21361336
63	0xbe5c2988	-0.21500218
64	0xbe00b020	-0.12567186
65	0xbd4dd587	-0.050252464
66	0xbd3e3989	-0.04644159
67	0x3e055fe0	0.13024855
68	0x3dbbf542	0.091776386
69	0xbc6a8d1c	-0.01431587
70	0x3ade72dc	0.0016971487
71	0x3d545947	0.051842954
72	0x3e3c8f41	0.18414022
73	0x3de29aa0	0.11064649
74	0xbdd87e02	-0.10570909
75	0xbddcd333	-0.107824706
76	0x3d90cd77	0.07070439
77	0xbce3a91c	-0.027790599
78	0xbe0e70fa	-0.13910285
79	0xbe3b533e	-0.18293473
80	0x3d75f127	0.060044434
81	0xbd95924f	-0.07303297
82	0xbdfdb86f	-0.123886935
83	0x3d225d48	0.03963974
84	0x3e727446	0.23677167
85	0x3e2142af	0.15748094
86	0x3dcf230a	0.10114105
87	0xbe102f26	-0.14080486
88	0x3e161e18	0.14659917
89	0x3dbe684b	0.09297236
90	0x3dc2b5fb	0.09507366
91	0xbda2165a	-0.079144195
92	0x3c908b72	0.017644618
93	0xbe0ef2bf	-0.13959788
94	0xbd9309cf	-0.07179605
95	0xbc697338	-0.014248662
96	0xbc0f4acf	-0.008745863
97	0xbe47b6fb	-0.19503395
98	0x3d6ab1dc	0.057298526
99	0xbe21bdb0	-0.15795016
100	0xbe17fe96	-0.1484321
101	0x3dcb51f2	0.09927739
102	0xbe491fe5	-0.19641073
103	0x3e6cc5b1	0.23122288
104	0x3e3d39e7	0.18479119
105	0xbd971d96	-0.0737869
106	0xbd16a41e	-0.036777608
107	0xbe2a8366	-0.16651687
108	0x3bea74ba	0.007155028
109	0x3d1daf95	0.038497526
110	0xbdf1e169	-0.11810572
111	0x3d8b6a2a	0.068073586
112	0xbc102d3b	-0.008799846
113	0xbd881f11	-0.066465504
114	0x39c592f9	0.0003768427
115	0xbe5786e0	-0.21047544
116	0xbe1ebc79	-0.15501584
117	0x3ce81ac0	0.028333068
118	0x3e5567ca	0.20840374
119	0xbe02b71e	-0.12765166
120	0x3e0dcc5d	0.1384749
121	0x3c0e0d9b	0.008670236
122	0xbded85d4	-0.11597791
123	0x3ae95e03	0.0017804507
124	0x3dd470f5	0.10373107
125	0x3cd91d74	0.026503302
126	0x3e4dfe69	0.20116581
127	0xbd3cc4d6	-0.046086155
128	0xbe1ac96b	-0.15115897
129	0x3e54feec	0.2080037
130	0xbd6e49cc	-0.058175847
131	0x3e0aef30	0.13567805
132	0x3e17de39	0.14830865
133	0x3d02d087	0.03193715
134	0xbe32c770	-0.17458892
135	0xbe5fce41	-0.21856023
136	0x3dc82ae2	0.09773804
137	0x3d6d1c06	0.057888053
138	0x3e06898f	0.13138412
139	0xbe3f144b	-0.18660085
140	0xbd0b7fc6	-0.0340574
141	0x3e476439	0.19471826
142	0x3deb3643	0.11484959
143	0x3e2d98fc	0.1695289
144	0x3e2df2c0	0.16987133
145	0xbd429cdd	-0.047512878
146	0xbe1e42f9	-0.15455236
147	0xbdd4c17b	-0.10388466
148	0x3d636fda	0.05552659
149	0xbdd975dc	-0.10618183
150	0x3ce4e176	0.02793954
151	0x3d52a70e	0.051428847
152	0x3df9bfe7	0.121948056
153	0x3e0de0c8	0.13855278
154	0x3dd22fc0	0.10263014
155	0x3cd110ee	0.025520768
156	0x3dda5ea8	0.106625855
157	0xbdf68fd9	-0.120391555
158	0xbd90cc71	-0.07070244
159	0xbc926ff1	-0.017875643
160	0xbddb7649	-0.107159205
161	0x3e384cd5	0.17998059
162	0xbc6dbdb9	-0.014510565
163	0x3d8e9321	0.06961656
164	0xbc5e6997	-0.013574979
165	0xbc546750	-0.012964085
166	0xbdc8b204	-0.09799579
167	0xbd149094	-0.036270693
168	0xbe4b9a68	-0.1988312
169	0xbdc934e6	-0.09824543
170	0x3e31c623	0.1736074
171	0xbe533c93	-0.20628576
172	0x3cf4b221	0.029870095
173	0x3d250f07	0.040297534
174	0xbe5c60ee	-0.2152135
175	0x3d423874	0.04741712
176	0x3dc506cc	0.09620437
177	0x3e27cf2c	0.16387624
178	0x3d40e8b5	0.047096927
179	0x3e28bf2b	0.16479175
180	0x3b0f019e	0.0021821032
181	0x3d9f728f	0.07785522
182	0x3d8ff0b2	0.07028331
183	0xbe2b9cad	-0.16758986
184	0xbd339228	-0.043840557
185	0xbe1919c4	-0.14951235
186	0x3e337227	0.17524014
187	0x3dc82af4	0.09773818
188	0xbdb06661	-0.08613277
189	0xbc95408b	-0.018219253
190	0x3d50cc85	0.050976295
191	0xbe488a33	-0.19583969
192	0x3cb41cca	0.021986384
193	0x3dd10a3a	0.10207029
194	0x3cfc57c2	0.030803565
195	0xbcad66df	-0.021167217
196	0x3e19437d	0.14967151
197	0x3dbfad5e	0.09359239
198	0xbe498092	-0.19677952
199	0x3e048772	0.12942293
200	0xbe30a89d	-0.17251821
201	0x3dfa8429	0.12232239
202	0x3e4d53f3	0.20051555
203	0x3d018c35	0.031627852
204	0xbd818ec2	-0.06326057
205	0xbe0e6f13	-0.13909559
206	0xbdc4a858	-0.096024215
207	0xbcf66989	-0.03007962
208	0xbdd0619e	-0.10174869
209	0x3e5bce9d	0.21465535
210	0xbdc0356b	-0.09385189
211	0x3dcba4f5	0.099435724
212	0xbe44f6ec	-0.19234818
213	0x3de67af5	0.11253921
214	0x3e348cae	0.1763179
215	0xbe1809f6	-0.1484755
216	0xbd864c29	-0.06557495
217	0x3d851717	0.06498545
218	0xbe5ee436	-0.21766743
219	0xbe05c415	-0.1306308
220	0x3dacb53c	0.08433005
221	0x3e4925c6	0.19643316
222	0xbd97f877	-0.07420438
223	0xbb99c9b0	-0.0046932325
224	0xbe4eeff4	-0.20208722
225	0xbe59642a	-0.21229616
226	0x3e35ea42	0.17765144
227	0x3e40cac2	0.18827346
228	0xbd6c8262	-0.05774153
229	0xbdc8c6b3	-0.09803524
230	0xbb87f14b	-0.0041486374
231	0x3defea2b	0.11714586
232	0xbe753ec0	-0.23949718
233	0xbe17a644	-0.14809519
234	0xbd6cfa7f	-0.05785608
235	0xbd7b9bd4	-0.061427906
236	0xbd445dc5	-0.047940988
237	0x3e445de8	0.19176447
238	0x3cf756d4	0.03019277
239	0xbe26b321	-0.1627927
240	0x3e2a4491	0.16627719
241	0x3e1524c8	0.14564812
242	0x3dd22a69	0.10261995
243	0x3e0fcd81	0.14043237
244	0x3de5e7cf	0.112258546
245	0x3e0f7233	0.14008407
246	0xbe35da52	-0.17759064
247	0xbdadf07a	-0.08493133
248	0x3d414bc7	0.047191408
249	0xbdb7ffac	-0.089843124
250	0xbdf06efe	-0.1173992
251	0xbe6f95a6	-0.2339693
252	0xbe2b1c42	-0.16709998
253	0xbd0d3e07	-0.034482982
254	0x3e3dde9c	0.1854195
255	0x3e11c3e3	0.14234881

bias f4 [36]
0	0xbd2d9c6a	-0.042385496
1	0xbe40646a	-0.18788305
2	0xbdfdae8f	-0.1238681
3	0x3e06d5ae	0.1316745
4	0x3dbdbffc	0.09265134
5	0x3e1a7722	0.15084508
6	0xbda6fd9c	-0.08153841
7	0xbdf1f5d5	-0.11814467
8	0xbe3ef9c9	-0.18649973
9	0x3c836528	0.016039446
10	0xbd193bb0	-0.037410438
11	0x3e324e60	0.1741271
12	0xbdc84d64	-0.09780386
13	0xbe130a2f	-0.14359353
14	0x3da5063c	0.0805783
15	0xbda5f7d3	-0.08103909
16	0xbd1c61a1	-0.038179044
17	0x3e5ba2f1	0.21448876
18	0x3e11c2c2	0.1423445
19	0xbe4fab86	-0.20280275
20	0x3c4b194a	0.012396166
21	0x3cf43b32	0.029813383
22	0x3e668ebd	0.22515388
23	0xbe3e230f	-0.18568061
24	0x3e0d55dd	0.13802285
25	0xbe539261	-0.20661308
26	0xbe5d2ee4	-0.21599919
27	0xbde5a895	-0.11213795
28	0xbe4e392e	-0.20139
29	0xbc6391db	-0.013889755
30	0x3e2e38cf	0.17013858
31	0xbd6d5e46	-0.057951234
32	0xbe2134d7	-0.15742813
33	0xbd2ad01c	-0.041702375
34	0xbe34d5dd	-0.17659707
35	0x3e0adba6	0.13560352

weight f4 [1, 6]
0	0x3d71c489	0.05902532
1	0x3eb9617a	0.3620718
2	0x3e3157d0	0.17318654
3	0x3e157ad3	0.14597635
4	0x3e0cdd2c	0.13756245
5	0x3ec22791	0.37920812

weight f4 [36, 1]
0	0xbf1b625f	-0.6069698
1	0x3f45deb2	0.7729293
2	0x3eb57e67	0.35448
3	0x3f6ab2c8	0.9167905
4	0x3e69cc18	0.22831762
5	0x3ebcb542	0.3685704
6	0x3f1bca33	0.60855407
7	0x3f2640a2	0.6494237
8	0x3f0f1fe4	0.55908036
9	0xbf489e0b	-0.78366154
10	0x3e96e3d5	0.29470697
11	0xbf2f560d	-0.6849068
12	0x3e02028a	0.12696281
13	0x3f0a1a87	0.5394673
14	0xbea8691e	-0.32892698
15	0x3f5dfc43	0.86713046
16	0x3f641c9e	0.89106166
17	0x3e9757b4	0.295591
18	0xbf3737eb	-0.715697
19	0x3cd5bc13	0.026090657
20	0x3f487371	0.7830115
21	0x3e3f40f9	0.18677129
22	0x3f5d12a9	0.863566
23	0x3d86d92e	0.065843925
24	0xbee92b80	-0.45541
25	0x3f25e9f0	0.64810085
26	0x3eac159e	0.33610243
27	0x3f0e62f1	0.5561972
28	0xbf1b76a3	-0.607279
29	0xbf42d2db	-0.7610299
30	0x3f2b28d5	0.6685918
31	0x3eb37193	0.35047588
32	0x3f399567	0.72493595
33	0xbf54ac5b	-0.83075494
34	0xbeed995b	-0.46406063
35	0xbd088fb4	-0.03334017

bias f4 [36]
0	0xbf03cc99	-0.51484066
1	0x3f20ed79	0.62862355
2	0x3f492947	0.7857861
3	0x3f5dd5b0	0.86654186
4	0x3e0aec97	0.13566814
5	0xbf66ccd9	-0.9015632
6	0xbebba020	-0.36645603
7	0x3e6b58aa	0.22983041
8	0xbe84dea7	-0.2595112
9	0x3edaef82	0.42760855
10	0xbe86256a	-0.2620042
11	0x3f53650d	0.82576066
12	0x3f5d3669	0.8641115
13	0x3f7b9cc5	0.98286086
14	0x3eac49ee	0.33650154
15	0xbf2d6d84	-0.6774523
16	0xbe842761	-0.25811294
17	0xbf06a5ce	-0.5259675
18	0x3eea3e8e	0.4575085
19	0xbda8fe55	-0.08251635
20	0x3ecf8597	0.40531608
21	0x3e984882	0.2974282
22	0xbea1099e	-0.3145265
23	0x3e0731ae	0.13202545
24	0xbe156084	-0.14587599
25	0x3e2cb7a1	0.16866924
26	0xbf282537	-0.65681785
27	0x3cb9148d	0.022592807
28	0x3f40a208	0.7524724
29	0x3f03bb31	0.51457506
30	0xbf1f50f4	-0.622329
31	0x3f55c185	0.8349841
32	0xbec726b9	-0.3889673
33	0x3f6593d7	0.8967871
34	0xbe54cc1c	-0.20780987
35	0x3f7686a3	0.9629919

xs f4 [1000, 6]
0	0xbeef1998	-0.46699214
1	0xbbb8929a	-0.0056327106
2	0x3c8d8f78	0.017280325
3	0xb6ff7c63	-7.6140727e-06
4	0xbeef1998	-0.46699214
5	0xbbb8929a	-0.0056327106
6	0x3bdf51fb	0.0068151928
7	0x3d431df2	0.04763598
8	0xbc45a52a	-0.012063304
9	0xb9afc8a5	-0.00033528093
10	0x3bdf51fb	0.0068151928
11	0x3d431df2	0.04763598
12	0xbeef7e33	-0.4677597
13	0xbbb88fd2	-0.005632379
14	0x3c105c4e	0.00881107
15	0xb6ad6ee2	-5.1687102e-06
16	0xbeef7e33	-0.4677597
17	0xbbb88fd2	-0.005632379
18	0x3bf3edb2	0.007444107
19	0x3d432e48	0.04765156
20	0xbc2aa6c7	-0.010415739
21	0xb990e07a	-0.00027633068
22	0x3bf3edb2	0.007444107
23	0x3d432e48	0.04765156
24	0xbeef8222	-0.4677897
25	0xbbb88e1b	-0.0056321747
26	0xbc43e63b	-0.011956747
27	0xb6256a88	-2.4648925e-06
28	0xbeef8222	-0.4677897
29	0xbbb88e1b	-0.0056321747
30	0x3bfd2d8a	0.007726376
31	0x3d433e24	0.047666684
32	0x3b496122	0.0030728062
33	0xb9eaf7c6	-0.00044816564
34	0x3bfd2d8a	0.007726376
35	0x3d433e24	0.047666684
36	0xbeef1223	-0.46693525
37	0xbbb88d95	-0.0056321123
38	0xbca7669a	-0.020434666
39	0x3519959a	5.721464e-07
40	0xbeef1223	-0.46693525
41	0xbbb88d95	-0.0056321123
42	0x3bef0db2	0.007295334
43	0x3d435558	0.047688812
44	0x3c6d1cce	0.0144722
45	0xb9de3d92	-0.00042389013
46	0x3bef0db2	0.007295334
47	0x3d435558	0.047688812
48	0xbeee6838	-0.46563888
49	0xbbb88e63	-0.005632208
50	0xbd0866f6	-0.033301316
51	0x36847063	3.94699e-06
52	0xbeee6838	-0.46563888
53	0xbbb88e63	-0.005632208
54	0x3bd7b515	0.006582866
55	0x3d436a9a	0.047709085
56	0x3c327fb6	0.0108947065
57	0xb9c71251	-0.00037969885
58	0x3bd7b515	0.006582866
59	0x3d436a9a	0.047709085
60	0xbeed9fc3	-0.4641095
61	0xbbb890ab	-0.00563248
62	0xbcd93785	-0.026515732
63	0x37012506	7.697619e-06
64	0xbeed9fc3	-0.4641095
65	0xbbb890ab	-0.00563248
66	0x3bcc699f	0.006238177
67	0x3d437e72	0.04772801
68	0x3a636ef3	0.00086758955
69	0xb9f7385e	-0.00047153508
70	0x3bcc699f	0.006238177
71	0x3d437e72	0.04772801
72	0xbeed0590	-0.46293306
73	0xbbb89499	-0.0056329486
74	0xbc9c09a2	-0.019047562
75	0x37473c12	1.18753105e-05
76	0xbeed0590	-0.46293306
77	0xbbb89499	-0.0056329486
78	0x3bd2d6b0	0.006434284
79	0x3d439a0e	0.04775434
80	0xbc36291a	-0.011118198
81	0xba0f3dff	-0.0005464255
82	0x3bd2d6b0	0.006434284
83	0x3d439a0e	0.04775434
84	0xbeec9e46	-0.46214503
85	0xbbb89a5d	-0.005633636
86	0xbc3168b3	-0.010828185
87	0x378af4b2	1.6564827e-05
88	0xbeec9e46	-0.46214503
89	0xbbb89a5d	-0.005633636
90	0x3bead2ca	0.0071662413
91	0x3d43b631	0.047781173
92	0xbc8996c2	-0.01679552
93	0xba084536	-0.00051983015
94	0x3bead2ca	0.0071662413
95	0x3d43b631	0.047781173
96	0xbeec6efe	-0.4617843
97	0xbbb8a239	-0.005634573
98	0xbaeac8aa	-0.0017912586
99	0x37bae2a3	2.2278464e-05
100	0xbeec6efe	-0.4617843
101	0xbbb8a239	-0.005634573
102	0x3c00618b	0.007835756
103	0x3d43d0f1	0.047806684
104	0xbba95cee	-0.005168549
105	0xba06087e	-0.000511296
106	0x3c00618b	0.007835756
107	0x3d43d0f1	0.047806684
108	0xbeec82b6	-0.46193475
109	0xbbb8acf8	-0.005635854
110	0x3c2741d6	0.010208568
111	0x37f8fe1a	2.9682229e-05
112	0xbeec82b6	-0.46193475
113	0xbbb8acf8	-0.005635854
114	0x3bfc6382	0.007702292
115	0x3d43efa2	0.047835954
116	0x3c5fb916	0.013654968
117	0xba21695d	-0.0006157363
118	0x3bfc6382	0.007702292
119	0x3d43efa2	0.047835954
120	0xbeecaec6	-0.46227092
121	0xbbb8bab2	-0.00563749
122	0x3ac42586	0.0014964796
123	0x38208046	3.8266437e-05
124	0xbeecaec6	-0.46227092
125	0xbbb8bab2	-0.00563749
126	0x3be07d1b	0.0068508512
127	0x3d440f81	0.04786635
128	0x3c9353f4	0.017984368
129	0xba1c06bc	-0.0005951931
130	0x3be07d1b	0.0068508512
131	0x3d440f81	0.04786635
132	0xbeec9922	-0.4621058
133	0xbbb8ccee	-0.005639664
134	0xbc2c15f0	-0.010503277
135	0x384f50ad	4.942778e-05
136	0xbeec9922	-0.4621058
137	0xbbb8ccee	-0.005639664
138	0x3bc8a789	0.0061234874
139	0x3d442e5e	0.04789578
140	0x3c0e54a3	0.008687171
141	0xba19d79a	-0.0005868614
142	0x3bc8a789	0.0061234874
143	0x3d442e5e	0.04789578
144	0xbeec6c15	-0.4617621
145	0xbbb8e39a	-0.0056423666
146	0xbabb5c1d	-0.001429442
147	0x3885eb6f	6.385787e-05
148	0xbeec6c15	-0.4617621
149	0xbbb8e39a	-0.0056423666
150	0x3bc10235	0.0058901557
151	0x3d4450e7	0.047928717
152	0xbae99156	-0.0017819803
153	0xba6dc7fa	-0.00090706313
154	0x3bc10235	0.0058901557
155	0x3d4450e7	0.047928717
156	0xbeec822a	-0.46193057
157	0xbbb902aa	-0.0056460695
158	0x3c2d2d86	0.010569936
159	0x38b0f74b	8.438396e-05
160	0xbeec822a	-0.46193057
161	0xbbb902aa	-0.0056460695
162	0x3bcbc869	0.006218959
163	0x3d44839a	0.047977068
164	0xbc61a538	-0.013772301
165	0xba85e412	-0.0010215065
166	0x3bcbc869	0.006218959
167	0x3d44839a	0.047977068
168	0xbeecae18	-0.46226573
169	0xbbb929db	-0.0056507415
170	0x3a6bf42d	0.00090009236
171	0x39028b66	0.00012449696
172	0xbeecae18	-0.46226573
173	0xbbb929db	-0.0056507415
174	0x3be936ad	0.0071171136
175	0x3d44ba26	0.048029087
176	0xbcad6686	-0.021167051
177	0xba8bab8e	-0.0010655986
178	0x3be936ad	0.0071171136
179	0x3d44ba26	0.048029087
180	0xbeecd373	-0.46255073
181	0xbbb96475	-0.0056577274
182	0x3c5359ad	0.012899798
183	0x3926274b	0.00015845631
184	0xbeecd373	-0.46255073
185	0xbbb96475	-0.0056577274
186	0x3c02da37	0.007986597
187	0x3d44f341	0.048083548
188	0xbbf9fc60	-0.0076289624
189	0xba9655f2	-0.0011469705
190	0x3c02da37	0.007986597
191	0x3d44f341	0.048083548
192	0xbeed0f4b	-0.4630073
193	0xbbb9ade1	-0.00566648
194	0x3b63e9dd	0.0034776845
195	0x395dc0f6	0.00021148086
196	0xbeed0f4b	-0.4630073
197	0xbbb9ade1	-0.00566648
198	0x3c012b56	0.007883867
199	0x3d453788	0.04814866
200	0x3c81e6f5	0.0158572
201	0xbabc2dc2	-0.0014356899
202	0x3c012b56	0.007883867
203	0x3d453788	0.04814866
204	0xbeed458b	-0.4634212
205	0xbbba107a	-0.0056782337
206	0x3c7d94a6	0.015477335
207	0x398b211d	0.00026536817
208	0xbeed458b	-0.4634212
209	0xbbba107a	-0.0056782337
210	0x3be0cd16	0.0068603856
211	0x3d4584fe	0.048222534
212	0x3cb6df3d	0.022323245
213	0xbac99f57	-0.001538257
214	0x3be0cd16	0.0068603856
215	0x3d4584fe	0.048222534
216	0xbeed92fb	-0.464012
217	0xbbba89ef	-0.0056927125
218	0x3bcf3a23	0.006324069
219	0x39af02d2	0.00033380702
220	0xbeed92fb	-0.464012
221	0xbbba89ef	-0.0056927125
222	0x3bc2c86c	0.0059443023
223	0x3d45d873	0.048302125
224	0x3c49d078	0.012317769
225	0xbadd141a	-0.0016866953
226	0x3bc2c86c	0.0059443023
227	0x3d45d873	0.048302125
228	0xbeeddbe2	-0.4645682
229	0xbbbb22b0	-0.005710922
230	0x3c961b66	0.018323611
231	0x39d4847d	0.00040534502
232	0xbeeddbe2	-0.4645682
233	0xbbbb22b0	-0.005710922
234	0x3bb52cb1	0.0055290093
235	0x3d463784	0.048392788
236	0x3b120bb1	0.00222848
237	0xbb0b7faf	-0.0021285822
238	0x3bb52cb1	0.0055290093
239	0x3d463784	0.048392788
240	0xbeee3cbe	-0.46530718
241	0xbbbbda36	-0.0057328
242	0x3c1b0d7b	0.009463663
243	0x3a0115f6	0.0004924232
244	0xbeee3cbe	-0.46530718
245	0xbbbbda36	-0.0057328
246	0x3bb909f2	0.0056469375
247	0x3d46ba65	0.048517603
248	0xbc1af072	-0.009456741
249	0xbb3bfb7e	-0.0028683837
250	0x3bb909f2	0.0056469375
251	0x3d46ba65	0.048517603
252	0xbeee9a3a	-0.4660204
253	0xbbbcb912	-0.005759367
254	0x3cafd34f	0.021463064
255	0x3a198ea6	0.0005857743

z f4 [500, 36]
0	0xbfdd0f98	-1.7270384
1	0x4034de5e	2.8260722
2	0x3fa978db	1.3240007
3	0x4015f3b6	2.343
4	0x3f14f879	0.5819164
5	0x3d9d9bec	0.07695755
6	0x3eff22d5	0.49831262
7	0x3fc1be2d	1.5136162
8	0x3f859086	1.043473
9	0xbf8db6a6	-1.1071365
10	0x3eef012f	0.4668059
11	0xbf090dd4	-0.53536725
12	0x3fb13275	1.3843523
13	0x400310e2	2.0479054
14	0xbe8a552c	-0.27018106
15	0x3f71249a	0.94196475
16	0x3fc34e96	1.5258358
17	0x3dc8f0f6	0.09811585
18	0xbf600ad9	-0.8751655
19	0xbd097bd1	-0.033565346
20	0x400f18be	2.2358851
21	0x3f2dd0c9	0.67896706
22	0x3fb5d001	1.4204103
23	0x3de5855e	0.112070784
24	0xbf7cfb4c	-0.9882095
25	0x3fa3c7f4	1.2795396
26	0x3f122bdf	0.5709819
27	0x3f99e016	1.2021511
28	0xbf204ca3	-0.6261694
29	0xbfa1ca38	-1.2639837
30	0x3f57134b	0.84013814
31	0x3fd4d1ca	1.6626523
32	0x3f62efaa	0.8864695
33	0xbf40af3a	-0.75267375
34	0xbfb9603e	-1.4482496
35	0x3f462d5b	0.77412957
36	0xbfdcedd1	-1.7260076
37	0x4034e1d8	2.8262844
38	0x3fa9764a	1.3239224
39	0x401605b2	2.3440976
40	0x3f14f7d5	0.5819066
41	0x3d9c7d7c	0.07641122
42	0x3eff307e	0.49841684
43	0x3fc1ce2b	1.5141042
44	0x3f854851	1.0412694
45	0xbf8d7d5a	-1.1053879
46	0x3eeeb204	0.4662019
47	0xbf091557	-0.53548187
48	0x3fb10a39	1.3831245
49	0x4003112d	2.0479233
50	0xbe8a6c33	-0.27035674
51	0x3f713b36	0.94230974
52	0x3fc34fbc	1.5258708
53	0x3dc926ea	0.098218754
54	0xbf602d9f	-0.8756961
55	0xbd098f6b	-0.03358404
56	0x400f13ec	2.235591
57	0x3f2ddbc7	0.6791348
58	0x3fb5d9c8	1.4207087
59	0x3de55a98	0.1119892
60	0xbf7d09a7	-0.98842853
61	0x3fa3c666	1.2794921
62	0x3f122f89	0.5710378
63	0x3f99dafd	1.2019955
64	0xbf1fe92a	-0.62465155
65	0xbfa1cb2f	-1.2640132
66	0x3f57245a	0.84039843
67	0x3fd4fc59	1.663951
68	0x3f62ed08	0.8864293
69	0xbf40a9fb	-0.7525937
70	0xbfb95f21	-1.4482156
71	0x3f4612c6	0.77372396
72	0xbfdcb1d5	-1.724177
73	0x40349cb3	2.8220642
74	0x3fa96e7c	1.3236842
75	0x40161b0e	2.3454013
76	0x3f14fe3d	0.58200437
77	0x3d99ddc8	0.075130045
78	0x3efecd5d	0.49766055
79	0x3fc20317	1.5157193
80	0x3f84f314	1.0386682
81	0xbf8cbd64	-1.0995297
82	0x3eed93fa	0.4640196
83	0xbf0934f7	-0.5359644
84	0x3fb10d56	1.3832195
85	0x400312ba	2.048018
86	0xbe8b9922	-0.2726527
87	0x3f71def2	0.9448081
88	0x3fc351b7	1.5259312
89	0x3dc8b95f	0.09800982
90	0xbf6079d8	-0.8768592
91	0xbd09ac32	-0.033611484
92	0x400f0a55	2.2350056
93	0x3f2dfd52	0.6796466
94	0x3fb60e9e	1.4223211
95	0x3de39c0a	0.111137465
96	0xbf7d3bf4	-0.98919606
97	0x3fa3e760	1.2804985
98	0x3f1258de	0.5716685
99	0x3f99dd60	1.2020683
100	0xbf1f5354	-0.62236524
101	0xbfa1aa2e	-1.263006
102	0x3f5735ac	0.8406627
103	0x3fd557ba	1.6667397
104	0x3f62b60f	0.8855905
105	0xbf40ae2c	-0.75265765
106	0xbfb99740	-1.4499283
107	0x3f45c271	0.7724982
108	0xbfdca423	-1.723759
109	0x403452a8	2.817545
110	0x3fa96aaa	1.3235676
111	0x401616f6	2.3451514
112	0x3f15050b	0.5821082
113	0x3d98cf14	0.07461372
114	0x3efe5f65	0.49682155
115	0x3fc220f2	1.5166304
116	0x3f850426	1.0391891
117	0xbf8c4e86	-1.0961463
118	0x3eecec66	0.46274108
119	0xbf0949d4	-0.5362828
120	0x3fb14c93	1.3851494
121	0x400313e5	2.0480893
122	0xbe8c973b	-0.2745913
123	0x3f726730	0.946887
124	0x3fc351f2	1.5259383
125	0x3dc802ca	0.09766157
126	0xbf60927f	-0.87723535
127	0xbd09ae72	-0.03361363
128	0x400f074f	2.234821
129	0x3f2e100b	0.6799323
130	0x3fb635b2	1.4235137
131	0x3de209ea	0.11037047
132	0xbf7d561a	-0.98959506
133	0x3fa408c2	1.2815173
134	0x3f1279d2	0.57217133
135	0x3f99e7af	1.2023829
136	0xbf1f4f14	-0.6223004
137	0xbfa18818	-1.2619658
138	0x3f572c22	0.84051716
139	0x3fd57562	1.6676447
140	0x3f62837a	0.8848187
141	0xbf40b8db	-0.7528207
142	0xbfb9d0b2	-1.4516814
143	0x3f45993a	0.7718693
144	0xbfdc8545	-1.7228171
145	0x4034866a	2.820704
146	0x3fa9678c	1.3234725
147	0x401638f7	2.3472269
148	0x3f150a3d	0.5821875
149	0x3d975ba6	0.073905274
150	0x3eff09d6	0.49812192
151	0x3fc23442	1.5172198
152	0x3f847c9b	1.0350527
153	0xbf8c1cfe	-1.0946348
154	0x3eec7797	0.4618499
155	0xbf0950aa	-0.5363871
156	0x3fb0de78	1.3817892
157	0x400312b1	2.0480158
158	0xbe8cc896	-0.27496785
159	0x3f726ec0	0.9470024
160	0x3fc35428	1.5260057
161	0x3dc81341	0.097692974
162	0xbf60cadc	-0.8780954
163	0xbd09bad8	-0.033625454
164	0x400efb27	2.2340791
165	0x3f2e13fb	0.6799924
166	0x3fb62cbc	1.4232402
167	0x3de32f86	0.11093049
168	0xbf7d6d33	-0.9899475
169	0x3fa40617	1.2814358
170	0x3f125f9b	0.5717713
171	0x3f99d3bc	1.2017741
172	0xbf1e9d8e	-0.6195916
173	0xbfa19e10	-1.2626362
174	0x3f5763d9	0.8413673
175	0x3fd5bedd	1.6698872
176	0x3f62a322	0.8853017
177	0xbf40b141	-0.7527047
178	0xbfb9a854	-1.4504495
179	0x3f456d36	0.7711977
180	0xbfdca8e9	-1.7239047
181	0x4034cb37	2.8249032
182	0x3fa968a9	1.3235065
183	0x401636df	2.347099
184	0x3f150bb7	0.58221
185	0x3d98b544	0.07456449
186	0x3eff46b7	0.4985864
187	0x3fc21b57	1.5164593
188	0x3f8480ed	1.0351845
189	0xbf8c7c66	-1.0975463
190	0x3eecefa3	0.46276578
191	0xbf094037	-0.5361361
192	0x3fb09f10	1.3798542
193	0x4003114a	2.0479302
194	0xbe8c2e04	-0.27378857
195	0x3f71e4fd	0.94490033
196	0x3fc353c5	1.525994
197	0x3dc89313	0.09793677
198	0xbf60b4d1	-0.87775904
199	0xbd09aa84	-0.033609882
200	0x400efe5e	2.2342753
201	0x3f2dff93	0.679681
202	0x3fb6076c	1.4221015
203	0x3de49254	0.111607224
204	0xbf7d59bc	-0.9896505
205	0x3fa3ef97	1.2807492
206	0x3f124665	0.57138664
207	0x3f99c992	1.2014639
208	0xbf1eb115	-0.61988956
209	0xbfa1c064	-1.2636838
210	0x3f577db6	0.84176195
211	0x3fd5a8a9	1.6692096
212	0x3f62cef5	0.8859704
213	0xbf40ac03	-0.7526247
214	0xbfb9789a	-1.448993
215	0x3f458858	0.7716117
216	0xbfdcca45	-1.7249228
217	0x40352079	2.830107
218	0x3fa96a4b	1.3235563
219	0x401637b7	2.3471506
220	0x3f150b32	0.5822021
221	0x3d9a2588	0.0752669
222	0x3eff864d	0.4990715
223	0x3fc1fdc7	1.5155572
224	0x3f8477ab	1.034902
225	0xbf8ce9c9	-1.1008846
226	0x3eed838d	0.46389428
227	0xbf092c33	-0.5358307
228	0x3fb0465c	1.3771472
229	0x40030fe8	2.0478458
230	0xbe8b4f68	-0.2720902
231	0x3f713208	0.94216967
232	0x3fc35365	1.5259825
233	0x3dc95a3d	0.09831665
234	0xbf609ee6	-0.8774246
235	0xbd099dbc	-0.033597693
236	0x400f0219	2.234503
237	0x3f2de95f	0.6793422
238	0x3fb5dba6	1.4207656
239	0x3de63800	0.1124115
240	0xbf7d4056	-0.98926294
241	0x3fa3cea6	1.2797439
242	0x3f12291d	0.57093984
243	0x3f99bd87	1.2010964
244	0xbf1eb6dc	-0.6199777
245	0xbfa1ebe4	-1.2650113
246	0x3f579d09	0.8422399
247	0x3fd5917b	1.6685022
248	0x3f630496	0.8867887
249	0xbf40a2da	-0.7524849
250	0xbfb93cac	-1.447164
251	0x3f45a965	0.772116
252	0xbfdced17	-1.7259854
253	0x40354500	2.8323364
254	0x3fa96b22	1.3235819
255	0x40162af4	2.3463717
