weights/sae_policy_norm_buzz_wire.pt (torch, 202671 bytes, 33 tensors)

weight f4 [50, 64]
0	0x386b7678	5.61387e-05
1	0x3d8afa42	0.06786014
2	0xbdd2b316	-0.10288064
3	0xbdbc6680	-0.09199238
4	0xbd4532f4	-0.048144296
5	0x3d094bec	0.03351967
6	0xbb224f40	-0.0024766475
7	0x3dcaface	0.099111184
8	0xbc35bf70	-0.011093006
9	0x3d077b4c	0.03307657
10	0xbd1abbac	-0.037776634
11	0xbcc94870	-0.024570674
12	0xbdf491b8	-0.11941856
13	0xbda98b52	-0.08278526
14	0xbd530ee8	-0.051527888
15	0x3b97bb00	0.0046304464
16	0x3d4a6960	0.0494169
17	0x3d999b18	0.07500285
18	0xbdad8d8c	-0.084742635
19	0xbd5ef4fc	-0.054432854
20	0x3d39f798	0.04540214
21	0x3dd4944e	0.103798494
22	0xbcd2bd48	-0.025725022
23	0x3dbf915c	0.09353897
24	0xbca50d40	-0.02014792
25	0x3c58b510	0.013226762
26	0x3de7cd4a	0.11318453
27	0xbded7bce	-0.115958795
28	0xbda12966	-0.07869224
29	0xbd019ee0	-0.031645656
30	0xbd4793dc	-0.048724994
31	0x3ddd2f28	0.1080001
32	0xbda5ef1a	-0.08102246
33	0xbd6bb0c0	-0.05754161
34	0xbdb2da1a	-0.08733006
35	0xbdefc276	-0.11707012
36	0xbd957004	-0.07296756
37	0x3ddc0e9e	0.107449755
38	0x3d6476bc	0.055777296
39	0x3d782700	0.06058407
40	0x3bd76a40	0.0065739453
41	0xbd833f3a	-0.06408544
42	0x3cad3ec0	0.021148086
43	0xbdef069e	-0.11671184
44	0xbdb8fa1a	-0.09032078
45	0xbd83f9c6	-0.06444125
46	0x3da18526	0.07886724
47	0x3d961926	0.073290154
48	0xbd6311c8	-0.05543688
49	0xbb93cb20	-0.0045102984
50	0x3da3ba40	0.07994509
51	0x3dfe7f82	0.12426664
52	0x3d4b3424	0.049610272
53	0x3c8a55c8	0.016886607
54	0x3daba4fe	0.08381079
55	0xbd96bbc0	-0.07360029
56	0x3cbed0f8	0.023293003
57	0xbdc67a6c	-0.09691319
58	0xbdb16e18	-0.08663577
59	0xbd843ed2	-0.064572945
60	0x3d67aa8c	0.05655913
61	0x3d4de7f8	0.05027005
62	0xbd97a46a	-0.07404406
63	0x3d1aadc8	0.037763387
64	0x3d96b643	0.073589824
65	0xbc599a50	-0.01328142
66	0x3b9c6440	0.004772693
67	0x3ced4400	0.028963089
68	0x3d9ed100	0.07754707
69	0x3df5cf48	0.120024264
70	0xbdc54796	-0.096327946
71	0xbd3ba1ec	-0.045808718
72	0x3d493898	0.049126238
73	0x3dd41bd0	0.10356867
74	0x3ddec5e8	0.10877591
75	0x3de1e222	0.110294595
76	0x3ccbca78	0.024876818
77	0xbdde9cf8	-0.10869783
78	0x3c3c6690	0.011499062
79	0xbda027ac	-0.07820067
80	0xbdee948c	-0.11649427
81	0x3de3743e	0.11106156
82	0x3dc2a6f0	0.09504497
83	0xbdff5dfe	-0.124690995
84	0x3cbfaa08	0.023396507
85	0xbcac80c8	-0.021057501
86	0xbca882b8	-0.020570144
87	0xbd6a5f1c	-0.05721961
88	0x3d44e48c	0.04806952
89	0xbd97a134	-0.07403794
90	0x3d3bb1dc	0.045823917
91	0x3d817616	0.06321351
92	0x3db7435c	0.08948395
93	0x3d3f7148	0.046738893
94	0xbdfd5f4a	-0.123716906
95	0xbda61100	-0.08108711
96	0x3d7fa638	0.062414378
97	0x3cd65318	0.026162669
98	0xbdc7b396	-0.0975105
99	0xbd9368e8	-0.07197744
100	0x3df0d4f2	0.11759366
101	0x3dac7f54	0.084227234
102	0xbd5f3eb0	-0.054503143
103	0xbd00dcd4	-0.031460598
104	0xbdf3dd78	-0.11907476
105	0xbb133e80	-0.0022467673
106	0xbdc0c878	-0.094132364
107	0xbdc577a2	-0.09641959
108	0xbbe1b020	-0.006887451
109	0x3c99bfa0	0.018768132
110	0xbd51adf4	-0.051191285
111	0x3d97e798	0.0741722
112	0xbd9bc938	-0.07606739
113	0x3de84968	0.11342126
114	0x3daf6fd0	0.085662484
115	0xbdd7e164	-0.10541037
116	0xbcfedb88	-0.03111054
117	0x3bb8d280	0.005640328
118	0x3c956718	0.018237635
119	0x3cf2ddd0	0.029646784
120	0x3d48ec5c	0.049053535
121	0x3bf559e0	0.0074875206
122	0xbd79d1cc	-0.060991094
123	0x3d7245d4	0.059148625
124	0xbdf59156	-0.11990611
125	0xbd97bba0	-0.074088335
126	0xbd002b3c	-0.03129123
127	0xbd7966ec	-0.06088917
128	0xbd0bc393	-0.03412206
129	0xbdf4f152	-0.11960091
130	0xbcd9d200	-0.026589394
131	0x3cdae2f8	0.026719555
132	0xbda6c676	-0.08143322
133	0xbbd23440	-0.00641492
134	0x3db74200	0.089481354
135	0xbc5288f0	-0.012850031
136	0x3b63ac80	0.003474027
137	0xbc30adc0	-0.010783613
138	0x3ccf3d10	0.025297672
139	0x3da2c660	0.07947993
140	0x3df27eba	0.118405774
141	0x3da29306	0.07938199
142	0x3df30cc4	0.11867669
143	0xbc141d60	-0.009040207
144	0xbde5f866	-0.11229019
145	0xbd72ba40	-0.059259653
146	0x3dae4fce	0.08511315
147	0xba546b00	-0.00081031024
148	0xbd7e7cdc	-0.062130794
149	0xbdc42d02	-0.09578897
150	0xbdef9400	-0.11698151
151	0xbdd810ec	-0.105501026
152	0xbccfb470	-0.025354594
153	0x3d8c6456	0.06855075
154	0x3d8a6774	0.06758013
155	0xbdf6e502	-0.120553985
156	0x3d9fb02e	0.077972755
157	0xbdc8528a	-0.09781368
158	0xbcd87bf0	-0.026426286
159	0xbd4f9a1c	-0.05068408
160	0xbcc53cf0	-0.024076909
161	0xbcc90e10	-0.024542838
162	0xbde5b8ba	-0.112168744
163	0xbddd0a44	-0.10792974
164	0xbca03c28	-0.019559935
165	0x3ad3e180	0.0016165227
166	0xbd6896b8	-0.05678436
167	0x3d40deb8	0.0470874
168	0xbde66a3a	-0.1125073
169	0xbc0a36c0	-0.008435905
170	0x3de121a2	0.10992743
171	0xbd50d738	-0.0509865
172	0x3de72b36	0.11287539
173	0x3d396c38	0.04526922
174	0xbde707ae	-0.11280762
175	0x3da1f874	0.07908717
176	0xbc6c53f0	-0.014424309
177	0xbd648f70	-0.055800855
178	0x3dccb614	0.09995666
179	0xbdcedf54	-0.1010119
180	0x3c5bc2b0	0.013413116
181	0xbcd664c0	-0.026171088
182	0x3db6d016	0.08926408
183	0x3d0eec08	0.034893066
184	0x3d7604cc	0.06006317
185	0x3d34d140	0.04414487
186	0xbcf63f00	-0.030059338
187	0xbcd75a50	-0.026288182
188	0xbdd2f700	-0.10301018
189	0x3d8ab64c	0.067730516
190	0x3dcb4226	0.09924726
191	0x3daf295c	0.085528105
192	0xbdb6ebcc	-0.089316934
193	0xbb9e3c8f	-0.0048289965
194	0xbdb47690	-0.088116765
195	0xbd8cec88	-0.06881052
196	0xbd952c30	-0.07283819
197	0x3d2ef934	0.042718127
198	0xbd988dc4	-0.07448915
199	0xbb32ba00	-0.002727151
200	0x3bac4fa0	0.0052585155
201	0x3da50604	0.08057788
202	0xbdc183fa	-0.09449001
203	0xbdafbf44	-0.08581403
204	0xbd94a63c	-0.07258269
205	0x3db32ed6	0.087491676
206	0xbd380bcc	-0.044933125
207	0x3dd7eee0	0.10543609
208	0x3d3924a0	0.045200944
209	0x3c81aa40	0.015828252
210	0xba73ed00	-0.000930503
211	0xbcca6d08	-0.024710193
212	0x3c807a40	0.015683293
213	0xbce9d330	-0.028543085
214	0xba663e00	-0.00087830424
215	0x3c82a7c0	0.01594913
216	0xbdc83e98	-0.09777564
217	0xbd862d7a	-0.06551643
218	0x3dceb7d8	0.10093659
219	0xbdcfc186	-0.101443335
220	0xbc130f20	-0.008975774
221	0x3dfd3ec0	0.12365484
222	0x3d38f410	0.04515463
223	0x3b67f0c0	0.00353913
224	0xbdddda26	-0.10832624
225	0x3d7da22c	0.061922237
226	0xbdb65808	-0.089035094
227	0xbd1156a8	-0.035483032
228	0xbd2bc8cc	-0.04193954
229	0xbc97a438	-0.018510923
230	0x3ab33680	0.0013672858
231	0x3dd32696	0.10310094
232	0x3c7fab80	0.015604854
233	0x3de54c20	0.1119616
234	0x3d9c9930	0.07646406
235	0xbda1d8c6	-0.079026744
236	0x3d65a254	0.05606301
237	0xbdb4f724	-0.08836201
238	0xbd58ff9c	-0.052978143
239	0x3d169740	0.036765337
240	0x3d290ef0	0.04127401
241	0x3dc00ef2	0.093778506
242	0xbd24d228	-0.040239483
243	0x3951d400	0.0002001077
244	0x3d83cb7a	0.064352944
245	0xbdf7935a	-0.12088652
246	0x3db91542	0.09037258
247	0xbdd3b130	-0.1033653
248	0x3ae1d000	0.0017228127
249	0xbcae18e0	-0.021252096
250	0xbd86d40a	-0.06583412
251	0x3c8757d8	0.01652138
252	0x3dd3b0f2	0.10336484
253	0xbd15aae8	-0.036539942
254	0xbd97fc56	-0.07421176
255	0xbd3d5b84	-0.046229854

bias f4 [50]
0	0xbd4124ff	-0.047154423
1	0xbd23a5c8	-0.039953023
2	0xbd07b03c	-0.033127055
3	0xbdee9d8e	-0.11651145
4	0xbda2bc7c	-0.07946107
5	0x3a180812	0.00057995424
6	0xbd20e7e4	-0.039283648
7	0xbdfee19c	-0.12445375
8	0x3cc31db3	0.023817873
9	0x3d945bc5	0.07244066
10	0x3dc021fd	0.09381483
11	0x3dd12d40	0.10213709
12	0xbdb34d44	-0.087549716
13	0xbd55e650	-0.052221596
14	0xbd65897f	-0.05603933
15	0x3ca2178c	0.019786619
16	0x3cce75af	0.0252026
17	0x3d08cb2c	0.033396885
18	0x3d998385	0.074957885
19	0x3d820c27	0.06349974
20	0xbd711fee	-0.05886834
21	0x3db394f6	0.087686464
22	0x3d9a7934	0.07542649
23	0x3c69d4f1	0.014271961
24	0xbdda7376	-0.10666554
25	0xbd99f63a	-0.07517667
26	0x3cc95f3a	0.02458154
27	0x3d12ce7a	0.035841443
28	0x3de904fb	0.11377903
29	0x3d921f6f	0.07134902
30	0x3d848309	0.064703055
31	0xbc59f13e	-0.0133021455
32	0x3dacbf04	0.08434871
33	0xbd4cb1b2	-0.04997415
34	0x3d5fbe41	0.0546248
35	0xbda540bd	-0.080689885
36	0xbb9c364a	-0.004767214
37	0x3dc36620	0.09540963
38	0x3d55d743	0.052207243
39	0xbcd318b0	-0.025768608
40	0xbbfce7fe	-0.0077180853
41	0xbdad7f7c	-0.08471581
42	0x3d65bf00	0.056090355
43	0x3da93992	0.08262934
44	0x3d6d60db	0.057953697
45	0xbdf51c38	-0.11968273
46	0xbdc2a45d	-0.09504006
47	0x3db73c64	0.089470655
48	0xbc37e9aa	-0.011225143
49	0x3d9143dc	0.07093021

weight f4 [50]
0	0x3f7c3929	0.9852472
1	0x3f7f41b2	0.9970962
2	0x3f7f8bac	0.998225
3	0x3f80ff07	1.0077828
4	0x3f80163e	1.0006788
5	0x3f810f8d	1.0082871
6	0x3f7a2c5c	0.9772394
7	0x3f7c4ef2	0.9855796
8	0x3f7de5cc	0.9917877
9	0x3f7f8f8f	0.9982843
10	0x3f7ce2bb	0.98783463
11	0x3f7e58d4	0.9935429
12	0x3f7bda88	0.9838033
13	0x3f81b0ad	1.0132042
14	0x3f8053af	1.0025538
15	0x3f7cd48f	0.9876184
16	0x3f7aeccc	0.98017573
17	0x3f7feceb	0.99970883
18	0x3f7ffb60	0.9999294
19	0x3f7e4272	0.9932014
20	0x3f7e0c5c	0.9923761
21	0x3f7fb20b	0.99881047
22	0x3f7ca20e	0.98684776
23	0x3f7eb847	0.99499935
24	0x3f803c39	1.0018378
25	0x3f7ea922	0.99476826
26	0x3f7bdd43	0.98384494
27	0x3f7de593	0.9917843
28	0x3f7ec3b0	0.99517345
29	0x3f8046c2	1.0021594
30	0x3f7fb2db	0.99882287
31	0x3f7c9881	0.986702
32	0x3f7ed502	0.99543774
33	0x3f7ddc8f	0.9916467
34	0x3f803565	1.0016295
35	0x3f7d40c1	0.9892693
36	0x3f8112ed	1.0083901
37	0x3f824108	1.0176096
38	0x3f7db15a	0.9909874
39	0x3f8015a4	1.0006604
40	0x3f811865	1.008557
41	0x3f80c183	1.0059055
42	0x3f7f0734	0.99620366
43	0x3f7f33e7	0.9968857
44	0x3f7c8502	0.98640454
45	0x3f7fc46d	0.99909097
46	0x3f7dbda5	0.991175
47	0x3f801d5f	1.0008963
48	0x3f8051c8	1.0024958
49	0x3f7dec34	0.9918854

bias f4 [50]
0	0xbbb734d9	-0.0055910167
1	0x3ad0e7f5	0.0015938269
2	0x3ac6794b	0.0015142349
3	0xbc07197d	-0.008245823
4	0x3af8b3cf	0.0018974486
5	0x3c2ce5bd	0.010552821
6	0xbcb44566	-0.022005748
7	0x3c6b8906	0.014375931
8	0xbbd686e5	-0.0065468424
9	0x3afcfa05	0.0019300586
10	0xbc41db58	-0.011832081
11	0xbbbb8d57	-0.005723636
12	0x3c847b34	0.01617203
13	0xbc607770	-0.013700351
14	0xbb07f66d	-0.0020746246
15	0xbc2dd2df	-0.010609358
16	0xbc0eac57	-0.008708081
17	0x3b8b95a4	0.004259782
18	0x38eadc3b	0.000111990106
19	0xbbd40cf3	-0.00647127
20	0x3c21ab0b	0.00986744
21	0xb9c66fd7	-0.0003784883
22	0xbc52e928	-0.012872972
23	0xbb9b63ff	-0.004742145
24	0xbb1be6b4	-0.0023788633
25	0xbb8794ba	-0.0041376026
26	0xbc7218a4	-0.014776383
27	0xbbf1cb97	-0.007379006
28	0xbb99d69c	-0.004694773
29	0x3b1fa2e9	0.0024358577
30	0x3c91e747	0.017810477
31	0xbc357d70	-0.01107727
32	0xbb47d03d	-0.003048911
33	0xbbf2536b	-0.007395198
34	0x3b1e0cea	0.0024116584
35	0xbc1302ca	-0.008972833
36	0xbc125f7b	-0.008933897
37	0x3c91f322	0.01781613
38	0xbc0e519c	-0.008686449
39	0x3a9c56db	0.001192774
40	0xbc12c6cc	-0.00895853
41	0x3a3c93b7	0.0007193642
42	0xbb7d61b6	-0.0038662977
43	0xbb2d8a7b	-0.0026480246
44	0x3c6191d4	0.013767678
45	0xbbb20eef	-0.005433909
46	0x3bd893e0	0.006609425
47	0x3a9bd93b	0.0011890301
48	0x3b53c8c1	0.0032315704
49	0xbbfb7064	-0.00767331

weight f4 [36, 50]
0	0x3dca7650	0.098858476
1	0xbd1f758f	-0.038930472
2	0xbdc114c9	-0.094277926
3	0xbe13f366	-0.14448318
4	0x3d2ea682	0.042639263
5	0x3dac0e33	0.08401146
6	0xbc5f6a80	-0.013636231
7	0xbe18643c	-0.14881986
8	0xbdcc88b8	-0.099870145
9	0xb9bd0ae7	-0.00036057012
10	0x3d9a9cbc	0.07549426
11	0xbd13b19d	-0.036058057
12	0xbdd26706	-0.102735564
13	0xbde15b69	-0.11003763
14	0x3deb8f3c	0.11501929
15	0x3d61aacf	0.055094536
16	0xbe014128	-0.12622511
17	0xbdb2e0ba	-0.087342694
18	0xbdde7ec9	-0.10864026
19	0x3d026bbf	0.031841036
20	0xbd8d2ac6	-0.06892924
21	0x3c3b06de	0.0114152115
22	0xbc2c0350	-0.010498837
23	0xbde62f39	-0.11239476
24	0xbe0d3151	-0.13788344
25	0xbdd8f2bb	-0.10593172
26	0xbd44cf79	-0.048049424
27	0x3d088231	0.033327285
28	0xbd61cf70	-0.05512947
29	0x3bd08eb4	0.006364668
30	0xbcc197c9	-0.023631947
31	0x3e10413b	0.14087383
32	0xbd589d2f	-0.052884277
33	0x3e122a5c	0.14273971
34	0xbdc69235	-0.096958555
35	0xbe049409	-0.12947096
36	0x3d0d6a76	0.034525357
37	0xbd901be7	-0.07036572
38	0x3dabf05d	0.08395455
39	0xbd8860f7	-0.066591196
40	0x3dcc7df1	0.09984959
41	0x3e00724a	0.12543598
42	0x3ca87b57	0.020566626
43	0x3d2ae4be	0.04172205
44	0x3df65a93	0.120289944
45	0x3d9435a9	0.07236797
46	0xbe0a2893	-0.1349204
47	0x3be12963	0.0068713888
48	0xbdeda6da	-0.1160409
49	0x3df43423	0.11924007
50	0xbd1ee256	-0.03879007
51	0x3b789bac	0.0037934585
52	0xbdad2043	-0.08453419
53	0xbd98d637	-0.07462733
54	0x3ca9a07b	0.020706406
55	0x3de76405	0.11298374
56	0xbd958100	-0.072999954
57	0x3c8002d0	0.015626341
58	0x3e002e79	0.12517728
59	0x3def321f	0.11679482
60	0xbcf5d64e	-0.030009415
61	0x3e047e93	0.12938909
62	0x3d5c2854	0.053749397
63	0x3e061675	0.13094504
64	0x3bd71662	0.0065639475
65	0xbdf2d753	-0.11857476
66	0xbd1221d7	-0.035676803
67	0x3d21256b	0.039342325
68	0x3d937382	0.07199766
69	0xbe128dc0	-0.14311886
70	0x3de5ce63	0.11221006
71	0xbe031ebf	-0.12804697
72	0x3da4c8a8	0.08046085
73	0x3e0cab21	0.13737155
74	0x3d1783af	0.036990818
75	0xbccd6097	-0.025070472
76	0x3d9953e2	0.074867025
77	0xbd3460ec	-0.044037744
78	0xbddb18c5	-0.10698084
79	0xbdd2061d	-0.10255072
80	0x3d92d6e8	0.07169896
81	0x3dd9e7cb	0.10639914
82	0x3b7db0ae	0.0038710046
83	0xbe0fa1a9	-0.14026512
84	0xbe103f15	-0.14086564
85	0xbcf31b8f	-0.029676227
86	0x3da1087b	0.07862946
87	0xbdc54bda	-0.09633608
88	0x3d143da0	0.036191583
89	0xbda322de	-0.07965635
90	0x3df043df	0.117316954
91	0xbd0e421b	-0.03473101
92	0xbd039f7f	-0.03213453
93	0xbe014797	-0.12624966
94	0xbdfe3226	-0.12411909
95	0x3c41d1b9	0.011829787
96	0x3ccdc3ff	0.025117872
97	0x3d97ed85	0.0741835
98	0xbe006043	-0.12536721
99	0x3cb48624	0.02203662
100	0xbc95b699	-0.018275546
101	0x3d98ce9b	0.07461282
102	0xbd74cb52	-0.059764214
103	0x3d3fc646	0.046819948
104	0x3d7d27d5	0.061805565
105	0x3d85ee22	0.06539561
106	0xbd5699ee	-0.052392893
107	0x3d4e5cf9	0.050381634
108	0xbca760b1	-0.020431848
109	0x3ceccbb6	0.02890573
110	0xbdb9c6d3	-0.09071126
111	0xbdedb5ef	-0.11606967
112	0xbde349d7	-0.11098068
113	0xbdac7c78	-0.08422178
114	0xbd61401b	-0.054992776
115	0x3c9ec622	0.019381586
116	0xbce7a90c	-0.02827885
117	0xbdaecb64	-0.085348874
118	0xbaf4b43e	-0.0018669439
119	0xbd4985c1	-0.049199823
120	0x3dbc2e46	0.091885135
121	0xbdf85282	-0.12125112
122	0xbd6a5b0c	-0.057215735
123	0xbdc3f8b6	-0.09568922
124	0x3cb68718	0.022281215
125	0x3c86b67d	0.016444439
126	0xbc46f2e9	-0.012142875
127	0x3e09c466	0.13453826
128	0xbd716c4f	-0.05894118
129	0xbccdf213	-0.025139844
130	0x3d01888f	0.031624373
131	0x3de63c12	0.11241926
132	0x3dd0d017	0.1019594
133	0x3c647c4f	0.013945653
134	0xbd6f7ab9	-0.058466647
135	0x3d51b3ec	0.051196977
136	0x3dbfe322	0.09369494
137	0xbc0d1513	-0.0086109815
138	0x3d960c01	0.07326508
139	0x3de3a8d2	0.11116184
140	0xbd919931	-0.07109297
141	0xbcd9ad24	-0.026571818
142	0xbe074167	-0.13208543
143	0x3ce6e5bd	0.02818572
144	0x3dd63c77	0.104607515
145	0xbcba4d56	-0.022741955
146	0x3cdfc6ff	0.027316568
147	0x3d240c49	0.04005078
148	0xbc047cc4	-0.008086387
149	0x3dd7ff5d	0.105467536
150	0x3c80ede5	0.015738437
151	0xbe043750	-0.12911725
152	0xbdd08559	-0.10181684
153	0xbe004c73	-0.12529163
154	0x3ca7aecb	0.02046909
155	0x3d7108a5	0.058846135
156	0xbd06b7b3	-0.032890033
157	0x3e1155ca	0.14192882
158	0xbc7365f4	-0.0148558505
159	0x3c805d36	0.015669446
160	0x3de5d0cb	0.11221465
161	0x3d66ad43	0.05631758
162	0x3c28709a	0.010280753
163	0x3e1a6d12	0.1508067
164	0xbd8e6d32	-0.06954421
165	0x3d26a483	0.040684234
166	0x3dd2fee6	0.10302524
167	0xbdb891f4	-0.09012213
168	0xbe168da0	-0.14702463
169	0x3cf9a7e7	0.03047557
170	0xbd1efd62	-0.038815863
171	0xbdae6698	-0.08515662
172	0x3c595be2	0.0132665355
173	0xbdefcfc3	-0.11709549
174	0x3e113791	0.14181353
175	0xbb8b0903	-0.0042430176
176	0xbd739bcd	-0.059474755
177	0x3dd3b1d2	0.10336651
178	0x3cc86764	0.024463363
179	0x3c43a9d4	0.011942346
180	0xbd863894	-0.0655376
181	0x3dee1c4f	0.11626493
182	0xbd6bdbb6	-0.05758258
183	0x3dd06780	0.10175991
184	0xbccc28ca	-0.024921793
185	0x3daf9b26	0.08574514
186	0x3de9fc78	0.11425108
187	0xbdf5942b	-0.119911514
188	0xbdde82df	-0.108648054
189	0xbe1e1afe	-0.15439984
190	0x3deedb3d	0.1166291
191	0x3e0bad58	0.13640344
192	0xbd8831fa	-0.06650157
193	0xbdabbfb9	-0.083861776
194	0x3d1a609a	0.037689783
195	0x3dba3f82	0.090941444
196	0x3d4b9cc8	0.049710065
197	0xbd35b1b1	-0.044358913
198	0xbdd52140	-0.104067326
199	0x3dd806b9	0.10548157
200	0xbdc9076c	-0.09815869
201	0xbdf2975c	-0.11845276
202	0xbd6af930	-0.05736655
203	0x3cdff214	0.027337112
204	0x3d525fe1	0.05136097
205	0x3d65a1fc	0.056062683
206	0xbda6ea79	-0.08150191
207	0xbd62135c	-0.055194244
208	0xbd564304	-0.052310005
209	0xbd7383a6	-0.05945172
210	0xbdf2179e	-0.11820911
211	0x3cf548cb	0.029941937
212	0xbd2c11c2	-0.042009123
213	0xbe0c0e0d	-0.13677235
214	0xbdaae69a	-0.08344765
215	0xbdc4e195	-0.09613339
216	0xbd79279a	-0.060828783
217	0xbda5c9f4	-0.0809516
218	0xbcc3cf83	-0.02390266
219	0x3d52f526	0.051503323
220	0xbdec3a63	-0.11534574
221	0xbc41182a	-0.011785546
222	0xbd23086d	-0.039802957
223	0xbd91d67a	-0.07120986
224	0xbd047472	-0.032337613
225	0xbd802131	-0.06256331
226	0x3bb41c30	0.0054965243
227	0xbdcc04dc	-0.09961864
228	0x3ce2e7f8	0.027698502
229	0x3e059b20	0.13047457
230	0x3df1e672	0.11811532
231	0xbd7757f7	-0.060386624
232	0x3d34b8ef	0.04412168
233	0xbe082549	-0.13295473
234	0x3df4f41f	0.11960625
235	0xbe11373a	-0.14181224
236	0xbe024ff3	-0.1272581
237	0xbe011212	-0.1260455
238	0xbe0551dc	-0.13019508
239	0x3ca2412a	0.019806463
240	0xbd1c8afa	-0.038218476
241	0x3d0704b9	0.03296349
242	0xbbfe5659	-0.0077617583
243	0xbb1dff83	-0.0024108596
244	0xbd56cc9b	-0.05244122
245	0xbdada3c6	-0.08478503
246	0xbdf45237	-0.11929744
247	0x3d9473ea	0.07248671
248	0xbd935ee5	-0.07195834
249	0xbce3f777	-0.027827961
250	0x3d87e430	0.0663532
251	0xbcef4115	-0.029205838
252	0xbd14fd28	-0.03637424
253	0xbdc29b81	-0.09502316
254	0xbdf96443	-0.121773265
255	0x3d866cda	0.065637305

bias f4 [36]
0	0xbe005766	-0.1253334
1	0x3dc3b166	0.095553204
2	0xbd027a2e	-0.0318548
3	0xbe1d2c7f	-0.15349005
4	0x3df983ac	0.121833175
5	0x3dbd3250	0.09238112
6	0x3d3f8231	0.04675502
7	0x3e100d0d	0.14067478
8	0x3e07fa7d	0.13279147
9	0x3df4e2f3	0.1195735
10	0x3e04640f	0.12928794
11	0x3e00471b	0.12527125
12	0x3cf221e6	0.02955718
13	0xbc336285	-0.010948782
14	0xbc4249f9	-0.011858457
15	0xbd29f382	-0.041491993
16	0x3d719def	0.058988508
17	0x3ce4bcd8	0.027922079
18	0x3cdcea6e	0.026967254
19	0xbd979e5a	-0.0740325
20	0xbd7e5856	-0.062095962
21	0x3dddd180	0.108309746
22	0x3c8f3486	0.0174811
23	0x3d51873c	0.05115436
24	0xbdf2da01	-0.11857987
25	0xbd969a94	-0.07353702
26	0x3aa816db	0.0012824194
27	0xbc81b2ac	-0.015832268
28	0x3da9b65b	0.08286735
29	0xbcd2edaa	-0.025748093
30	0x3df4e38c	0.119574636
31	0xbd382014	-0.044952467
32	0x3d73795e	0.059441917
33	0xbdc3ada8	-0.09554607
34	0x3ce93b94	0.028470792
35	0xbe09612c	-0.13415974

weight f4 [21, 6]
0	0xbea78204	-0.32716382
1	0xbe84d1a2	-0.25941187
2	0x3debcfec	0.11514267
3	0x3d0fcf1c	0.035109624
4	0x3d78b932	0.06072349
5	0xbd370077	-0.044678178
6	0x3eb4e4b9	0.35330752
7	0x3ec58bc4	0.38583195
8	0x3e34b6bf	0.17647837
9	0x3ea6317d	0.32459632
10	0xbc4a7e4f	-0.012359216
11	0xbe2624e7	-0.16225015
12	0x3d808cbd	0.06276844
13	0x3e891bb9	0.26778963
14	0xbd667d8a	-0.056272067
15	0xbe9b51bb	-0.30335793
16	0x3dedfc18	0.11620349
17	0xbdd148c6	-0.102189586
18	0xbe4888ee	-0.19583485
19	0x3e8d8f76	0.27648515
20	0xbca8c125	-0.020599911
21	0xbe620078	-0.22070491
22	0xbe76c7c6	-0.24099645
23	0x3ecfd6ad	0.40593472
24	0x3e886b99	0.2664459
25	0xbe8c88c9	-0.2744811
26	0xbbaa4d8b	-0.005197232
27	0xbc90c924	-0.017674036
28	0x3e4b3f3b	0.1984834
29	0xbea9f895	-0.33197466
30	0x3cf9b27b	0.030480614
31	0x3e0b1132	0.13580778
32	0x3e57b697	0.21065746
33	0x3ce0dfb2	0.027450416
34	0xbe34617e	-0.17615315
35	0xbec90297	-0.39259788
36	0x3e598515	0.21242173
37	0x3ec8bbb6	0.39205712
38	0xbe02eee5	-0.12786444
39	0xbebbf47e	-0.3670997
40	0x3deb0e32	0.11477317
41	0xbe884390	-0.26614046
42	0xbe8b01e4	-0.2714988
43	0x3dba8e82	0.091092125
44	0xbd1c8469	-0.038212214
45	0xbced0133	-0.028931236
46	0x3eb7ebeb	0.3592218
47	0xbdbc1816	-0.091842815
48	0x3e785aaa	0.24253336
49	0xbdd9d2df	-0.106359236
50	0x3e97bfbc	0.2963847
51	0x3e004979	0.12528028
52	0x3eb8fb54	0.36129248
53	0x3e26794c	0.16257209
54	0xbe05e2ab	-0.13074748
55	0x3e3b5f55	0.18298085
56	0x3eaca507	0.33719656
57	0x3dc5ddd0	0.09661448
58	0x3e4ff49a	0.20308152
59	0xbe90764c	-0.28215253
60	0x3e55374c	0.20821875
61	0xbec5ac0a	-0.38607818
62	0x3eb6a441	0.3567219
63	0x3e21f153	0.15814714
64	0x3c7a899f	0.0152916005
65	0xbec46ef8	-0.38365912
66	0x3ebcd3e0	0.36880398
67	0x3e8de451	0.27713254
68	0x3ebd421c	0.369645
69	0x3e233dc4	0.1594153
70	0x3e0e69f5	0.13907607
71	0xbdb4dc37	-0.08831065
72	0xbe3b8d78	-0.18315685
73	0x3e3b52df	0.18293332
74	0x3e0e311f	0.13885926
75	0xbc950b00	-0.018193722
76	0x3d5d7e7a	0.054075696
77	0x3e25a9fb	0.16178124
78	0xbecf5f18	-0.40502238
79	0xbeb8537b	-0.3600119
80	0xbdc62e35	-0.09676782
81	0x3e8a3536	0.26993722
82	0x3e4225d5	0.18959744
83	0xbec7ccc7	-0.3902342
84	0xbe111d8d	-0.14171429
85	0xbd02a6e3	-0.031897437
86	0x3e01fb0d	0.12693425
87	0x3ea77b57	0.32711288
88	0xbc31fe16	-0.010863801
89	0xbe9c0e71	-0.30479768
90	0x3d2f8ef6	0.042860948
91	0xbe21e906	-0.15811548
92	0xbe80578b	-0.2506679
93	0x3e6c6a74	0.23087484
94	0xbd24d0d7	-0.040238228
95	0x3e433481	0.19062997
96	0x3ea4e124	0.3220302
97	0x3cf42f20	0.029807627
98	0x3e6671b7	0.22504316
99	0xbe38475b	-0.1799597
100	0x3e6bbfc6	0.23022375
101	0x3bd24908	0.0064173974
102	0x3e898178	0.2685659
103	0x3ec049f6	0.37556428
104	0xbea30de7	-0.31846544
105	0x3ec766ee	0.38945717
106	0x3e9e110e	0.30872387
107	0xbeafceb6	-0.34337395
108	0x3e055608	0.130211
109	0xbea72c1b	-0.32650837
110	0x3e17482c	0.14773625
111	0x3d77a85f	0.060463306
112	0xbec38fe0	-0.38195705
113	0x3e199206	0.1499711
114	0xbdfbaab0	-0.122884154
115	0x3ed201fa	0.41017133
116	0x3ecb2c6d	0.39682332
117	0x3e0a7936	0.13522801
118	0x3e9f7e27	0.31150934
119	0x3e188a3d	0.14896484
120	0x3ec10764	0.3770095
121	0xbd36e973	-0.04465623
122	0x3dd9bae6	0.10631351
123	0xbd8abccc	-0.067742914
124	0xbc7a49be	-0.015276371
125	0xbe02aed9	-0.12762012

bias f4 [21]
0	0xbe2561f7	-0.16150652
1	0x3e63b439	0.22236718
2	0x3e1df68e	0.15426084
3	0xbe4825f6	-0.19545731
4	0xbeba7269	-0.36415413
5	0x3e4da802	0.20083621
6	0xbec378ec	-0.38178194
7	0x3b0c604d	0.0021419704
8	0xbeb640ff	-0.35596463
9	0x3eab07e8	0.3340447
10	0x3eb6c6f3	0.3569866
11	0xbeade8f2	-0.33966786
12	0xbec60a04	-0.38679516
13	0xbe7342cf	-0.23755954
14	0x3e042c4a	0.1290752
15	0xbe48c80f	-0.19607566
16	0xbdd40fe0	-0.103545904
17	0xbda5cdc2	-0.08095886
18	0x3d757bc8	0.0599325
19	0xbe422642	-0.18959907
20	0x3e3c5f45	0.18395717

weight f4 [21]
0	0x3f8017a9	1.000722
1	0x3f7cbb93	0.98723716
2	0x3f791bc0	0.9730797
3	0x3f810976	1.0081012
4	0x3f81a8a6	1.0129592
5	0x3f7ff906	0.99989355
6	0x3f82aadc	1.0208392
7	0x3f8184e6	1.0118682
8	0x3f7d94b3	0.9905502
9	0x3f7cef6b	0.9880282
10	0x3f814dd9	1.0101882
11	0x3f7fa5f1	0.9986258
12	0x3f804c71	1.0023328
13	0x3f804122	1.0019877
14	0x3f80c311	1.005953
15	0x3f7dfc18	0.9921279
16	0x3f807f73	1.0038894
17	0x3f7a602c	0.97802997
18	0x3f7b2623	0.98105067
19	0x3f7db71b	0.9910752
20	0x3f7e73c6	0.99395406

bias f4 [21]
0	0xbb13fb6a	-0.0022580274
1	0xbc33615f	-0.010948508
2	0xbcd7a469	-0.026323514
3	0xbc143c6c	-0.009047609
4	0xbc773d5e	-0.015090315
5	0x394af9c4	0.00019357266
6	0xbcaad08b	-0.020851394
7	0x3c396df8	0.0113177225
8	0x3c226cf0	0.009913668
9	0xbc46de0d	-0.012137902
10	0x3c42016c	0.011841159
11	0x3adb8c37	0.0016750161
12	0xbb44e8f7	-0.0030046084
13	0xbac72281	-0.0015192778
14	0x3c0225a0	0.007943541
15	0x3be1e3ad	0.006893596
16	0xbbfd6032	-0.0077324146
17	0x3c99eb0a	0.018788833
18	0xbc8af886	-0.016964208
19	0x3bf45af6	0.0074571325
20	0xbbbd370c	-0.0057743844

weight f4 [36, 21]
0	0xbe10c552	-0.14137772
1	0xbd09014d	-0.033448506
2	0x3e2cf509	0.16890348
3	0xbddb6db1	-0.10714281
4	0x3e39bb52	0.18137863
5	0x3dccd251	0.10001052
6	0xbd6882cd	-0.056765366
7	0x3d7b4926	0.061349057
8	0xbe08e763	-0.13369517
9	0x3b712a65	0.003679895
10	0x3d45b3cf	0.048267182
11	0x3e4f590a	0.2024881
12	0xbdddedff	-0.1083641
13	0xbddf93bf	-0.10916852
14	0xbdfa5261	-0.12222744
15	0xbe4bb8f2	-0.1989477
16	0x3d6a093e	0.05713772
17	0xbe2b3ca9	-0.16722359
18	0xbd940e9b	-0.07229348
19	0xbdabfbdb	-0.08397647
20	0xbadb2f0f	-0.0016722399
21	0x3d8ab6be	0.067731366
22	0xbe23f47a	-0.16011229
23	0xbd86efbd	-0.06588695
24	0xbca6e00f	-0.020370511
25	0xbe000947	-0.12503539
26	0x3d4a1139	0.04933283
27	0x3da7ec63	0.08199384
28	0xbe209478	-0.15681636
29	0x3e30f4e5	0.1728092
30	0x3e1d6d99	0.1537384
31	0xbd881bc9	-0.066459246
32	0x3d09f53a	0.033681132
33	0x3ce3b4d6	0.02779619
34	0xbce562cd	-0.028001213
35	0xbe16c904	-0.14725119
36	0x3e3924dd	0.18080468
37	0x3ddb84e7	0.107187085
38	0xbe392b5c	-0.18082947
39	0xbe2e4e31	-0.17022015
40	0x3e555932	0.20834807
41	0x3d08f346	0.03343513
42	0xbd180e5f	-0.03712308
43	0x3e0a26d9	0.13491382
44	0x3d4b6b6f	0.049663004
45	0x3dba9286	0.091099784
46	0x3e3eb9b2	0.18625525
47	0xbcf3300a	-0.029685993
48	0x3e61ed4d	0.2206318
49	0xbe2acadf	-0.16678952
50	0xbdf5f014	-0.12008682
51	0x3cc69c7d	0.024244541
52	0xbd20075d	-0.039069522
53	0x3e0c8775	0.13723548
54	0xbd3ed894	-0.046593264
55	0x3d425b60	0.047450423
56	0xbd6d3c15	-0.057918627
57	0x3e34b31c	0.1764645
58	0xbacb9534	-0.0015532137
59	0x3ca868eb	0.020557841
60	0x3e16335a	0.14668027
61	0x3e65db08	0.22446835
62	0x3e48b1d1	0.19599082
63	0xbe6b3d52	-0.2297261
64	0xbddb548c	-0.107094854
65	0xbcfef685	-0.031123409
66	0xbd700d0a	-0.058606185
67	0x3de261dd	0.11053822
68	0x3de6911e	0.11258148
69	0xbd04c5ef	-0.032415327
70	0x3cb2778c	0.02178552
71	0x3d0420f7	0.032258
72	0x3e4fdc39	0.20298852
73	0x3e01bb09	0.12669004
74	0xbdff210c	-0.12457475
75	0xbe01686c	-0.1263749
76	0x3d481f0d	0.048857737
77	0xbc0c8499	-0.008576536
78	0xbe1dd0d4	-0.15411693
79	0xbe642cae	-0.22282669
80	0x3c78cd5e	0.015185682
81	0xbd47db9d	-0.048793424
82	0xbe0fbd11	-0.14036967
83	0x3d64fbcf	0.055904206
84	0x3e58618c	0.21130961
85	0x3e3a2dc9	0.18181528
86	0x3e005db2	0.12535742
87	0xbe241710	-0.16024423
88	0x3e001fd6	0.12512144
89	0x3de1b326	0.11020498
90	0x3d99190e	0.07475482
91	0xbd5a182e	-0.053245716
92	0xbafeb8f8	-0.0019433787
93	0xbdf51872	-0.11967553
94	0xbd5731ba	-0.052537657
95	0xbd0b9a4c	-0.034082696
96	0xbcefa375	-0.029252747
97	0xbe63caf9	-0.22245397
98	0x3d962c55	0.073326744
99	0xbe341a76	-0.17588219
100	0xbe22a391	-0.15882708
101	0x3da511d1	0.08060039
102	0xbe35ff20	-0.17773104
103	0x3e594541	0.21217825
104	0x3e547719	0.20748557
105	0xbda7cffa	-0.08193965
106	0xbccd236d	-0.025041306
107	0xbe1e360c	-0.15450305
108	0x3a76b972	0.0009411789
109	0x3ce089e8	0.027409509
110	0xbddb6fee	-0.10714708
111	0x3d645abb	0.05575059
112	0x3b8f494b	0.004372751
113	0xbd9daebe	-0.07699345
114	0x3c432a1c	0.011911895
115	0xbe4ba67b	-0.19887726
116	0xbe2a5d7e	-0.16637227
117	0x3c85136f	0.016244618
118	0x3e4c6eff	0.19964217
119	0xbdef8d62	-0.116968885
120	0x3e02362f	0.12715982
121	0x3c0468c3	0.008081618
122	0xbdc5a16c	-0.096499294
123	0x3c4a8f47	0.012363262
124	0x3dbc5ce1	0.09197403
125	0x3d1e5946	0.038659357
126	0x3e3d66ee	0.18496296
127	0xbd028ee4	-0.031874552
128	0xbe0bf649	-0.13668169
129	0x3e3d6a3e	0.1849756
130	0xbd94abaf	-0.072593085
131	0x3e1a2222	0.15052083
132	0x3e07c714	0.13259536
133	0x3d48e528	0.049046665
134	0xbe42f695	-0.19039376
135	0xbe50411d	-0.20337339
136	0x3decf139	0.11569447
137	0x3d2c7a5c	0.04210888
138	0x3ded2586	0.11579423
139	0xbe49d955	-0.19711812
140	0xbc8f9e28	-0.01753147
141	0x3e34e4c3	0.1766539
142	0x3dd47f04	0.10375789
143	0x3e3dbe48	0.18529618
144	0x3e37433c	0.17896742
145	0xbd873348	-0.06601578
146	0xbe0d5139	-0.13800515
147	0xbdfad92b	-0.12248453
148	0x3d8aecac	0.06783423
149	0xbdbe1499	-0.092812724
150	0x3b344a43	0.0027510084
151	0x3d2212ab	0.039568584
152	0x3e079c30	0.13243175
153	0x3e007f82	0.1254864
154	0x3df1eb52	0.11812462
155	0x3c512cb4	0.012767006
156	0x3df378fc	0.1188831
157	0xbdd6ab65	-0.1048191
158	0xbdaaf889	-0.083481856
159	0xbcfa4a69	-0.03055306
160	0xbdede32b	-0.116155945
161	0x3e450df6	0.19243607
162	0xbcf62aaf	-0.03004965
163	0x3d82cf75	0.063872255
164	0xbae634d0	-0.0017563347
165	0xbbfaeb29	-0.007657428
166	0xbdea1a4c	-0.11430797
167	0xbca7dc30	-0.020490736
168	0xbe4afc35	-0.19822772
169	0xbdcf1016	-0.1011049
170	0x3e2eed83	0.17082791
171	0xbe56b677	-0.20968042
172	0x3d0449d7	0.03229698
173	0x3d215c21	0.0393945
174	0xbe5a1926	-0.21298656
175	0x3d3a63b7	0.04550525
176	0x3dc725b8	0.09723991
177	0x3e25dc56	0.16197333
178	0x3d39feb2	0.045408912
179	0x3e2a7f3d	0.166501
180	0x3b88ebc8	0.004178498
181	0x3da64be8	0.08119947
182	0x3d8e1368	0.06937295
183	0xbe29499f	-0.1653199
184	0xbd5aceab	-0.05341975
185	0xbe1cd0f4	-0.15314084
186	0x3e305c5d	0.17222734
187	0x3dcb558b	0.099284254
188	0xbdb5a242	-0.08868839
189	0xbd192ffe	-0.037399285
190	0x3d6222a4	0.055208817
191	0xbe45d458	-0.19319284
192	0x3c5356b6	0.0128990915
193	0x3dddb2dd	0.10825131
194	0x3cb2ffc8	0.021850482
195	0xbc7579aa	-0.01498262
196	0x3e0c8d7a	0.13725844
197	0x3dccc4ae	0.09998451
198	0xbe4b611f	-0.19861268
199	0x3dfa4f34	0.12222138
200	0xbe2b1393	-0.16706686
201	0x3e028eff	0.12749861
202	0x3e3b17e2	0.1827083
203	0x3c62dec6	0.013847059
204	0xbd8bee7d	-0.068325974
205	0xbdd8fc44	-0.10594991
206	0xbdc32e0f	-0.09530269
207	0xbd34ee65	-0.044172663
208	0xbdac6239	-0.08417172
209	0x3e58e2a2	0.21180204
210	0xbdc88596	-0.097911045
211	0x3dc1873b	0.09449621
212	0xbe4b8a15	-0.19876893
213	0x3dd19e33	0.10235252
214	0x3e390c86	0.18071184
215	0xbe19d5d1	-0.1502297
216	0xbd7c3154	-0.06157048
217	0x3d636e29	0.05552498
218	0xbe5bd119	-0.21466483
219	0xbe07d0fa	-0.13263312
220	0x3daa3a58	0.083119094
221	0x3e4c79e9	0.1996838
222	0xbd90f930	-0.07078779
223	0xbb016bad	-0.0019748018
224	0xbe508897	-0.20364605
225	0xbe5d1716	-0.21590838
226	0x3e3c026a	0.18360296
227	0x3e46ffdd	0.19433542
228	0xbd81165b	-0.06303092
229	0xbdc0a271	-0.09405983
230	0xbc0aca09	-0.0084710205
231	0x3dbd0c23	0.092308305
232	0xbe4e6e49	-0.20159258
233	0xbde41fa7	-0.1113885
234	0xbda2efd3	-0.07955899
235	0xbdd5675f	-0.10420107
236	0x3b2d1fc8	0.0026416648
237	0x3e1a24ae	0.15053055
238	0x3d6da41d	0.05801784
239	0xbe530b9c	-0.20609897
240	0x3e57a4a2	0.21058896
241	0x3e3c16d5	0.18368085
242	0x3d7605a7	0.060063984
243	0x3dc8f653	0.098126076
244	0x3d953cad	0.072869636
245	0x3e3f1820	0.18661547
246	0xbe5f9055	-0.21832402
247	0xbe12d4ce	-0.14338991
248	0xbd123d17	-0.03570279
249	0xbd03ba11	-0.03215987
250	0xbe1cbb74	-0.15305883
251	0xbe4d5b4e	-0.20054361
252	0xbe296446	-0.16542158
253	0xbd0fbe3d	-0.035093535
254	0x3e3e1f04	0.18566519
255	0x3e154124	0.1457563

bias f4 [36]
0	0xbd43020a	-0.047609366
1	0xbe409260	-0.18805838
2	0xbe1250e4	-0.1428867
3	0x3e19642e	0.14979622
4	0x3de784e6	0.11304645
5	0x3e2733f7	0.16328417
6	0xbd86cbea	-0.06581862
7	0xbdd7b217	-0.10532015
8	0xbe415c48	-0.18882859
9	0x3c2394a6	0.009984171
10	0xbd296503	-0.041356098
11	0x3e5cd8cd	0.21567078
12	0xbdc7f450	-0.09763396
13	0xbe1212e2	-0.14265016
14	0x3dd80362	0.1054752
15	0xbdd50cab	-0.10402807
16	0xbcb35df2	-0.021895383
17	0x3e61d557	0.22054039
18	0x3e0918d1	0.13388373
19	0xbe6fddd2	-0.23424461
20	0x3ab73404	0.0013977294
21	0x3c29fd06	0.010375267
22	0x3e5cb6c8	0.215541
23	0xbe4836a6	-0.19552097
24	0x3e0f4e0f	0.1399462
25	0xbe524ff4	-0.20538312
26	0xbe54d316	-0.20783648
27	0xbde6cc17	-0.11269396
28	0xbe4d7f5f	-0.2006812
29	0xbcd6caf4	-0.026219822
30	0x3e37cd58	0.17949426
31	0xbda224e1	-0.0791719
32	0xbe29876a	-0.16555563
33	0xbd03d534	-0.03218575
34	0xbe395de9	-0.1810223
35	0x3dfbfe41	0.123043545

weight f4 [1, 6]
0	0x3d71c489	0.05902532
1	0x3eb9617a	0.3620718
2	0x3e3157d0	0.17318654
3	0x3e157ad3	0.14597635
4	0x3e0cdd2c	0.13756245
5	0x3ec22791	0.37920812

weight f4 [36, 1]
0	0xbf19d29b	-0.60086983
1	0x3f45b1ba	0.77224314
2	0x3ec0ccb5	0.3765618
3	0x3f66b779	0.9012371
4	0x3e6ed05a	0.23321667
5	0x3eb9132f	0.36147448
6	0x3f2096c2	0.6273004
7	0x3f26eb02	0.65202343
8	0x3f0e1925	0.5550712
9	0xbf4a04bf	-0.7891349
10	0x3e92d87d	0.28680792
11	0xbf2c2487	-0.67243236
12	0x3e0626f4	0.13100797
13	0x3f0c25b8	0.54745054
14	0xbeb3e03c	-0.35132015
15	0x3f6284ab	0.88483685
16	0x3f61c3dc	0.8818948
17	0x3e8a5f7f	0.27025983
18	0xbf375ec9	-0.71629006
19	0x3b85260f	0.004063375
20	0x3f4568f3	0.77113265
21	0x3e34c6a5	0.17653902
22	0x3f5ec5d8	0.87020636
23	0x3d92a1bc	0.07159755
24	0xbee9fa51	-0.4569879
25	0x3f2a6ac7	0.6656918
26	0x3ea71c37	0.32638714
27	0x3f0d6443	0.5523111
28	0xbf1b285e	-0.6060847
29	0xbf3ee2ff	-0.7456512
30	0x3f2ca2ca	0.67435896
31	0x3ebd048b	0.3691753
32	0x3f3a0a84	0.72672296
33	0xbf547f95	-0.83007175
34	0xbeea1403	-0.45718393
35	0xbce85f44	-0.028365739

bias f4 [36]
0	0xbf023ccb	-0.5087401
1	0x3f20c08b	0.627938
2	0x3f4ecfcd	0.8078583
3	0x3f59da65	0.8509887
4	0x3e0ff0b3	0.14056663
5	0xbf689cf9	-0.9086452
6	0xbeb205e3	-0.34770116
7	0x3e6e0501	0.23244096
8	0xbe86ec9f	-0.26352403
9	0x3ed821fc	0.42213428
10	0xbe8a30ab	-0.26990256
11	0x3f569698	0.8382354
12	0x3f5e3f26	0.86815107
13	0x3f7da7f8	0.99084425
14	0x3ea0d2d6	0.31410855
15	0xbf28e527	-0.6597466
16	0xbe88d7db	-0.26727185
17	0xbf0d2178	-0.55129194
18	0x3ee9f084	0.4569131
19	0xbdd61aff	-0.10454368
20	0x3ec97251	0.3934503
21	0x3e930b9f	0.28719804
22	0xbe9da1ee	-0.30787605
23	0x3e0d1601	0.13777925
24	0xbe16fe11	-0.14745356
25	0x3e3ebce2	0.1862674
26	0xbf2aa1e9	-0.66653305
27	0x3c993947	0.01870407
28	0x3f40f047	0.75366634
29	0x3f07ab0e	0.52995384
30	0xbf1dd70b	-0.61656255
31	0x3f5a8a10	0.85366917
32	0xbec63d58	-0.38718677
33	0x3f65c093	0.8974697
34	0xbe4dc04b	-0.20092885
35	0x3f77cc6d	0.96796304

xs f4 [1000, 6]
0	0xbd400f2e	-0.046889476
1	0xbd39cc56	-0.045360886
2	0xbaa3d7b8	-0.0012500202
3	0xb9defe93	-0.00042532812
4	0xbd30a756	-0.043128334
5	0xbe5154ba	-0.20442477
6	0x3d304b4a	0.04304055
7	0xbc3e75b5	-0.011624743
8	0xba4d5e5d	-0.00078341906
9	0x3a9acb5f	0.0011809877
10	0x3d3fb323	0.046801697
11	0xbe2ec900	-0.17068863
12	0xbd40149a	-0.046894647
13	0xbd39e552	-0.045384713
14	0x3a169a56	0.0005745044
15	0xbabc320e	-0.0014358179
16	0xbd30acc1	-0.0431335
17	0xbe515afa	-0.20444861
18	0x3d3075b6	0.043081008
19	0xbc3eb256	-0.011639198
20	0x3925631b	0.00015772546
21	0xba57d698	-0.0008233576
22	0x3d3fdd8e	0.04684215
23	0xbe2eccca	-0.17070308
24	0xbd3ff838	-0.04686758
25	0xbd39b782	-0.045341022
26	0x3a695a48	0.00089016976
27	0xb961304d	-0.00021475666
28	0xbd30905f	-0.043106433
29	0xbe514f85	-0.2044049
30	0x3d305d01	0.043057445
31	0xbc3e693e	-0.011621771
32	0xba494ef0	-0.0007679304
33	0x3ab3b6a6	0.001371105
34	0x3d3fc4da	0.04681859
35	0xbe2ec839	-0.17068566
36	0xbd401f0b	-0.046904605
37	0xbd39d7a1	-0.045371655
38	0xbaec6195	-0.0018034453
39	0x38fb53d3	0.00011984226
40	0xbd30b732	-0.04314346
41	0xbe51578d	-0.20443554
42	0x3d3083a0	0.043094277
43	0xbc3ecbf0	-0.011645302
44	0xb9cd0bad	-0.00039109346
45	0x38881e66	6.4906475e-05
46	0x3d3feb79	0.046855424
47	0xbe2ece64	-0.1707092
48	0xbd400a17	-0.046884622
49	0xbd39bb5f	-0.045344707
50	0xb9b438ed	-0.00034374688
51	0x38439c9a	4.663747e-05
52	0xbd30a23e	-0.043123476
53	0xbe51507d	-0.2044086
54	0x3d3052b3	0.043047618
55	0xbc3ec52b	-0.011643688
56	0xba197206	-0.00058534776
57	0x37f7fd33	2.95626e-05
58	0x3d3fba8c	0.046808764
59	0xbe2ecdf7	-0.17070757
60	0xbd40222a	-0.04690758
61	0xbd39d553	-0.045369457
62	0xba9acb83	-0.0011809919
63	0x3aa71dd2	0.0012749976
64	0xbd30ba51	-0.043146435
65	0xbe5156fa	-0.20443335
66	0x3d30642e	0.04306429
67	0xbc3e8215	-0.011627694
68	0xb9d7b40b	-0.00041142138
69	0x3989d153	0.00026286635
70	0x3d3fcc06	0.04682543
71	0xbe2ec9c6	-0.17069158
72	0xbd4017b9	-0.046897624
73	0xbd39e3ae	-0.045383148
74	0xba950765	-0.0011370002
75	0xb943e2cd	-0.00018681139
76	0xbd30afe0	-0.043136477
77	0xbe515a90	-0.20444703
78	0x3d306153	0.043061566
79	0xbc3e8ea9	-0.0116306925
80	0x3a3320d2	0.0006833199
81	0xba83abcb	-0.0010045705
82	0x3d3fc92c	0.04682271
83	0xbe2eca8f	-0.17069457
84	0xbd3fffe5	-0.0468749
85	0xbd39d65e	-0.045370452
86	0xba603298	-0.0008552461
87	0xb9d0eb83	-0.00039848321
88	0xbd30980c	-0.043113753
89	0xbe51573d	-0.20443435
90	0x3d30418b	0.043031257
91	0xbc3e8b54	-0.011629898
92	0xba199f62	-0.00058602367
93	0xba2360ad	-0.00062323624
94	0x3d3fa964	0.046792403
95	0xbe2eca5a	-0.17069378
96	0xbd402baa	-0.04691664
97	0xbd39e827	-0.045387413
98	0xba2d18e2	-0.0006603134
99	0xb9c4da36	-0.00037546613
100	0xbd30c3d2	-0.0431555
101	0xbe515bae	-0.2044513
102	0x3d307655	0.0430816
103	0xbc3e7df8	-0.011626713
104	0xbaf7a0fb	-0.001889258
105	0x3a9d5036	0.0012002054
106	0x3d3fde2e	0.046842746
107	0xbe2ec984	-0.1706906
108	0xbd3ffc8e	-0.046871714
109	0xbd39c2a9	-0.045351658
110	0x3a2fbf00	0.00067041814
111	0xb9cc751f	-0.00038997174
112	0xbd3094b6	-0.04311057
113	0xbe51524e	-0.20441553
114	0x3d303de2	0.043027766
115	0xbc3e6822	-0.011621507
116	0x3aa8c82f	0.0012877042
117	0xba4107fd	-0.0007363556
118	0x3d3fa5ba	0.04678891
119	0xbe2ec827	-0.1706854
120	0xbd401ba8	-0.046901375
121	0xbd39eee9	-0.045393858
122	0x39cfd93d	0.00039643972
123	0xbae1a84e	-0.0017216296
124	0xbd30b3cf	-0.04314023
125	0xbe515d5e	-0.20445773
126	0x3d308aa0	0.043100953
127	0xbc3e84fb	-0.011628385
128	0xb937e703	-0.00017538299
129	0x3aa984d9	0.0012933268
130	0x3d3ff279	0.0468621
131	0xbe2ec9f5	-0.17069228
132	0xbd401026	-0.0468904
133	0xbd39c119	-0.045350168
134	0xbadc4f93	-0.0016808383
135	0xb99ab368	-0.00029506837
136	0xbd30a84d	-0.043129254
137	0xbe5151eb	-0.20441405
138	0x3d3032f6	0.04301735
139	0xbc3ed54b	-0.011647533
140	0xba367ee0	-0.0006961655
141	0xba834bcd	-0.0010017097
142	0x3d3f9acf	0.046778496
143	0xbe2ecefa	-0.17071143
144	0xbd402b89	-0.04691652
145	0xbd39f497	-0.045399275
146	0x3a53c320	0.0008078087
147	0x394aeb4d	0.00019351878
148	0xbd30c3b0	-0.043155372
149	0xbe515ecb	-0.20446317
150	0x3d3070f8	0.043076485
151	0xbc3e8879	-0.011629217
152	0x3a582716	0.00082455704
153	0x39f9692a	0.00047571334
154	0x3d3fd8d1	0.04683763
155	0xbe2eca2c	-0.1706931
156	0xbd40086a	-0.046883024
157	0xbd39cfe6	-0.045364283
158	0xb8a48880	-7.8455545e-05
159	0x397eb6c0	0.00024291407
160	0xbd30a091	-0.043121878
161	0xbe51559e	-0.20442817
162	0x3d304cdf	0.04304206
163	0xbc3e982d	-0.011632961
164	0x3a2dd3c4	0.0006630982
165	0xba11b2f4	-0.0005557977
166	0x3d3fb4b8	0.046803206
167	0xbe2ecb28	-0.17069685
168	0xbd401a61	-0.046900157
169	0xbd39df31	-0.045378868
170	0x37b66b66	2.1746102e-05
171	0xbac01f5e	-0.0014657786
172	0xbd30b288	-0.04313901
173	0xbe515972	-0.20444277
174	0x3d306655	0.04306634
175	0xbc3e8bbd	-0.011629996
176	0xb9eb1826	-0.00044840685
177	0x3a7afec0	0.0009574704
178	0x3d3fce2e	0.046827488
179	0xbe2eca61	-0.17069389
180	0xbd401318	-0.04689321
181	0xbd39cfd7	-0.045364227
182	0x3a7a13d0	0.00095396955
183	0x3aae4a40	0.0013297275
184	0xbd30ab3f	-0.043132063
185	0xbe51559b	-0.20442812
186	0x3d305f0e	0.0430594
187	0xbc3eabde	-0.011637656
188	0x3a6786ed	0.0008832056
189	0xb9b6695a	-0.00034792238
190	0x3d3fc6e6	0.046820544
191	0xbe2ecc62	-0.17070153
192	0xbd3ffab2	-0.04686994
193	0xbd39d6b5	-0.045370776
194	0x3a556aba	0.00081412087
195	0xba045c4f	-0.00050491554
196	0xbd3092d9	-0.043108795
197	0xbe515752	-0.20443466
198	0x3d307ac4	0.04308583
199	0xbc3ec169	-0.011642792
200	0x397d3000	0.00024145842
201	0xba8af9a2	-0.0010602961
202	0x3d3fe29d	0.046846975
203	0xbe2ecdbb	-0.17070667
204	0xbd400e3e	-0.046888582
205	0xbd39bc83	-0.045345794
206	0xba794f12	-0.00095103786
207	0x39cd2bd3	0.000391333
208	0xbd30a666	-0.04312744
209	0xbe5150c6	-0.20440969
210	0x3d306b86	0.043071292
211	0xbc3eb336	-0.011639407
212	0x3ae95808	0.0017802725
213	0xba9cedfd	-0.0011972782
214	0x3d3fd35e	0.046832435
215	0xbe2eccd8	-0.17070329
216	0xbd401796	-0.046897493
217	0xbd39d1d6	-0.04536613
218	0xb8956cd3	-7.125144e-05
219	0x3b27af6c	0.0025586737
220	0xbd30afbd	-0.043136347
221	0xbe51561a	-0.20443001
222	0x3d307760	0.043082595
223	0xbc3ea511	-0.011636035
224	0x384b445a	4.846263e-05
225	0xba851d98	-0.0010155914
226	0x3d3fdf39	0.04684374
227	0xbe2ecbf6	-0.17069992
228	0xbd4004e5	-0.046879668
229	0xbd39c476	-0.045353375
230	0xbabd560b	-0.0014445198
231	0x3afd4dca	0.0019325551
232	0xbd309d0c	-0.04311852
233	0xbe5152c3	-0.20441727
234	0x3d305825	0.04305281
235	0xbc3ec72d	-0.011644167
236	0x3b04788d	0.0020213455
237	0xba0b8293	-0.0005321886
238	0x3d3fbffe	0.046813957
239	0xbe2ece18	-0.17070806
240	0xbd40130c	-0.046893165
241	0xbd39ecbc	-0.045391783
242	0x3ac108ae	0.0014727318
243	0x3a84214e	0.0010080726
244	0xbd30ab33	-0.04313202
245	0xbe515cd3	-0.20445566
246	0x3d30664c	0.043066308
247	0xbc3ec1b3	-0.011642861
248	0x3a703356	0.0009162923
249	0xbaf599e2	-0.0018737877
250	0x3d3fce25	0.046827454
251	0xbe2ecdc0	-0.17070675
252	0xbd40026a	-0.046877302
253	0xbd39d32a	-0.045367397
254	0xb764bc00	-1.3633631e-05
255	0x3a98aee5	0.0011648802

z f4 [500, 36]
0	0xbfeb223c	-1.8369823
1	0x40382718	2.877386
2	0x3fd713e1	1.6802942
3	0x3f679648	0.90463686
4	0x3f65cb83	0.8976366
5	0xbe30bd70	-0.17259765
6	0x3f8104c0	1.0079575
7	0x3fbd1771	1.4772779
8	0x3f8aeb84	1.0853124
9	0xbf944fb4	-1.1586823
10	0x3ee4a8c4	0.44660008
11	0x3cc05d80	0.023482084
12	0x3f92a8ce	1.1457765
13	0x4007de7c	2.1229544
14	0xbf9fc428	-1.2481737
15	0x3f8ce416	1.1007106
16	0x3fb9d3d9	1.4517776
17	0xbe4af962	-0.19821694
18	0xbf46cec3	-0.77659243
19	0xbf19c6d3	-0.60069007
20	0x400219a2	2.0328145
21	0x3f1dc4a5	0.6162818
22	0x3fd593aa	1.6685688
23	0x3e7aa6ca	0.24477687
24	0xbf5cb0c2	-0.8620721
25	0x3ff119e2	1.8836024
26	0x3e08abc2	0.1334677
27	0x3fa194e1	1.2623559
28	0xbf30ba12	-0.6903392
29	0xbf77e682	-0.968361
30	0x3f9ca3b0	1.2237453
31	0x403297e8	2.7905216
32	0x3f528859	0.822393
33	0xbf401569	-0.7503267
34	0xbfaa695a	-1.3313401
35	0x3f5509e5	0.8321822
36	0xbfeb354d	-1.8375641
37	0x403810da	2.8760285
38	0x3fd7133c	1.6802745
39	0x3f676ef6	0.9040369
40	0x3f65c32d	0.8975094
41	0xbe30bcea	-0.17259565
42	0x3f810921	1.0080911
43	0x3fbd185e	1.4773061
44	0x3f8affc3	1.0859302
45	0xbf944ef7	-1.1586598
46	0x3ee4b7bc	0.44671428
47	0x3cc197c0	0.02363193
48	0x3f92ad6b	1.1459173
49	0x4007dd6a	2.122889
50	0xbf9fb9ca	-1.2478573
51	0x3f8cdf74	1.1005692
52	0x3fb9d5c0	1.4518356
53	0xbe4b0648	-0.19826615
54	0xbf46e6ce	-0.7769593
55	0xbf19d185	-0.60085326
56	0x40021e14	2.0330858
57	0x3f1dcaa0	0.61637306
58	0x3fd59a65	1.6687742
59	0x3e7acaab	0.24491374
60	0xbf5cd261	-0.8625851
61	0x3ff11133	1.8833374
62	0x3e08d576	0.13362679
63	0x3fa191b9	1.2622596
64	0xbf30bb18	-0.6903548
65	0xbf77e9a8	-0.96840906
66	0x3f9cad9f	1.2240485
67	0x40328d47	2.789873
68	0x3f527016	0.8220228
69	0xbf401349	-0.75029427
70	0xbfaa6ae6	-1.3313873
71	0x3f551067	0.83228153
72	0xbfeb2422	-1.8370402
73	0x40382196	2.87705
74	0x3fd713be	1.68029
75	0x3f678160	0.90431786
76	0x3f65c38b	0.897515
77	0xbe30bde8	-0.17259943
78	0x3f8105f3	1.007994
79	0x3fbd15f0	1.477232
80	0x3f8af065	1.0854613
81	0xbf944fc3	-1.1586841
82	0x3ee4aa1a	0.44661027
83	0x3cc3c800	0.023899078
84	0x3f92aee3	1.1459621
85	0x4007def6	2.1229835
86	0xbf9fc536	-1.2482059
87	0x3f8ce268	1.1006594
88	0x3fb9d426	1.4517868
89	0xbe4b454a	-0.1985065
90	0xbf46d38e	-0.77666557
91	0xbf19c4ef	-0.6006612
92	0x40021ca2	2.0329976
93	0x3f1dc513	0.61628836
94	0x3fd59768	1.668683
95	0x3e7aa021	0.24475147
96	0xbf5ca914	-0.8619549
97	0x3ff111ca	1.8833554
98	0x3e08a79f	0.13345192
99	0x3fa18f42	1.2621844
100	0xbf30c8d2	-0.6905643
101	0xbf77eb45	-0.9684337
102	0x3f9c9dd4	1.2235665
103	0x40329cd1	2.7908213
104	0x3f52839f	0.8223209
105	0xbf401567	-0.7503266
106	0xbfaa6d87	-1.3314675
107	0x3f551132	0.8322936
108	0xbfeb2105	-1.8369452
109	0x403823ed	2.8771927
110	0x3fd713a4	1.6802869
111	0x3f6796f8	0.90464735
112	0x3f65cbac	0.89763904
113	0xbe30bc4d	-0.17259331
114	0x3f8102aa	1.0078938
115	0x3fbd172e	1.4772699
116	0x3f8aeba8	1.0853167
117	0xbf944f31	-1.1586667
118	0x3ee4a179	0.44654444
119	0x3cbff700	0.023433208
120	0x3f92a93d	1.1457897
121	0x4007de8f	2.122959
122	0xbf9fc368	-1.2481508
123	0x3f8cdfc2	1.1005785
124	0x3fb9d528	1.4518175
125	0xbe4aef9e	-0.19817969
126	0xbf46d305	-0.7766574
127	0xbf19cafd	-0.6007536
128	0x400218b5	2.032758
129	0x3f1dc6d6	0.61631525
130	0x3fd59464	1.668591
131	0x3e7abea2	0.24486783
132	0xbf5cb9ca	-0.8622099
133	0x3ff11b15	1.883639
134	0x3e08c056	0.1335462
135	0x3fa195e0	1.2623863
136	0xbf30b663	-0.690283
137	0xbf77e617	-0.96835464
138	0x3f9ca654	1.2238259
139	0x40329698	2.7904415
140	0x3f528240	0.82229996
141	0xbf401519	-0.7503219
142	0xbfaa681a	-1.3313019
143	0x3f550632	0.8321258
144	0xbfeb2473	-1.8370498
145	0x40381fbc	2.876937
146	0x3fd713a4	1.6802869
147	0x3f6788c0	0.9044304
148	0x3f65c72f	0.89757055
149	0xbe30bca2	-0.17259458
150	0x3f810438	1.0079412
151	0x3fbd1678	1.4772482
152	0x3f8af07a	1.0854638
153	0xbf944f2a	-1.1586659
154	0x3ee4a4bb	0.4465693
155	0x3cc1d9e0	0.023663461
156	0x3f92ad82	1.14592
157	0x4007dead	2.122966
158	0xbf9fc23e	-1.2481153
159	0x3f8cdea0	1.100544
160	0x3fb9d5c4	1.4518361
161	0xbe4b145c	-0.19831985
162	0xbf46d67a	-0.77671015
163	0xbf19ca56	-0.60074365
164	0x40021adc	2.0328894
165	0x3f1dc705	0.61631805
166	0x3fd595fe	1.6686399
167	0x3e7ac6f6	0.2448996
168	0xbf5cb97d	-0.8622053
169	0x3ff115f3	1.8834823
170	0x3e08c13a	0.1335496
171	0x3fa193a4	1.2623181
172	0xbf30bdde	-0.69039714
173	0xbf77e99b	-0.9684083
174	0x3f9ca496	1.2237728
175	0x4032978e	2.7905002
176	0x3f527f6e	0.8222569
177	0xbf4014e4	-0.75031877
178	0xbfaa6870	-1.3313122
179	0x3f550b8e	0.83220756
180	0xbfeb1868	-1.8366823
181	0x4038267d	2.8773491
182	0x3fd713d4	1.6802926
183	0x3f679618	0.904634
184	0x3f65c77b	0.8975751
185	0xbe30bc14	-0.17259246
186	0x3f80ffb9	1.007804
187	0x3fbd151b	1.4772066
188	0x3f8ae727	1.0851792
189	0xbf944f1d	-1.1586643
190	0x3ee4957e	0.44645303
191	0x3cc265a0	0.0237301
192	0x3f92ac71	1.1458875
193	0x4007df9d	2.1230233
194	0xbf9fc6d0	-1.2482548
195	0x3f8cdcfa	1.1004937
196	0x3fb9d5d0	1.4518375
197	0xbe4b27e9	-0.19839443
198	0xbf46cf46	-0.77660024
199	0xbf19c483	-0.6006548
200	0x4002187f	2.0327451
201	0x3f1dc664	0.61630845
202	0x3fd59584	1.6686254
203	0x3e7ab954	0.2448476
204	0xbf5cab14	-0.86198545
205	0x3ff11858	1.8835554
206	0x3e08b9d6	0.13352141
207	0x3fa192e4	1.2622952
208	0xbf30c0cc	-0.69044185
209	0xbf77e87a	-0.96839106
210	0x3f9c9d89	1.2235576
211	0x40329f40	2.7909698
212	0x3f5283d9	0.82232434
213	0xbf4015c5	-0.7503322
214	0xbfaa6a61	-1.3313714
215	0x3f550684	0.8321307
216	0xbfeb294b	-1.8371977
217	0x40381704	2.8764048
218	0x3fd7134c	1.6802764
219	0x3f678100	0.90431213
220	0x3f65c68c	0.89756083
221	0xbe30bbed	-0.17259188
222	0x3f810423	1.0079387
223	0x3fbd1774	1.4772782
224	0x3f8af5ee	1.0856302
225	0xbf944ec5	-1.1586539
226	0x3ee4a5b4	0.4465767
227	0x3cc0bcc0	0.023527503
228	0x3f92a94e	1.1457918
229	0x4007de2b	2.122935
230	0xbf9fbd3c	-1.2479625
231	0x3f8cddcd	1.1005188
232	0x3fb9d61b	1.4518465
233	0xbe4afef5	-0.19823821
234	0xbf46e054	-0.7768605
235	0xbf19cc2e	-0.6007718
236	0x40021a97	2.032873
237	0x3f1dcb23	0.6163809
238	0x3fd599e6	1.6687591
239	0x3e7abfc2	0.24487212
240	0xbf5cca2e	-0.86246
241	0x3ff11682	1.8834994
242	0x3e08d64d	0.13363
243	0x3fa19246	1.2622764
244	0xbf30b822	-0.69030964
245	0xbf77e5cb	-0.9683501
246	0x3f9ca9a8	1.2239275
247	0x40329269	2.7901862
248	0x3f527218	0.82205343
249	0xbf4013f5	-0.7503045
250	0xbfaa6c62	-1.3314326
251	0x3f55073a	0.8321415
252	0xbfeb2931	-1.8371946
253	0x40381d2b	2.8767803
254	0x3fd7137e	1.6802824
255	0x3f6789e0	0.90444756
