weights/sae_discovery_latest.pt (torch, 161599 bytes, 30 tensors)

encoder.key_net.net.0.weight f4 [74, 64]
0	0xbde4cce0	-0.11171889
1	0xbde76f82	-0.11300565
2	0x3e337c34	0.17527848
3	0xbdb223bb	-0.08698221
4	0x3d2f68ac	0.042824432
5	0x3b819a60	0.0039551705
6	0xbdc7d660	-0.09757686
7	0x3d94fbe2	0.07274605
8	0x3d011ae8	0.0315198
9	0xbd0fcb94	-0.035106257
10	0x3ded51de	0.115878806
11	0x3db81cf4	0.08989897
12	0x3cedd258	0.029030964
13	0xbb2d5800	-0.0026450157
14	0x3dce3064	0.100678235
15	0xbdeb89a2	-0.11500861
16	0x3d0c4d64	0.034253493
17	0x3d83ea00	0.06441116
18	0xbb3a6140	-0.0028439313
19	0x3c215390	0.009846583
20	0x3c1cbaa0	0.009565979
21	0x3d9c2cd4	0.07625738
22	0xbc9ff7d8	-0.01952736
23	0x3d8ac9a0	0.06776738
24	0xbddb7dac	-0.107173294
25	0x3cd5ef70	0.02611515
26	0x3ddf2be8	0.10897046
27	0x3c3dae60	0.011577219
28	0x3d6acd70	0.057324827
29	0x3d0b00cc	0.033936307
30	0xbcbae2f8	-0.022813305
31	0xbdbd5df0	-0.09246433
32	0x3d4932e0	0.049120784
33	0x3d38702c	0.04502885
34	0x3df34abc	0.11879489
35	0xbdd3ee28	-0.10348159
36	0xbddf93f6	-0.10916893
37	0x3c9d75b0	0.019221157
38	0x3d8131b8	0.06308311
39	0xbdd6e96a	-0.10493739
40	0xba281a00	-0.00064125657
41	0x3d8ac8ce	0.06776582
42	0xbcadbc10	-0.02120784
43	0xbd923c56	-0.071404144
44	0xbce6c3c8	-0.028169528
45	0x3d851410	0.06497967
46	0xbddd9464	-0.10819319
47	0x3bfc6340	0.007702261
48	0xbc296380	-0.010338664
49	0xbdff00c4	-0.12451318
50	0x3b896740	0.0041932166
51	0xbd9c8748	-0.0764299
52	0xbd7c160c	-0.061544463
53	0xbd51a9fc	-0.0511875
54	0x3dc5ef04	0.09664729
55	0x3c8641a8	0.01638873
56	0x3d92190c	0.071336836
57	0xbce3cd40	-0.027807832
58	0xbdb1810c	-0.08667192
59	0x3d47b524	0.048756734
60	0x3d920154	0.071291596
61	0x3c954c70	0.018224925
62	0x3dc126ea	0.094312504
63	0x3dad1eb4	0.08453122
64	0xbe268905	-0.16263206
65	0xbe2bd7d4	-0.1678155
66	0xbe1e236f	-0.15443204
67	0x3de04a62	0.109516874
68	0xbdd4bfa4	-0.10388115
69	0xbd7848dc	-0.06061636
70	0xbd8dedbe	-0.06930111
71	0xbdce66e6	-0.1007822
72	0xbcb6e118	-0.02232413
73	0xbb83c4e0	-0.004021272
74	0xbd8fbb6c	-0.0701817
75	0xbc13aee0	-0.009013861
76	0x3d43bbcc	0.04778652
77	0xbdf4f8b6	-0.119615
78	0xbda09c48	-0.07842308
79	0xbc83def0	-0.016097516
80	0xbd41ab64	-0.04728259
81	0x3dc6f8a4	0.09715393
82	0xbdb9c71a	-0.09071179
83	0xbd7c4220	-0.0615865
84	0xbc4c64c0	-0.012475193
85	0x3df7a6c0	0.12092352
86	0xbc6271b0	-0.0138210505
87	0xbd3a83e8	-0.04553595
88	0xbdeabec0	-0.11462164
89	0xbcfdcc80	-0.030981302
90	0x3d31e4a8	0.043430954
91	0xbcc45460	-0.023966014
92	0xbda9e4e0	-0.082956076
93	0x3b630300	0.003463924
94	0x3d9a0434	0.07520333
95	0xbd34ae24	-0.044111386
96	0x3d0d57d8	0.034507602
97	0x3d82aaa4	0.06380203
98	0x3c876530	0.016527742
99	0xbde9adc2	-0.11410095
100	0xbd8ec890	-0.06971848
101	0xbdddbe46	-0.108273074
102	0x3d4f0b7c	0.05054806
103	0xbd1a3eb0	-0.03765744
104	0xbdc7f11a	-0.09762783
105	0x3d96372a	0.073347405
106	0x3d817584	0.063212425
107	0xbd88d620	-0.06681466
108	0x3dc726be	0.09724186
109	0x3da728be	0.08162068
110	0x3d0533d0	0.032520115
111	0xbd2f5ab0	-0.042811096
112	0x3dca3eae	0.098752365
113	0xbd47df50	-0.04879695
114	0x3d9e75ea	0.07737334
115	0xbd520608	-0.051275283
116	0xbd7c67e8	-0.06162253
117	0x3de91c6e	0.11382376
118	0xbd9362f4	-0.07196608
119	0xbd8ad91c	-0.067796916
120	0xbdacb050	-0.084320664
121	0xbd4a6c30	-0.049419582
122	0xbdb6b76a	-0.08921702
123	0x3cdffe20	0.027342856
124	0x3d9bc5a2	0.07606055
125	0xbdbfe8a0	-0.093705416
126	0xbd964c84	-0.07338813
127	0xbda4d8a2	-0.08049132
128	0xbd8fe657	-0.07026356
129	0xbd8ba414	-0.06818405
130	0x3e1139b7	0.14182173
131	0xbd2e5490	-0.042561114
132	0x3df2cf0e	0.11855899
133	0x3d507424	0.05089201
134	0x3d31ca10	0.043405592
135	0xbd4003d0	-0.046878636
136	0x3de242b6	0.1104788
137	0x3db91794	0.090377
138	0xbc3535b0	-0.011060163
139	0x3dddd394	0.10831371
140	0x3d90bbfa	0.07067104
141	0xbdd88b8c	-0.105734915
142	0x3db50110	0.08838093
143	0x3df2edf8	0.11861795
144	0x3d2cc3ac	0.042178795
145	0x3df429dc	0.119220465
146	0x3d8020ec	0.06256279
147	0x3c010f10	0.007877126
148	0x3dbe1996	0.09282224
149	0x3dfd7652	0.123760834
150	0x3dfeeaa0	0.12447095
151	0x3d40bfe8	0.047058016
152	0xbde5958a	-0.11210163
153	0x3c454430	0.012040183
154	0xbd795890	-0.060875475
155	0xbdcf80c6	-0.101319835
156	0xbdce860c	-0.10084161
157	0xbd799668	-0.060934454
158	0xbdf62a98	-0.12019843
159	0xbcb40780	-0.021976233
160	0x3d38d498	0.04512462
161	0xbdcf9cfe	-0.10137366
162	0xbceda730	-0.029010385
163	0xbdf75fc6	-0.12078814
164	0x3d9a2e6e	0.07528387
165	0x3dcbf4da	0.09958811
166	0xbd3b3df0	-0.045713365
167	0xbd9debe4	-0.07711008
168	0xbdfbddda	-0.12298174
169	0x3d5d5f38	0.054045886
170	0x3ce5aa98	0.028035447
171	0xbdaa43ce	-0.08313714
172	0xbdbf8b9e	-0.09352802
173	0x3d82aa88	0.063801825
174	0xbdf92e10	-0.12166989
175	0xbde59d7a	-0.11211677
176	0x3bac9ea0	0.005267933
177	0xbd352f44	-0.04423453
178	0xbdacfb22	-0.08446337
179	0x3d0e1948	0.03469208
180	0xbd8b80ac	-0.068116516
181	0xbdcb089c	-0.099137515
182	0xbd88a3c0	-0.06671858
183	0x3d5856e0	0.052817225
184	0x3d41c824	0.04731001
185	0xbdbe338e	-0.09287177
186	0xbde1f946	-0.11033873
187	0x3dc5a09a	0.09649773
188	0xbcb74a70	-0.022374362
189	0xbd78eed4	-0.06077464
190	0xbda55a8c	-0.08073911
191	0xbcbf6590	-0.023363858
192	0xbd9c0923	-0.0761893
193	0xbdceb926	-0.10093908
194	0xbd452984	-0.048135296
195	0x3e271d3a	0.16319743
196	0xbce9a310	-0.028520137
197	0x3ddc28a8	0.10749942
198	0x3d75c1c4	0.059999242
199	0xbd51e9b4	-0.051248267
200	0x3c8a0ef0	0.016852826
201	0x3dbfc4f6	0.09363739
202	0x3d9ddcc0	0.0770812
203	0x3d3c4268	0.045961767
204	0xbd117590	-0.035512507
205	0xbcfc91e8	-0.030831292
206	0x3d8da012	0.069152966
207	0x3d00bc24	0.031429425
208	0xbd49240c	-0.049106643
209	0xbdbffece	-0.09374772
210	0xbbc49840	-0.005999595
211	0x3daf599e	0.08562015
212	0xbd2a1d40	-0.0415318
213	0x3d693594	0.05693586
214	0xbdcf6208	-0.1012612
215	0xbdbe4ed0	-0.09292376
216	0xbc436830	-0.011926696
217	0x3daca83c	0.08430526
218	0x3d38fd00	0.045163155
219	0xbbc78b80	-0.0060896277
220	0xbb0d9780	-0.0021605194
221	0xbd8ac3d2	-0.06775631
222	0xbdab4a6e	-0.08363806
223	0x3ddac5fe	0.10682295
224	0x3dac2f1c	0.08407423
225	0x3d3d7118	0.046250433
226	0xbdf4b166	-0.119478986
227	0xbd122ed8	-0.035689205
228	0xbd6dd338	-0.058062762
229	0x3ca19b58	0.019727394
230	0x3dbbad76	0.091639444
231	0x3d91f81a	0.071274
232	0x3cf12970	0.029438704
233	0x3defd608	0.11710745
234	0x3de21cb0	0.11040628
235	0x3dda2f3e	0.10653542
236	0x3d5b63a0	0.053561807
237	0x3da6fb30	0.08153379
238	0xbc5fdf70	-0.0136641115
239	0x3d2b2c70	0.041790426
240	0x3b4fe140	0.0031719953
241	0xbdfb8d86	-0.12282853
242	0xbd6333c0	-0.055469275
243	0x3d61b3b4	0.05510302
244	0xbca9d990	-0.020733625
245	0x3cfacb88	0.03061463
246	0xbd025d24	-0.031827107
247	0x3da82fa2	0.0821221
248	0xbd14a46c	-0.036289617
249	0x3c9800a0	0.018554986
250	0xbdb4f480	-0.08835697
251	0x3df6ac62	0.12044598
252	0xbdb00e30	-0.08596456
253	0xbdcbaaac	-0.099446625
254	0xbcf96a90	-0.03044632
255	0xbdf2e82c	-0.118606895

encoder.key_net.net.0.bias f4 [74]
0	0x3cda6650	0.026660115
1	0x3d9f94ea	0.07792075
2	0xbce21323	-0.027597016
3	0x3c8116cf	0.015757946
4	0x3b685bd2	0.003545512
5	0x3bac6ab6	0.0052617444
6	0x3c9349c7	0.017979516
7	0xbbfb0b16	-0.0076612337
8	0x3d5c7e0c	0.053831145
9	0x3ce6a1bc	0.028153293
10	0x3d4e46fb	0.05036066
11	0x3d5132e8	0.05107394
12	0x3cb9d45f	0.022684274
13	0xbd42c88b	-0.047554534
14	0x3c99d380	0.018777609
15	0x3d1b327d	0.037889946
16	0xbcee2303	-0.02906943
17	0xbdb59ffb	-0.088684045
18	0xbcaf0335	-0.021363834
19	0x3c644b47	0.013933963
20	0x3cb17b1b	0.021665147
21	0x3d33518c	0.04377894
22	0xbd4e4a0e	-0.050363593
23	0xba177f7c	-0.00057791895
24	0x3cd3acb1	0.025839182
25	0xbca560f6	-0.020187836
26	0x3ca5b757	0.020229025
27	0xbcdcc556	-0.026949566
28	0xbdc80417	-0.09766405
29	0x3c688986	0.014192944
30	0xbd302d36	-0.043011867
31	0xbcbe5d43	-0.02323783
32	0x3d7871fb	0.060655575
33	0x3dc175be	0.09446286
34	0x3d4167a7	0.04721799
35	0x3c2dcef9	0.010608428
36	0xbd3a4ee7	-0.045485403
37	0x3da3c56a	0.07996638
38	0xbcc52e40	-0.024069905
39	0x3c1ad1b9	0.009449416
40	0xbdaa47b1	-0.08314455
41	0x3c4aa2e0	0.012367934
42	0x3d2de740	0.042456865
43	0x3d5397c3	0.051658403
44	0xbd2f6c3a	-0.042827822
45	0x3bd1d705	0.006403806
46	0x3d7d3eb3	0.061827373
47	0xbc10645b	-0.008812989
48	0xbc850f79	-0.01624273
49	0x3cbe4612	0.023226772
50	0xbc7a4003	-0.015274051
51	0xbdedb208	-0.116062224
52	0xbd95742b	-0.07297548
53	0xbdd355f9	-0.10319132
54	0x3d92636e	0.07147871
55	0x3c665cd8	0.014060222
56	0x3cfe7591	0.03106192
57	0xbe0358e2	-0.12826875
58	0x3d07592d	0.03304403
59	0x3d3350db	0.04377828
60	0xbb5261ef	-0.003210183
61	0x3dd64882	0.104630485
62	0xbc2ee8e5	-0.010675644
63	0x3daa98cd	0.08329926
64	0xbdc8647c	-0.09784791
65	0xbc75e544	-0.0150082745
66	0x3d872e81	0.06600667
67	0x3cd2a8b1	0.025715204
68	0xbc5e390d	-0.013563407
69	0x3d433bf7	0.04766461
70	0xbda37d1c	-0.07982847
71	0xbd48c20e	-0.04901319
72	0xbcc9281b	-0.024555257
73	0xbc5997c9	-0.013280817

encoder.key_net.net.1.weight f4 [74]
0	0x3f8fed8d	1.124437
1	0x3f8d37f9	1.1032706
2	0x3f8fe5c8	1.1241999
3	0x3f8f60f7	1.1201466
4	0x3f848a91	1.0354787
5	0x3f844a90	1.0335255
6	0x3f84e960	1.038372
7	0x3f80e059	1.0068465
8	0x3f8a3479	1.0797263
9	0x3fa34cd4	1.2757821
10	0x3f8a893b	1.082313
11	0x3f88d368	1.0689516
12	0x3f8b9248	1.0904016
13	0x3f82b429	1.021123
14	0x3f970714	1.1799035
15	0x3f9a8c52	1.2074072
16	0x3f8907ad	1.0705467
17	0x3f73fa58	0.9530387
18	0x3f765e50	0.9623766
19	0x3f91fb5c	1.1404834
20	0x3f88ca50	1.0686741
21	0x3f824e6a	1.018018
22	0x3f8b9261	1.0904046
23	0x3f85bf0b	1.0448927
24	0x3f76e9bc	0.964504
25	0x3f86aba2	1.0521128
26	0x3f97bd59	1.1854659
27	0x3f74a241	0.9556008
28	0x3f8d35c2	1.103203
29	0x3f81c626	1.0138595
30	0x3f922a92	1.1419241
31	0x3f8e1faf	1.1103419
32	0x3f835de7	1.0263032
33	0x3f8696b7	1.0514745
34	0x3f7146f9	0.9424892
35	0x3f85e687	1.0460976
36	0x3f8cf442	1.1012042
37	0x3f7e90ba	0.99439585
38	0x3f91d973	1.1394485
39	0x3f78184b	0.9691207
40	0x3f9145a4	1.1349378
41	0x3f64459d	0.8916872
42	0x3f80e270	1.0069103
43	0x3f6b14d1	0.9182864
44	0x3f7ad6e4	0.9798415
45	0x3f8749e8	1.0569429
46	0x3f84a3c0	1.0362473
47	0x3f99f05d	1.2026478
48	0x3f7012ab	0.93778485
49	0x3f8082fd	1.0039974
50	0x3f9937c3	1.1970142
51	0x3f899302	1.0747988
52	0x3f82eea6	1.022908
53	0x3f84d1cd	1.0376526
54	0x3f84a510	1.0362873
55	0x3f92f5bf	1.1481246
56	0x3f93d96a	1.1550725
57	0x3f8ab404	1.0836186
58	0x3f820848	1.0158777
59	0x3f91deaa	1.1396077
60	0x3f70f739	0.9412723
61	0x3f855f40	1.0419693
62	0x3f7e72cd	0.9939392
63	0x3f80c2fc	1.0059505
64	0x3f7ea54a	0.9947096
65	0x3f8091b6	1.0044467
66	0x3f85ceda	1.0453751
67	0x3f8457be	1.0339277
68	0x3f70362a	0.9383265
69	0x3f8650be	1.049339
70	0x3f80bf05	1.0058295
71	0x3f8e056e	1.1095407
72	0x3f5ccbd5	0.86248523
73	0x3f973880	1.1814117

encoder.key_net.net.1.bias f4 [74]
0	0x3c6151b5	0.013752391
1	0x3c8897e5	0.016673991
2	0x3d783610	0.060598433
3	0x3c8ba1fc	0.017045014
4	0x3c8212ba	0.01587807
5	0xbc84ddce	-0.016219046
6	0xbb1cba78	-0.0023914855
7	0x3bd96459	0.006634277
8	0x3d419565	0.047261614
9	0x3d5ca331	0.05386657
10	0x3c8b5a44	0.017010815
11	0x3d16927a	0.036760785
12	0x3d6fc132	0.058533855
13	0xbcc69712	-0.024241958
14	0x3d6270bf	0.055283304
15	0x3dbf23f8	0.09333032
16	0x3cbe552d	0.023233974
17	0x3bc31474	0.005953366
18	0xbc9bab49	-0.019002574
19	0x3cff06c5	0.031131158
20	0x3c1aa7b4	0.009439398
21	0x3c6c8529	0.014436045
22	0xbdd0b0f6	-0.101900026
23	0xbcbbeb05	-0.022939214
24	0xbd66e775	-0.05637308
25	0x3cc647d0	0.024204165
26	0x3d185ad7	0.037196007
27	0xbc695052	-0.014240341
28	0xbdeb31c7	-0.11484104
29	0xbb117e26	-0.0022200434
30	0x3ca2ce71	0.01987383
31	0x3b02a11b	0.0019932452
32	0x3cac5234	0.021035291
33	0x3c50386c	0.0127087645
34	0xbd696be4	-0.05698766
35	0x3cf779bf	0.03020942
36	0x3cb379b7	0.021908624
37	0xbad5450c	-0.0016271188
38	0x3d9c400a	0.07629402
39	0xbc507b98	-0.01272478
40	0x3d87dc9f	0.06633877
41	0x3c73d8e2	0.014883252
42	0xbc1731fa	-0.009228224
43	0xbbb7c081	-0.005607665
44	0xbcbb8385	-0.022889862
45	0x3cd5ade9	0.026083903
46	0x3c938486	0.018007528
47	0x3d45fa98	0.048334688
48	0xbcfbefe1	-0.030754032
49	0x3b3dc670	0.002895739
50	0x3cf19dde	0.029494222
51	0xbd9b7521	-0.075907
52	0xbd18c6d2	-0.037298985
53	0xbc1bcae8	-0.009508826
54	0x3c223c8f	0.009902134
55	0x3b6523cb	0.0034963961
56	0x3c6371b7	0.013882092
57	0xbdada98a	-0.08479603
58	0x3c94bc3d	0.018156165
59	0x3d9604d1	0.073251374
60	0xbd2d55d7	-0.04231819
61	0x3bb55ea2	0.0055349628
62	0xbcfbced9	-0.030738281
63	0x3c82675d	0.015918428
64	0xbce34471	-0.027742596
65	0x3c054773	0.008134711
66	0x3cfc3264	0.030785747
67	0x3cf34937	0.029697997
68	0x3c0a6d12	0.008448856
69	0xbc9d192b	-0.01917704
70	0xbce5ca98	-0.028050706
71	0x3ce6a287	0.028153671
72	0xbbe82c18	-0.0070853345
73	0x3d972cbf	0.073815815

encoder.key_net.net.3.weight f4 [84, 74]
0	0x3d23d8a0	0.04000151
1	0xbd834f6f	-0.06411635
2	0xbceaaad9	-0.02864592
3	0xbc17b280	-0.009258866
4	0xbc261f24	-0.01013926
5	0x3d1ca48a	0.038242854
6	0x3d04709a	0.032333948
7	0xbdd87add	-0.10570309
8	0xbd868341	-0.065680034
9	0xbe4be0c8	-0.19909966
10	0xbd93c21c	-0.07214758
11	0xbcab6bf7	-0.020925505
12	0xbda8ec47	-0.08248191
13	0x3db4b007	0.08822637
14	0xbdb8435d	-0.089972235
15	0xbb03e157	-0.0020123327
16	0x3c9c68ae	0.019092884
17	0x3dd9cd0c	0.10634813
18	0xbcad52bc	-0.021157615
19	0x3dd86bba	0.10567422
20	0x3cc79b24	0.024365969
21	0xbdf97557	-0.12180584
22	0x3d874b73	0.06606188
23	0xbd979a51	-0.074024804
24	0x3d8c26cf	0.0684334
25	0xbd8dcb16	-0.06923501
26	0xbe7c97d4	-0.24667293
27	0x3d76aa27	0.060220864
28	0xbcfc99ec	-0.030835114
29	0x3dd06348	0.101751864
30	0x3e08151e	0.13289306
31	0x3d2200ef	0.03955167
32	0x3ce4cd16	0.027929824
33	0x3cbdb934	0.0231596
34	0xbcb8817d	-0.022522682
35	0x3dd5c6d8	0.10438317
36	0x3e1e8941	0.15482046
37	0xbdead58e	-0.114665136
38	0x3d2439d7	0.040094223
39	0xbda78a5f	-0.08180689
40	0xbd1e45cb	-0.03864078
41	0xbde56a83	-0.11201956
42	0xbca70390	-0.02038744
43	0xbd31a71e	-0.043372266
44	0x3cd45c78	0.025922999
45	0xbc341543	-0.010991397
46	0xbdc0c2b3	-0.09412136
47	0x3d8c3549	0.06846101
48	0x3d8042be	0.0626273
49	0xbbae3859	-0.0053167758
50	0xbc6222bd	-0.013802228
51	0x3a80f3d5	0.0009838293
52	0xbc843bc3	-0.016141778
53	0x3d9230b2	0.07138194
54	0x3d08f864	0.03344001
55	0xbd6b6a00	-0.057474136
56	0x3dd8827c	0.10571763
57	0x3d8b2bd5	0.0679547
58	0xbce886f1	-0.028384658
59	0x3dea462c	0.114391655
60	0x3d6222fa	0.055209137
61	0x3db114e8	0.08646566
62	0x3d29d74e	0.041465096
63	0xbd91445a	-0.07093115
64	0x3d7c29c3	0.061563265
65	0xbd84c164	-0.06482199
66	0xbdc2994f	-0.095018975
67	0x3de67446	0.11252646
68	0xbd3930ba	-0.045212485
69	0xbca73bf6	-0.020414334
70	0xbd148050	-0.03625518
71	0x3d54f75a	0.051993705
72	0x3c93bbae	0.018033829
73	0x3d1bff3c	0.038085207
74	0x3c005599	0.007832908
75	0xbe14f31f	-0.14545868
76	0x3cef5dd9	0.029219555
77	0xbde5713c	-0.11203238
78	0x3dbe51d3	0.092929505
79	0x3d692ef4	0.056929544
80	0xbd1827e6	-0.037147425
81	0xbdd26d0b	-0.102747045
82	0x3e2e52aa	0.17023721
83	0xbbb9e7c6	-0.0056733815
84	0x3e829eb2	0.255117
85	0x3dd8c77e	0.10584925
86	0xbe38282f	-0.17984079
87	0xbdcfa8f8	-0.1013965
88	0xbd4b3867	-0.049614336
89	0x3e67672d	0.22597952
90	0xbdcfbf79	-0.101439424
91	0xbdcc0a3a	-0.09962888
92	0xbd8b4d65	-0.06801871
93	0x3df28691	0.11842073
94	0xbdcffdf7	-0.10155862
95	0x3e05a7e8	0.13052332
96	0x3cf0e232	0.029404733
97	0x3babe20b	0.0052454523
98	0xbdc15bf4	-0.09441367
99	0x3e5a836c	0.21339196
100	0xbd295df6	-0.041349374
101	0xbae94355	-0.0017796556
102	0xbcd81536	-0.026377302
103	0x3d9c56b3	0.07633724
104	0xbdba7178	-0.09103674
105	0x3e763b64	0.24046093
106	0x3d0d24c4	0.03445889
107	0x3d9c87f2	0.07643117
108	0x3d0bba87	0.034113433
109	0x3cd5cbd4	0.02609817
110	0xbe1a9c34	-0.1509865
111	0xbda6ddcb	-0.081477724
112	0x3e6e1428	0.23249876
113	0xbda90447	-0.08252769
114	0x3db01ad3	0.08598866
115	0xbd8d2f73	-0.06893816
116	0x3d855558	0.06510419
117	0x3cc82d8e	0.024435785
118	0x3d2d50fb	0.042313557
119	0x3d895689	0.067059584
120	0xbdaa484b	-0.0831457
121	0xbe287c16	-0.16453585
122	0x3d17a99a	0.03702698
123	0x3e04521c	0.12921947
124	0xbcb33254	-0.021874584
125	0xbe2410cf	-0.16022037
126	0xbdae964a	-0.08524759
127	0xbde149d2	-0.11000408
128	0xbde06124	-0.10956028
129	0xbd87ad0b	-0.06624802
130	0xbdacd022	-0.08438136
131	0x3d8da704	0.06916621
132	0x3d817a1b	0.06322118
133	0x3d2819fa	0.0410404
134	0x3dcc28c8	0.09968716
135	0x3e271e4d	0.16320153
136	0x3d189f32	0.037261195
137	0x3d91978d	0.07108984
138	0x3d8e9b39	0.069632
139	0xbd19fd37	-0.037595
140	0x3e24f543	0.16109185
141	0xbb05bac1	-0.0020405503
142	0x3dad4c62	0.084618345
143	0x3d51009e	0.05102598
144	0xbdc8884b	-0.09791621
145	0xbe2be124	-0.16785103
146	0x3d94afd9	0.07260103
147	0xbd87fbe4	-0.06639841
148	0xbe2b2412	-0.16712978
149	0xbda4b58f	-0.08042442
150	0x3c6d76cc	0.014493655
151	0xbdffa231	-0.124821074
152	0x3d0b2357	0.03396925
153	0x3df27811	0.11839307
154	0x3d98f427	0.07468443
155	0xbe2cc2f3	-0.16871242
156	0x3d7a4c0f	0.06110769
157	0x3ca7ae3e	0.020468827
158	0x3dfc6f32	0.12325896
159	0x3e20782f	0.15670846
160	0xbdcd5a7f	-0.100270264
161	0xbd8b5412	-0.068031445
162	0xbd81697c	-0.06318948
163	0x3e4ae609	0.19814314
164	0xbe47a9f0	-0.1949842
165	0xbcc50564	-0.024050422
166	0x3cb2c4d7	0.021822376
167	0x3de0a53c	0.10969016
168	0xbdb96bab	-0.09053739
169	0x3de06b7f	0.10958003
170	0xbd6f7d10	-0.05846888
171	0xbdb07e68	-0.0861786
172	0x3cb389f1	0.021916362
173	0x3ddef7c4	0.10887101
174	0xbcc95282	-0.024575476
175	0x3d7f0368	0.062259108
176	0xbd839d6f	-0.064265124
177	0x3e06da5c	0.13169235
178	0xbb80429c	-0.0039141905
179	0x3e53eef1	0.20696618
180	0xbd8cc165	-0.068728246
181	0x3e036bec	0.12834138
182	0x3c8a940e	0.016916301
183	0x3d66096b	0.056161325
184	0xbe7ac42c	-0.24488896
185	0xbd2aeb23	-0.04172815
186	0x3e6f7cf1	0.23387505
187	0x3d4a546f	0.04939693
188	0xbd6a2efc	-0.057173714
189	0xbd85172a	-0.06498559
190	0xbd0eb1db	-0.034837585
191	0xbdbc56d1	-0.091962464
192	0xbddaefcd	-0.106902696
193	0x3ce00431	0.027345749
194	0x3d1d0dde	0.038343303
195	0xbd9858f7	-0.07438844
196	0xbd279217	-0.040910807
197	0x3e06a54d	0.13148995
198	0xbda6c565	-0.08143119
199	0xbdea5579	-0.11442084
200	0xbd894bda	-0.06703921
201	0xbd9dd5a1	-0.07706762
202	0xbd938bce	-0.072044
203	0xbdbc0d63	-0.09182241
204	0xbd4c76f7	-0.04991814
205	0xbd9a2180	-0.07525921
206	0x3da490cc	0.0803543
207	0x3c9cf5c0	0.019160151
208	0x3df06407	0.11737829
209	0x3c97554c	0.01847329
210	0xbdca070d	-0.09864626
211	0x3e048fdd	0.12945504
212	0xbd1bc69a	-0.038031198
213	0xbd8bd6ae	-0.06828056
214	0x3e144899	0.14480819
215	0x3d6d8e42	0.057996996
216	0xbd997636	-0.0749325
217	0xbbb6b6b2	-0.005575978
218	0xbdfe2bc3	-0.12410691
219	0xbe2f3489	-0.17109884
220	0xbd24bce7	-0.040219214
221	0x3d8608dd	0.06544659
222	0x3b74aecf	0.003733564
223	0x3e135c4c	0.14390677
224	0x3d8c6c6a	0.06856616
225	0x3d0b8607	0.034063365
226	0xbdce1cd7	-0.100640945
227	0xbd60ace2	-0.054852374
228	0xbdf33d71	-0.118769534
229	0xbb4eba66	-0.0031544208
230	0xbdf9afd2	-0.12191738
231	0x3dc2610d	0.09491167
232	0xbe08e3a1	-0.13368084
233	0x3c913746	0.017726552
234	0x3dc47de1	0.09594322
235	0xbd85e015	-0.06536881
236	0x3d8af070	0.06784141
237	0x3c5aec7d	0.013362047
238	0x3d8e9dd5	0.06963698
239	0xbcba83ad	-0.022767866
240	0x3d8840d5	0.06652991
241	0xbe4997c5	-0.19686802
242	0x3ca6e9e8	0.020375207
243	0xbd03bc0c	-0.032161757
244	0xbcfbf4fb	-0.030756464
245	0xbd74c1ec	-0.05975525
246	0x3d262a1b	0.0405675
247	0xbdb53849	-0.08848626
248	0x3cffa504	0.031206615
249	0x3d947522	0.07248904
250	0x3d93b1ff	0.072116844
251	0x3d3a6532	0.045506664
252	0xbd83ca9b	-0.06435128
253	0xbde2f06a	-0.110810116
254	0xbd7c48c2	-0.061592825
255	0xbe13923c	-0.14411253

encoder.key_net.net.3.bias f4 [84]
0	0x3def1038	0.11673015
1	0xbd82fd58	-0.06395978
2	0x3d513b30	0.051081836
3	0x3c2ef98c	0.010679614
4	0x3bf05bb5	0.007335151
5	0x3b467aea	0.0030285665
6	0xbb83fdef	-0.004028074
7	0x3db7258f	0.089427106
8	0x3d7b8a4a	0.06141118
9	0x3d3e5bca	0.046474256
10	0x3d7b8598	0.0614067
11	0x3e070ebd	0.13189216
12	0x3e0e5f6b	0.13903587
13	0xbdef9edd	-0.11700223
14	0x3d6fe1a7	0.05856481
15	0x3cd1abae	0.025594559
16	0xbe0cf97f	-0.1376705
17	0x3d66a520	0.05630982
18	0xbe006f82	-0.12542537
19	0x3e19d149	0.15021242
20	0x3e0d991a	0.13827935
21	0x3b62670c	0.0034546284
22	0xbc66a419	-0.01407721
23	0x3d3477fb	0.044059735
24	0xbdc67272	-0.096897975
25	0x3d56a806	0.052406333
26	0xbe1f39eb	-0.15549438
27	0x3d6b6aba	0.05747483
28	0x3b277278	0.0025550406
29	0x3d7b2c8e	0.061321788
30	0x3dbbfc25	0.09178952
31	0xbdb5e815	-0.08882157
32	0xbd9c0680	-0.07618427
33	0x3d4b8e2f	0.049696144
34	0xbdc9f73b	-0.098616086
35	0x3ba33b2f	0.0049814205
36	0xbdb40f4f	-0.087919824
37	0xbda2572e	-0.079267845
38	0x3d939f89	0.07208163
39	0x3d8055cf	0.06266367
40	0xbdf774ed	-0.12082849
41	0xbd9a3e51	-0.07531417
42	0x3def45ae	0.11683212
43	0x3dce41cc	0.100711435
44	0x3c18a4f6	0.0093166735
45	0xba19168a	-0.00058398454
46	0x3da4585f	0.08024668
47	0xbde97822	-0.11399867
48	0x3d4fdb9c	0.050746545
49	0xbd385da2	-0.04501117
50	0x3c28969d	0.010289815
51	0xbdc3698b	-0.09541615
52	0xbc953870	-0.018215388
53	0x3dd18816	0.102310345
54	0xbdb77ce8	-0.08959371
55	0x3d9a84c5	0.07544855
56	0xbdc9a5db	-0.098460875
57	0xbbf5a43a	-0.007496384
58	0xbd2d52a1	-0.04231513
59	0xbddce044	-0.10784963
60	0x3d9b6037	0.07586711
61	0xbd9e49dc	-0.07728931
62	0x3da9b19f	0.08285832
63	0x3da64a42	0.08119632
64	0xbdce564d	-0.10075054
65	0x3d9ef944	0.077623874
66	0xbde1da45	-0.1102796
67	0xbcab82a5	-0.02093632
68	0xbcc7db80	-0.024396658
69	0x3e3c0ed4	0.18365031
70	0x3c6da872	0.0145054925
71	0xbaa62385	-0.001267538
72	0xbd949e06	-0.07256703
73	0x3e07a3e2	0.1324611
74	0x3c58cc4b	0.013232301
75	0x3d802cd0	0.06258547
76	0x3e01185f	0.12606953
77	0xbd2f09c1	-0.04273391
78	0x3baea61c	0.0053298604
79	0xbccb5bdd	-0.024824077
80	0x3e03e135	0.12878878
81	0xbe087f27	-0.13329755
82	0xbce36134	-0.027756311
83	0x3d56908d	0.052383948

encoder.val_net.net.0.weight f4 [52, 21]
0	0x3d64e7fa	0.055885293
1	0xbc98bf93	-0.018646037
2	0x3bf90c55	0.007600347
3	0xbdbf1176	-0.09329502
4	0xbd2cc82d	-0.04218309
5	0xbdc6d5b1	-0.09708727
6	0x3e2ed72a	0.17074266
7	0x3e249997	0.16074215
8	0x3ca1c046	0.019745003
9	0x3e740587	0.23830234
10	0x3da0a52c	0.07844004
11	0xbe80ab73	-0.25130805
12	0x3d926bae	0.071494445
13	0xbdb86338	-0.090032995
14	0xbdda60a6	-0.106629655
15	0xbe2abd0f	-0.16673683
16	0xbde553df	-0.11197638
17	0x3d8d1c92	0.06890215
18	0x3e754aae	0.2395427
19	0x3d977bec	0.07396683
20	0xbe3a218a	-0.18176857
21	0x3dab7320	0.08371568
22	0x3cfb0ed6	0.030646723
23	0xbe3a8950	-0.18216443
24	0xbdaf1e89	-0.08550746
25	0xbe2be069	-0.16784824
26	0xbdbdf74b	-0.09275683
27	0xbd6358d2	-0.055504628
28	0x3e57234e	0.21009561
29	0x3e1f8375	0.1557749
30	0xbd401471	-0.046894494
31	0xbe4b9cbf	-0.19884013
32	0x3e324868	0.17410433
33	0x3e4c3962	0.19943765
34	0x3e4fa590	0.20278001
35	0xbe437a8b	-0.19089715
36	0x3d86c65a	0.06580801
37	0x3dd50f02	0.10403253
38	0x3dbded39	0.09273762
39	0x3daa69b9	0.08320946
40	0xbe5eb404	-0.21748358
41	0xbd108755	-0.035285313
42	0xbd0954da	-0.033528186
43	0xbb99f22c	-0.0046980586
44	0xbdc432d3	-0.095800065
45	0xbde089a5	-0.109637536
46	0x3d5c25c5	0.053746957
47	0x3c35b544	0.01109058
48	0x3e3c2135	0.18372042
49	0xbc235fe8	-0.009971596
50	0x3dcb968f	0.09940826
51	0xbe6403a0	-0.22267008
52	0x3e935992	0.28779274
53	0xbd1c94ee	-0.038227968
54	0xbe3e7534	-0.18599397
55	0x3e52e480	0.20594978
56	0x3eba0d33	0.36338195
57	0x3d9c5b3d	0.0763459
58	0xbbe3091d	-0.0069285766
59	0xbe154921	-0.14578678
60	0xbdf35d45	-0.11883024
61	0x3d8d55fa	0.06901164
62	0x3e38e9d2	0.18057945
63	0x3d3fafce	0.04679852
64	0x3cbec562	0.023287479
65	0xbdd811cc	-0.105502695
66	0x3c887ec1	0.016662003
67	0xbe081b55	-0.13291676
68	0x3db57191	0.08859552
69	0xbcfe8462	-0.031068984
70	0x3d762649	0.060095105
71	0x3e1e0bd5	0.15434201
72	0xbca6f140	-0.020378709
73	0xbd14e2a9	-0.036348972
74	0x3dd15535	0.1022133
75	0xbd9f8dd3	-0.07790723
76	0x3e0edde6	0.13951835
77	0x3c937bee	0.01800343
78	0x3e6b72ca	0.22993007
79	0xba16b184	-0.0005748498
80	0x3d224b51	0.03962261
81	0x3dd7a71e	0.10529922
82	0xbdf1b028	-0.11801177
83	0xbd902734	-0.070387274
84	0xbca147e4	-0.0196876
85	0x3be859d9	0.007090789
86	0x3dd76a95	0.10518376
87	0xbd9ece79	-0.07754225
88	0xbd2c0e46	-0.0420058
89	0xbc77c942	-0.015123667
90	0x3e06f88c	0.1318075
91	0x3c99444d	0.018709326
92	0x3cdeb67f	0.02718663
93	0xbdcc83ad	-0.09986053
94	0x3e8c2e13	0.27378902
95	0x3ded9b7e	0.116019234
96	0xbe61e538	-0.22060096
97	0xbe9c2f74	-0.30504954
98	0xbdd0a78f	-0.10188209
99	0xbdaac37b	-0.08338066
100	0xbd9a7921	-0.07542635
101	0x3e96bca1	0.29440787
102	0x3e1cf15b	0.15326445
103	0x3deebb3f	0.11656808
104	0x3cfa09ad	0.030522192
105	0xbd669085	-0.05629017
106	0xbcd0a3c5	-0.025468716
107	0x3dd6f313	0.104955815
108	0xbd9dca43	-0.07704594
109	0x3d066ce1	0.03281868
110	0x3df92e1f	0.12167
111	0x3d7b126a	0.061296858
112	0x3b0151c3	0.0019732572
113	0xbe848f16	-0.25890416
114	0x3dfb694c	0.12275943
115	0x3e0a14a3	0.13484435
116	0x3e206a6e	0.156656
117	0xbabb5277	-0.0014291544
118	0x3d697098	0.056992143
119	0x3e3b9dc0	0.18321896
120	0x3d526d50	0.05137378
121	0xbdd27723	-0.1027663
122	0xbe8c17af	-0.2736182
123	0xbea52c62	-0.32260424
124	0x3d2ee868	0.04270211
125	0xbe2ff902	-0.17184833
126	0xbe2d800b	-0.16943376
127	0xbdfc3849	-0.12315423
128	0x3e1550f8	0.14581668
129	0xbe13bb26	-0.1442686
130	0x3cdf9306	0.027291786
131	0x3d1dd2f2	0.03853125
132	0x3dac7d24	0.08422306
133	0x3e07340d	0.1320345
134	0xbe08a1e6	-0.1334301
135	0xbdebb198	-0.11508483
136	0xbd61c4a3	-0.055119168
137	0x3e35bfb3	0.17748909
138	0x3dbd0779	0.09229941
139	0x3e86dfec	0.26342714
140	0x3e62dbe5	0.22154196
141	0x3e011761	0.12606575
142	0x3d947808	0.07249457
143	0x3dcee285	0.10101799
144	0x3e3a55f3	0.1819685
145	0xbe077157	-0.1322683
146	0x3e270463	0.16310267
147	0xbe282157	-0.16418968
148	0xbd7fc994	-0.0624481
149	0xbcc13717	-0.02358584
150	0xbe1d9bd5	-0.15391476
151	0x3e3addc6	0.18248662
152	0x3d4ca6c8	0.049963742
153	0xbd1d316f	-0.03837722
154	0xbeb564ff	-0.35428616
155	0x3dae4799	0.0850975
156	0x3dba8293	0.09106936
157	0xbddabbb2	-0.10680331
158	0x3b68aa3e	0.0035501863
159	0x3e57db7c	0.2107982
160	0xbe11ed83	-0.1425076
161	0x3bd274c2	0.00642261
162	0xbe976193	-0.2956663
163	0x3e329ea8	0.17443335
164	0x3ea77128	0.3270352
165	0xbe646167	-0.22302781
166	0xbe913348	-0.28359437
167	0xbc0844f7	-0.008317224
168	0x3c4f4539	0.012650781
169	0x3c24b4e0	0.01005289
170	0x3d664d29	0.05622593
171	0xbdc5978f	-0.09648048
172	0x3cc5762a	0.024104197
173	0x3c49391e	0.012281684
174	0xbe5c0f76	-0.21490273
175	0xbe8647bb	-0.262266
176	0xbe235068	-0.15948641
177	0xbe296ddd	-0.16545816
178	0xbde2890b	-0.11061295
179	0x3e15e9ab	0.14639919
180	0x3d815f70	0.063170314
181	0x3d962fd7	0.073333435
182	0xbcac1685	-0.021006832
183	0x3d865981	0.0656004
184	0xbea876b4	-0.32903063
185	0xbd8a4d83	-0.067530654
186	0x3d6aa2d3	0.057284188
187	0xbdb588e8	-0.088640034
188	0x3dff8876	0.124772
189	0x3deb6a83	0.11494925
190	0x3c80516e	0.015663829
191	0xbe25ea74	-0.16202718
192	0x3dfd1ffb	0.123596154
193	0xbdb71a20	-0.0894053
194	0xbc61a033	-0.013771105
195	0x3d85ef53	0.06539788
196	0xbe28a359	-0.16468562
197	0xbd67edca	-0.056623258
198	0x3e2541ae	0.16138336
199	0x3e47094b	0.19437139
200	0x3dce4201	0.10071183
201	0xbe7ebccb	-0.24876706
202	0x3e3147e3	0.17312579
203	0xbd78e169	-0.060761843
204	0x3ea1d4c2	0.31607634
205	0x3e46e9c9	0.1942512
206	0x3edc54ec	0.4303354
207	0x3bb1de58	0.005428117
208	0xbd6fee47	-0.05857685
209	0x3e88a58e	0.26688808
210	0x3ddc4399	0.10755081
211	0x3bb2f121	0.0054608737
212	0x3d5c647f	0.053806778
213	0x3c861d2f	0.016371338
214	0x3c8a6d44	0.016897805
215	0x3d778345	0.060427923
216	0xbe9f9825	-0.31170765
217	0x3cc46e2b	0.023978313
218	0x3e0c612d	0.13708945
219	0xbdc4d419	-0.09610767
220	0xbe54c4ea	-0.20778242
221	0x3e339e6b	0.175409
222	0x3cd58dbe	0.026068565
223	0xbdfbd1c6	-0.122958705
224	0xbe0c9bea	-0.13731351
225	0x3bb6746c	0.005568078
226	0xbd73391e	-0.059380643
227	0xbe1f6d59	-0.15569057
228	0x3e519df3	0.20470409
229	0xbe0cf8db	-0.13766806
230	0xbcfe4f2d	-0.031043613
231	0xbdc5fc93	-0.09667315
232	0xbdd8872e	-0.105726585
233	0xbd545171	-0.05183548
234	0x3d4cf5d4	0.050039127
235	0xbb8636c7	-0.0040958854
236	0x3e26c730	0.16286922
237	0xbd41d297	-0.047319975
238	0x3d8e7955	0.06956736
239	0x3cc04824	0.0234719
240	0xbcde5e64	-0.027144618
241	0x3e0bca8a	0.13651481
242	0xbe514039	-0.20434655
243	0x3dcfdfa2	0.101500764
244	0xbde2a921	-0.11067415
245	0x3e6bb34c	0.23017615
246	0xbd8d4f62	-0.06899907
247	0xbd79bc5b	-0.060970645
248	0xbe138368	-0.14405596
249	0x3da6631c	0.08124372
250	0x3db64470	0.08899772
251	0x3e225627	0.15853177
252	0x3e082b0c	0.13297671
253	0x3d11fc48	0.035640985
254	0xbe46453c	-0.19362348
255	0x3d98c313	0.074590825

encoder.val_net.net.0.bias f4 [52]
0	0xbcca1761	-0.024669351
1	0xbc8609a8	-0.016362026
2	0xbe149326	-0.14509258
3	0xbdf7dd19	-0.12102718
4	0xbc7470e5	-0.014919494
5	0x3df3015e	0.11865495
6	0x3d25f3f4	0.040515855
7	0x3d8db92b	0.069200836
8	0xbe8f8e34	-0.2803818
9	0xbd93ecb4	-0.07222882
10	0x3ddfd791	0.10929788
11	0x3d4ea12c	0.050446674
12	0x3e12f7d8	0.14352357
13	0xbea7489b	-0.3267258
14	0x3c8aea47	0.016957415
15	0xbd810caf	-0.06301247
16	0x3d8ca0e7	0.06866627
17	0x3d934dbd	0.07192562
18	0xbc22bec4	-0.009933177
19	0x3e2c5d2b	0.16832416
20	0x3db9cca1	0.09072233
21	0x3de76489	0.112984724
22	0x3c0e5588	0.008687384
23	0x3c22ed37	0.009944252
24	0x3c2e39a6	0.010633862
25	0xbd9f77bc	-0.077865094
26	0x3e3eb494	0.18623573
27	0xbd560a51	-0.052255932
28	0xbd2c1a86	-0.042017482
29	0x3dd84f3a	0.10561986
30	0x3dcf8dac	0.10134444
31	0x3d81c555	0.06336466
32	0x3daa3d5e	0.08312486
33	0x3dc4d15a	0.09610243
34	0x3e323101	0.17401506
35	0x3babf571	0.0052477648
36	0x3d630654	0.055425957
37	0xbea2a8d7	-0.3176944
38	0xbe067e40	-0.13134098
39	0x3dea45a6	0.11439066
40	0x3db8022e	0.08984791
41	0xbc2297e4	-0.009923909
42	0x3d330183	0.043702614
43	0xbd2fe0c5	-0.042938966
44	0xbea2dadb	-0.31807598
45	0xbdd08b0e	-0.101827726
46	0xbe89253f	-0.2678623
47	0xbe4e5a05	-0.20151527
48	0xbdc83e40	-0.09777498
49	0xbed22387	-0.4104273
50	0x3dc0976b	0.09403881
51	0xbe95a25c	-0.29225433

encoder.val_net.net.1.weight f4 [52]
0	0x3f88ab45	1.0677267
1	0x3f882df2	1.0639021
2	0x3f73ca80	0.95230865
3	0x3f81e4d2	1.0147955
4	0x3f98c9ce	1.1936586
5	0x3f7d8ab9	0.990398
6	0x3f9250e2	1.1430933
7	0x3f8f5385	1.1197363
8	0x3f8db4a5	1.1070753
9	0x3f8e5598	1.1119871
10	0x3f807584	1.0035863
11	0x3f835908	1.0261545
12	0x3f8461d2	1.0342352
13	0x3f890d25	1.0707136
14	0x3f9495cd	1.1608216
15	0x3fbc7514	1.472323
16	0x3f7df4b3	0.99201506
17	0x3f85f574	1.0465531
18	0x3fb1a8e6	1.3879669
19	0x3f7e5afb	0.99357575
20	0x3f83cc7f	1.0296782
21	0x3f81d5ef	1.0143412
22	0x3f86b60d	1.0524307
23	0x3fc335e6	1.5250823
24	0x3f9631c2	1.1733935
25	0x3f7a7e87	0.97849315
26	0x3f84312d	1.0327507
27	0x3f8dfeae	1.1093347
28	0x3fa9bf94	1.326159
29	0x3f83c100	1.0293274
30	0x3f8cc6a1	1.0998117
31	0x3f84b314	1.036715
32	0x3f8488ed	1.0354286
33	0x3f7f80b5	0.99805766
34	0x3f772d3f	0.96553415
35	0x3f82a9fb	1.0208124
36	0x3f835829	1.0261279
37	0x3f85ecff	1.046295
38	0x3f8788f8	1.0588675
39	0x3f81dddf	1.0145835
40	0x3f8287fb	1.0197748
41	0x3f8f4463	1.1192745
42	0x3f83fe24	1.0311933
43	0x3f8dc593	1.107592
44	0x3f7f57b9	0.9974323
45	0x3f90aa17	1.1301907
46	0x3f8ce56d	1.1007515
47	0x3f886553	1.0655922
48	0x3f88b74b	1.0680937
49	0x3f8f183b	1.117927
50	0x3f874013	1.0566429
51	0x3f857c89	1.042863

encoder.val_net.net.1.bias f4 [52]
0	0x3d54518a	0.051835574
1	0x3d68e4ef	0.056858953
2	0xbb044b97	-0.0020186657
3	0x3e0232a5	0.12714632
4	0x3db2bcbb	0.08727404
5	0xbcd92667	-0.02650757
6	0x3d97073f	0.07374429
7	0xbc387492	-0.011258261
8	0xbdb6ab3a	-0.089193776
9	0x3dd32c52	0.10311188
10	0xbc46c48e	-0.012131823
11	0xbba5b00c	-0.005056387
12	0xbcb128c0	-0.021625876
13	0xbd68ff93	-0.05688436
14	0x3d6a9901	0.057274822
15	0x3d50d50e	0.050984435
16	0xbc2c2e74	-0.010509122
17	0x3c1ec90c	0.009691488
18	0x3d0a5f9f	0.033782598
19	0xbc944aa2	-0.018101994
20	0xbca3fbee	-0.02001759
21	0xbcbcbf30	-0.023040384
22	0x3d4e002f	0.050293144
23	0x3d744550	0.059636414
24	0x3d0d56fa	0.034506775
25	0x3d8b3155	0.06796519
26	0x3ca5f4bb	0.020258298
27	0x3db2251d	0.08698485
28	0x3cdf8364	0.027284332
29	0x3be1e94d	0.0068942667
30	0x3c0cd705	0.0085961865
31	0xbc44de66	-0.012015915
32	0xbc5cae2d	-0.013469261
33	0xbc6d9d6e	-0.014502866
34	0xbd1b8b97	-0.03797492
35	0xbb068bfd	-0.0020530217
36	0xbbc260f5	-0.0059319683
37	0xbd335b87	-0.04378846
38	0x3db9abbe	0.0906596
39	0xbc1114e7	-0.008855081
40	0xbbed3742	-0.0072392533
41	0x3c5c3d85	0.013442402
42	0xbd2174b1	-0.039417926
43	0x3d0b8f47	0.034072187
44	0xbcc9f771	-0.024654122
45	0x3df04092	0.11731066
46	0xbd998688	-0.07496363
47	0xbd890f98	-0.066924274
48	0x3d963f51	0.073362954
49	0xbe0ae86e	-0.13565227
50	0x3d17fad8	0.037104458
51	0xbcff92c4	-0.031197913

encoder.val_net.net.3.weight f4 [84, 52]
0	0xbe278d63	-0.16362529
1	0x3e6cb88f	0.23117279
2	0x3cfcf530	0.030878633
3	0x3d6c8a29	0.057748947
4	0x3d3d1566	0.046162985
5	0x3ba69dc3	0.0050847246
6	0x3ddc15d7	0.10746353
7	0x3e030f69	0.12798847
8	0x3db9c8be	0.09071492
9	0xbe89ad8c	-0.26890218
10	0x3a06be81	0.00051400816
11	0x3d101985	0.035180587
12	0xbe053a8f	-0.1301062
13	0xbbaf7bcb	-0.0053553334
14	0xbd033f50	-0.0320428
15	0x3e39f8c5	0.18161304
16	0xbdbf4993	-0.09340205
17	0xbdf3a863	-0.118973516
18	0xbe6c8dbc	-0.23100942
19	0x3d9033fb	0.070411645
20	0x3dfc1194	0.1230804
21	0x3e451ec3	0.19250016
22	0x3d8d1135	0.068880476
23	0x3ebfe651	0.37480405
24	0xb99d6552	-0.00030020863
25	0x3d84517d	0.06460855
26	0xbcdafea9	-0.02673276
27	0xbe5e5c23	-0.21714835
28	0xbeffb07a	-0.49939328
29	0x3bcfee9a	0.006345582
30	0x3e077c43	0.13230996
31	0xbdd004a9	-0.10157139
32	0xbbea3312	-0.0071472013
33	0x3d55ada8	0.052167565
34	0x3d80edcd	0.06295357
35	0xbe191e07	-0.14952861
36	0xbb5c85d8	-0.0033649113
37	0x3e1ec408	0.15504467
38	0x3e16082b	0.14651553
39	0x3e11c298	0.14234388
40	0xbd3547ab	-0.0442578
41	0x3e3febb4	0.18742257
42	0x3e3bd670	0.1834352
43	0xbd8bbae1	-0.06822754
44	0x3d63fa1b	0.05565844
45	0xbe52feda	-0.2060503
46	0xbd7c671e	-0.061621778
47	0xbdb4422d	-0.088016845
48	0x3e0f55ad	0.13997526
49	0x3d964dae	0.07339035
50	0xbdfc62d9	-0.12323541
51	0xbd889220	-0.06668496
52	0xbe8266ea	-0.25469142
53	0x3ea98480	0.33108902
54	0x3cc734f7	0.024317248
55	0x3dd3d8a4	0.10344055
56	0xbd025c21	-0.031826142
57	0xbdba1126	-0.09085302
58	0x3e519542	0.20467094
59	0xbe86fa7b	-0.26362976
60	0x3e0a4c45	0.13505657
61	0xbe7c0d66	-0.24614486
62	0x3dc81b21	0.097707994
63	0xbd0d1c28	-0.03445068
64	0xbe42d3e7	-0.19026147
65	0x3ceefa49	0.02917208
66	0xbd3d4763	-0.046210658
67	0xbdf289cb	-0.11842688
68	0xbd8483b3	-0.06470432
69	0x3dd1766b	0.102276646
70	0xbda925c0	-0.08259153
71	0x3d54beaa	0.051939644
72	0xbe01bf93	-0.12670736
73	0xbd5781d2	-0.05261404
74	0xbd002ee7	-0.03129473
75	0xbbb78f6c	-0.005601814
76	0xbe280efb	-0.16411965
77	0x3ca4c00d	0.020111108
78	0xbe2de76e	-0.16982815
79	0xbe3fdadf	-0.18735836
80	0xbe820914	-0.2539755
81	0x3e47267c	0.19448274
82	0x3e476965	0.19473799
83	0x3c8acc66	0.016943168
84	0xbe72352e	-0.23653099
85	0xbcc4be04	-0.024016388
86	0x3c659ad1	0.014013962
87	0xbc5f535a	-0.013630712
88	0xbe5356fc	-0.2063865
89	0x3d74bec8	0.059752256
90	0x3e7d5d69	0.24742664
91	0x3db86d40	0.09005213
92	0x3ce2998a	0.027661104
93	0xbe857e7a	-0.26073056
94	0xbe678ad1	-0.22611548
95	0xbe63fe49	-0.22264971
96	0x3de0bbed	0.10973344
97	0xbe414b14	-0.18876296
98	0xbd8c6bdd	-0.06856511
99	0x3dbd87c7	0.09254413
100	0xbe684b1a	-0.22684899
101	0x3d9dadc8	0.07699162
102	0xbd606d55	-0.054791767
103	0x3dfb210c	0.122621626
104	0x3ee8afb2	0.45446545
105	0x3df7d162	0.121004835
106	0xbcaa3050	-0.02077499
107	0x3de9678b	0.113967024
108	0x3c3af1dd	0.011410204
109	0xbe287839	-0.16452111
110	0xbdde5e7e	-0.10857867
111	0xbdaba49b	-0.083810054
112	0x3e0d5652	0.1380246
113	0xbc7260d6	-0.014793595
114	0x3d225cce	0.039639287
115	0xbe8dc675	-0.27690473
116	0xbe95911c	-0.29212272
117	0x3d4a93d0	0.04945737
118	0x3e858204	0.26075757
119	0x3d5fd940	0.054650545
120	0x3e39109d	0.18072744
121	0xbd99c70d	-0.07508669
122	0x3e227615	0.15865357
123	0x3e025f57	0.12731682
124	0xbda85711	-0.082197316
125	0xbd952b46	-0.072836444
126	0xbdd8830f	-0.105718724
127	0x3c6ff6ba	0.014646227
128	0x3db62c55	0.088951744
129	0x3db9c08a	0.09069927
130	0xbe23a368	-0.15980303
131	0x3cd9548a	0.02652957
132	0x3db911bb	0.09036585
133	0x3c13f44a	0.009030411
134	0xbe1c4c35	-0.15263446
135	0xbdb13e3c	-0.086544484
136	0x3e21147d	0.15730472
137	0xbd29354b	-0.04131059
138	0x3dac32af	0.08408105
139	0x3e3b3925	0.18283518
140	0xbc907f0f	-0.017638711
141	0x3ca9c444	0.02072347
142	0x3dde38bb	0.10850664
143	0xbdb7d7ca	-0.08976705
144	0x3d4e8fe6	0.0504302
145	0xbd5852ea	-0.052813448
146	0xbd8c369b	-0.06846353
147	0xbeacd331	-0.33754876
148	0x3db89b15	0.090139546
149	0x3d3157e0	0.043296695
150	0x3e3d64fe	0.18495557
151	0x3d7c6de7	0.06162825
152	0xbd138615	-0.036016542
153	0xbdc831ff	-0.09775161
154	0x3e205b14	0.15659744
155	0x3e090b6c	0.13383263
156	0x3e3fd583	0.18733792
157	0xbd8429fb	-0.0645332
158	0xbced3494	-0.028955735
159	0xbd9e37b1	-0.07725466
160	0x3db6b866	0.0892189
161	0x3da2cdea	0.07949431
162	0x3e0c739c	0.13715976
163	0x3d822af6	0.063558504
164	0xbd98510b	-0.07437333
165	0xbe0ef61b	-0.1396107
166	0xbb7e16cb	-0.003877091
167	0x3d72cef8	0.059279412
168	0xbd4fc162	-0.050721534
169	0x3cbfd58f	0.023417262
170	0xbd097a5f	-0.033563968
171	0xbc61fec3	-0.01379365
172	0xbc25dce2	-0.010123463
173	0xbd426156	-0.047456108
174	0x3d23ca0a	0.0399876
175	0xbe1d55fc	-0.15364832
176	0xbe54f9ef	-0.20798467
177	0xbcdfd934	-0.02732525
178	0xbda5590d	-0.08073626
179	0x3e01bc28	0.12669432
180	0xbe045a9f	-0.12925194
181	0x3c926a91	0.01787308
182	0xbe066a3b	-0.13126461
183	0x3e2e0ad2	0.16996315
184	0x3d851d12	0.06499685
185	0xbc7b49aa	-0.015337387
186	0x3d846ed1	0.06466449
187	0x3dcc5827	0.09977751
188	0xbda42272	-0.080143824
189	0xbd53c233	-0.051698875
190	0xbdda1fd5	-0.10650603
191	0x3de10b80	0.109885216
192	0x3d9cd512	0.076578274
193	0x3a46b275	0.0007579693
194	0xbde62c2a	-0.112388924
195	0x3dd4da43	0.103931926
196	0x3d67d9f5	0.056604344
197	0x3e2f5f2c	0.17126149
198	0x3c55ed60	0.013057083
199	0x3d325f32	0.043547817
200	0x3d2fab2e	0.04288786
201	0x3df9b7bb	0.12193247
202	0x3cda6771	0.026660653
203	0xbdf57dbe	-0.11986874
204	0xbe1c6a0b	-0.15274827
205	0xbbb95fb6	-0.0056571616
206	0x3cf7de3e	0.03025734
207	0xbbf44b61	-0.007455275
208	0xbd8f36c8	-0.069928706
209	0xbe18b39f	-0.1491227
210	0xbc9040b6	-0.017608982
211	0x3da9623d	0.082706906
212	0xbe057319	-0.13032188
213	0x3dde1ed9	0.108457275
214	0xbe0b510a	-0.13605133
215	0xbcc59c4b	-0.024122378
216	0xbde78c0d	-0.113060094
217	0x3d85735c	0.06516144
218	0x3e36acd5	0.17839368
219	0x3d07ccac	0.033154175
220	0x3e1a032a	0.1504027
221	0xbc20a1b0	-0.009804174
222	0x3e4a079b	0.19729464
223	0x3dd4e12e	0.10394512
224	0x3bf26234	0.0073969606
225	0xbda0dcca	-0.07854612
226	0xbdbabbe8	-0.091178715
227	0x3ddeda7e	0.10881518
228	0x3e1ceef1	0.15325524
229	0xbd848366	-0.06470375
230	0xbd3f5e81	-0.046720985
231	0x3b9a00be	0.0046997955
232	0x3c995856	0.01871888
233	0x3dcc8f2b	0.099882446
234	0x3e19d5c6	0.15022954
235	0x3dd9e75b	0.10639831
236	0xbaf93b7d	-0.0019014921
237	0xbd453388	-0.048144847
238	0x3dd43ae1	0.10362793
239	0xbccb263f	-0.02479851
240	0xbc61cc21	-0.013781578
241	0xbe0a00c5	-0.13476856
242	0xbc97611c	-0.018478923
243	0x3e79912c	0.24371785
244	0x3e0e6dad	0.13909025
245	0xbd1357f5	-0.035972554
246	0xbd563888	-0.052300006
247	0x3d3d103c	0.04615806
248	0xbd5036a5	-0.050833363
249	0x3dd9f184	0.106417686
250	0xbdee8212	-0.11645903
251	0x3c7e70a9	0.01552979
252	0xbd42dbe5	-0.04757299
253	0x3e49b5e5	0.19698294
254	0x3d9172ef	0.07102
255	0x3d87516e	0.06607328

encoder.val_net.net.3.bias f4 [84]
0	0xbdd6b388	-0.104834616
1	0x3cffa2cb	0.031205555
2	0x3d639319	0.055560205
3	0x3df1a51b	0.117990695
4	0x3dc77eb2	0.09740962
5	0x3e01040c	0.125992
6	0x3d8b3443	0.067970775
7	0x3dd709a1	0.104998834
8	0xbd53d065	-0.051712412
9	0x3da259eb	0.07927307
10	0xbd6e9d77	-0.05825564
11	0xbd3833a7	-0.044971135
12	0xbdb59026	-0.08865385
13	0xbde584f8	-0.112070024
14	0xbdff0a60	-0.12453151
15	0x3d035a2d	0.03206842
16	0x3d5a205a	0.05325351
17	0xbe13e8e0	-0.14444304
18	0xbdf9d62c	-0.12199053
19	0xbdfa392b	-0.12217935
20	0xbdcdb099	-0.10043449
21	0x3d4eb815	0.050468523
22	0x3d17ca83	0.037058365
23	0xbdb12079	-0.08648772
24	0x3d0bcf27	0.034133103
25	0x3c4604b5	0.012086083
26	0xbc66455b	-0.014054622
27	0xbe4120e3	-0.18860202
28	0xbdecaf88	-0.115569174
29	0x3e19016f	0.14941953
30	0x3dd9fe33	0.10644188
31	0x3d56d92a	0.052453198
32	0x3bab090c	0.0052195843
33	0xbd2bd963	-0.041955363
34	0xbbe86998	-0.007092666
35	0x3ddc10e9	0.10745413
36	0x3cdce5f2	0.026965115
37	0x3dd708dc	0.10499737
38	0x3d992164	0.07477072
39	0x3c940fda	0.018073965
40	0xbd444356	-0.04791578
41	0xbe5765a6	-0.2103487
42	0x3d9d2f87	0.07675081
43	0xbdc91e0b	-0.09820183
44	0xbdb9a526	-0.09064703
45	0xbdb061f7	-0.08612435
46	0xbd1317db	-0.035911422
47	0xbdc306ec	-0.095228046
48	0x3d8bb4af	0.06821572
49	0xbc3ade20	-0.011405498
50	0x3d38ad75	0.045087297
51	0xbc1f6c7a	-0.009730453
52	0x3d8a4390	0.06751168
53	0x3dceb915	0.10093895
54	0x3dcca104	0.09991649
55	0xbcee85ea	-0.02911659
56	0xbe01b985	-0.12668426
57	0xbdf96285	-0.12176994
58	0xbd7dae96	-0.061934076
59	0xbd9e41a9	-0.077273674
60	0xbdfde931	-0.12397993
61	0x3dfefd4d	0.12450657
62	0xbd8a4780	-0.06751919
63	0x3d77ab3b	0.060466032
64	0xbdc29498	-0.09500998
65	0xbdc49ffe	-0.096008286
66	0xbdba8809	-0.09107978
67	0x3d3ca513	0.046055865
68	0x3e17f83d	0.14840789
69	0xbd930062	-0.071778074
70	0xbd30327b	-0.043016892
71	0x3d93b67b	0.0721254
72	0xbdeb3162	-0.114840284
73	0xbd29e4d9	-0.04147801
74	0x3d378939	0.0448086
75	0xbe0713d9	-0.13191165
76	0xbe1519a5	-0.14560564
77	0x3e03cad8	0.12870347
78	0xbce0c2b8	-0.0274366
79	0x3e27da12	0.16391781
80	0x3cb3f547	0.021967543
81	0xbd3dcf91	-0.04634053
82	0xbd8a1a23	-0.067432664
83	0x3cb79a47	0.022412432

encoder.rank.weight f4 [1, 21]
0	0x3e13a00f	0.14416526
1	0xbe4f6788	-0.20254338
2	0x3e2e423d	0.17017455
3	0xbe11586c	-0.14193887
4	0x3bda5d88	0.006663982
5	0x3d849eb2	0.06475581
6	0x3c879e08	0.016554847
7	0x3df7af04	0.120939285
8	0xbe2469fd	-0.16056056
9	0x3e401c84	0.18760878
10	0x3df0d828	0.117599785
11	0xbe2e800c	-0.17041034
12	0xbe21b0a8	-0.15790045
13	0xbda3f249	-0.080051966
14	0xb8cc944b	-9.7551e-05
15	0x3df33428	0.118751824
16	0x3e1bd8ed	0.1521947
17	0xbd6d86b0	-0.057989776
18	0xbe27f554	-0.16402179
19	0xbdb9e6fe	-0.090772614
20	0x3e5bca88	0.21463978

encoder.cardinality.weight f4 [84, 1]
0	0x3c2d33f2	0.010571467
1	0x3f2babcc	0.67059016
2	0x3eaaaffe	0.33337396
3	0x3e1a6b22	0.1507993
4	0x3f53724e	0.8259629
5	0xbcb83f5b	-0.022491148
6	0xbf27364a	-0.65317214
7	0xbf494f12	-0.78636277
8	0xbc6ef2be	-0.014584241
9	0x3e2a0308	0.16602719
10	0x3e97b2e0	0.29628658
11	0x3f442ba6	0.766291
12	0x3e3974db	0.18110983
13	0x3ecc1a97	0.39864036
14	0xbf1fec75	-0.6247018
15	0x3e7a0df7	0.2441939
16	0xbe98665e	-0.297656
17	0x3e47f06f	0.19525312
18	0xbf4bc2df	-0.79594225
19	0x3f28a60c	0.6587837
20	0xbf231562	-0.637045
21	0x3f4db3f0	0.8035269
22	0xbf736631	-0.95077807
23	0x3e004ce7	0.12529336
24	0x3f1d11c3	0.6135523
25	0x3d5b3b38	0.053523272
26	0xbf664966	-0.8995575
27	0x3f483096	0.78199136
28	0x3e1e77a3	0.15475325
29	0xbf73f72a	-0.9529902
30	0xbe81ed9b	-0.2537659
31	0xbe455c36	-0.19273457
32	0xbe7ce9f7	-0.24698626
33	0x3f2700e8	0.6523576
34	0x3ed6f816	0.4198615
35	0x3f6f07cc	0.9337127
36	0x3f176d04	0.5915072
37	0x3e72cd8a	0.2371122
38	0xbd03812b	-0.032105606
39	0x3e282d0b	0.16423433
40	0xbe3e065c	-0.18557113
41	0xbda5e423	-0.08100154
42	0x3dafcc02	0.08583833
43	0xbd38490c	-0.044991538
44	0xbf2c7b88	-0.67375994
45	0x3da3a99a	0.07991333
46	0x3eb2bd16	0.34909886
47	0xbea0e65d	-0.31425753
48	0x3e26713b	0.16254131
49	0x3efcf5ba	0.49406224
50	0x3e0806a4	0.13283783
51	0x3f1971dd	0.59939367
52	0x3e5adad0	0.21372533
53	0xbeb87cd3	-0.36032733
54	0xbde50e55	-0.11184374
55	0xbe30c473	-0.1726244
56	0xbed9ddaf	-0.42551944
57	0xbddab369	-0.10678751
58	0x3f348e60	0.70529747
59	0x3dfaa9f8	0.1223945
60	0xbe976af4	-0.29573786
61	0xbee0ee96	-0.43932027
62	0xbf57a65c	-0.8423822
63	0xbdd39776	-0.10331623
64	0x3de25fbd	0.11053417
65	0x3eeb490d	0.4595417
66	0xbf6be835	-0.92151195
67	0x3e197fb2	0.14990118
68	0xbf47549c	-0.7786348
69	0xbed2e3ac	-0.41189325
70	0x3f55bac8	0.8348813
71	0xbc27bb74	-0.010237563
72	0x3db23557	0.0870158
73	0xbf21c4d9	-0.6319099
74	0xbf286cb2	-0.65790856
75	0x3f31b46d	0.6941593
76	0x3f02400f	0.50878996
77	0xbf3cffb6	-0.73827684
78	0xbf46316c	-0.7741916
79	0x3f52f550	0.8240557
80	0xbe4fd730	-0.20296931
81	0xbec226fc	-0.37920368
82	0xbee7ad55	-0.4524943
83	0x3eb713f7	0.3575742

encoder.cardinality.bias f4 [84]
0	0x3e316cf5	0.1732672
1	0xbf0de759	-0.55431134
2	0xbe4f929b	-0.2027077
3	0xbf0ed435	-0.5579255
4	0x3d84aa8e	0.06477843
5	0x3f0c4045	0.5478557
6	0x3f434f7e	0.7629317
7	0xbf063504	-0.52424645
8	0x3f4a9fdb	0.7915017
9	0x3f10190d	0.56288224
10	0xbf0ab319	-0.5417953
11	0x3f40cb80	0.75310516
12	0x3f537418	0.8259902
13	0xbf30cc50	-0.69061756
14	0xbd9ef65d	-0.07761834
15	0xbeb04092	-0.34424263
16	0xbf054fa0	-0.52074623
17	0x3f388c6d	0.7208927
18	0x3e3914cd	0.18074341
19	0x3f0319c0	0.51211166
20	0x3f55f1df	0.8357219
21	0xbeea9f0d	-0.4582447
22	0x3f40a90e	0.75257957
23	0x3ee76129	0.45191315
24	0xbf77ae6f	-0.9675054
25	0xbe49afcd	-0.19695969
26	0xbe6f3b08	-0.23362362
27	0x3e82bec6	0.25536174
28	0x3e6f1d7f	0.23351096
29	0xbef99fd2	-0.48754746
30	0x3f81ee5c	1.0150867
31	0x3f451463	0.7698423
32	0xbeb5eac7	-0.35530683
33	0x3f547a88	0.8299947
34	0x3e5800ac	0.21094006
35	0x3d0a45b6	0.033757888
36	0xbce43cd4	-0.027861036
37	0xbee7cd83	-0.4527398
38	0x3dff655b	0.12470504
39	0x3ef3371a	0.47502977
40	0x3f3df146	0.7419628
41	0x3e2cd729	0.16878952
42	0xbeb04026	-0.3442394
43	0x3f66a2fb	0.9009244
44	0x3f2ec218	0.68264914
45	0x3f024ded	0.50900155
46	0xbecebbc7	-0.40377638
47	0xbe2e5fc0	-0.17028713
48	0x3f19c292	0.60062516
49	0xbe8fba2a	-0.2807172
50	0x3e03989a	0.12851182
51	0x3dd08e0d	0.10183344
52	0xbf5c56e2	-0.8607007
53	0x3f107d31	0.56441027
54	0x3f059613	0.5218212
55	0xbd5ba7f7	-0.05362698
56	0x3d4c7623	0.04991735
57	0xbe3f1232	-0.18659285
58	0x3ed25112	0.41077477
59	0xbef91071	-0.48645356
60	0xbae91300	-0.0017782152
61	0xbf3fbaf7	-0.7489466
62	0x3f553fd1	0.833005
63	0xbf21716f	-0.6306371
64	0x3f6340ab	0.8877055
65	0xbf5410a2	-0.8283788
66	0x3f264618	0.64950705
67	0x3f6e4451	0.9307299
68	0xbeff6019	-0.49878004
69	0xbf6752db	-0.903608
70	0xbf56c5da	-0.8389565
71	0xbf067329	-0.5251947
72	0xbcc88d2d	-0.02448138
73	0xbd286f7c	-0.041121945
74	0x3e373b62	0.17893746
75	0x3f4feb7a	0.81218684
76	0x3edc486c	0.43024004
77	0x3f78037a	0.96880305
78	0x3e969d4c	0.29416883
79	0x3e6fdb3c	0.23423475
80	0x3f4cb63c	0.7996557
81	0xbe17c501	-0.14821245
82	0xbf36e40c	-0.7144172
83	0x3e688825	0.22708185
