weights/sae_norm_buzz_wire_latest.pt (torch, 63849 bytes, 30 tensors)

encoder.key_net.net.0.weight f4 [50, 64]
000000 a7 10 da 3a b9 52 e7 3d f2 0f f2 bd 8c 4b 0b 3d
       0.0016637043 0.11295075 -0.118194476 0.034007594
000010 02 67 90 bd 66 1d bc bd 80 49 c6 bb f0 91 65 3c
       -0.07050897 -0.09185295 -0.0060512424 0.014011845
000020 20 04 ea 3b 20 f0 a3 bc 2c 4c ca 3d 00 12 70 3b
       0.007141605 -0.020011961 0.0987781 0.0036631823
000030 14 85 fe bd ce 43 fd 3d 02 ba c9 bd b8 a8 83 bd
       -0.124277264 0.12366448 -0.09849931 -0.06428665
000040 6e 9c c3 bd 60 f9 9c 3d a0 dc bf bb 48 32 63 bd
       -0.09551321 0.07664752 -0.005855158 -0.055467874
000050 a4 e3 40 bd ec c2 05 bd 90 0d 3d bd 00 57 a8 3a
       -0.047092095 -0.032656595 -0.046155512 0.0012843311
000060 80 05 69 bb aa 66 ab bd f8 b5 24 3d ec c1 1d bd
       -0.0035556257 -0.08369191 0.0402126 -0.038515016
000070 3c 40 08 bd 90 2c 20 bd a0 de cd bb a0 f3 77 3d
       -0.033264384 -0.039104998 -0.0062826425 0.060535073
000080 88 f4 6b bd 10 28 06 bd 10 20 f1 3d da 40 e6 3d
       -0.05760625 -0.03275305 0.117736936 0.11242838
000090 5e 6d 96 bd 78 27 8a bc a4 b2 75 3d e0 5c e3 bb
       -0.07345079 -0.016864523 0.059984818 -0.006938562
0000a0 64 27 22 bd 64 16 d3 3d 3a 6b a0 bd 80 7a cb 3a
       -0.039588347 0.10307005 -0.07832952 0.0015524179
0000b0 66 49 e2 bd 2a a7 8d 3d d0 cf a8 bd 0c 4d cb bd
       -0.11049156 0.0691665 -0.08242762 -0.09926805
0000c0 90 6d ce bd 5c fa 56 bd f8 98 f9 3d c0 01 78 bd
       -0.10079491 -0.052484855 0.121873796 -0.060548544
0000d0 84 e0 5c bd 72 23 8f 3d 44 6d 81 3d 78 0a c0 bd
       -0.053925052 0.069891825 0.06319669 -0.09376997
0000e0 d0 41 43 3d c0 0b 6b 3b 94 52 70 3d c8 f7 9c bc
       0.047670186 0.0035865158 0.058672503 -0.01916112
0000f0 f0 1c d8 bd 64 f7 47 bd 66 fa d1 3d d6 b5 fc bd
       -0.105523944 -0.048819914 0.10252838 -0.1233937
000100 62 0b 48 3e 40 30 8c bd 40 7d bd 3b 60 28 fc bd
       0.19535592 -0.068451405 0.005782753 -0.123123884
000110 e0 c4 a2 bb c0 df 40 bb 80 39 a3 3d 90 3a c0 bc
       -0.004967317 -0.002943024 0.07969952 -0.023465425
000120 a8 a2 9a bd e8 9c 5f bd 0c f9 53 bd 0c 90 0c 3d
       -0.075505555 -0.054592997 -0.05175118 0.03431706
000130 c8 41 cc 3c da ec 9a bd c2 f0 ab 3d 50 45 ec 3d
       0.02493371 -0.07564707 0.0839553 0.11536658
000140 ee 4a 9a bd 78 a5 f7 bc 2a 8c d4 3d 2e e1 c7 bd
       -0.07533823 -0.030230269 0.10378297 -0.097597465
000150 9e b7 cc 3d 22 77 b4 3d 38 c2 34 bd e4 b5 26 bd
       0.0999596 0.08811785 -0.044130534 -0.04070081
000160 b2 2e e8 bd 82 e1 d0 3d 6e 22 80 bd a0 3f 9e bb
       -0.113370314 0.10199262 -0.06256567 -0.004829362
000170 7a 65 d8 3d c8 24 ee bd f8 59 2a bd d8 f4 ae 3c
       0.1056623 -0.11628109 -0.041589707 0.021356985
000180 62 4e a6 bd 1e d6 ae bd 10 a0 d0 bd 30 de b9 3c
       -0.08120419 -0.08536933 -0.101867795 0.022688955
000190 fc c3 9e 3d 14 a1 07 bd 30 96 ff bc 90 00 92 bd
       0.07752225 -0.0331126 -0.031199545 -0.071290135
0001a0 3a ef ec 3d 00 a3 ec bc e8 3a 93 bc 0e d9 ad 3d
       0.11569066 -0.028886318 -0.017972425 0.084886655
0001b0 fe fd f5 3d 7c 46 e9 3d a0 74 c4 3c 82 83 99 bd
       0.12011336 0.11390397 0.023981392 -0.07495786
0001c0 58 0d bc 3c a8 a6 40 3d 70 1c 44 3c f8 8e 07 bd
       0.022955582 0.047033936 0.011969671 -0.03309533
0001d0 d0 04 bb 3c f0 45 33 3c b0 56 d0 3c 9e 66 b2 bd
       0.022829443 0.010941967 0.02543196 -0.08710979
0001e0 28 a7 2b 3d d6 4a a9 bd e8 7a 00 3d 30 7a 74 3d
       0.04190746 -0.08266227 0.031367213 0.05968684
0001f0 48 5a be 3c 40 6b 20 3b 76 e1 c3 bd 72 d3 c6 bd
       0.023236409 0.0024477988 -0.09564488 -0.09708299
000200 15 29 44 3d 85 b9 cb 3c e8 c4 48 3d 9e 5f ca bd
       0.04789074 0.024868736 0.04901591 -0.09881519
000210 ea a1 c9 bd 82 1f 88 3d d8 0b ab 3c 80 e1 9c bc
       -0.09845336 0.06646635 0.020879671 -0.019150496
000220 c8 81 04 bd c4 0d 86 bd 58 fa 4a bd 00 a4 a2 3a
       -0.03235033 -0.06545594 -0.049555153 0.0012408495
000230 e0 c1 a0 bc 08 f3 96 bd 28 b0 2d 3d 48 fc c8 3d
       -0.019623697 -0.07370573 0.042404324 0.09813744
000240 ec c1 b1 3d 02 ef ad 3d d2 72 89 3d 38 5c a9 bd
       0.08679566 0.08492853 0.06711353 -0.082695425
000250 76 11 ce bd 90 8a bf 3c a8 90 87 bc a8 a6 c9 3d
       -0.10061924 0.023381501 -0.01654847 0.0984624
000260 fe ab c6 3d 44 c4 b0 3d 86 2c f2 3d 12 18 89 3d
       0.09700774 0.08631185 0.118248984 0.06694044
000270 e0 8f 7b 3c ac e1 a1 3d 00 86 8e 3b d8 28 be 3c
       0.015354127 0.079043716 0.00434947 0.023212835
000280 88 f0 48 bd c4 47 84 bd 10 3e 15 3d 14 92 b2 bd
       -0.049057513 -0.06459001 0.03643614 -0.087192684
000290 1a 4f e0 3d 0c 35 36 bd 60 cd 49 3d ca 4a a5 bd
       0.109525874 -0.044484183 0.049268126 -0.080709055
0002a0 36 cd cc 3d e4 9b 36 bd 2e fa c4 3d 58 c6 91 3d
       0.100000784 -0.044582263 0.096180305 0.07117909
0002b0 50 80 50 bd 6c 17 35 3d c8 46 30 bd 6a a1 f6 3d
       -0.05090362 0.04421179 -0.043036252 0.12042506
0002c0 54 69 a7 3d 8e 7f a7 3d 04 e2 97 3d f0 48 19 bc
       0.081743866 0.08178626 0.07416156 -0.009355769
0002d0 3c 1a 38 3d 90 50 d2 3d c2 0f 93 bd 00 5d 19 ba
       0.044946894 0.10269272 -0.0718074 -0.0005850345
0002e0 30 92 3b bd 9c a3 4b 3d 60 36 01 bc 30 63 1f 3d
       -0.045793712 0.049716577 -0.007886499 0.038912952
0002f0 8a 0d 93 bd 44 2b 7c bd f0 fd 5c 3c da 74 f5 3d
       -0.07180317 -0.0615647 0.013488278 0.11985178
000300 f7 5a d0 3b 6b 07 84 3d 88 2a 4a 3d bc e7 60 bd
       0.0063585 0.06446727 0.049356967 -0.0549085
000310 da 8a b1 bd a0 f4 f3 3d f8 e1 71 3d c6 a3 cc bd
       -0.08669062 0.11911893 0.05905339 -0.09992175
000320 14 d2 8a 3d 42 31 ea bd e8 2e 89 3d 20 02 19 3c
       0.067783505 -0.114351764 0.066984 0.009338886
000330 c0 88 7a 3c b4 bf 47 3d a8 d9 e9 3d fc 3d c6 3d
       0.015291393 0.048766807 0.11418468 0.09679791
000340 9a eb 85 bd a8 55 06 bd 80 22 af 3c 3e 75 81 3d
       -0.06539078 -0.032796532 0.021378756 0.0632119
000350 56 99 d1 bd e8 c2 a6 3d cc d4 27 3d c4 4a dd bd
       -0.10234325 0.08142644 0.040974423 -0.10805276
000360 00 a3 84 3d 58 2e 7b 3d c4 9e 19 bd 04 35 bf bd
       0.06476402 0.061323494 -0.037504926 -0.09336284
000370 ca ba b9 bd b4 15 6d 3d e8 c7 87 3c 00 85 ee 3b
       -0.0906883 0.057882026 0.016574815 0.0072790384
000380 84 fa 74 bd 94 cd db 3d 90 77 da bc d8 92 68 bd
       -0.059809223 0.1073257 -0.02666834 -0.056780666
000390 20 ff ae 3c 64 f5 4e 3d 28 09 de 3d a0 e6 b4 bc
       0.021361887 0.05052699 0.1084159 -0.022082627
0003a0 3c d9 ba 3d 06 25 a4 3d 30 fc 59 bd b6 cf be bd
       0.091234654 0.08014874 -0.05321902 -0.093169615
0003b0 90 16 f5 3d 20 3c c8 bd a0 6f 1e 3c 56 33 8d 3d
       0.11967194 -0.09777093 0.009670168 0.06894557
0003c0 54 8c f4 3d 00 1b 1e ba e0 a4 f6 3d 3c 13 d2 3d
       0.11940828 -0.0006031245 0.12043166 0.10257575
0003d0 e0 39 0f bd 2a 9c b4 bd 84 76 be 3d 44 79 d2 3d
       -0.034967303 -0.088188484 0.09299949 0.10277036
0003e0 a0 7c a7 bc e0 ca be bb 40 14 67 3d 7c 96 44 bd
       -0.020445168 -0.0058225244 0.056415796 -0.047995076
0003f0 2e 4f e9 3d 16 5d bb bd bc c2 46 bd c0 3e c9 bb
       0.113920555 -0.09148614 -0.048525557 -0.0061415136

encoder.key_net.net.0.bias f4 [50]
000000 38 4c dc 3d 4a 90 71 3b f3 75 04 3e e2 e6 cf bd
       0.10756725 0.0036859685 0.12935619 -0.10151459
000010 44 03 ca bc 68 fa 9b bd 38 41 71 bd 18 db 74 3d
       -0.02465976 -0.076161206 -0.058900088 0.059779257
000020 77 60 85 3b a7 2b 51 bd 7b 13 b4 3c 55 3d 1f 3d
       0.0040703374 -0.05106702 0.021981945 0.03887685
000030 9c b3 03 bd 98 cd 3d bc ca 1f f7 3d 2b a9 d1 bd
       -0.03215371 -0.011584662 0.1206661 -0.10237344
000040 04 81 da bd 02 ff 55 bc a8 1b 51 3c 3a 65 90 bc
       -0.10669139 -0.013061287 0.012762941 -0.017626394
000050 f6 62 a5 3d 3e fd f8 3d c5 eb 5b bd 43 8a a0 3d
       0.08075516 0.12157677 -0.053691644 0.07838871
000060 20 73 5e 3d 40 60 f4 3d b0 0d cb 3d 67 a2 3c bd
       0.05430901 0.11932421 0.0991472 -0.046053316
000070 ae 27 ed bc 4c 69 05 bd 92 f9 27 bd 7c a6 3f bc
       -0.028949585 -0.032571122 -0.041009493 -0.011697408
000080 a3 b2 7f bd 71 bd 20 bd de bf 3c 3d e5 b8 87 3d
       -0.06242622 -0.039243165 0.046081416 0.06627063
000090 11 12 9e 3d 00 8f 6c bd 22 23 d3 bb c4 0f 6b bd
       0.0771829 -0.057753563 -0.006443397 -0.057388082
0000a0 18 55 37 3d e7 a2 93 bd 95 9b 4a bb dd c9 02 3c
       0.044758886 -0.072088055 -0.0030915488 0.007982698
0000b0 b0 9d c8 bc f5 98 50 bd 51 a4 8f 3b fc c0 61 bd
       -0.024489254 -0.05092712 0.0043836017 -0.055115685
0000c0 7f 3a f1 bc 3e 14 ee 3d
       -0.029446838 0.11624955

encoder.key_net.net.1.weight f4 [50]
000000 b0 91 86 3f ce b7 91 3f 97 2e 87 3f 3c e1 82 3f
       1.051321 1.1384218 1.0561093 1.0224986
000010 f4 91 81 3f 11 9a 77 3f 55 49 88 3f dc 22 8a 3f
       1.0122666 0.9671946 1.0647379 1.0791888
000020 14 cd 88 3f db 3f 81 3f e8 af 72 3f 3e 3e 82 3f
       1.0687585 1.0097612 0.9479966 1.0175245
000030 78 33 76 3f 0f 19 84 3f 72 76 8d 3f cc 5e 87 3f
       0.96172285 1.0320147 1.1051772 1.0575805
000040 e8 ca 80 3f e0 88 89 3f e7 51 8d 3f 35 0d 71 3f
       1.0061922 1.0744896 1.104062 0.9416078
000050 03 aa 8b 3f 2c f5 88 3f 86 7d 85 3f b1 5c 85 3f
       1.0911258 1.069982 1.0428932 1.0418912
000060 36 3b 82 3f af d2 90 3f 54 b5 8a 3f 98 d2 81 3f
       1.017432 1.1314296 1.0836587 1.0142393
000070 ad c3 7b 3f 7d 7d 83 3f c6 05 71 3f 5f 31 83 3f
       0.9834545 1.0272671 0.94149435 1.0249442
000080 95 78 7e 3f e1 12 80 3f 81 06 89 3f 4f dd 88 3f
       0.99402744 1.0005761 1.070511 1.0692538
000090 2b 81 77 3f 8d 3e 73 3f 20 4c 86 3f 35 0d 87 3f
       0.9668147 0.9501732 1.0491982 1.0550905
0000a0 e1 4d 8a 3f 05 2a 85 3f 26 a8 85 3f 86 60 6e 3f
       1.0805017 1.0403448 1.044194 0.93116033
0000b0 d4 18 86 3f fd cf 85 3f bb c2 85 3f d5 65 84 3f
       1.0476327 1.0454098 1.0450052 1.0343577
0000c0 c4 f0 7f 3f 04 bc 89 3f
       0.99976754 1.0760503

encoder.key_net.net.1.bias f4 [50]
000000 d6 93 47 3d f9 bd df 3d 2a 44 78 3d a8 49 ce bc
       0.04872497 0.10924906 0.06061188 -0.025181606
000010 41 96 24 3b 11 0d d0 3b c8 11 8c bd 31 08 2d 3d
       0.0025113972 0.006349214 -0.06839329 0.04224414
000020 8b 98 e3 3c 69 37 a5 3c 8e fd 7c 3c 63 f7 11 3c
       0.0277827 0.020168023 0.0154413115 0.008909079
000030 fc a2 31 3d eb 7f 34 3d 94 f3 87 3d e4 44 60 bd
       0.043368325 0.044067305 0.06638256 -0.0547532
000040 aa 8e 69 bc 76 b5 54 bd 13 bd 98 3d cf c5 0b 3d
       -0.014255205 -0.051930867 0.07457938 0.03412419
000050 5b 45 64 3d ec 76 84 3d 9c ec 1a bd eb af da 3b
       0.055730205 0.06467995 -0.037823305 0.006673803
000060 c5 ed 16 3c 92 4b 8f 3d 88 bb 30 3d 32 9d e0 bc
       0.009211962 0.06996836 0.043147594 -0.027418707
000070 ee 05 e6 bc 52 cd 33 bd bd 55 80 3d 67 fc 3c 3d
       -0.028079 -0.04389698 0.06266353 0.046139147
000080 11 d9 d7 bb 6b bf bd bc 20 1a 7a 3d 2d 88 8c 3c
       -0.0065871556 -0.023162564 0.06106007 0.017154777
000090 70 97 16 ba de d1 63 3c f4 94 42 3c d6 8f 8c bd
       -0.0005744612 0.013905017 0.0118763335 -0.06863372
0000a0 29 7b bf bc 54 ea 01 3d f9 60 2a bd ad 18 4f 3d
       -0.023374157 0.031717613 -0.041596387 0.050560642
0000b0 b1 be 95 3b 42 67 63 bd 4b f7 9f 3c 0b 99 a3 bb
       0.0045698513 -0.055518396 0.019527098 -0.0049926094
0000c0 20 50 2d 3b 27 f8 5c 3d
       0.0026445463 0.053947594

encoder.key_net.net.3.weight f4 [36, 50]
000000 c4 21 25 3e 35 38 f6 bc ab 50 0f 3e 67 53 f1 3b
       0.16126162 -0.030056098 0.13995616 0.0073646787
000010 82 1b 9a 3d 67 1c 16 be c8 6c 0c be 9c 42 5b bd
       0.07524778 -0.14659272 -0.13713372 -0.05353032
000020 c4 9b 28 3e 1b ef 21 3e d7 43 12 be cb 5e 29 3e
       0.1646567 0.15813868 -0.14283691 0.16540067
000030 30 74 bd bd f9 51 05 3e 9b 29 ee bc bc 0d 4b bd
       -0.09250677 0.13019551 -0.029072573 -0.049573645
000040 2c 21 28 bd 99 6a 28 bd 53 58 54 3d 1e 68 c5 bd
       -0.04104726 -0.041117284 0.051842045 -0.096389994
000050 87 9b f6 3d fa 48 b9 bd ee 0c ae bd bc f6 51 bd
       0.12041383 -0.09047122 -0.0849856 -0.051260695
000060 1f e4 5a 3e a9 05 09 3e fe d2 11 3e 57 de a0 bd
       0.21376084 0.13381065 0.14240643 -0.07854908
000070 8c e4 66 bd b2 9e 2c be 83 90 11 3d c7 ad 4a bd
       -0.056370303 -0.16857412 0.035538208 -0.049482133
000080 ae 4b 12 be 17 62 b8 3d 5c 1d c9 3d 27 b2 b9 bb
       -0.14286682 0.09003084 0.09820053 -0.0056669894
000090 9a ed fb 3d 8e e3 fe bd fb 72 aa bd 07 26 f5 bd
       0.12301178 -0.12445746 -0.08322712 -0.11970144
0000a0 20 fb e3 bd fb 29 8a 3d 7b d5 0f 3d 8c 70 c1 bc
       -0.11131883 0.067462884 0.0351157 -0.023613237
0000b0 28 2c e4 3b 1a ff 8c bd f8 65 5d 3d 97 7a 69 3d
       0.0069632716 -0.06884594 0.054052323 0.057001676
0000c0 a5 b6 0c 3e 06 58 f5 3d 46 f1 ca bd eb 3f 88 3e
       0.13741548 0.1197968 -0.099093005 0.26611266
0000d0 57 18 57 3d c2 58 0c be 46 5f 2c 3d 1c 09 a8 bd
       0.052513447 -0.13705733 0.042083047 -0.082048625
0000e0 7f c7 3a 3d d2 8f 05 3d 4b 09 24 3c a1 64 8b be
       0.04560041 0.03260786 0.010011981 -0.2722521
0000f0 b4 9a b2 bd 74 38 02 3e ee e0 3f 3d bb 86 81 3d
       -0.087209135 0.12716848 0.04684537 0.06324526
000100 bc 5a 64 be 52 9e 88 3c 9f 21 0c be bd 35 f4 bd
       -0.22300237 0.016677056 -0.136847 -0.11924312
000110 62 ae b7 bd b9 29 cb 3d 0f 93 0d be de 23 20 3e
       -0.08968808 0.09920067 -0.1382563 0.15638682
000120 c6 aa 25 be b7 8a 0e 3b 9a 26 55 be 94 97 86 3e
       -0.16178426 0.002175016 -0.20815507 0.2628752
000130 2a b0 f5 3d 01 3f 57 bc 5e d3 75 bd 55 1a fa bd
       0.11996491 -0.01313758 -0.06001603 -0.12212054
000140 f2 d0 55 bd ed e7 d1 3d b3 44 be bd d4 74 f4 3b
       -0.05220122 0.102493145 -0.09290447 0.007460216
000150 36 79 46 3e b4 9c fb 3d 57 2c d8 3d 01 4f 4c 3e
       0.19382176 0.12285748 0.10555332 0.19952013
000160 bf 78 a6 3c 18 38 2a 3c 8e d9 1e 3e d1 ae 40 be
       0.020321248 0.01038935 0.15512678 -0.18816687
000170 cf de c8 3c 9f 97 3e be d6 c8 37 bd 13 f2 d9 bc
       0.024520306 -0.18612526 -0.044869266 -0.026604688
000180 78 60 99 3e 77 a2 8f 3e 48 fb 5f be 0d e3 e1 bd
       0.29956412 0.28053638 -0.218732 -0.110296346
000190 8e 82 0f 3e fc 9d bb 3d 03 73 cf 3d 07 35 da bd
       0.14014646 0.091609925 0.101293586 -0.106546454
0001a0 e2 0a 51 3d 9d 35 d7 3c d7 0c 09 bd ee 77 e5 3b
       0.05103577 0.026270682 -0.03345951 0.007002822
0001b0 64 16 fe 3d 10 40 91 bc f2 bf a9 bd 2c f9 01 3e
       0.124066144 -0.017730743 -0.08288564 0.12692708
0001c0 02 45 10 3d bd 56 67 3d 80 82 99 3d 50 51 9a bd
       0.03522206 0.056479204 0.07495594 -0.075350404
0001d0 b7 a4 19 be a7 11 2a be d7 d2 26 3d 8b 76 58 bd
       -0.1500424 -0.16608296 0.040728416 -0.052847426
0001e0 67 d2 72 3d 30 6c 15 3e 58 6a 9b 3c 30 e0 f0 bb
       0.059282687 0.14592052 0.018971607 -0.007350944
0001f0 d2 25 f6 3d 5b 38 a3 3d c1 c7 1d bd c0 20 1b be
       0.120189324 0.07969733 -0.03852058 -0.15149212
000200 20 8d 0d be af fd 8e 3d 9e 4b c1 3d 56 dd 89 bd
       -0.13823366 0.0698198 0.09438251 -0.067316696
000210 59 03 40 3d cd 0c 87 3d 0f 84 1a 3e 25 97 ea bc
       0.046878193 0.065942384 0.15089439 -0.028636524
000220 b7 7a 31 3d f7 f4 02 3d d0 02 11 be 10 30 34 3c
       0.04332992 0.031971898 -0.14161229 0.010997787
000230 8c 4e 35 be d7 2b 31 bd e3 9f 2a bd 9e aa 79 3d
       -0.17705745 -0.0432547 -0.041656386 0.06095373
000240 cf 91 86 3d e6 a7 a7 3b 28 e0 c0 bc c4 7d d7 3d
       0.065707795 0.0051164506 -0.023544386 0.10522035
000250 57 8b 91 bd 31 14 b9 bc ef 30 04 3e 0f e0 c0 bd
       -0.07106655 -0.022592636 0.12909292 -0.09417736
000260 08 89 46 3e 7e 3c 4a be 1b 7f cb 3c b0 f4 8d bd
       0.19388211 -0.19749638 0.024840882 -0.06931436
000270 ef c9 fc bd ef 1b 25 bd 8c cd d2 3d 62 a0 57 39
       -0.12343203 -0.040309843 0.10293111 0.00020563745
000280 90 ae 9d bc 93 f3 22 3e 6a c3 50 be 89 58 c9 3d
       -0.019248277 0.15913229 -0.20387045 0.0983134
000290 da b2 3c 3e 01 7a 3b be 37 e5 02 be c6 f9 61 bd
       0.18427601 -0.1830826 -0.12782751 -0.055169843
0002a0 9a dc 52 3e e0 c5 4c be 95 81 36 3c 85 e7 b4 3d
       0.20591965 -0.19997358 0.011139293 0.08833221
0002b0 c0 90 34 be 01 1c 0d bd f5 f2 ad ba 63 f2 05 3e
       -0.17633343 -0.034450535 -0.0013271259 0.13080744
0002c0 3f af d8 3d f3 fb 98 bc b8 3a 1e 3e 90 87 57 be
       0.105803005 -0.018674826 0.15452087 -0.21047807
0002d0 a4 ea 39 bc 34 3b 2e be fa a3 87 3d 38 bb 22 be
       -0.011347447 -0.17014772 0.06623073 -0.15891731
0002e0 1e 9c 96 bc a1 a9 69 bb 55 ff 10 3c 09 4a 18 bc
       -0.01838499 -0.0035654085 0.008849938 -0.009294995
0002f0 ba 2f d0 bd f9 4d 91 bd f0 82 f4 3d 4e 40 d3 3d
       -0.10165353 -0.0709495 0.11939037 0.103149995
000300 e7 62 2f 3d 51 8b 3f 3d d8 3c 87 3c 1e 6b 9f 3c
       0.04281893 0.04676372 0.016508505 0.019460257
000310 11 24 3c 3d b2 77 01 bd f0 a6 dd bc 91 3c da bc
       0.045932833 -0.03160829 -0.027057141 -0.026640208
000320 0c 27 2c 3e 3d e1 88 bd 97 94 a3 3d cf cc df 3c
       0.1681177 -0.06683586 0.07987326 0.02731934
000330 4d d0 1e be 62 ee 25 be d2 cd 79 bc 2f 46 89 3d
       -0.15509148 -0.16204217 -0.015246825 0.067028396
000340 1a b5 de 3d a0 5b 67 bc 57 37 0a 3d c5 b6 04 3c
       0.10874386 -0.014120966 0.033744182 0.008100216
000350 83 2e 1d be 5f 39 2b 3e e9 94 fe bc 22 17 b1 bb
       -0.15349774 0.16721104 -0.031076865 -0.005404369
000360 77 12 f9 bd fa a2 39 be 9e bd 11 3e 0b 4e 0c be
       -0.12161725 -0.18128577 0.1423249 -0.13701646
000370 51 c1 41 3d 41 bb 3d 3e 9f a7 c4 bd 16 bf 01 3e
       0.0473035 0.18528463 -0.09602284 0.1267055
000380 46 08 2f 3e 8f f1 9d 3d 74 7d 0a 3e c1 d3 05 be
       0.17093 0.07712089 0.13524419 -0.13069059
000390 50 29 8d 3d 5c 7a 04 be 5f 39 1c bd 63 e9 b9 bd
       0.06892645 -0.12937301 -0.03814065 -0.09077718
0003a0 ef b2 a6 bd 67 7b 76 3d e2 f4 c2 3d ea cf 5d be
       -0.081395976 0.06017628 0.09519364 -0.21661344
0003b0 ec 8c ac 3d 81 ec 1c be a0 75 8d bc 1a 7f b9 bd
       0.08425316 -0.15324594 -0.017268002 -0.09057446
0003c0 0c 28 21 3d a8 1e 1a 3e e9 bd 3d bd 9f 52 04 be
       0.039344832 0.15050757 -0.04632369 -0.12922142
0003d0 50 fb b3 bc 6d a7 04 be 40 e3 eb 3b 7c 78 5b 3c
       -0.021970421 -0.12954493 0.007198721 0.013395425
0003e0 c1 cd 9d bd 6a df 05 bb 4d 58 d2 3c df 92 63 3d
       -0.0770526 -0.0020427355 0.02567687 0.05555999
0003f0 dc 96 19 bd c9 db 61 3c 7e e7 dc 3d 33 e1 34 3d
       -0.037497386 0.013785311 0.10786341 0.04416008

encoder.key_net.net.3.bias f4 [36]
000000 30 22 f1 bb 9e b3 30 bd f4 51 d0 3b 77 50 82 3d
       -0.007358812 -0.043140046 0.006357426 0.06363004
000010 5c e4 66 3c d0 d3 26 bc ae 70 af bd 3b 1d 71 bd
       0.014092531 -0.010182336 -0.08566414 -0.058865767
000020 73 57 2d 3d af a5 9e 3d 58 db a7 3c 02 f0 f8 bd
       0.042319726 0.077464454 0.020490333 -0.12155153
000030 73 d5 7b 3d 95 21 6a 3d 40 1b 99 bd 93 0c 98 3d
       0.061482858 0.057160933 -0.07475901 0.07424273
000040 e0 2c 35 be ed 4b 2c 3d 03 0e 68 3c e9 e8 20 3e
       -0.176929 0.042064596 0.014163497 0.15713848
000050 04 c9 10 3e b1 fa 29 bd 6c b5 47 3e 42 ae c7 bd
       0.14139181 -0.041498844 0.195028 -0.09750034
000060 b1 2d 10 3e 5a 14 15 be 08 92 8a bb f0 37 9b 3d
       0.1407993 -0.14558545 -0.004228834 0.075790286
000070 2e b5 24 be 26 d9 6f 3d 54 d4 32 3d e5 b3 d5 bc
       -0.1608474 0.0585567 0.043659523 -0.026086757
000080 a1 06 ec bc 49 26 cb 3d 72 22 a5 3d 7e fa 00 be
       -0.028811755 0.09919412 0.080632105 -0.12595555

encoder.val_net.net.0.weight f4 [21, 6]
000000 2e 98 4c 3d 29 55 1e 3e 91 83 f9 3b c2 0b c6 3a
       0.049949817 0.15462174 0.007614561 0.0015109705
000010 1d 3c 55 be f3 15 6c bd 7f 56 23 bd 05 98 1a 3a
       -0.20823713 -0.05763812 -0.03987741 0.00058972865
000020 ac 3d c4 3c ec c1 2a bd fd de 21 bd d7 c3 1b 3c
       0.023955189 -0.041688845 -0.0395193 0.009507141
000030 e3 a2 6b bd 3f cb 1c 3e 1c fa 08 3e 6b b8 03 be
       -0.057528388 0.15311907 0.13376659 -0.12863319
000040 fe c4 93 bc d1 ea 4a bd 19 04 89 3d 7f 40 0f 3e
       -0.01803827 -0.049540345 0.06690235 0.13989447
000050 95 49 ba bd c4 ad aa bc 60 43 b7 3b bb a9 21 3d
       -0.09096066 -0.020834811 0.0055927485 0.03946851
000060 4d 9e d2 bb b4 ae c6 bd 51 bf 9b bd b0 84 07 be
       -0.0064275623 -0.09701291 -0.0760485 -0.1323421
000070 8e 26 48 be ee ab b6 3d d8 65 a6 3c ff 85 1f 3d
       -0.19545957 0.08919512 0.020312235 0.038946148
000080 56 fd 91 3c b8 e7 eb bc bb e4 07 bc ec 7a 42 3c
       0.017820995 -0.028797016 -0.00829428 0.011870127
000090 b2 03 ae bd a4 ba 7c bd a1 9a 0c 3d 9a 39 11 bc
       -0.084967986 -0.061701432 0.034327153 -0.008863831
0000a0 24 a4 1c 3e d3 77 c4 3d 9d be d3 bd 9f 15 27 3e
       0.1529699 0.09593167 -0.10339091 0.16316842
0000b0 4c c4 a2 3d 9b 65 bd 3d 44 c6 35 bb 83 dd a5 3d
       0.07947597 0.09247895 -0.0027736584 0.08098891
0000c0 97 6d fe bc 15 b2 2b 3e f0 db 13 3b 7b bc 4d be
       -0.031058116 0.16767152 0.0022561513 -0.20091431
0000d0 24 b0 c1 ba 3f fe cd 3d c5 1a b5 3d ad aa cc 3d
       -0.0014777225 0.10058259 0.088429965 0.09993491
0000e0 03 3b 13 bd 91 96 c6 3a 75 01 1a bd 9c 3f bd 3d
       -0.03594495 0.0015151073 -0.037599046 0.09240648
0000f0 df 8c a3 bc 97 65 32 bb a8 5b af bc d8 2f 15 bd
       -0.019964634 -0.0027221197 -0.02140601 -0.03642258
000100 2f 6c 69 bd a2 05 73 3c 66 0c 42 bd e3 7b 94 3c
       -0.056987938 0.014832886 -0.047375105 0.01812548
000110 3e 03 d7 3b 71 0b e5 bd a3 e2 30 bd bf 7f d7 3d
       0.006561666 -0.11183823 -0.043184888 0.105224125
000120 e9 e7 a6 3d 62 2b a8 bd 3f 2d 86 bd 8a 6e f7 bd
       0.08149702 -0.082113996 -0.06551599 -0.120816305
000130 16 ee ba 3c de 4f 56 bd 99 e9 4c bd ab 9d 24 3d
       0.022818606 -0.05232226 -0.050027464 0.040189426
000140 6a 93 4b bd 40 aa bc 3d 0d 4f a7 3c 79 d1 40 be
       -0.049701132 0.0921216 0.020423437 -0.18829907
000150 34 26 34 be 13 f4 0d bd 1b 68 cd 3d 7b 12 9c bd
       -0.17592698 -0.034656595 0.10029622 -0.07620712
000160 95 85 26 be 25 aa 85 bd 28 db 8e bb 30 b4 e6 3c
       -0.16261895 -0.06526593 -0.0043596216 0.028162092
000170 2d d1 aa bb 0d 16 1c bd 12 8e 03 bd 4e ae d2 ba
       -0.005212924 -0.038106967 -0.03211791 -0.0016073675
000180 b9 f3 92 3d 70 58 42 bd 23 77 0a 3e d9 20 c4 3d
       0.07175393 -0.04744762 0.1352201 0.09576578
000190 6c c9 10 be de c3 1e 3e 90 d8 f0 3d 53 2a 01 3c
       -0.14139336 0.15504405 0.11760056 0.007883626
0001a0 a7 54 ba 3d 0f 76 7f bd 82 52 22 bd 6e 54 a0 bd
       0.090981774 -0.06236845 -0.039629467 -0.07828604
0001b0 ca 5d 15 bd cb 74 44 bd 99 bd 6a 3d d7 90 6e ba
       -0.036466397 -0.047962945 0.05730972 -0.00091005623
0001c0 4d 08 da bd aa 5c c8 3c 0a 5a 13 bc d1 11 64 3d
       -0.106461145 0.024458248 -0.008993635 0.055681054
0001d0 57 b5 2a 3c 77 40 fe bb 50 fd 1a bd eb ec 69 3c
       0.010419211 -0.0077591497 -0.037839234 0.014277677
0001e0 3f 20 14 be 7e bb b7 3d 52 35 23 be 04 fb e8 3b
       -0.14465426 0.08971308 -0.15938309 0.0071100015
0001f0 a7 79 fe bd 11 c2 04 3b
       -0.12425547 0.0020257274

encoder.val_net.net.0.bias f4 [21]
000000 22 12 bd 3d eb 95 08 bf 0b 07 af 3e 50 f9 d9 3d
       0.09231974 -0.53353757 0.3418506 0.10643256
000010 16 7f 9c 3e 01 9d 34 bf d8 1f ad 3d 32 f6 2e 3e
       0.3056571 -0.7055207 0.08453339 0.17086104
000020 14 05 c7 3e c9 c9 eb 3d 75 74 2e bf 71 4a e2 be
       0.38871062 0.11513097 -0.6814645 -0.4419742
000030 f6 ec 2a 3e 9f 11 b0 3e e1 76 32 3e c0 4b 45 bf
       0.16691956 0.34388444 0.17428161 -0.7706871
000040 e0 55 b2 3e 71 15 92 3e b0 83 97 be 5b ad e2 be
       0.34831142 0.28531983 -0.29592657 -0.44272885
000050 4e d5 9b 3e
       0.30436176

encoder.val_net.net.1.weight f4 [21]
000000 8d 82 82 3f 14 cf 67 3f 86 ff 8a 3f e4 81 81 3f
       1.0196091 0.9055035 1.085923 1.0117764
000010 5c 05 82 3f 3e b7 4e 3f d3 18 78 3f c2 8e 81 3f
       1.0157886 0.80748355 0.9691288 1.0121691
000020 69 8b 86 3f 5e 88 77 3f df 32 91 3f d5 0b 76 3f
       1.0511295 0.96692455 1.134365 0.96111804
000030 e7 02 70 3f f7 41 87 3f b3 1d 70 3f 0a 4b 75 3f
       0.9375443 1.0567006 0.9379532 0.95817626
000040 ae a4 86 3f 3b 32 83 3f a2 6d 70 3f 88 00 74 3f
       1.0519006 1.0249704 0.93917286 0.9531331
000050 26 3e 82 3f
       1.0175216

encoder.val_net.net.1.bias f4 [21]
000000 cc 00 cf 3d 98 e6 8a 3d 03 0a b1 3d 27 4b c1 3d
       0.10107574 0.067822635 0.08644488 0.09438162
000010 93 61 23 3d 7e d2 aa 3e 86 b4 13 3e 51 f8 cb 3d
       0.039887976 0.33363718 0.14424333 0.09959472
000020 d5 85 5c 3d 90 88 04 3d 88 cc 1d be 84 c8 18 3e
       0.05383857 0.0323568 -0.15410054 0.1492024
000030 a6 03 ba 3d 8c 4c 11 3d 13 d6 1b 3e 8c 82 9b 3d
       0.09082727 0.03547339 0.15218382 0.07593259
000040 cd 03 dd 3d 29 47 7a 3d 84 d1 0d 3d 61 cf 85 3d
       0.107917406 0.06110302 0.034623638 0.06533695
000050 4a 93 a4 3d
       0.08035906

encoder.val_net.net.3.weight f4 [36, 21]
000000 a2 d5 5f 3e 06 38 00 3e 05 83 9c 3d d0 9d 8e 3d
       0.21858838 0.12521371 0.076421775 0.06963694
000010 4c e9 7a 3d 0b 1c e3 bd 03 c4 2e be ed 57 08 3e
       0.061257645 -0.11089333 -0.1706696 0.13314791
000020 d4 c4 7e 3d 94 ac 83 3e e2 65 63 3d a7 c8 4c bb
       0.06219943 0.25717604 0.055517085 -0.0031247528
000030 f1 07 12 be f0 1d 3d 3e fb f3 5a bd 51 fe 35 bd
       -0.14260842 0.18468451 -0.053455334 -0.04443199
000040 eb fd 36 be 3b db 56 bd 63 c7 21 bc c5 21 6b 3e
       -0.178703 -0.05245517 -0.009874198 0.22962101
000050 c2 e3 3c 3e 99 85 6c be e5 05 82 3e 87 03 4c be
       0.18446258 -0.23097838 0.25395122 -0.1992322
000060 f6 90 ca bd 84 94 6e 3e 1c 9f 9f be 58 0d e5 3d
       -0.0989093 0.23298842 -0.31176078 0.11184186
000070 87 2a 74 be 79 3a f4 3d 00 57 d4 3d bd 0b 10 3d
       -0.23844348 0.11925215 0.103681564 0.035167444
000080 50 57 86 3e e9 59 0f 3e a1 c6 69 be a7 86 84 3d
       0.2623849 0.13999142 -0.22829677 0.064709954
000090 ac a6 18 be f3 11 eb bc ff 60 24 bc dd 24 68 3c
       -0.1490733 -0.028695082 -0.010032891 0.014168945
0000a0 64 1d 7d be e1 2a e1 3d 41 ad 91 3e 9a 06 c3 bd
       -0.24718243 0.109945066 0.28452495 -0.095227435
0000b0 4f fe b8 3c 19 3a a8 bd a3 50 10 3e ed 56 0c 3d
       0.022582201 -0.08214206 0.1409326 0.034262586
0000c0 e9 57 2a be 31 3e c0 bd 13 7e da 3d 78 b4 ea 3c
       -0.16635098 -0.09386862 0.10668578 0.028650507
0000d0 e8 e5 4b be 73 9b 0c be 20 37 b8 3d 65 96 51 3c
       -0.19911921 -0.13731174 0.08994889 0.0127922045
0000e0 aa f4 6b 3e 44 ad 87 bd 15 dd 2b 3e b1 f1 cc 3d
       0.2304255 -0.06624845 0.16783555 0.100070365
0000f0 32 01 51 3e f6 19 72 bb d4 1f 24 bc 8d 67 36 3e
       0.20410612 -0.0036941743 -0.010017354 0.17812939
000100 e7 61 dc bd e2 6e 4f be 63 ec 30 3e 22 be 5b be
       -0.10760861 -0.20257142 0.17277674 -0.21459249
000110 8b b5 90 bd 6c 1e 27 bd b6 df 09 3d 27 be 5d be
       -0.070658766 -0.040800497 0.033660613 -0.21654569
000120 b5 0a d5 3d 22 8e 8d bd 22 b3 65 ba 81 91 55 3d
       0.10402433 -0.06911875 -0.00087623496 0.052140716
000130 3a 68 1d 3e 89 e5 39 be e4 96 c8 bd 16 07 a1 3d
       0.1537179 -0.18153967 -0.09794405 0.0786268
000140 81 91 ff 3d 5c f3 d0 3d 1f 36 90 3e 63 51 1d 3e
       0.124789245 0.10202667 0.2816629 0.15363078
000150 e4 d0 74 3d 6d ad 4a be 5d 93 b8 bc bb 00 df bd
       0.059769526 -0.19792719 -0.022531206 -0.10888811
000160 a2 5d 76 be f9 47 63 bd 88 39 7d 3e 07 68 8d 3e
       -0.24059156 -0.05548856 0.24728978 0.2761843
000170 8e 4c 8f bd ee fa 8c 3d 9f 86 3f bd 68 08 3a be
       -0.069970235 0.068837985 -0.046759244 -0.18167269
000180 3e 61 0a be 92 13 c2 bd 3a 18 30 3d 81 da 25 be
       -0.13513657 -0.09476389 0.042991854 -0.16196634
000190 01 93 0a bc c4 dc a6 3d b3 6d 61 3d ee 08 eb bc
       -0.0084579 0.081475765 0.055036258 -0.028690781
0001a0 b8 8f 0e be 77 b6 29 bd a1 9f 56 3e 8e 1a c2 3c
       -0.13922012 -0.041433778 0.20959331 0.023694303
0001b0 19 c8 a9 3c 30 1f 9e bc 75 14 cc 3b 2d b0 9b bc
       0.020725297 -0.01930198 0.0062280246 -0.019004906
0001c0 4a 59 f5 3d 7b 42 c5 3c 1b 5d fe bd b5 04 2d 3e
       0.11979921 0.024079552 -0.12420102 0.16896327
0001d0 6d 74 54 3d ee 62 11 be 95 85 c2 bb 27 05 30 be
       0.051868845 -0.14197895 -0.0059363344 -0.17189465
0001e0 cb f5 2a bd 13 55 7d bd ac b4 bf 3d ad 4a 0e 3d
       -0.041738313 -0.06184871 0.09360632 0.034739185
0001f0 f3 a7 a5 3d 02 ed f4 bd f0 97 4b 3d cb e4 bc bc
       0.080886744 -0.11959268 0.049705446 -0.023058316
000200 16 59 23 3d 87 ed a5 bd f0 f7 30 3d f5 d1 88 bd
       0.03987988 -0.08101945 0.0432052 -0.06680671
000210 36 3e 10 be 25 61 14 3e 87 4a 90 bc f9 2a 76 be
       -0.14086232 0.14490183 -0.017613662 -0.2403983
000220 e2 93 02 be 3d 38 83 3c 77 da c9 bc 32 2e cd bd
       -0.12751725 0.016018027 -0.024640305 -0.10018577
000230 d6 f9 2d 3d cc 51 8e bc d9 90 01 3e 49 37 19 3e
       0.04247459 -0.017372988 0.12652911 0.14962496
000240 a6 24 4e 3e b9 da be 3d 84 45 c0 bd 0c b1 b7 3d
       0.20131168 0.09319062 -0.09388259 0.08969316
000250 5b 77 2f 3e 4c eb 6a bd ce 46 92 3d 7e b1 d1 bc
       0.17135374 -0.057353303 0.07142411 -0.02559733
000260 8d 4d 95 bb 03 c3 bd bd 68 5c 06 bd 9d 95 15 be
       -0.004556364 -0.09265711 -0.03280297 -0.14607854
000270 8e 55 cd 3d 7b 10 e0 bd cb ce 2d bb 2e 1b 12 3e
       0.10026084 -0.109406434 -0.0026520963 0.1426818
000280 b7 1c 3e 3e ce ad 19 3e 88 85 17 be 58 ee 5e be
       0.18565641 0.15007707 -0.14797032 -0.21770608
000290 81 a8 78 3e 1a 1d 2d 3e c2 f7 24 be 16 af 70 3b
       0.24283029 0.16905633 -0.16110137 0.0036725453
0002a0 00 02 d6 3c de d5 07 3e da 02 78 be ba 25 11 be
       0.026124 0.13265178 -0.24219838 -0.14174548
0002b0 1e 42 4c 3e 9b 15 1a 3e 33 39 03 3d f5 bb b9 bd
       0.19947097 0.15047304 0.03203697 -0.09069053
0002c0 65 f1 21 be 94 de 8e 3d 28 94 5f 3e ff b2 83 3e
       -0.15814741 0.06976047 0.21833861 0.257225
0002d0 01 f8 35 be 69 af dc bd bf 40 14 3e 16 bf be bd
       -0.17770387 -0.10775644 0.14477824 -0.093137905
0002e0 0e 11 8e 3e de f4 a1 be 08 10 aa 3e ac e8 5f be
       0.27747387 -0.3163213 0.33215356 -0.21866101
0002f0 60 68 21 3e b3 d3 88 3e fe 96 0e bc 39 15 1c 3e
       0.15762472 0.26724014 -0.0087029915 0.15242471
000300 f9 00 6f be 57 d9 14 3e 3b 7e 69 be 54 65 6b be
       -0.23340215 0.14536034 -0.2280206 -0.22987872
000310 0b f4 6c be d3 89 69 be 16 64 5e bd 4d 4b 7b 3e
       -0.2313997 -0.22806482 -0.05429467 0.24540444
000320 78 41 23 be 26 c2 1b 3d 45 47 84 bd dc 1d 62 3e
       -0.15942943 0.03802695 -0.06458906 0.22081703
000330 99 b1 56 be 2d 91 14 3e 86 ac 93 3e 74 00 04 3e
       -0.20966186 0.14508505 0.28842562 0.12890798
000340 21 c0 c1 bd 09 09 6a be 3a 86 fb 3d fb 15 29 3c
       -0.09460474 -0.22855009 0.12281461 0.010320182
000350 43 dd 0e be e5 02 06 3e ea c7 77 bd bf 7f f1 3c
       -0.13951592 0.13087042 -0.060493387 0.02947986
000360 13 d3 1f 3c 0f b8 8e bd 6c 7d 95 bc f6 e4 38 be
       0.009754914 -0.069687 -0.018248282 -0.18056092
000370 da 62 39 be 0f e4 d4 38 1a 0e 4d 3e 33 af 83 bd
       -0.18104115 0.00010151427 0.2002491 -0.06429901
000380 d4 36 51 bd ad 50 13 3e eb bc 85 3c e9 3c af bc
       -0.05107768 0.14386244 0.016325435 -0.021391349
000390 17 5b be 3d d5 88 ef bd 0f 19 d0 3c f5 82 09 3d
       0.09294718 -0.116960205 0.025402574 0.033572156
0003a0 d9 e4 67 be 66 0f 7a 3e be 42 d5 bc d8 88 80 be
       -0.22645892 0.24419937 -0.026032802 -0.25104403
0003b0 3b cb d1 3d d9 ca 81 bd 2c 83 78 bd 76 80 3b 3e
       0.10243841 -0.06337518 -0.06067197 0.18310723
0003c0 ab 99 33 be 5f 7f 52 3e 37 69 4c be 62 37 42 be
       -0.17539088 0.205564 -0.19962011 -0.1896644
0003d0 88 30 15 be 35 52 93 3d 27 da 24 3e 49 ed 18 bc
       -0.14569294 0.07193414 0.16098844 -0.009333917
0003e0 87 90 4b 3c f4 3e fc bd ec da 2b bd 5b 78 b1 bd
       0.012424595 -0.12316695 -0.041956827 -0.08665534
0003f0 4a f8 f2 bc d9 e6 80 3d 9a 37 66 3d 68 1e 2d 3e
       -0.02965941 0.06294031 0.05620537 0.1690613

encoder.val_net.net.3.bias f4 [36]
000000 25 6e 83 3d 63 e1 48 3e e6 49 27 be ee 41 ae 3d
       0.06417493 0.19617228 -0.16336784 0.08508669
000010 dc 75 80 3d 71 4f 0b be 2c 68 87 bd b7 4e 21 3e
       0.0627248 -0.13604523 -0.06611666 0.15752684
000020 c9 54 87 bc 7a ba de bd de 09 35 3e 91 8a 4a 3d
       -0.01651992 -0.10875411 0.17679545 0.049448553
000030 ea e0 41 bd f2 c2 2e be ae 42 3a bd ab aa df 3a
       -0.047333635 -0.17066553 -0.045473747 0.0017064413
000040 08 c3 0d 3e 66 35 d3 3d a8 16 54 be fc 3b 1d 3e
       0.1384393 0.10312919 -0.20711768 0.15354913
000050 e7 fb 0e be 10 e4 0e 3e d5 12 28 3e 87 a7 b6 3d
       -0.1396328 0.13954186 0.16413434 0.08918672
000060 e7 6f bd bd b4 a9 1c bc 9b 2f ca bd 0d b0 08 be
       -0.09249859 -0.009561945 -0.09872361 -0.13348408
000070 38 8a 08 3e 84 b3 7c bd 39 7e 2e 3e 46 c9 90 bb
       0.13333976 -0.061694637 0.17040338 -0.004418525
000080 85 77 56 3e b6 c6 a6 3d f3 83 93 3d 92 b9 ed bd
       0.2094403 0.0814337 0.07202902 -0.1160766

encoder.rank.weight f4 [1, 6]
000000 3d 88 a2 be 25 a3 9b be 06 b8 bb be 78 9f 37 be
       -0.31744567 -0.30397907 -0.36663836 -0.17931926
000010 3d 04 28 be b9 1b 7f 3e
       -0.16407867 0.24912919

encoder.cardinality.weight f4 [36, 1]
000000 e3 bd 46 bf 3f 91 93 3d 22 0d 93 be 52 fc e5 be
       -0.77633494 0.07205438 -0.28720957 -0.44919068
000010 49 74 1d 3f 78 6c 0b be 5f 4f f9 be 6a 3b 5d bf
       0.6150556 -0.13615596 -0.48693368 -0.86418784
000020 b0 54 21 bf 64 e8 33 3d e4 6e 1a 3f e8 14 e2 3e
       -0.6301985 0.043922797 0.60325456 0.44156575
000030 5e 47 b5 be d6 87 59 bf 48 3e 27 bf 19 9c e2 3c
       -0.3540601 -0.84972894 -0.6532941 0.027662324
000040 51 c6 65 3e e8 60 af be 2b f1 39 3f e3 79 59 be
       0.22438933 -0.3425362 0.7263362 -0.21237902
000050 c7 e0 5d 3d 1d a2 19 3f 35 85 70 3f 73 52 03 3f
       0.054169443 0.6001299 0.9395326 0.5129768
000060 df 3b 3a bf eb cf 0b 3e 27 76 44 bf 9a 52 4b be
       -0.72747606 0.13653533 -0.76742786 -0.19855729
000070 ad e2 43 bf bd 38 9d be 07 73 5b bf 16 de e8 be
       -0.76517755 -0.3070735 -0.8572239 -0.45481938
000080 e2 37 1a 3f b3 11 41 3f d2 d5 10 3f fb 61 50 bf
       0.6024152 0.7541763 0.56576264 -0.81399506

encoder.cardinality.bias f4 [36]
000000 3e 39 37 3f b4 69 15 bf 42 df 29 3f 35 16 66 3f
       0.7157172 -0.58364415 0.6635629 0.89877635
000010 f6 e0 2e 3f e6 39 09 bf fd 43 59 3f 86 a0 c6 3e
       0.68312013 -0.5360397 0.84869367 0.38794345
000020 5d a6 29 bf 65 db 3e 3e 34 1c 77 bd da 2c 92 be
       -0.66269475 0.1863838 -0.06032963 -0.28549844
000030 da c6 37 3f fc cd 62 3f ea e2 51 3f 2b 40 68 3e
       0.717878 0.8859556 0.8198687 0.22680728
000040 96 6c 5b bf bf f6 3f 3f 64 19 68 bf a0 ea 09 bf
       -0.85712564 0.7498588 -0.90663743 -0.53873634
000050 a6 a4 1c 3f 89 fc 61 bf ff 46 81 be 48 3b 36 be
       0.61188734 -0.88275963 -0.25249478 -0.17796052
000060 ea 59 5b 3f 50 0e 40 3f e8 46 69 3f 4a 26 ab bd
       0.8568407 0.7502184 0.9112382 -0.083569124
000070 ce e5 3d 3f 9a 86 78 bf 78 08 19 bf 13 ec 9c bd
       0.7417878 -0.97080386 -0.5977855 -0.07662215
000080 81 f1 ee 3c a7 a5 ab be cf 3f 5b bd 77 51 4b 3f
       0.029167892 -0.3352482 -0.05352765 0.7942118

decoder.key_net.net.0.weight f4 [50, 64]
000000 1a b7 68 bd eb ec 03 3d c4 b0 b8 bd 30 27 ff bd
       -0.056815244 0.032208364 -0.0901809 -0.12458646
000010 3e c8 ef 3d 88 ab fc bc b4 65 26 3d a0 57 e9 3d
       0.11708115 -0.030843511 0.040624335 0.11393666
000020 0e 8a 84 bd 98 17 aa bc e8 25 59 bd ec cc 9b bd
       -0.06471644 -0.020763204 -0.053014666 -0.07607445
000030 8c b6 ee 3d f8 0a 1d bd 2a 39 fd bd 46 9e d0 bd
       0.11655912 -0.03834054 -0.12364419 -0.10186438
000040 40 33 39 3c 74 8d ec 3d 88 b2 83 3c e0 f4 05 bd
       0.011303723 0.115504175 0.016076341 -0.032704234
000050 70 ca 50 bd 74 dc 11 bd 20 5b b3 3b a0 4d 81 bc
       -0.05097431 -0.03561063 0.0054735094 -0.015784085
000060 54 33 82 3d 40 0a 20 3c d0 54 34 3c 24 33 ec bd
       0.06357446 0.009768069 0.011006549 -0.11533192
000070 9a b0 f0 bd 84 0b 4b bd 48 18 90 bd c6 cb 91 3d
       -0.11752434 -0.04957153 -0.07035881 0.07118945
000080 ce 37 ae 3d 66 5c dd 3d d8 e1 ef bd d0 5c d2 bd
       0.08506738 0.10808639 -0.11712998 -0.10271609
000090 6a 49 d3 3d f8 ac fe 3c ce d2 e3 3d 20 0d 1d bd
       0.10316737 0.031088337 0.11124192 -0.038342595
0000a0 f6 c9 83 bd 5c c9 6f 3d e6 31 99 bd ec 8d 94 bd
       -0.06435005 0.05854164 -0.074802205 -0.07253632
0000b0 4a 32 fc 3d da d5 f2 bd c4 d2 34 3d 74 b0 32 3d
       0.123142794 -0.11857195 0.044146314 0.04362531
0000c0 22 41 8c 3d c4 b4 67 3d 7c c0 3f 3d 18 d1 e8 bd
       0.068483606 0.056568876 0.046814427 -0.113680065
0000d0 a6 72 f4 3d a8 ac e4 bc 90 5c ca bd 40 10 44 bc
       0.1193593 -0.02791436 -0.09880936 -0.011966765
0000e0 f8 0d eb bc 5c 7e 20 bd a0 11 b4 bd fa 57 89 3d
       -0.028693184 -0.039183006 -0.08792424 0.06706233
0000f0 04 36 4c bd dc 8d 51 3d 80 d7 46 bd 2e 88 d7 bd
       -0.0498562 0.05116068 -0.04854536 -0.10524021
000100 79 5e 01 3d 23 e0 bc bb 6e b3 a8 3d 16 21 e8 3d
       0.031584237 -0.005764024 0.082373485 0.11334436
000110 84 af e2 3d a8 53 85 3c a6 f2 f3 bd b6 7a a1 3d
       0.11068633 0.016275242 -0.11911516 0.078847334
000120 d4 61 aa bd b8 57 ed 3c 0a 72 9d bd d8 bb bc bc
       -0.083194405 0.028972492 -0.07687767 -0.02303879
000130 e0 83 8b bb 7e 43 af 3d c0 11 7a bd f4 c6 dc 3d
       -0.004257664 0.08557795 -0.061052084 0.10780135
000140 3c 5f 51 bd 6c 33 e6 3d 66 d3 d0 3d 66 dc e6 3d
       -0.051116213 0.11240277 0.10196571 0.112725064
000150 ac 89 d3 3d 20 1f 85 bd 2e c1 c7 bd fe 7c d2 bd
       0.10328993 -0.06500077 -0.09753643 -0.102777466
000160 80 92 c0 3b 90 d7 84 3c 40 0d 5c bc e0 b4 7f bd
       0.005876839 0.01621607 -0.013430893 -0.062428355
000170 34 d9 a9 3d 64 dd bf bd f4 98 52 bd d4 72 97 bd
       0.08293381 -0.09368399 -0.0514154 -0.073949486
000180 12 09 f0 3d 24 5c af 3d 08 63 3a bd b2 4e cc 3d
       0.1172048 0.08562496 -0.0455046 0.099759474
000190 1e 8b fe bd 00 04 09 bd b8 81 82 bc 96 c9 96 bd
       -0.12428878 -0.03345108 -0.015930995 -0.07362668
0001a0 3e 74 8a bd 7e c8 cb bd 7e 1e d1 3d 5c df f1 bd
       -0.06760453 -0.0995035 0.10210894 -0.118101805
0001b0 c6 49 e9 3d c0 ca 35 3c c0 72 4a bb bc fc a7 3d
       0.11391024 0.011095703 -0.003089115 0.08202502
0001c0 a0 65 ae 3c 00 d5 f8 3d ae 31 87 3d 14 90 26 3d
       0.021288693 0.121500015 0.066012725 0.040664747
0001d0 a0 69 12 3d 88 cd bb bd 20 17 54 3d 40 90 44 bc
       0.035745263 -0.09170061 0.051779866 -0.0119972825
0001e0 2a 31 85 3d 90 54 20 bd c0 6e a8 3b 88 50 bd bc
       0.06503518 -0.039143145 0.0051401556 -0.02310969
0001f0 fa 08 95 3d 68 a2 7c bd 70 23 bc 3c f8 65 d8 bc
       0.07277103 -0.06167832 0.022966117 -0.02641581
000200 85 20 d4 3d e0 92 04 bd 0c 69 4d 3d 52 fd 94 3d
       0.10357765 -0.032366633 0.05014901 0.072748795
000210 ec fa 3a bd 50 37 6e 3c 40 af 72 bc 00 95 47 bb
       -0.045649454 0.014539555 -0.014812291 -0.00304538
000220 a8 7e 1d bd 70 12 c2 3c 20 e8 d8 3b 10 e2 2b bd
       -0.038450867 0.023690432 0.0066194683 -0.041963637
000230 80 9b 17 3d 48 62 3a 3d 70 4e 8e bd b0 99 6d 3c
       0.03701353 0.045503885 -0.069485545 0.014501974
000240 38 3b 9d 3d 5c d8 cb bd b0 4f 16 3c 40 c0 e3 3b
       0.07677311 -0.09953377 0.009174272 0.006950408
000250 c8 a0 a5 3c 5a 6e b9 3d 00 e6 60 bd 0e 0c 96 bd
       0.020218268 0.09054251 -0.054906845 -0.07326518
000260 ac 77 a3 3d 80 25 bf 3b e6 8e d4 bd 5a 41 8f bd
       0.0798181 0.005833328 -0.10378818 -0.06994887
000270 62 5e b8 3d e0 16 a6 3b 3c 7b 5c 3d fc 5f 07 3d
       0.09002377 0.005068645 0.053828463 0.033050522
000280 7c e6 19 bd 56 f6 f9 bd 00 f2 d9 ba f8 bf bf 3c
       -0.037573323 -0.12205188 -0.0016627908 0.023406968
000290 b8 db 00 bd 8a b0 fc 3d 4c 97 ae 3d 58 db 53 bd
       -0.03145954 0.1233836 0.08524951 -0.051722854
0002a0 78 74 0d bd 40 19 a9 3c f4 1d 35 bd a8 df 81 3d
       -0.0345349 0.020641923 -0.04421802 0.06341487
0002b0 50 24 7f 3c 8a 3e d0 bd ac 80 96 3d 98 96 f3 3c
       0.015572622 -0.101681784 0.07348761 0.029734895
0002c0 98 2f 36 3d 04 26 87 bd 5c 47 1b bd f4 ab 77 3d
       0.044478983 -0.06599048 -0.03790985 0.06046672
0002d0 74 99 bb 3d a0 04 15 3c 84 48 e1 3d c8 66 d7 3c
       0.09160128 0.009095341 0.110001594 0.026294127
0002e0 b4 43 ac bd 78 e2 c6 bc 5a d9 e9 bd e4 e9 fa bd
       -0.08411351 -0.02427791 -0.1141841 -0.12251642
0002f0 54 39 7f 3d bc 5b 6e bd 40 9d 43 bb 60 a4 b1 bc
       0.06231053 -0.058192953 -0.0029848367 -0.021684825
000300 21 c6 c6 3d 37 71 ac 3b 7c 3f b3 bd cc 0f eb bd
       0.09705759 0.0052625197 -0.08752343 -0.114776224
000310 d8 a5 5f bd 0e 8e 9c bd 08 d9 60 bd d8 00 02 bd
       -0.05460152 -0.07644282 -0.054894477 -0.031739086
000320 00 42 61 3b e0 34 86 3d f0 27 8c 3d 18 b2 9c 3c
       0.0034371614 0.06553054 0.06843555 0.01912789
000330 9e ab b6 3d f2 08 fc 3d 6c 3f 74 bd 20 f1 73 bd
       0.08919452 0.12306394 -0.059630796 -0.059556127
000340 48 11 a7 3c 50 9c d7 bd fa 3e bd bd cc 70 ab 3d
       0.020393983 -0.10527861 -0.092405275 0.08371124
000350 80 3a ef 3c ac e3 64 bd 40 19 c9 3c 80 53 9d bd
       0.0292027 -0.055881187 0.024548173 -0.07681942
000360 c2 61 bd bd 94 b0 07 bd 60 1e 98 bb ac 48 6c 3d
       -0.092471614 -0.033127382 -0.004642293 0.057686493
000370 b4 4c 95 3d a0 94 0b 3c 02 ba 92 3d 1c 89 46 bd
       0.072900206 0.008519322 0.071643844 -0.0484706
000380 20 e6 f0 3d 30 0d 21 3c 60 26 d4 bd a4 95 0c bd
       0.11762643 0.009829804 -0.10358882 -0.034322396
000390 c8 69 ed bc c6 8d cf bd 04 0f 7c 3d 70 6e a5 3c
       -0.028981104 -0.10134463 0.061537758 0.020194262
0003a0 b0 78 da bd 96 a7 f7 bd 94 da 05 3d 10 aa 6a 3d
       -0.106675506 -0.12092511 0.032679155 0.05729109
0003b0 54 a1 ac bd d0 13 cb bd 80 80 4b 3c 90 6c 2f 3c
       -0.084292084 -0.09915888 0.0124207735 0.010707036
0003c0 46 d0 d1 bd b0 7d 56 bd 68 85 52 3d 38 33 75 bd
       -0.10244803 -0.05236596 0.051396757 -0.0598633
0003d0 d6 be bc 3d b0 a8 3c bd 94 08 4e bd 40 6e a3 3b
       0.092160866 -0.04605931 -0.05030115 0.004987508
0003e0 f8 81 e0 3d 7e 8b 85 bd 78 a3 9b 3d e4 00 3a 3d
       0.109622896 -0.06520747 0.075995386 0.045411006
0003f0 b8 7e b0 bc 98 81 d3 bc d4 22 65 bd f0 3d 77 3d
       -0.0215448 -0.025818631 -0.055941418 0.060361803

decoder.key_net.net.0.bias f4 [50]
000000 2d 11 cd 3b be 20 ac 3d f2 3d 6b bc b4 81 d2 3d
       0.006258151 0.084046826 -0.014358031 0.10278645
000010 0c 39 7d 3d 09 9c b2 3d 48 6d bd 3d f6 8c 98 bd
       0.061821982 0.087211676 0.09249359 -0.07448761
000020 80 e9 5a bd 98 65 d2 bd 75 50 7e 3d b2 70 99 3d
       -0.05344534 -0.10273284 0.06208845 0.07492198
000030 d0 36 5a bc 09 24 0e bc 7b 96 c9 3d cb e7 57 bd
       -0.013318732 -0.008675584 0.09843155 -0.05271129
000040 5f 7a d3 bd 44 31 33 bc 3d d9 f4 bc 3a 00 e4 bd
       -0.10326075 -0.010937039 -0.029888744 -0.11132856
000050 9c f3 6e 3d f4 48 c1 bd 61 85 55 3d 98 75 b9 3c
       0.058337793 -0.09437743 0.052129153 0.02263908
000060 0c 56 cd 3d a2 68 86 3d f2 14 8c 3d 14 ac 18 bd
       0.10026178 0.06562926 0.068399325 -0.03727348
000070 5f eb df bd d4 d3 38 3a 07 3e e2 bd 0d 64 93 bb
       -0.10933565 0.0007050608 -0.11046987 -0.004498011
000080 e7 b5 11 be 1e 44 a6 bd 17 bb 10 3d 02 c3 e2 bb
       -0.14229546 -0.08118461 0.035334673 -0.0069202194
000090 1b 8c 5a bd e7 4c 3d bc 67 e8 08 3d 3e 8d ab bd
       -0.05335627 -0.0115539795 0.03342476 -0.08376549
0000a0 24 fd ef bd dd c5 91 3d f4 9d 7b 3d 43 b0 c3 bd
       -0.117182046 0.071178176 0.061429933 -0.09555104
0000b0 97 1b 24 3c 10 34 06 3e 51 8e c5 3d 1d 9a a9 3d
       0.010016344 0.13105798 0.09646285 0.08281348
0000c0 fc 6e 59 3d 5a 74 b6 bb
       0.05308436 -0.0055680694

decoder.key_net.net.1.weight f4 [50]
000000 35 1f 71 3f fd ad 7b 3f 86 1c 86 3f f6 35 82 3f
       0.94188243 0.9831236 1.0477455 1.0172718
000010 76 d4 83 3f 29 db 6d 3f 33 20 6b 3f 57 ee 82 3f
       1.0299213 0.92912537 0.9184601 1.0228986
000020 dd 6e 74 3f e3 99 83 3f 09 1e 82 3f 63 88 77 3f
       0.95481664 1.0281337 1.0165416 0.96692485
000030 ed 57 75 3f d1 6e 76 3f 0a af 75 3f 9d 71 7b 3f
       0.9583729 0.9626284 0.95970213 0.98220235
000040 b7 c0 85 3f 2a 2b 78 3f 2a 2c 81 3f 5c f8 7e 3f
       1.0449437 0.96940863 1.0091603 0.99597716
000050 ce b4 78 3f 02 89 68 3f ef 33 7d 3f 85 0f 82 3f
       0.97150886 0.9083406 0.9890737 1.0160986
000060 f5 cf 81 3f b9 e9 7e 3f 68 81 7c 3f 54 28 69 3f
       1.0141588 0.9957538 0.9863496 0.9107716
000070 e1 21 82 3f bd d6 83 3f 46 1c 7d 3f 17 6e 7d 3f
       1.0166589 1.0299908 0.98871267 0.9899611
000080 82 90 83 3f c0 0e 84 3f 9f 40 53 3f 0c 0e 78 3f
       1.0278475 1.0317001 0.8252048 0.96896434
000090 80 b8 76 3f b5 81 78 3f 98 27 81 3f 2c 86 82 3f
       0.96375275 0.9707292 1.0090208 1.0197196
0000a0 19 5c 82 3f d3 85 88 3f 51 02 68 3f 97 97 78 3f
       1.0184356 1.066584 0.90628535 0.9710631
0000b0 b7 62 7b 3f 13 19 83 3f 21 75 86 3f 68 72 69 3f
       0.981975 1.0242027 1.0504495 0.91190195
0000c0 f6 5d 89 3f c0 cd 85 3f
       1.07318 1.0453415

decoder.key_net.net.1.bias f4 [50]
000000 39 b6 fb bc 4c a0 ff bb fd 17 17 3d 6b 76 bf 3c
       -0.030726539 -0.0078010913 0.03688811 0.023371896
000010 fd 4b 17 3c 8e cd 2b bd f6 08 3d bb 17 53 e2 bc
       0.009234426 -0.04194408 -0.0028844452 -0.027627511
000020 55 c0 e4 bb e3 60 dd bc a9 fe c7 3b 39 c1 60 bc
       -0.0069809356 -0.027023738 0.006103356 -0.013717943
000030 78 d4 1d 3c d0 42 00 bd 92 cb 17 bd 01 30 36 3c
       0.009633176 -0.031313717 -0.037059374 0.011119843
000040 b5 f6 54 bd 89 84 97 bc 7a 6e f9 3b ac cd 1f ba
       -0.05199309 -0.018495815 0.007612047 -0.0006096016
000050 0a b5 c7 bc 49 cd 0a bc c5 1b 42 bc 60 1d cd 3c
       -0.024378318 -0.008471795 -0.011847441 0.025038421
000060 a1 d7 b3 3b db 15 34 bb c4 23 8f bb ea 47 54 3d
       0.0054883515 -0.0027478847 -0.0043682773 0.051826395
000070 2c 62 b9 bc ae db 13 bd 06 ed e5 3b cc 42 e6 bb
       -0.02262982 -0.036098175 0.007016781 -0.007027006
000080 d7 49 2b bd 9c e9 e7 bc 93 8d 51 bc 40 17 ff bc
       -0.041818466 -0.028309636 -0.012790102 -0.031139016
000090 f7 c5 b6 ba 50 6f b9 ba 03 54 6c bc 11 78 a0 bc
       -0.0013944496 -0.0014147554 -0.014424327 -0.019588502
0000a0 c4 99 b0 bc 24 4f a7 3d 9b d7 34 bc c6 33 86 3c
       -0.021557696 0.08169392 -0.0110377325 0.01638211
0000b0 42 3c 34 bc 00 2e df 3c a6 ef 4e 3d 7f d2 e0 3c
       -0.011000695 0.027243614 0.050521515 0.027444122
0000c0 c9 1c 12 3d e0 79 57 bd
       0.035671983 -0.052606463
