weights/sae_flocking_latest.pt (torch, 116891 bytes, 30 tensors)

encoder.key_net.net.0.weight f4 [64, 64]
0.0952235 0.07966556 0.102841206 0.085586466 -0.03820838 0.01110816 0.042485982 -0.08885166
-0.02784586 0.061052337 0.048655003 0.12247591 0.048904702 -0.041432127 0.038581416 -0.043455064
-0.046150804 0.06588511 -0.05491966 0.11085074 0.086491615 -0.013286248 0.070415646 -0.10490997
0.04819098 0.113297075 -0.049456596 -0.104425445 0.08509076 -0.095511645 -0.07566762 0.033508554
-0.06528483 0.11121251 -0.013522863 -0.1023428 -0.08716285 0.09513156 -0.070448175 0.10068403
-0.065098226 -0.10011065 0.12011261 -0.032882035 -0.08426884 -0.085721344 -0.09057036 0.038144514
0.0010717958 0.05542028 -0.032870695 -0.023933813 0.022301152 0.039883196 0.01402384 -0.06104526
-0.05908683 0.05570911 -0.025479198 -0.058232337 -0.015757814 0.008367866 -0.12180248 0.018482193
-0.10653751 -0.185535 0.075535074 0.11024721 0.08574429 -0.10354319 -0.09713586 -0.05805652
0.061824158 0.029520527 -0.09473792 -0.10780719 -0.068184584 0.06789343 0.06729692 0.038047314
0.10902977 0.001346752 -0.02316171 0.014611229 0.01561299 0.095742315 -0.046492934 0.008001715
-0.029533997 0.009261221 0.08675665 -0.0020041764 -0.0600017 0.117301986 -0.0010138452 -0.08168855
-0.0897342 0.093598545 -0.06764902 0.10511921 -0.08103888 0.036430553 -0.08033921 0.027376667
0.12085369 0.06791423 0.042382404 -0.022631034 0.055877358 -0.12429874 0.08854562 0.069046676
0.00042958558 -0.105775446 0.065947115 -0.008569673 0.020560637 -0.08392605 0.011594415 0.07166445
0.05106114 0.052815333 0.11216794 0.11344358 0.07588114 -0.10213719 -0.052351296 0.078282684
0.10178192 -0.06777376 0.12106195 0.00777141 0.108775705 -0.121539295 0.0046744794 -0.07133885
0.12313688 -0.076289326 -0.043452725 0.020345926 0.083917424 -0.111650124 0.024830118 -0.10863428
-0.008799195 -0.09866558 0.11531749 0.07626495 0.0031055212 0.015667677 -0.11778411 0.10950644
-0.06627993 -0.02521129 0.024083868 -0.103073925 -0.09166898 0.10723287 0.11502884 -0.09843093
-0.02580534 -0.026581481 -0.0065568388 -0.09051943 0.06405786 0.08890295 0.012881905 -0.05600308
-0.049122408 -0.0039602816 0.03259623 -0.054011792 -0.1153813 -0.09786755 -0.10117787 0.10538998
0.016668767 0.122826144 -0.07012439 -0.08264363 0.12409873 -0.050919294 -0.013688371 -0.032891437
0.06082502 -0.050836384 0.02943699 -0.030682579 0.04962398 0.060267642 -0.10874297 -0.06784801
-0.12605745 0.049774125 0.116035625 0.096118815 -0.070787504 -0.09350492 0.038043693 -0.11390743
0.094257444 -0.044760734 0.09920052 -0.05867511 0.08977753 0.052562177 -0.0815289 -0.02766411
-0.0050446987 -0.063416615 0.02039206 0.03416556 0.04060854 0.07768041 -0.02667287 -0.11433636
0.07352841 0.07078573 0.04514727 0.07601249 0.049696892 -0.03168273 0.10186082 0.041713744
0.018537253 0.078318715 0.021234453 0.09078306 0.0506676 -0.08031146 0.06805682 -0.0019311458
-0.09521863 0.004651502 0.06330247 0.0033988953 0.043933585 -0.07581097 -0.07730934 -0.046567738
0.115288794 0.1220257 -0.034720674 -0.07497886 0.005269617 0.056670234 -0.046214 -0.10841791
0.09690978 -0.06273839 -0.09619105 0.006355658 0.0902269 -0.02184996 0.0012195706 0.06813882
00000000: 8a04 c33d b227 a33d 699e d23d f547 af3d
00000010: 6480 1cbd 00ff 353c c805 2e3d dcf7 b5bd
00000020: 001d e4bc 0412 7a3d 784a 473d a6d4 fa3d
00000030: 4c50 483d bcb4 29bd 8c07 1e3d f0fd 31bd
00000040: a008 3dbd c6ee 863d 70f3 60bd b605 e33d
00000050: 8422 b13d 90ae 59bc 1436 903d 0adb d6bd
00000060: e863 453d 4c08 e83d 0093 4abd 02dd d5bd
00000070: 1044 ae3d 9c9b c3bd a0f7 9abd 4440 093d
00000080: 0eb4 85bd 62c3 e33d 008f 5dbc 1a99 d1bd
00000090: 7082 b2bd 56d4 c23d 2247 90bd 6e33 ce3d
000000a0: 3852 85bd d006 cdbd 9afd f53d 50af 06bd
000000b0: 2495 acbd ac8e afbd f47c b9bd 6c3d 1c3d
000000c0: 807b 8c3a 6000 633d 6ca3 06bd d810 c4bc
000000d0: e8b0 b63c 905c 233d 40c4 653c 980a 7abd
000000e0: 0805 72bd 3c2f 643d c0b9 d0bc 0885 6ebd
000000f0: 8816 81bc 6019 093c 9473 f9bd f867 973c
00000100: 5730 dabd e3fc 3dbe 22b2 9a3d 4ac9 e13d
00000110: b49a af3d 740e d4bd 2aef c6bd accc 6dbd
00000120: 543b 7d3d 08d5 f13c f405 c2bd 04ca dcbd
00000130: 5ca4 8bbd b60b 8b3d f8d2 893d 80d7 1b3d
00000140: 004b df3d 8085 b03a a0bd bdbc f063 6f3c
00000150: a0cd 7f3c 8c14 c43d 606f 3ebd a019 033c
00000160: 48f1 f1bc 60bc 173c 78ad b13d 8058 03bb
00000170: 58c4 75bd 063c f03d 00e3 84ba 544c a7bd
00000180: 90c6 b7bd 98b0 bf3d 928b 8abd be48 d73d
00000190: b6f7 a5bd 3438 153d e288 a4bd 0845 e03c
000001a0: 2482 f73d 9e16 8b3d 2c99 2d3d b864 b9bc
000001b0: a8df 643d 5690 febd 6857 b53d 5868 8d3d
000001c0: 003a e139 cca0 d8bd 480f 873d d067 0cbc
000001d0: c86e a83c 6ce1 abbd 80f6 3d3c d0c4 923d
000001e0: 7c25 513d e454 583d 4eb8 e53d 1c55 e83d
000001f0: 9267 9b3d 4e2d d1bd 506e 56bd ac52 a03d
00000200: 0a73 d03d f8cc 8abd 54ef f73d 50a7 fe3b
00000210: ccc5 de3d 98e9 f8bd 602c 993b 1a1a 92bd
00000220: 302f fc3d 943d 9cbd 7cfb 31bd 80ac a63c
00000230: e6dc ab3d d2a8 e4bd 8868 cb3c a67b debd
00000240: 802a 10bc 2e11 cabd 942b ec3d cc30 9c3d
00000250: 0086 4b3b 8059 803c cc38 f1bd ea44 e03d
00000260: c6bd 87bd e887 cebc 884b c53c 6c18 d3bd
00000270: f2bc bbbd e89c db3d 3e94 eb3d 2896 c9bd
00000280: b865 d3bc 68c1 d9bc c0da d6bb 4062 b9bd
00000290: c430 833d c012 b63d a00e 533c 7c63 65bd
000002a0: 9434 49bd 40c5 81bb a083 053d 783b 5dbd
000002b0: 084d ecbd c86e c8bd 5836 cfbd b4d6 d73d
000002c0: f08c 883c 468c fb3d 609d 8fbd 1041 a9bd
000002d0: 7a27 fe3d c090 50bd 3045 60bc 2cb9 06bd
000002e0: a823 793d d039 50bd d825 f13c 085a fbbc
000002f0: 8442 4b3d 34db 763d a2b4 debd e6f3 8abd
00000300: 3415 01be f4df 4b3d 16a4 ed3d f1d9 c43d
00000310: 0af9 90bd 827f bfbd b4d3 1b3d 4c48 e9bd
00000320: 0c0a c13d 0857 37bd a429 cb3d 5055 70bd
00000330: 48dd b73d 704b 573d a0f8 a6bd d89f e2bc
00000340: 004e a5bb 92e0 81bd 400d a73c 30f1 0b3d
00000350: 2455 263d e816 9f3d 1081 dabc 2e29 eabd
00000360: 1096 963d 1cf8 903d 58ec 383d 70ac 9b3d
00000370: f88e 4b3d c0c5 01bd 689c d03d 08dc 2a3d
00000380: 70db 973c 9065 a03d e0f3 ad3c 78ec b93d
00000390: d488 4f3d 567a a4bd 6061 8b3d 801e fdba
000003a0: fc01 c3bd a06b 983b baa4 813d 00c0 5e3b
000003b0: b4f3 333d c842 9bbd 5c54 9ebd d0bd 3ebd
000003c0: 881c ec3d 9ce8 f93d 4437 0ebd 848e 99bd
000003d0: c0ac ac3b 0c1f 683d e44a 3dbd 360a debd
000003e0: a278 c63d fc7c 80bd d0ff c4bd 2043 d03b
000003f0: e2c8 b83d b0fe b2bc 00da 9f3a 5e8c 8b3d

encoder.key_net.net.0.bias f4 [64]
0.20232566 0.08392374 -0.031239402 0.0778608 -0.15435196 0.11331787 0.027208162 0.04556825
0.016786879 0.060902454 0.07432054 0.024687734 0.1337214 0.018405959 -0.0052373847 0.06709207
-0.1097343 -0.056333497 0.09121292 0.014968671 0.0866541 -0.03072254 -0.012816257 0.03252381
0.111108564 0.010946603 -0.08257683 0.01883233 -0.120075375 -0.04983162 -0.009044275 0.055242207
0.045756962 -0.05966405 0.046479415 0.10632243 0.016045703 0.06332746 -0.06204149 -0.019385228
-0.047615293 -0.05597425 0.14152962 -0.09064398 0.06449153 0.005248467 -0.022348512 0.12761123
-0.06218609 -0.019374236 -0.038419086 -0.007516298 0.11995475 -0.10005312 0.13846344 0.053138677
0.023689259 0.06234839 0.010581657 -0.07156492 0.10647118 0.055785637 -0.07654757 -0.045551613
00000000: 752e 4f3e 36e0 ab3d c6e9 ffbc 7c75 9f3d
00000010: 710e 1ebe 3313 e83d a7e3 de3c c6a5 3a3d
00000020: a384 893c da74 793d 5e35 983d ee3d ca3c
00000030: 43ee 083e 18c8 963c 5e9e abbb 9167 893d
00000040: 60bc e0bd f4bd 66bd d7cd ba3d 283f 753c
00000050: b477 b13d d6ad fbbc 47fb 51bc b037 053d
00000060: e38c e33d 6159 333c 0b1e a9bd 4246 9a3c
00000070: 14ea f5bd 3e1c 4cbd 702e 14bc a745 623d
00000080: a76b 3b3d 4a62 74bd 3361 3e3d 93bf d93d
00000090: 4772 833c d4b1 813d 381f 7ebd c5cd 9ebc
000000a0: 4108 43bd 4145 65bd 24ed 103e 8da3 b9bd
000000b0: 2314 843d 55fb ab3b 3a14 b7bc 85ac 023e
000000c0: d7b6 7ebd b8b6 9ebc 555d 1dbd 474b f6bb
000000d0: d6aa f53d a6e8 ccbd 5cc9 0d3e f1a7 593d
000000e0: fa0f c23c 0761 7f3d b05e 2d3c a190 92bd
000000f0: 900d da3d 7b7f 643d f9c4 9cbd 5494 3abd

encoder.key_net.net.1.weight f4 [64]
1.0173957 1.0197169 0.9159598 0.9731664 1.1725402 1.0682569 0.9224609 0.9942382
0.7489119 1.0915719 0.8375532 0.96174026 1.028336 0.859891 0.99874324 0.9993195
1.0201113 1.421792 0.9585646 1.0917677 1.1152011 0.86072326 1.0199765 0.8989893
1.1715869 0.87660927 0.9027183 1.0603932 1.373119 0.8766551 1.062067 1.1923242
1.0217243 0.7349613 0.8259785 1.1319728 0.8862315 1.0236617 0.8920051 0.7206677
0.8780463 0.8404218 1.2873691 1.1828109 1.0031617 1.1555815 0.9611241 1.1742988
1.0152102 0.9903447 0.8236515 0.8931704 0.96899 1.0793005 1.0109551 1.1564122
0.91336435 1.0390122 1.0125191 1.313137 1.0044748 0.90131986 0.994054 0.9844994
00000000: 063a 823f 1586 823f 577c 6a3f 6f21 793f
00000010: cc15 963f a4bc 883f 6626 6c3f 6586 7e3f
00000020: b1b8 3f3f a1b8 8b3f e369 563f 9c34 763f
00000030: 84a0 833f d121 5c3f a3ad 7f3f 67d3 7f3f
00000040: 0293 823f 48fd b53f 7d64 753f 0bbf 8b3f
00000050: e9be 8e3f 5c58 5c3f 978e 823f 2a24 663f
00000060: 8ff6 953f 7769 603f 8c18 673f f7ba 873f
00000070: 5dc2 af3f 786c 603f d0f1 873f 149e 983f
00000080: ddc7 823f 6c26 3c3f 5473 533f 7ce4 903f
00000090: 11e0 623f 5907 833f 725a 643f ae7d 383f
000000a0: a4c7 603f e225 573f 83c8 a43f 5966 973f
000000b0: 9a67 803f 18ea 933f 3b0c 763f 6c4f 963f
000000c0: 68f2 813f 3b87 7d3f d3da 523f d1a6 643f
000000d0: bb0f 783f 8526 8a3f fa66 813f 5105 943f
000000e0: 3fd2 693f 5afe 843f 3a9a 813f e014 a83f
000000f0: a192 803f e6bc 663f 537a 7e3f 2708 7c3f

encoder.key_net.net.1.bias f4 [64]
0.03671463 0.001455575 -0.04330319 -0.020407882 -0.21988335 0.0491369 -0.031731118 -0.070005976
-0.007641997 -0.036932934 -0.07473092 -0.074728705 -0.0058181924 -0.061378803 0.0147211775 -0.013576562
-0.12383857 -0.44619945 -0.029905563 -0.021292156 -0.00877529 -0.017519897 0.003986941 -0.045119897
0.10508056 -0.09183115 0.01716352 -0.0064637545 -0.42311308 -0.025361875 -0.027715804 0.018917968
-0.06596666 -0.028390883 -0.049496014 0.012568033 -0.054424837 -0.06519658 -0.043208607 -0.051350676
-0.037341125 -0.0012853869 0.08136493 -0.23066355 -0.004502387 0.012281651 -0.025586672 0.024840236
-0.010173731 -0.0030636145 -0.04655673 -0.055946413 -0.014635611 -0.14365591 -0.01994565 0.07146518
-0.07956353 0.03116413 -0.055871654 -0.39065358 -0.018123638 -0.056488253 -0.0065483763 -0.009176057
00000000: 1462 163d fec8 be3a b05e 31bd 6e2e a7bc
00000010: 1a29 61be c643 493d 7df8 01bd 4b5f 8fbd
00000020: b869 fabb fd46 17bd 860c 99bd 5d0b 99bd
00000030: 89a6 bebb 5768 7bbd 1831 713c 3a70 5ebc
00000040: 149f fdbd 4174 e4be 83fc f4bc e36c aebc
00000050: 3cc6 0fbc e385 8fbc e3a4 823b a4cf 38bd
00000060: 7a34 d73d f811 bcbd 839a 8c3c e7cd d3bb
00000070: 47a2 d8be b5c3 cfbc 410c e3bc dbf9 9a3c
00000080: 8719 87bd ff93 e8bc 55bc 4abd 27ea 4d3c
00000090: 94ec 5ebd c985 85bd 82fb 30bd 1655 52bd
000000a0: 02f3 18bd 6d7a a8ba a8a2 a63d 1133 6cbe
000000b0: c288 93bb fa38 493c 249b d1bc c07d cb3c
000000c0: b8af 26bc ecc6 48bb 45b2 3ebd 1128 65bd
000000d0: 34ca 6fbc 891a 13be 0f65 a3bc 565c 923d
000000e0: 34f2 a2bd eb4b ff3c add9 64bd bf03 c8be
000000f0: 0678 94bc 3a60 67bd c393 d6bb 2c57 16bc

encoder.key_net.net.3.weight f4 [64, 64]
-0.17257887 -0.07636627 -0.18586013 -0.020843863 0.10893731 0.0061922553 0.015357448 -0.8108458
0.09806255 -0.054377258 0.020656494 -0.22208543 0.0051192944 -0.19757427 0.6737298 0.03155468
0.05357023 -0.0016185131 -0.28591043 -0.59379107 -0.34596008 -0.15601175 -0.13849837 -0.11774985
0.1617137 -0.35639295 0.06762276 -0.38858822 0.15038794 -0.0016368321 -0.3191754 -0.1893026
-0.36140007 -0.1945385 0.070945464 -0.5950037 0.043525018 0.32299134 -0.51044667 -0.075016096
-0.2091203 -0.060530894 0.28338897 -0.041828934 -0.2724042 -0.17200309 0.3565315 -0.12172423
-0.22964208 0.28704605 -0.03071478 -0.10080259 -0.015851159 0.03332377 -0.050947826 0.20173483
-0.117780894 -0.082598455 -0.07291353 0.074950725 0.09321735 0.12464771 -0.18411793 -0.94334316
0.04163056 -0.07090066 -0.15805562 -0.06719473 0.10196229 -0.12884757 -0.059464734 0.016049486
0.032028936 0.12531397 0.0641491 -0.0015653176 0.06068745 -0.012746876 0.17109904 -0.080014445
-0.066519186 0.039235637 -0.106362216 0.16312496 0.07685607 -0.011241802 0.09897021 0.10513095
-0.028728584 0.0041159517 -0.0634768 0.021344991 -0.023709465 -0.20509823 -0.22199342 0.020501103
0.05502199 -0.015751243 -0.012500242 0.10186031 0.032728646 0.08791996 0.016645981 0.01913662
-0.14442004 -0.022454701 0.16794416 -0.060386892 0.14603645 -0.35515404 0.02737084 -0.016054925
-0.38459224 0.14780566 -0.06796017 0.054509632 -0.0012775476 -0.062121533 0.061759245 -0.28410417
-0.17058015 0.08630337 -0.22985214 -0.054475054 0.07366128 0.09973917 -0.23103637 -0.07591385
0.14385797 0.15091002 0.094992466 0.15842287 -0.16312598 0.09577237 0.022723513 0.1324002
0.063583 -0.047158733 0.055559844 0.1018113 -0.032775335 0.1206895 -0.016021004 -0.0015070083
-0.10573962 0.048137058 0.04004025 0.0971426 0.024842957 0.08146427 0.15817891 -0.041544367
0.14630294 0.08133372 0.009080295 0.07037347 -0.035687584 0.18563588 0.08510229 -0.08694268
0.017882237 0.13144703 0.030537207 -0.099316426 -0.0019530562 0.09135216 0.14049807 0.026854256
0.06281096 0.08956341 0.16415125 -0.1485632 -0.06182711 0.20295349 0.013301334 0.003058919
0.08570912 -0.01236169 -0.054837577 0.06094077 0.15684623 -0.07169459 0.1483283 0.24878617
0.057379328 0.12468941 0.16789185 -0.0963271 0.037444253 0.11535244 0.17783548 0.17853406
-0.06701302 0.24993604 -0.06278518 0.055534124 -0.045132853 -0.015155998 -0.001892216 0.32401213
-0.020275148 -0.092663564 -0.056210764 -0.0074951584 -0.06836219 0.049290724 -0.26516202 0.18713292
-0.03577822 -0.10501114 0.17276753 0.19521125 0.23485787 0.009837749 0.12306755 0.10759423
-0.21403737 0.101941384 -0.121721506 0.20627066 -0.072676 -0.20751902 -0.0017777928 -0.2166889
0.2628556 0.007486108 -0.09439545 0.29944587 -0.058588117 -0.20620055 0.13752341 -0.012957281
0.034308914 -0.0861949 -0.11845066 0.054635752 0.17510377 0.24336949 -0.13338628 -0.19374174
0.09436093 -0.09496353 -0.08227812 0.061947625 -0.13299364 0.057719715 0.18621224 -0.030725023
0.056464933 -0.17121176 0.13450256 0.0033319562 -0.14692852 -0.11491118 -0.063062154 0.17367111
00000000: 84b8 30be eb65 9cbd 1e52 3ebe c0c0 aabc
00000010: 861a df3d 67e8 ca3b ce9d 7b3c 9793 4fbf
00000020: 05d5 c83d b0ba 5ebd cf37 a93c 5d6a 63be
00000030: c1bf a73b e950 4abe 8e79 2c3f 7b3f 013d
00000040: 756c 5b3d 4a24 d4ba da62 92be b102 18bf
00000050: ae21 b1be 8bc1 1fbe 84d2 0dbe d526 f1bd
00000060: 4798 253e 2379 b6be cd7d 8a3d 09f5 c6be
00000070: 4cff 193e f98a d6ba f56a a3be 8ad8 41be
00000080: 6e09 b9be 1a35 47be db4b 913d 2a52 18bf
00000090: 4a47 323d 1f5f a53e a2ac 02bf 0aa2 99bd
000000a0: a223 56be 3eef 77bd 5c18 913e d154 2bbd
000000b0: 9078 8bbe 9421 30be 4c8b b63e 8e4a f9bd
000000c0: 4b27 6bbe b3f7 923e 909d fbbc 9771 cebd
000000d0: 4ada 81bc 817e 083d abae 50bd 9393 4e3e
000000e0: 1c37 f1bd 6129 a9bd b053 95bd c47f 993d
000000f0: bde8 be3d 4c47 ff3d 6989 3cbe f07e 71bf
00000100: ce84 2a3d 5d34 91bd 55d9 21be 649d 89bd
00000110: 9bd1 d03d 9ef0 03be 4b91 73bd 367a 833c
00000120: c630 033d 4e52 003e 9a60 833d 582b cdba
00000130: 6793 783d 46d8 50bc 9634 2f3e 9dde a3bd
00000140: 363b 88bd 8cb5 203d 6fd4 d9bd 3b0a 273e
00000150: b766 9d3d 892f 38bc e5b0 ca3d e54e d73d
00000160: 3558 ebbc 1bdf 863b 2000 82bd b1db ae3c
00000170: 5a3a c2bc 4505 52be 3e52 63be eef1 a73c
00000180: bd5e 613d c008 81bc d1cd 4cbc 239c d03d
00000190: 790e 063d 610f b43d 275d 883c 67c4 9c3c
000001a0: d9e2 13be ecf2 b7bc 8ef9 2b3e 3f58 77bd
000001b0: 948a 153e c0d6 b5be d038 e03c 9e85 83bc
000001c0: 46e9 c4be 5e5a 173e b42e 8bbd 7e45 5f3d
000001d0: 6273 a7ba 2673 7ebd 43f7 7c3d 1a76 91be
000001e0: 90ac 2ebe d2bf b03d 5c5e 6bbe 3c21 5fbd
000001f0: badb 963d 0d44 cc3d cc94 6cbe b878 9bbd
00000200: 814f 133e 2888 1a3e 698b c23d 9b39 223e
00000210: 7f0a 27be 4e24 c43d a926 ba3c eb93 073e
00000220: ce37 823d 8429 41bd b892 633d 7182 d03d
00000230: 6e3f 06bd 0e2c f73d 7b3e 83bc cf86 c5ba
00000240: 048e d8bd 5d2b 453d 3f01 243d b3f2 c63d
00000250: 7583 cb3c bdd6 a63d a7f9 213e 6d2a 2abd
00000260: 70d0 153e 4b92 a63d 85c5 143c f71f 903d
00000270: 252d 12bd 5517 3e3e 1c4a ae3d 010f b2bd
00000280: c57d 923c 0d9a 063e 2a29 fa3c 6966 cbbd
00000290: b1fd ffba d716 bb3d bade 0f3e 75fd db3c
000002a0: 08a3 803d 056d b73d 4417 283e f420 18be
000002b0: 6c3e 7dbd 0ad3 4f3e d7ed 593c 2578 483b
000002c0: 4388 af3d b088 4abc 5e9d 60bd 079d 793d
000002d0: 4c9c 203e 9dd4 92bd 60e3 173e cdc1 7e3e
000002e0: 9606 6b3d 295d ff3d d7eb 2b3e 2547 c5bd
000002f0: 255f 193d e63d ec3d 811a 363e a2d1 363e
00000300: 1f3e 89bd 3cef 7f3e 8495 80bd c077 633d
00000310: 3add 38bd dd50 78bc 3c04 f8ba ebe4 a53e
00000320: 1118 a6bc 65c6 bdbd 423d 66bd f299 f5bb
00000330: 7a01 8cbd 12e5 493d 51c3 87be c69f 3f3e
00000340: 2f8c 12bd 1510 d7bd f9e9 303e 75e5 473e
00000350: 957e 703e 832e 213c d70a fc3d 5d5a dc3d
00000360: 9d2c 5bbe a5c6 d03d 2049 f9bd 9e38 533e
00000370: 28d7 94bd de7f 54be d404 e9ba b2e3 5dbe
00000380: 0295 863e 074e f53b 6752 c1bd f850 993e
00000390: 18fa 6fbd 3d26 53be f0d2 0c3e c74a 54bc
000003a0: 8187 0c3d f486 b0bd 4296 f2bd bdc9 5f3d
000003b0: 674e 333e da35 793e 6a96 08be 3c64 46be
000003c0: 4e40 c13d 3d7c c2bd 6e81 a8bd cbbc 7d3d
000003d0: 7c2f 08be 826b 6c3d 6cae 3e3e 0bb3 fbbc
000003e0: c647 673d 2352 2fbe 0abb 093e f35c 5a3b
000003f0: 6e74 16be 8e56 ebbd bb26 81bd d7d6 313e

encoder.key_net.net.3.bias f4 [64]
-0.02730595 0.05999934 0.11342924 0.020986281 -0.14317644 0.131495 -0.024731457 0.009948739
0.13366626 -0.03497468 0.054105666 -0.0018294521 -0.1362639 -0.1416443 -0.13641563 -0.023015639
-0.14380811 -0.051777534 0.11294716 0.048387486 -0.12208583 -0.1009158 0.0349745 0.024971811
-0.031667132 -0.20544696 -0.006100909 0.018052028 -0.17689341 0.031751998 -0.115983225 -0.00395914
0.09018882 0.08736311 -0.13401188 0.15829432 -0.008197805 0.06903155 -0.112015575 0.12556785
0.069881715 0.115323074 -0.12552717 -0.0069621326 0.0164184 -0.025562381 -0.024781883 0.008498786
0.14370169 -0.10843104 -0.058162104 0.02057413 0.04640977 0.122809395 0.15175067 -0.16043529
-0.03294269 0.022354102 0.05565263 0.17917137 0.050014164 0.010643681 -0.070812814 0.12794037
00000000: bab0 dfbc dec1 753d 974d e83d 6ceb ab3c
00000010: d89c 12be a0a6 063e a099 cabc 0900 233c
00000020: cfdf 083e 9c41 0fbd e79d 5d3d 3aca efba
00000030: c488 0bbe 340b 11be 8ab0 0bbe 4b8b bcbc
00000040: 6f42 13be ae14 54bd d750 e73d f531 463d
00000050: 2308 fabd f1ac cebd 6c41 0f3d af91 cc3c
00000060: 65b5 01bd b060 52be 22ea c7bb d9e1 933c
00000070: 8c23 35be 620e 023d 9d88 edbd acbb 81bb
00000080: ebb4 b83d 6eeb b23d 693a 09be e817 223e
00000090: 1650 06bc 6a60 8d3d 6c68 e5bd dc94 003e
000000a0: 251e 8f3d 812e ec3d 328a 00be 9a22 e4bb
000000b0: e17f 863c 3368 d1bc 6003 cbbc 7e3e 0b3c
000000c0: 8926 133e 1811 debd 633b 6ebd 148b a83c
000000d0: 2c18 3e3d 7e83 fb3d 8764 1b3e 2649 24be
000000e0: eaee 06bd f31f b73c 03f4 633d b378 373e
000000f0: a7db 4c3d d562 2e3c 4f06 91bd cd02 033e

encoder.val_net.net.0.weight f4 [41, 18]
-0.0066798534 0.15572812 -0.02988275 0.10622496 -0.09159844 -0.24656683 0.16342731 -0.012595453
-0.0020656278 0.1841051 0.099958435 -0.07145887 0.009665576 -0.012625471 -0.10389006 0.30235264
0.30907637 0.11859837 -0.031175945 0.07352581 0.023450194 -0.024504486 -0.009180237 -0.051236875
-0.84915686 -0.21326149 0.086856276 -0.19181545 -0.39098972 -0.25058338 -0.53259665 -0.6853899
-0.60752136 -0.8449151 -0.99948704 -0.72031397 0.15898691 -0.18863715 0.22055696 -0.0963554
-0.1291361 0.26242796 -0.044580024 0.05897437 -0.0006711038 0.12239972 0.009243664 0.3056508
0.075319625 0.26174647 0.06844233 0.36503112 0.22246347 -0.086100094 -0.073545724 0.15673375
-0.14611094 0.11422643 0.029301932 -0.01087371 0.040178627 0.042921893 0.17891277 -0.10409959
0.10770162 -0.19728017 -0.3303647 -0.20907874 0.19449857 0.09374177 -0.09090846 -0.23072441
-0.059898313 0.15439752 -0.1069047 0.0034621758 0.0054050353 -0.09778954 -0.2769426 0.06726832
-0.032446586 0.092079796 0.144512 0.11028451 -0.061288476 0.13995378 0.054551765 0.20511353
0.13234422 -0.43609172 0.13752513 0.19176312 0.17482124 -0.072034374 -0.14274119 -0.21165894
0.06533833 -0.1061486 -0.10664195 -0.07843088 -0.31157556 -0.04283291 0.19683096 0.058948416
-0.34539232 -0.26206112 -0.0073812166 -0.10306411 -0.09781572 0.13302465 -0.028679326 0.27480638
0.13728109 0.05392296 -0.061716985 0.107842505 0.05790429 -0.030028053 -0.031137874 -0.17818566
0.08484969 -0.047368865 -0.081059195 0.20166342 -0.03789516 -0.041591078 0.0025040724 0.014341218
0.03967267 -0.050921455 -0.060537085 -0.029144455 -0.40729314 -0.63128126 -0.2240342 0.12571126
0.5227359 0.564017 0.095662795 -0.30101165 -0.08679288 0.16645402 0.3495131 0.023266453
0.06591979 -0.069603 -0.3461632 0.050073788 -0.07833988 0.10657985 -0.003069188 0.014700133
-0.2314557 -0.4281878 -0.34980443 -0.45127732 -0.22362058 -0.15990011 0.11825829 0.3375743
0.13248642 -0.03823348 0.068518795 -0.086119816 -0.38742024 0.010565814 -0.04795244 0.14859591
-0.13794973 -0.19511467 -0.056736916 -0.08227573 0.045549296 -0.060801107 -0.10111309 0.13404413
0.25081253 0.3426418 -0.12666452 -0.20262037 0.1166913 -0.0063197883 0.005715554 -0.117713034
0.055949487 0.09418211 0.091281004 0.004700914 0.15715036 0.1443823 0.020034889 -0.14780803
0.11548857 0.13482383 -0.021845099 -0.32547095 0.04573755 0.19296566 0.14574964 0.10331333
-0.009389659 -0.14714065 -0.26191172 -0.10586864 -0.08110041 -0.035054598 0.100212514 -0.065710545
-0.053745296 0.2269869 0.19254817 0.2756961 -0.07218477 -0.04858385 -0.2977288 -0.07296318
0.17525326 -0.109259486 0.12636727 -0.15460968 -0.13154882 -0.042110495 -0.067683585 -0.106847644
-0.17617252 -0.11537093 -0.15843959 -0.1230698 0.12314329 0.051781196 0.21359669 0.015840694
0.03681513 -0.2569069 -0.08178764 -0.05531878 0.0008023346 0.24770737 0.07118772 -0.06069534
0.006223857 0.018963737 0.12149796 0.23488756 0.1628386 0.09593193 -0.07725576 -0.00040651896
0.027078893 0.16062759 0.13954319 0.058036096 -0.13413505 0.1295201 -0.070371516 0.08536109
00000000: ace2 dabb 3177 1f3e abcc f4bc 798c d93d
00000010: f797 bbbd 047c 7cbe 7d59 273e 295d 4ebc
00000020: 7c5f 07bb 0c86 3c3e 02b7 cc3d 0759 92bd
00000030: 5d5c 1e3c 10db 4ebc 50c4 d4bd f7cd 9a3e
00000040: 423f 9e3e b4e3 f23d b264 ffbc b394 963d
00000050: 9f1a c03c a2bd c8bc b468 16bc c2dd 51bd
00000060: 5862 59bf 3861 5abe b4e1 b13d 456b 44be
00000070: ce2f c8be 774c 80be 4158 08bf b675 2fbf
00000080: 8586 1bbf 5b4c 58bf 62de 7fbf 7f66 38bf
00000090: 77cd 223e 192a 41be afd9 613e fb55 c5bd
000000a0: 413c 04be f55c 863e 8b99 36bd 1c8f 713d
000000b0: 03ed 2fba b4ac fa3d bd72 173c 437e 9c3e
000000c0: 2d41 9a3d a203 863e 7e2b 8c3d 5ce5 ba3e
000000d0: 77cd 633e 3f55 b0bd 249f 96bd d07e 203e
000000e0: 1b9e 15be 8cef e93d 9b0a f03c a527 32bc
000000f0: 5892 243d dece 2f3d e934 373e 2a32 d5bd
00000100: ab92 dc3d d003 4abe 9025 a9be bd18 56be
00000110: a22a 473e affb bf3d 372e babd 0543 6cbe
00000120: ef57 75bd 621a 1e3e daf0 dabd ace5 623b
00000130: b91c b13b e245 c8bd 6ccb 8dbe f9c3 893d
00000140: b6e6 04bd 5594 bc3d f4fa 133e d8dc e13d
00000150: a009 7bbd 0b50 0f3e ac71 5f3d 4809 523e
00000160: 3e85 073e 6a47 dfbe 63d3 0c3e 8d5d 443e
00000170: 5704 333e c286 93bd bf2a 12be 1fbd 58be
00000180: 1ad0 853d 7064 d9bd 1867 dabd 5fa0 a0bd
00000190: d586 9fbe 9071 2fbd 0e8e 493e e573 713d
000001a0: 43d7 b0be e02c 86be 22de f1bb 4713 d3bd
000001b0: 9c53 c8bd 9d37 083e e8f0 eabc 6cb3 8c3e
000001c0: 6a93 0c3e 52de 5c3d f3ca 7cbd 88dc dc3d
000001d0: 0c2d 6d3d 64fd f5bc db14 ffbc 4d76 36be
000001e0: adc5 ad3d db05 42bd 5d02 a6bd db80 4e3e
000001f0: f537 1bbd 685b 2abd 5d1b 243b 6ef7 6a3c
00000200: cf7f 223d 0493 50bd bcf5 77bd 5ac0 eebc
00000210: ba88 d0be a69b 21bf 3969 65be 74ba 003e
00000220: 05d2 053f 6b63 103f dbea c33d 331e 9abe
00000230: 77c0 b1bd ec72 2a3e 62f3 b23e 4a99 be3c
00000240: f400 873d 058c 8ebd 4e3c b1be 2c1a 4d3d
00000250: a970 a0bd 8946 da3d 6e24 49bb d4d8 703c
00000260: b902 6dbe 6e3b dbbe 9119 b3be d20d e7be
00000270: cbfc 64be dbbc 23be 6731 f23d 8ad6 ac3e
00000280: 85aa 073e b69a 1cbd 9553 8c3d 965f b0bd
00000290: f25b c6be 3c1c 2d3c c769 44bd 8729 183e
000002a0: b242 0dbe 24cc 47be f864 68bd 2e80 a8bd
000002b0: e691 3a3d 950a 79bd 6114 cfbd dd42 093e
000002c0: 806a 803e bf6e af3e 58b4 01be b77b 4fbe
000002d0: d9fb ee3d 3a16 cfbb 8b49 bb3b 8813 f1bd
000002e0: 4a2b 653d 8de2 c03d 89f1 ba3d 200a 9a3b
000002f0: 06ec 203e f4d8 133e 3520 a43c fd5a 17be
00000300: 4585 ec3d 420f 0a3e 7ef4 b2bc 21a4 a6be
00000310: 4c57 3b3d ca98 453e 653f 153e f095 d33d
00000320: 16d7 19bc 0aac 16be 4b19 86be a8d1 d8bd
00000330: f917 a6bd 6995 0fbd 383c cd3d 4093 86bd
00000340: 0724 5cbd 416f 683e 592b 453e 0a28 8d3e
00000350: 9cd5 93bd dcff 46bd e96f 98be b86d 95bd
00000360: 9775 333e 70c3 dfbd 6c66 013e 0052 1ebe
00000370: bcb4 06be 0e7c 2cbd b19d 8abd f0d2 dabd
00000380: 9266 34be 9847 ecbd fd3d 22be 050c fcbd
00000390: 8d32 fc3d 8518 543d 17b9 5a3e 58c4 813c
000003a0: 76cb 163d 4d89 83be 4780 a7bd f295 62bd
000003b0: c353 523a 00a7 7d3e deca 913d ad9b 78bd
000003c0: 7ff1 cb3b d759 9b3c ecd3 f83d 5d86 703e
000003d0: 29bf 263e f677 c43d 4538 9ebd 0d22 d5b9
000003e0: 8ed4 dd3c 8f7b 243e 69e4 0e3e 42b7 6d3d
000003f0: b35a 09be eba0 043e f11e 90bd ccd1 ae3d

encoder.val_net.net.0.bias f4 [41]
-0.14980069 -0.87904155 0.091836244 0.12181707 -0.1661803 0.23525907 0.012140119 -0.089217305
0.23918977 0.08598504 -0.06578556 0.013768195 -3.981934e-05 0.14422408 -0.03097006 -0.06117692
0.13861363 0.16799438 -0.7292395 -0.04535029 -0.7696524 -0.030037379 0.05875435 0.27337402
0.22876224 -0.8413581 0.017678322 0.1911974 -0.24079016 0.18389416 -0.09205822 -0.04478898
0.018412856 0.00845966 0.06052829 -0.32017145 0.13158852 0.21640371 0.00028178687 -0.1183763
-0.2531419
00000000: 5a65 19be de08 61bf a414 bc3d 3a7b f93d
00000010: 2b2b 2abe c1e7 703e 5ae7 463c 90b7 b6bd
00000020: 2aee 743e ed18 b03d 94ba 86bd ff93 613c
00000030: b103 27b8 7aaf 133e ecb4 fdbc a694 7abd
00000040: bbf0 0d3e b806 2c3e 71af 3abf 3ac1 39bd
00000050: f107 45bf f310 f6bc 67a8 703d aef7 8b3e
00000060: a640 6a3e 3f63 57bf 21d2 903c 40c9 433e
00000070: b291 76be c04e 3c3e 0589 bcbd a674 37bd
00000080: 8fd6 963c 639a 0a3c 83ec 773d 83ed a3be
00000090: 24bf 063e ef98 5d3e cbbc 9339 466f f2bd
000000a0: d19b 81be

encoder.val_net.net.1.weight f4 [41]
1.1863251 1.2338225 0.99865997 0.98694265 0.8855208 0.97179955 1.0403851 1.9689088
0.8681983 0.9377431 1.2038999 1.0568445 1.1191715 0.93371755 1.1133238 1.1673048
1.0022316 0.96244615 1.1895243 1.1779802 1.2462504 1.1211636 1.0479945 0.91335016
1.0056758 1.2304095 1.0279129 0.9266485 0.82146853 0.9380595 1.2023998 1.0526296
0.99150676 1.0086809 1.1551399 1.0473579 0.9262851 0.95582026 1.0421917 1.3989002
1.2156792
00000000: 80d9 973f e5ed 9d3f 2ea8 7f3f 46a8 7c3f
00000010: 7eb1 623f dbc7 783f 572b 853f 3405 fc3f
00000020: 3e42 5e3f ef0f 703f 6419 9a3f ae46 873f
00000030: 0341 8f3f 1d08 6f3f 6581 8e3f 3e6a 953f
00000040: 2049 803f df62 763f 5542 983f 0ec8 963f
00000050: 2285 9f3f 4a82 8f3f af24 863f 51d1 693f
00000060: fcb9 803f 0f7e 9d3f a692 833f d638 6d3f
00000070: c34b 523f ab24 703f 3de8 993f 91bc 863f
00000080: 63d3 7d3f 751c 813f a0db 933f d30f 863f
00000090: 0521 6d3f a3b0 743f 8a66 853f 290f b33f
000000a0: 609b 9b3f

encoder.val_net.net.1.bias f4 [41]
0.13743752 -0.20559247 -0.039166786 -0.05286198 0.15328252 -0.067995936 -0.02761708 0.09212053
-0.14411785 -0.071937986 0.032613553 0.010076781 -0.0029677798 -0.0587902 0.026237134 0.010812986
-0.011232163 -0.03997469 -0.13229677 -0.0068428875 -0.23850569 -0.006601699 0.07143076 -0.10764478
-0.004283052 -0.1977421 0.0034269702 -0.08602863 0.23631832 -0.07772648 -0.030885804 -0.018406168
-0.048187792 -0.026441278 0.0013067471 0.047058478 -0.090673536 -0.05984223 -0.011463956 0.078544974
-0.246402
00000000: 6cbc 0c3e d586 52be 5a6d 20bd ce85 58bd
00000010: 18f6 1c3e 7441 8bbd 373d e2bc b0a9 bc3d
00000020: a193 13be 3954 93bd ca95 053d 1519 253c
00000030: 157f 42bb fecd 70bd 42ef d63c f328 313c
00000040: 1b07 38bc 80bc 23bd ce78 07be 4d3a e0bb
00000050: d63a 74be 1153 d8bb 4a4a 923d de74 dcbd
00000060: d858 8cbb e87c 4abe 0597 603b c72f b0bd
00000070: 6efd 713e 102f 9fbd 3a04 fdbc 88c8 96bc
00000080: 9060 45bd 619b d8bc 2847 ab3a 64c0 403d
00000090: 0cb3 b9bd 201d 75bd 51d3 3bbc 30dc a03d
000000a0: ce50 7cbe

encoder.val_net.net.3.weight f4 [64, 41]
-0.7336489 -0.012141998 -0.2341044 0.116913594 0.091186054 0.24011867 -0.13115385 -0.79547995
0.2729928 0.10657024 -0.18773617 -0.019633789 0.037976723 0.035055682 -0.17953089 -0.17255971
0.016204594 -0.026565533 0.12283892 -0.23440732 -0.0063313483 -0.024265703 -0.2735218 0.011854417
-0.17029785 0.11879794 -0.10549876 0.19417985 -0.14510225 -0.18215816 -0.39608476 -0.44520098
-0.23590067 0.12632443 -0.09997503 -0.10729651 0.14986959 -0.06559469 -0.3219495 -0.22913487
0.06408179 -0.2379685 -0.074422196 0.13265476 -0.13131747 -0.15863854 0.0016001479 -0.3091163
0.0059349514 0.12051573 0.1007712 -0.0053871907 0.4267538 0.38628045 -0.1547692 -0.16344681
-0.20537293 -0.09335024 -0.07600682 0.0049295197 0.056337275 0.20037636 -0.17694876 0.3136039
0.1026614 -0.044188682 0.05824416 0.05089108 -0.022670424 0.056390394 -0.14233367 0.041445773
0.085534565 -0.020684093 0.034660697 -0.4203549 0.12167893 0.042710654 -0.012402578 0.0831024
-0.38460502 0.035258997 0.09262369 0.11033039 -0.100406215 -0.19093752 0.07613932 -0.0052008852
-0.24602294 0.04018455 -0.04643675 -0.01252631 -0.17374383 0.06418009 0.1568832 -0.1564718
-0.046474576 0.56403685 0.0047298996 0.17625453 0.0574159 -0.25722036 -0.042523712 0.32972115
-0.03458422 0.065225676 -0.023292705 0.09582699 -0.21419464 -0.09057458 -0.001475518 -0.07724444
0.18782222 -0.30031636 -0.16407917 0.1369379 0.13887876 0.0048690964 -0.24298216 0.036541767
0.23555064 0.19437657 0.061823267 -0.19622517 0.29746884 0.14996517 0.11924021 -0.009177378
-0.0062277275 0.26510233 -0.05009869 -0.005708838 0.09812574 0.1900431 -0.014958601 -0.27760017
-0.15695319 0.17427292 -0.14369921 -0.11492579 -0.037673965 -0.07913036 0.3151703 -0.18007442
-0.24511297 -0.1114288 -0.03939769 0.27863508 0.06605338 0.17509517 -0.0103421 -0.053033296
-0.009651554 0.1260894 0.039746433 -0.1401943 -0.10816658 -0.096761934 -0.100114346 0.08021487
0.029850006 -0.2372353 0.014759759 -0.011837995 0.066969536 0.12525055 -0.021926295 0.048367698
-0.04160458 0.018098366 0.023199312 1.0559752 0.04475945 -0.118467934 -0.28024477 -0.21915343
-0.36896104 0.009292771 0.03600388 -0.21314865 -0.19652668 -0.07181578 0.0468377 -0.21812508
-0.13728288 0.12340725 -0.13822299 0.10800056 0.08309226 0.089331515 -0.12553038 0.1445468
-0.06470645 0.18277189 -0.2027646 0.22005625 -0.28155458 -0.01825202 -0.03360719 0.042857725
0.10341237 0.036047075 -0.054471824 -0.8145847 -0.04389052 0.26398337 -0.24661444 -0.25305676
0.10070211 0.15467036 0.020841362 0.101352185 0.0005591197 0.060772665 -0.2744234 -0.13935177
-0.25692132 -0.3110183 -0.10121554 0.066902824 0.2302205 -0.01951119 0.106024526 0.00893026
0.00079655804 -0.36508992 0.13745861 -0.37751868 -0.047613334 0.05068127 -0.3073762 0.116509475
-0.062976554 0.06883859 0.29300833 -0.13749696 -0.04116111 -0.14013919 -0.043876436 0.28625348
0.18299784 -0.12976998 0.08210337 -0.17574175 0.098835364 0.12712441 -0.11272892 -0.15823519
0.12613869 0.062501706 -0.17780913 0.07800424 0.026749406 0.06456134 0.067006186 0.18408771
00000000: 6ad0 3bbf 3bef 46bc 10b9 6fbe 6570 ef3d
00000010: c1bf ba3d abe1 753e 324d 06be 93a4 4bbf
00000020: b6c5 8b3e 7f41 da3d e93d 40be 0ad7 a0bc
00000030: 7b8d 1b3d 8c96 0f3d f2d6 37be 7eb3 30be
00000040: 7fbf 843c f69f d9bc f992 fb3d 7908 70be
00000050: 3377 cfbb dec8 c6bc 0d0b 8cbe 0739 423c
00000060: 8f62 2ebe 564c f33d bc0f d8bd 15d7 463e
00000070: af95 14be ab87 3abe 9fcb cabe 62f1 e3be
00000080: f28f 71be 315b 013e b5bf ccbd 46be dbbd
00000090: 6a77 193e 8256 86bd 91d6 a4be 55a2 6abe
000000a0: 503d 833d 04ae 73be aa6a 98bd a6d6 073e
000000b0: 1678 06be 2472 22be 0ebc d13a 7e44 9ebe
000000c0: fb79 c23b f3d0 f63d 2261 ce3d 0887 b0bb
000000d0: 797f da3e 8dc6 c53e d17b 1ebe 9a5e 27be
000000e0: 484d 52be 692e bfbd 77a9 9bbd cf87 a13b
000000f0: eac1 663d 762f 4d3e 0e32 35be b190 a03e
00000100: 2440 d23d 31ff 34bd 6e91 6e3d 2a73 503d
00000110: 53b7 b9bc 9df9 663d ebbf 11be 0bc3 293d
00000120: bf2c af3d b071 a9bc 60f8 0d3d c238 d7be
00000130: ce32 f93d 5ef1 2e3d 2f34 4bbc 9731 aa3d
00000140: f3ea c4be bd6b 103d 7db1 bd3d e6f4 e13d
00000150: c6a1 cdbd 2085 43be efee 9b3d 306c aabb
00000160: 70ed 7bbe 8e98 243d 7634 3ebd 273b 4dbc
00000170: e7e9 31be da70 833d fda5 203e 253a 20be
00000180: 205c 3ebd b864 103f 46fd 9a3b 117c 343e
00000190: ef2c 6b3d 63b2 83be 582d 2ebd 36d1 a83e
000001a0: 2fa8 0dbd 0a95 853d 58d0 bebc f140 c43d
000001b0: d755 5bbe 2a7f b9bd 2b66 c1ba 5532 9ebd
000001c0: 7854 403e 11c3 99be 5f04 28be 7339 0c3e
000001d0: 3c36 0e3e f18c 9f3b 51d0 78be d2ac 153d
000001e0: 3034 713e a70a 473e 653a 7d3d 40ef 48be
000001f0: d64d 983e 7890 193e 3634 f43d b75c 16bc
00000200: f711 ccbb 7ebb 873e 4934 4dbd 3411 bbbb
00000210: 26f6 c83d a99a 423e ec14 75bc 9c21 8ebe
00000220: 56b8 20be 9a74 323e e325 13be 365e ebbd
00000230: 0450 1abd 190f a2bd 005e a13e 6e65 38be
00000240: e5fe 7abe c834 e4bd 795f 21bd 42a9 8e3e
00000250: ff46 873d 264c 333e e971 29bc 7139 59bd
00000260: 8d21 1ebc 941d 013e 28cd 223d 188f 0fbe
00000270: 7186 ddbd 1f2b c6bd c008 cdbd b247 a43d
00000280: 0088 f43c cfed 72be ebd2 713c 26f4 41bc
00000290: 5327 893d ae41 003e c69e b3bc 351d 463d
000002a0: 9069 2abd 0643 943c 7c0c be3c 322a 873f
000002b0: af55 373d 519f f2bd 3e7c 8fbe c269 60be
000002c0: 76e8 bcbe b540 183c ce78 133d a443 5abe
000002d0: 4a3e 49be 2714 93bd e3d8 3f3d 2e5c 5fbe
000002e0: e293 0cbe f1bc fc3d 548a 0dbe 662f dd3d
000002f0: 462c aa3d 71f3 b63d 098b 00be 1404 143e
00000300: d184 84bd 8e28 3b3e 86a1 4fbe 6d56 613e
00000310: ec27 90be 4385 95bc b1a7 09bd 958b 2f3d
00000320: ddc9 d33d 19a6 133d d91d 5fbd 9f88 50bf
00000330: 8cc6 33bd d428 873e 7f88 7cbe a890 81be
00000340: e83c ce3d e861 1e3e 81bb aa3c bc91 cf3d
00000350: e391 123a c2ec 783d 3981 8cbe 3bb2 0ebe
00000360: 318b 83be ca3d 9fbe 184a cfbd 5904 893d
00000370: ecbe 6b3e eed5 9fbc 6323 d93d 3a50 123c
00000380: 1bd0 503a 11ed babe f3c1 0c3e 214a c1be
00000390: 3306 43bd 2a97 4f3d 6a60 9dbe 859c ee3d
000003a0: daf9 80bd 3ffb 8c3d 3005 963e 01cc 0cbe
000003b0: 8d98 28bd a680 0fbe c7b7 33bd d18f 923e
000003c0: c963 3b3e 6ce2 04be d025 a83d a5f5 33be
000003d0: 326a ca3d e72c 023e 6cde e6bd 6808 22be
000003e0: 802a 013e e500 803d 9913 36be b0c0 9f3d
000003f0: 9221 db3c bc38 843d 8a3a 893d 7d81 3c3e

encoder.val_net.net.3.bias f4 [64]
-0.08104487 0.0682377 -0.10969183 -0.15026683 -0.06830225 0.17760623 0.1646714 0.0033182802
-0.039632853 -0.05137913 -0.10524969 -0.026258312 -0.083854735 -0.04796135 0.09123899 -0.08337789
0.06639779 -0.015173375 0.06971333 -0.050068785 -0.14175807 0.09936425 -0.035819102 0.14105125
-0.112522915 -0.14095545 -0.0012381523 0.0061625224 0.02026895 0.10402851 0.08712622 0.0040584924
-0.068136774 0.050545566 -0.14712714 0.1741908 -0.04203289 0.017387012 -0.0018790311 -0.08563257
-0.11339352 -0.054330524 0.060707096 0.11616191 -0.05250872 -0.014529384 -0.13943516 -0.016978078
0.06522041 0.064279854 0.03509591 -0.12904498 0.13973871 0.07580894 0.085767075 -0.081580386
-0.05390401 -0.034752447 0.11624493 0.07444745 0.101446964 0.04740454 0.0898066 -0.02640674
00000000: dafa a5bd 35c0 8b3d 1ca6 e0bd 8cdf 19be
00000010: 0de2 8bbd 68de 353e 9f9f 283e 8177 593b
00000020: 0f56 22bd ec72 52bd 268d d7bd ac1b d7bc
00000030: 08bc abbd 1f73 44bd 82db ba3d 07c2 aabd
00000040: 91fb 873d bf99 78bc ddc5 8e3d ed14 4dbd
00000050: 0729 11be 7c7f cb3d 0db7 12bd bd6f 103e
00000060: 6a72 e6bd a056 10be 7f49 a2ba fcee c93b
00000070: 120b a63c e60c d53d 3b6f b23d 1afd 843b
00000080: 4b8b 8bbd de08 4f3d 7fa8 16be 135f 323e
00000090: ae2a 2cbd 356f 8e3c d249 f6ba 2160 afbd
000000a0: dd3a e8bd af89 5ebd 01a8 783d 4ce6 ed3d
000000b0: 6213 57bd a70c 6ebc 17c8 0ebe 9c15 8bbc
000000c0: 4792 853d 28a5 833d bbc0 0f3d 5e24 04be
000000d0: aa17 0f3e b841 9b3d a6a6 af3d 9e13 a7bd
000000e0: 74ca 5cbd 9558 0ebd d211 ee3d e877 983d
000000f0: 6dc3 cf3d 432b 423d 86ec b73d f352 d8bc

encoder.rank.weight f4 [1, 18]
0.15021673 0.025654899 -0.1563035 -0.16596606 0.06816477 -0.15237746 -0.071583755 -0.17313369
-0.1623494 0.093959905 -0.16216293 0.20407352 -0.028974414 0.09271543 -0.027454372 0.071326345
0.07857319 -0.057878077
00000000: 6ad2 193e 392a d23c 060e 20be 02f3 29be
00000010: f999 8b3d d608 1cbe 819a 92bd f549 31be
00000020: ec3e 26be 0d6e c03d 0a0e 26be a6f8 503e
00000030: c05b edbc 96e1 bd3d fee7 e0bc 8c13 923d
00000040: fbea a03d 9011 6dbd

encoder.cardinality.weight f4 [64, 1]
-0.39342746 -0.16588743 0.8949099 0.25826624 -0.029618522 -0.10838424 0.7523315 -0.09232833
-0.5872289 0.43285123 -0.49761912 -0.43710622 0.7591111 0.50710773 0.53036135 0.676204
0.5293287 -0.07380321 0.41556984 -0.27843907 -0.40268207 0.86038405 -0.7542307 -0.49170634
0.47545102 -0.45183957 0.1513193 -0.5199428 -0.3207169 -0.5391549 0.18642366 0.64568514
-0.24183118 -0.7408747 -0.4382914 -0.8088515 -0.6890529 -0.4509721 0.921753 0.5887545
-0.46633828 0.54298717 -0.108961485 -0.14158157 0.51298344 -0.71953785 0.44538423 -0.5825999
0.0901321 -0.022673454 -0.48300958 0.28176144 0.56206477 -0.21156353 -0.22350323 0.618901
-0.116483755 0.24732967 0.38901177 0.23131825 0.4357984 0.7088419 0.23856877 0.3270637
00000000: 536f c9be 65de 29be d118 653f 793b 843e
00000010: 8ba2 f2bc 8ef8 ddbd cc98 403f a316 bdbd
00000020: a254 16bf ad9e dd3e efc7 febe 63cc dfbe
00000030: 1b55 423f d0d1 013f c3c5 073f b51b 2d3f
00000040: 1682 073f 2326 97bd 92c5 d43e 918f 8ebe
00000050: 582c cebe 2142 5c3f 4315 41bf efc0 fbbe
00000060: 516e f33e 8457 e7be 72f3 1a3e f91a 05bf
00000070: 0135 a4be 0e06 0abf d8e5 3e3e 9f4b 253f
00000080: 98a2 77be f7a9 3dbf bb67 e0be e410 4fbf
00000090: c565 30bf d1e5 e6be 01f8 6b3f 9db8 163f
000000a0: e4c3 eebe 3501 0b3f 3327 dfbd c2fa 10be
000000b0: e252 033f a233 38bf 6709 e43e 4425 15bf
000000c0: 2e97 b83d aebd b9bc 084d f7be 0943 903e
000000d0: 7ae3 0f3f 1ca4 58be 08de 64be 4c70 1e3f
000000e0: 098f eebd fd43 7d3e 8d2c c73e b1de 6c3e
000000f0: f820 df3e aa76 353f 5f4b 743e e574 a73e

encoder.cardinality.bias f4 [64]
-0.79865485 0.6611293 -0.5844835 -0.995078 -0.2793136 0.5463763 -0.6090914 0.3795427
0.43277824 0.392181 0.48379302 -0.5822173 -0.6885572 -0.40605113 -1.0637021 -0.8971399
-0.44632217 0.29636654 -0.743018 1.0765107 -0.31115922 0.6186007 0.032147326 -0.8462908
0.5914402 -0.61287504 0.30865526 0.32368398 0.43598798 -0.76260436 -0.7548627 0.48086274
-0.45370263 0.8144441 0.7403674 -0.103358224 -0.05224639 0.16318646 0.71544373 -0.41864407
-0.26693377 -0.2478905 0.39939374 0.94859076 0.7662147 0.7321627 0.24338508 -0.42885965
-0.06577157 0.20977245 0.64754236 -0.06864238 -0.6329809 -0.5788105 0.89466137 -0.11478971
0.4623113 -0.8510406 -0.07875215 0.1917954 0.24096225 -0.8685885 -0.9533926 -0.028487405
00000000: a574 4cbf c53f 293f b6a0 15bf 6fbd 7ebf
00000010: 3102 8fbe 51df 0b3f 6aed 1bbf 6c53 c23e
00000020: 1c95 dd3e f3cb c83e b8b3 f73e 310c 15bf
00000030: 4945 30bf efe5 cfbe 6427 88bf f6aa 65bf
00000040: 5784 e4be 5bbd 973e 6d36 3ebf 1acb 893f
00000050: 4350 9fbe 9e5c 1e3f eaac 033d 84a6 58bf
00000060: a068 173f 61e5 1cbf 1008 9e3e e8b9 a53e
00000070: d139 df3e 0a3a 43bf af3e 41bf a433 f63e
00000080: b64b e8be 697f 503f b888 3d3f 7aad d3bd
00000090: 5000 56bd 5a1a 273e 5227 373f 8458 d6be
000000a0: 8bab 88be 02d7 7dbe 567d cc3e d8d6 723f
000000b0: a626 443f 046f 3b3f f039 793e 7e93 dbbe
000000c0: 3fb3 86bd 97ce 563e 56c5 253f 6094 8cbd
000000d0: 090b 22bf ed2c 14bf 8708 653f de16 ebbd
000000e0: 11b4 ec3e ccdd 59bf cf48 a1bd 0366 443e
000000f0: cfbe 763e d15b 5ebf 8a11 74bf 6b5e e9bc

decoder.key_net.net.0.weight f4 [64, 64]
0.03915223 0.103545554 -0.077215746 0.04005292 -0.004750505 0.091427 0.06130594 0.034069374
0.0073410124 0.081035435 -0.08754212 -0.010961875 0.0023025721 -0.013980776 -0.07367535 0.060113996
-0.124237195 -0.04642093 -0.117953226 0.057995215 -0.040126488 -0.097659916 0.122953966 -0.03382182
0.064687744 -0.0012120456 0.079750165 0.116634026 -0.06138526 0.07208602 0.016576052 0.017994568
0.013869554 0.08043906 0.11023134 -0.0938413 0.055901214 -0.11323455 0.09545058 -0.1119872
-0.081918746 0.10056484 0.040780306 0.10221444 -0.023771152 -0.018122569 -0.056375712 -0.07815094
-0.049751624 -0.12028608 0.10853183 0.0025840998 -0.12078571 0.12298998 -0.0632465 -0.114619285
0.031412408 0.12294552 -0.050994307 0.1095953 -0.11180569 0.09362911 -0.08842744 0.04978609
-0.13420905 -0.12085749 0.030843621 0.20646772 0.047428384 -0.049021214 0.0870745 0.1225467
0.09292361 -0.10852727 -0.03296794 0.08228567 -0.022743568 0.09301612 0.08090545 -0.011344731
-0.0623215 -0.058674976 0.002844423 -0.091826975 0.078245595 0.037157997 -0.11141881 0.12102692
-0.07163693 -0.04967825 -0.08315398 0.06227383 -0.09827843 -0.083351865 0.07316995 0.11502485
0.10145199 0.084086955 -0.08823718 -0.092423946 0.07041776 0.020725548 -0.034800053 0.0633319
0.0070647597 0.10671659 0.056954682 -0.028024212 -0.017473027 0.11294983 0.034207106 -0.08224787
-0.075850025 -0.058658153 0.09227744 -0.07119988 -0.045928046 -0.037133202 -0.036499277 0.08043714
-0.06439224 0.10881059 -0.053696692 0.09532201 0.11776005 0.009639442 0.015718266 -0.09748489
-0.2061553 -0.052274816 0.036332805 0.18093044 -0.0715141 -0.07968287 -0.06810634 -0.0121141225
-0.07135305 0.0034603477 0.07527718 0.12310608 -0.06996584 0.017090276 0.11132659 0.108100876
0.024804115 0.010399431 0.093019724 -0.07162227 0.028995484 -0.03825465 0.119616 0.0655431
0.055229858 -0.114921436 0.11230983 0.030181691 0.010082856 0.09817614 0.0071741194 -0.08498871
-0.086284876 -0.08193649 -0.0009751469 -0.06080477 0.070195034 -0.0926016 0.07139525 0.08345409
-0.0787119 0.087289095 -0.08941974 0.11889681 -0.011553869 -0.0010814518 0.021650806 0.04617943
0.103296205 0.09432666 -0.08089003 0.09280205 0.105987936 -0.0059140176 0.099785596 -0.09855828
0.082224 0.028042287 0.040068716 -0.090446934 0.1223311 -0.052315593 0.10338658 -0.011908114
0.10080518 0.14103827 -0.3524759 -0.0066470304 -0.029293403 0.0014211982 -0.09778164 -0.077037394
0.02742286 0.029015213 -0.04661092 -0.11485784 -0.035779238 0.018679783 -0.11593932 0.033410877
0.03442587 0.048827767 -0.09471378 0.051793188 0.020238936 0.027517319 -0.013981298 0.08717336
0.11205493 0.025469378 0.018422425 0.06802331 -0.004977718 0.12296824 -0.034012303 -0.07126059
0.0015838891 0.11170383 -0.0091442615 -0.020067245 -0.035388634 0.05322236 -0.014738768 0.08427416
0.1171418 -0.08411802 -0.026966304 0.048092976 -0.10576373 0.025278911 -0.035271406 0.06967507
-0.02330497 -0.103644505 -0.06958717 -0.098719165 -0.1188377 -0.08010927 -0.11943683 0.09325577
0.0055736303 0.075608596 0.08767964 0.11465539 0.057840675 -0.025687084 -0.0614354 -0.04076688
00000000: 175e 203d b10f d43d 4a23 9ebd 880e 243d
00000010: 20aa 9bbb 143e bb3d f01b 7b3d 548c 0b3d
00000020: e08c f03b e8f5 a53d 4849 b3bd 7099 33bc
00000030: c0e6 163b a00f 65bc 1ae3 96bd 183a 763d
00000040: 1270 febd e023 3ebd 7691 f1bd 648c 6d3d
00000050: ac5b 24bd ec01 c8bd 4acf fb3d c088 0abd
00000060: 027b 843d 80dd 9eba 0e54 a33d d2dd ee3d
00000070: 1c6f 7bbd d6a1 933d 80ca 873c 5869 933c
00000080: 203d 633c 3cbd a43d f8c0 e13d de2f c0bd
00000090: acf8 643d 84e7 e7bd 987b c33d 8c59 e5bd
000000a0: 04c5 a7bd f0f4 cd3d 4009 273d ce55 d13d
000000b0: b8bb c2bc c875 94bc 38ea 66bd 9a0d a0bd
000000c0: 5cc8 4bbd 8c58 f6bd f045 de3d 005a 293b
000000d0: 805e f7bd 2ce2 fb3d 6287 81bd 84bd eabd
000000e0: 4caa 003d dcca fb3d 68df 50bd 8073 e03d
000000f0: 62fa e4bd 9ec0 bf3d 7219 b5bd 80ec 4b3d
00000100: 196e 09be 2284 f7bd c3ab fc3c 466c 533e
00000110: 4444 423d 78ca 48bd 1e54 b23d c4f9 fa3d
00000120: bc4e be3d 8c43 debd 6409 07bd 6485 a83d
00000130: b850 babc 3c7f be3d c2b1 a53d 40df 39bc
00000140: d444 7fbd 2c55 70bd 8069 3a3b c80f bcbd
00000150: 3a3f a03d fc32 183d 8c2f e4bd f6dc f73d
00000160: 62b6 92bd 6c7b 4bbd a24c aabd d812 7f3d
00000170: 3446 c9bd 62b4 aabd 20da 953d 2692 eb3d
00000180: 10c6 cf3d c835 ac3d b2b5 b4bd c448 bdbd
00000190: 3037 903d a0c8 a93c 808a 0ebd 28b4 813d
000001a0: 807f e73b 3a8e da3d 5049 693d 0893 e5bc
000001b0: 9823 8fbc 3e52 e73d c01c 0c3d 9271 a8bd
000001c0: 4257 9bbd 8843 70bd f4fb bc3d 3ed1 91bd
000001d0: 0c1f 3cbd fc18 18bd 4480 15bd 3abc a43d
000001e0: 14e0 83bd 16d8 de3d 10f1 5bbd 3038 c33d
000001f0: 2e2c f13d c0ee 1d3c 98c3 803c 28a6 c7bd
00000200: 601a 53be 1e1e 56bd b5d1 143d d445 393e
00000210: fc75 92bd c630 a3bd 567b 8bbd 507a 46bc
00000220: 8c21 92bd 00c7 623b ec2a 9a3d 0a1f fc3d
00000230: 404a 8fbd e800 8c3c 32ff e33d fe63 dd3d
00000240: 0032 cb3c 6062 2a3c 2081 be3d b2ae 92bd
00000250: f087 ed3c e8b0 1cbd 3cf9 f43d 763b 863d
00000260: b438 623d ee5b ebbd b202 e63d 983f f73c
00000270: 9032 253c 9210 c93d e014 eb3b 900e aebd
00000280: 20b6 b0bd 52ce a7bd 00a1 7fba 6c0e 79bd
00000290: 6ac2 8f3d e8a5 bdbd ac37 923d fae9 aa3d
000002a0: b433 a1bd a0c4 b23d b221 b7bd 2c80 f33d
000002b0: 704c 3dbc 80bf 8dba 085d b13c a426 3d3d
000002c0: f68c d33d 562e c13d aca9 a5bd 000f be3d
000002d0: 3410 d93d 60ca c1bb 645c cc3d ecd8 c9bd
000002e0: 0e65 a83d f0b8 e53c 181f 243d 3e3c b9bd
000002f0: ba88 fa3d e048 56bd 58bc d33d 401a 43bc
00000300: f272 ce3d 566c 103e b977 b4be 55cf d9bb
00000310: b8f8 efbc 8047 ba3a be41 c8bd c8c5 9dbd
00000320: e8a5 e03c 50b1 ed3c 18eb 3ebd 963a ebbd
00000330: 408d 12bd 5806 993c 9871 edbd d8d9 083d
00000340: 2402 0d3d a0ff 473d 4cf9 c1bd 1825 543d
00000350: 20cc a53c 006c e13c d011 65bc f287 b23d
00000360: 0e7d e53d 28a5 d03c a0ea 963c ce4f 8b3d
00000370: 201c a3bb c6d6 fb3d 7c50 0bbd 12f1 91bd
00000380: 809a cf3a fac4 e43d d0d1 15bc 1064 a4bc
00000390: acf3 10bd b0ff 593d e07a 71bc ee97 ac3d
000003a0: 0ae8 ef3d 1246 acbd 70e8 dcbc 24fd 443d
000003b0: a89a d8bd b815 cf3c c078 10bd ceb1 8e3d
000003c0: 10ea bebc 9243 d4bd b883 8ebd 462d cabd
000003d0: 2e61 f3bd 5410 a4bd 4c9b f4bd e2fc be3d
000003e0: 00a3 b63b aed8 9a3d 6291 b33d 72d0 ea3d
000003f0: 58ea 6c3d b86d d2bc b0a3 7bbd 2cfb 26bd

decoder.key_net.net.0.bias f4 [64]
0.019039435 0.07690712 -0.016097477 -0.0473477 0.078251176 0.03660061 -0.56250155 0.034200534
0.049520936 0.07015944 0.008363657 -0.39681694 -0.010158702 0.0034040222 0.035523694 0.0040888595
0.06911094 0.09785218 -0.5308763 0.14276098 0.031285346 0.05623272 -0.058354184 0.05642298
0.037836596 0.10422323 0.02684536 0.022962917 0.017715832 0.043500356 -0.020550933 -0.042663477
-0.05842046 -0.053454768 0.0707816 0.0005684661 0.029070785 -0.03685553 -1.83404e-05 0.08460259
0.08997146 0.028338116 -0.041711003 0.11642835 0.060552772 0.06479261 0.09591236 0.02517593
-0.15837964 0.044912886 -0.080800794 -0.03256228 -0.04906607 0.022706157 0.08812839 0.06438179
0.08867728 0.06108833 0.020818377 -0.14187576 -0.3940982 0.012160156 0.07178421 0.018082855
00000000: 97f8 9b3c 7b81 9d3d dbde 83bc a9ef 41bd
00000010: 2742 a03d 85ea 153d 1a00 10bf dc15 0c3d
00000020: 77d6 4a3d c1af 8f3d b807 093c 972b cbbe
00000030: af70 26bc 0416 5f3b 4b81 113d d7fb 853b
00000040: 098a 8d3d b966 c83d 82e7 07bf ef2f 123e
00000050: 1025 003d 4854 663d cc04 6fbd c81b 673d
00000060: 8cfa 1a3d fd72 d53d cdea db3c ba1c bc3c
00000070: cb20 913c 6e2d 323d 6e5a a8bc e6bf 2ebd
00000080: 4b4a 6fbd 63f3 5abd f2f5 903d 1d05 153a
00000090: db25 ee3c d3f5 16bd b6d9 99b7 1f44 ad3d
000000a0: f542 b83d 5625 e83c 28d9 2abd fd71 ee3d
000000b0: 2f06 783d fdb1 843d b36d c43d c03d ce3c
000000c0: 462e 22be 93f6 373d e37a a5bd 0660 05bd
000000d0: 81f9 48bd 4302 ba3c a87c b43d 9ada 833d
000000e0: 6f9c b53d c237 7a3d 4d8b aa3c e147 11be
000000f0: 3dc7 c9be 643b 473c 9a03 933d 7f22 943c

decoder.key_net.net.1.weight f4 [64]
0.66133916 0.89153826 0.92682886 0.8315757 0.77897424 0.77653027 1.2536771 0.7303964
0.595907 0.85574675 0.5692407 1.1924262 0.69760233 0.73721796 0.68685395 0.7438724
0.7898491 0.6452064 1.2242401 0.8761428 0.5750596 0.7220386 0.7104602 0.75239795
0.793097 0.8482701 0.63013345 0.839763 0.7294208 0.7275167 0.6068705 0.6871133
0.8020053 0.82827115 0.84838617 0.626869 0.7175565 0.81941414 0.4552751 0.76468813
0.79818875 0.6272128 0.58625484 0.8304253 0.5425554 0.6458915 0.6347973 0.7366772
1.287245 0.77680045 0.7899513 0.65044713 0.6606672 0.54088277 0.8245887 0.5047197
0.6806063 0.7857162 0.68974984 0.9445667 1.086697 0.66090226 0.76633376 0.65086424
00000000: 864d 293f da3b 643f a844 6d3f 25e2 543f
00000010: db6a 473f b0ca 463f 7e78 a03f 42fb 3a3f
00000020: 5c8d 183f 3812 5b3f c2b9 113f 6ca1 983f
00000030: 1196 323f 51ba 3c3f a9d5 2f3f 6c6e 3e3f
00000040: 8d33 4a3f 3f2c 253f e6b3 9c3f e54a 603f
00000050: 1b37 133f 86d7 383f b8e0 353f 279d 403f
00000060: 6808 4b3f 3b28 593f 6d50 213f b5fa 563f
00000070: 52bb 3a3f 893e 3a3f dd5b 1b3f a8e6 2f3f
00000080: 3850 4d3f 9409 543f d62f 593f 7d7a 203f
00000090: c8b1 373f 20c5 513f d119 e93e 9ac2 433f
000000a0: 1956 4c3f 0591 203f cc14 163f c196 543f
000000b0: e9e4 0a3f 2559 253f 1382 223f e196 3c3f
000000c0: 72c4 a43f 65dc 463f 403a 4a3f b483 263f
000000d0: 7c21 293f 4b77 0a3f 3f18 533f 4f35 013f
000000e0: 373c 2e3f b224 493f 7293 303f 20cf 713f
000000f0: e318 8b3f e430 293f 732e 443f 0a9f 263f

decoder.key_net.net.1.bias f4 [64]
-0.16932589 -0.114346996 -0.06572347 -0.04061009 -0.15630639 -0.13342044 -0.25668237 -0.115422
-0.26600495 -0.13939175 -0.15115225 -0.15747346 -0.18999887 -0.10955689 -0.1757353 -0.1350993
-0.17525303 -0.28028682 -0.2114632 -0.11269383 -0.26348397 -0.21601187 -0.13960254 -0.19868153
-0.109303445 -0.118193485 -0.19902368 -0.10749432 -0.16585049 -0.19765252 -0.14630418 -0.12228972
-0.08604666 -0.05065416 -0.14053409 -0.26380503 -0.07215314 -0.07030779 -0.3416281 -0.18990953
-0.1247724 -0.21329343 -0.15493986 -0.11902455 -0.30743238 -0.272693 -0.20806806 -0.14271647
-0.031074204 -0.116342336 -0.10511563 -0.112690605 -0.13762876 -0.22762053 -0.16847523 -0.3042619
-0.23485197 -0.13901247 -0.24983382 -0.039658155 -0.08428034 -0.12165328 -0.15310238 -0.032295052
00000000: c463 2dbe c22e eabd 079a 86bd c456 26bd
00000010: c80e 20be 5e9f 08be df6b 83be 5f62 ecbd
00000020: cd31 88be b6bc 0ebe a8c7 1abe b940 21be
00000030: 108f 42be 5d5f e0bd f4f3 33be 7957 0abe
00000040: 8875 33be c181 8fbe cf89 58be 06cc e6bd
00000050: 5fe7 86be 3732 5dbe f8f3 0ebe 2c73 4bbe
00000060: 7cda dfbd 6d0f f2bd ddcc 4bbe fb25 dcbd
00000070: b6d4 29be 6c65 4abe c3d0 15be 0873 fabd
00000080: 3b39 b0bd bd7a 4fbd 2be8 0fbe 7411 87be
00000090: 07c5 93bd 88fd 8fbd e1e9 aebe a577 42be
000000a0: ac88 ffbd 9869 5abe 8ea8 1ebe 25c3 f3bd
000000b0: c767 9dbe 6b9e 8bbe cb0f 55be 4424 12be
000000c0: 548f febc e444 eebd dd46 d7bd 55ca e6bd
000000d0: 8eee 0cbe 5b15 69be c584 2cbe 37c8 9bbe
000000e0: 097d 70be 4959 0ebe 70d4 7fbe 9770 22bd
000000f0: 2c9b acbd 5b25 f9bd dfc6 1cbe d147 04bd
