weights/sae_flocking_best.pt (torch, 133241 bytes, 30 tensors)

encoder.key_net.net.0.weight f4 [68, 64]
00000000: f2f0 b4bd a6d6 3b3e af65 b33d 3de1 053c
00000010: ac0a 833d 20cc 7f3c 80d1 953c a090 763d
00000020: f849 0a3d 8044 133d 14bf e8bd 44a8 cb3d
00000030: b482 a4bd de0b e63d fa84 fc3d 40d6 dcbc
00000040: b8f5 a03c 4eeb cbbd 3616 e2bd 48a3 973c
00000050: 847e 4ebd d60d fdbd 48cd 9bbc d872 e63c
00000060: 3cff 00bd 30d9 663c 20a0 883b 00b2 76bb
00000070: 4055 38bc a03a c83d 00a7 fd3b d81f c43d
00000080: c0e4 aebd d86b 223d 3857 e33c fcbf 07bd
00000090: d8c9 8d3c 9005 53bd 2a5f ffbd c8c8 ce3c
000000a0: 6491 e53d 78fb c5bc 0275 8ebd c4fc b03d
000000b0: 6422 e13d 9409 743d 2038 88bb c03f 933d
000000c0: ec2d dcbd 80f3 983d 3aa8 da3d e655 c53d
000000d0: 1882 143d 32db aabd fafe c43d bcf3 583d
000000e0: 9421 babd 18a4 d9bc 1ad1 dbbd d058 41bc
000000f0: 84d5 39bd c4a8 fcbd 3468 5b3d 303c e83d
00000100: 78d3 413e fc48 a7bd 728f f2bd 827c 23bd
00000110: f4d4 273d 40ec 733d a09b 85bb 1a62 e13d
00000120: e442 da3d 7e3c b63d fc8d dc3d 408b 3ebc
00000130: 4089 053d 54dd 843d 2e37 f0bd 6c06 413d
00000140: 1871 e6bc 3299 e23d a0f0 05bd 20d0 c63c
00000150: fc15 803d ccc6 3dbd 066e f2bd 2eb5 bd3d
00000160: 341c c53d 64a7 d3bd 1875 0c3d 6e78 ccbd
00000170: 0068 50ba 5807 4e3d b0fb bb3d f8e3 c83d
00000180: 2a3e c43d f60b 8a3d bc8a 333d fce6 b43d
00000190: 9e69 81bd 0465 d03d 7c13 7ebd 30d0 5fbc
000001a0: 7460 973d b6d9 da3d 4cd8 0fbd e0dc 70bc
000001b0: bc35 f4bd 8cfd e33d dc3c 6e3d b0a3 9c3c
000001c0: 00a7 a8bd 0a76 87bd e011 21bc 7a2f afbd
000001d0: 0890 b03d 0202 debd b0e5 2d3c 30f6 20bd
000001e0: ea6d 8cbd ee28 adbd 2ee6 8ebd 4093 49bb
000001f0: e89a 7f3d 901b 53bc 9884 fbbd 40b1 03bc
00000200: 136e 713e c127 b7bd aaec 7cbd 259a 09be
00000210: 8005 193c a080 6cbd c6d6 f5bd e8ab 0dbd
00000220: 1e98 e8bd e24d 9f3d 48e4 013d 2865 323d
00000230: 42bf e63d 34af 5cbd c0a0 8cbb a07a 2a3d
00000240: 9a76 b0bd 58fb bb3c 84e8 c13d 4029 72bb
00000250: 3417 a63d 6e7a 81bd 98ea 4bbd b42e f43d
00000260: 6e02 863d e2e7 8ebd fa65 c0bd bc06 453d
00000270: f86b 12bd 58a4 eebd 9cee 2a3d 800a 6ebb
00000280: 3492 61bd 9830 283d 388b 56bd dea0 d7bd
00000290: a217 fe3d e89d de3d 74eb 6dbd da9f e03d
000002a0: f001 7cbc 9864 b13c dc50 253d 223f 9fbd
000002b0: 9e6b cfbd babd f13d f88b f63d 2ca3 523d
000002c0: 6021 d6bd 92e6 abbd 103b 40bd 703a 30bc
000002d0: 1837 983c 785a 3c3d 40ab 053c 6a16 b43d
000002e0: f071 f3bc aa86 883d 343c 44bd c06b 48bc
000002f0: e4c1 593d 6082 7bbc a4b0 a23d 540d 98bd
00000300: f22d b4bd 931f e73d abc9 7dbc 2b45 273d
00000310: e494 98bd a053 50bc 7a16 b73d 0408 8dbd
00000320: bc47 cbbd 68d9 a83d 3003 e53c 6085 2f3c
00000330: 2823 db3d d0b2 aabd 82a1 a23d c844 103d
00000340: e6e4 e73d 12f1 d53d 54a0 f9bd c270 da3d
00000350: a0ee 393c 1a1d 93bd 2ca0 1ebd c0ba cfbb
00000360: 80d3 74bb ea80 e9bd d48b db3d dcd9 f03d
00000370: 7c9c 07bd 4ca8 c4bd 123d ea3d 30cb 513d
00000380: 6efc e7bd 3046 703c 10b0 083c 6c44 443d
00000390: 3867 40bd 58b2 ccbc 7044 2d3c 8073 1b3d
000003a0: 10c1 e23d c08b d0bd 6084 b13d aac5 be3d
000003b0: 3087 a8bd 3672 a83d 605d eebc 608b cabc
000003c0: 884b b8bc 789b 323d 20be f13b ce09 903d
000003d0: b805 c9bd 3834 67bd 7628 ebbd ba64 99bd
000003e0: e0d3 4b3d 1025 f83d 14f5 433d 7811 e6bd
000003f0: 925b c63d 403c 203d a0a3 013d 0e49 873d
-0.08835019 0.183436 0.08759629 0.008171377 0.0639852 0.015612632 0.018288374 0.06019652
0.03376195 0.035954 -0.1136457 0.099442035 -0.08032742 0.11232732 0.12330051 -0.026957631
0.019648418 -0.0995699 -0.11039393 0.018510476 -0.050413623 -0.123561546 -0.019018784 0.028130934
-0.03149341 0.0140898675 0.004169479 -0.0037642717 -0.011250794 0.09776807 0.007740855 0.09576386
-0.08539724 0.03965363 0.02775155 -0.033142075 0.01730816 -0.051518977 -0.12469323 0.025242224
0.11209372 -0.024167761 -0.06955911 0.08641961 0.109928876 0.059579447 -0.0041570812 0.07189894
-0.107509464 0.07468319 0.10676618 0.096355245 0.03625688 -0.083425894 0.096189454 0.05296682
-0.09088436 -0.026567504 -0.10733242 -0.01180096 -0.04536964 -0.12336877 0.053566173 0.11339605
0.18928325 -0.081682175 -0.11843766 -0.03991366 0.040974572 0.059551477 -0.00407739 0.110050395
0.106572896 0.08898257 0.10769269 -0.0116298795 0.032601595 0.064875275 -0.11729275 0.047125265
-0.0281301 0.11064376 -0.03270018 0.024269164 0.06254193 -0.046332166 -0.118373916 0.09263073
0.0962452 -0.103346616 0.034291357 -0.09983908 -0.00079500675 0.050299972 0.09178865 0.098091066
0.09582169 0.067405626 0.04383348 0.08833119 -0.06318973 0.10175517 -0.0620303 -0.013660476
0.07391444 0.10686056 -0.035118386 -0.014701098 -0.119243115 0.111323446 0.05816351 0.019121021
-0.08234978 -0.06614311 -0.009830922 -0.08553977 0.08621222 -0.10840227 0.010613844 -0.039297283
-0.06856902 -0.08455072 -0.06977497 -0.0030757934 0.06240359 -0.012884989 -0.122811496 -0.008037865
0.23577146 -0.08943129 -0.061749138 -0.13437708 0.00933969 -0.057739854 -0.120038554 -0.03458777
-0.11357139 0.07778527 0.031711847 0.0435535 0.11266948 -0.053878024 -0.004291624 0.04162085
-0.086163715 0.022946998 0.09468177 -0.0036950856 0.081098944 -0.0632218 -0.049784273 0.119229704
0.06543432 -0.06977822 -0.093944505 0.048102126 -0.0357475 -0.1165244 0.041731462 -0.0036322176
-0.05507107 0.041061968 -0.052378863 -0.1052873 0.12406851 0.10869962 -0.058085874 0.10967989
-0.015381321 0.021654412 0.040360317 -0.077757135 -0.10127948 0.118037656 0.12038416 0.051425144
-0.104555845 -0.08393587 -0.046931326 -0.01075612 0.018580958 0.045984715 0.008158505 0.08793338
-0.029717416 0.0666631 -0.047908977 -0.012232721 0.053163424 -0.015350908 0.07943848 -0.07424417
-0.08797826 0.11285319 -0.015489976 0.040837448 -0.07450274 -0.01271525 0.08939834 -0.068862945
-0.099257916 0.08244592 0.027955621 0.010712951 0.10700065 -0.08334887 0.079409614 0.035221845
0.11322956 0.10446371 -0.12188783 0.10666038 0.011348397 -0.07183285 -0.03872697 -0.006339401
-0.003735751 -0.114015415 0.107200295 0.117603034 -0.03310822 -0.096024126 0.114374295 0.051219165
-0.11327444 0.0146651715 0.008342758 0.047916815 -0.046973437 -0.024987385 0.010575399 0.037951946
0.1107198 -0.10182905 0.08667827 0.09315045 -0.0822891 0.08224909 -0.029097259 -0.024724662
-0.022496954 0.043605298 0.007377401 0.0703312 -0.09815544 -0.056446284 -0.11482327 -0.07489915
0.049762607 0.12116444 0.047841147 -0.11233801 0.096854344 0.03911996 0.031650186 0.06605731

encoder.key_net.net.0.bias f4 [68]
00000000: 6005 5a3d f632 98bb 94d4 283c b920 cc3c
00000010: 8da4 6bbb dcd0 903d e62f 38bc bfc8 49bd
00000020: 7289 96bd fcf1 98bc 9397 da3b e632 8d3d
00000030: 5220 ad3c a3ca 293d 77ed fe3c aa61 2a3d
00000040: 2ce8 c3bc 280f 4f3d 7b4f 66bd de62 ffbb
00000050: 30e9 803d 98ae c4bd d7da 483d f95c e9bc
00000060: 57a1 cc3c 6432 c43b fb3d ac3c 7fa0 21bc
00000070: 7859 b93d d489 9abc d87c 23bd a360 393d
00000080: d4a5 593d d1e6 76bd 7112 06bc ff1c ba3d
00000090: e6cc ed3d 7a17 da3a 308b c1bc c8fa 8ebd
000000a0: 4c1b 193d 7663 06bd 40d4 64bd 08ec 11bd
000000b0: a189 4dbd 189c 3c3c e910 72bd 5a94 89bd
000000c0: b88e 923d b9b8 12bd eaf2 6b3a afaf 55bd
000000d0: 804a d73d 5b7f d8bd 0ef3 d0bd 8e54 1fbd
000000e0: 180e d33c 360d 72bc f4d2 a13d 632e 403d
000000f0: 0c92 a93d deca 843d 09ad ef3d 2b8e 8c3c
00000100: 98f1 8b3c 9218 31bd 2ca6 b43d 2450 66bd
0.053227782 -0.004644747 0.010304589 0.024917947 -0.0035956234 0.07071087 -0.011241889 -0.049263712
-0.07350434 -0.018670075 0.006670901 0.06894474 0.021133576 0.041453015 0.031119091 0.041597046
-0.02391442 0.050551564 -0.056228142 -0.0077937683 0.06294477 -0.096036136 0.049036827 -0.028486716
0.024979277 0.0059874523 0.021025648 -0.009864925 0.09050268 -0.01886455 -0.039913982 0.045258176
0.05313666 -0.060278717 -0.008183108 0.09087562 0.11611347 0.0016639077 -0.02362594 -0.069814265
0.037379548 -0.032809697 -0.05586648 -0.035625488 -0.05018008 0.011511825 -0.059098158 -0.06717749
0.07156128 -0.035820697 0.00090007356 -0.052169498 0.105122566 -0.10571166 -0.10202609 -0.038898997
0.025763556 -0.014773658 0.07901564 0.046919238 0.08279809 0.06484006 0.11702926 0.017157635
0.017082974 -0.043236323 0.08820757 -0.05622877

encoder.key_net.net.1.weight f4 [68]
00000000: 9c8c 7e3f 7d7e 883f 1e61 903f be91 783f
00000010: 33a2 8f3f 5771 7f3f 668e 5d3f bb30 803f
00000020: f999 6e3f 4a17 6d3f a211 853f ce81 7b3f
00000030: 4930 843f acff 8c3f ed3c 8a3f 3253 7a3f
00000040: 4c44 6c3f 4dda 8c3f f05a 853f cfa4 993f
00000050: ccb9 833f 4833 833f ccaf 853f 4edd 853f
00000060: 6096 783f 0cf9 8c3f 7286 7c3f 696a 743f
00000070: 4bb0 913f 25ba 903f 1d9d 553f 6d27 763f
00000080: 24f9 833f 8248 723f fe44 783f a5f4 7d3f
00000090: d13a 813f 821e 853f 36fb 7b3f 91ca a13f
000000a0: 9cee 713f d7dd 823f 0e21 873f 515f 713f
000000b0: 5928 423f b8cc 893f fbd8 933f eda6 7c3f
000000c0: f565 703f 34b6 923f 8850 823f f710 7f3f
000000d0: 660e 813f 6afb 6c3f d74d 723f 294f 913f
000000e0: 7cf5 803f c13e 713f 0467 733f 0f98 5f3f
000000f0: df9d 873f f77a 813f a386 813f e3b0 893f
00000100: 732f 7e3f 1ab3 8e3f 3f8f 813f 00f6 943f
0.994333 1.0663601 1.1279638 0.97097385 1.1221374 0.9978232 0.8654541 1.0014871
0.93203694 0.9261366 1.0396006 0.9824494 1.0327235 1.1015525 1.0799843 0.97783196
0.9229171 1.100412 1.0418377 1.200342 1.0291076 1.0250025 1.0444274 1.0458162
0.97104454 1.1013503 0.9864265 0.9547487 1.1381925 1.1306807 0.8344286 0.9615391
1.0310407 0.9464189 0.96980274 0.9920142 1.0096074 1.0399935 0.9843019 1.2639943
0.94504714 1.022395 1.0556962 0.94286066 0.75842816 1.07656 1.1550592 0.9869221
0.93905574 1.1461854 1.0180826 0.9963526 1.0082519 0.9257113 0.94650024 1.1352283
1.0074916 0.9423638 0.95079064 0.873414 1.0595053 1.0115651 1.0119213 1.0757107
0.9929115 1.1148407 1.012184 1.1637573

encoder.key_net.net.1.bias f4 [68]
00000000: 0f0b 8dbc 7a10 46bc 4b25 813c ec7b 1abd
00000010: 4a67 1b3d 5cb7 29bd a142 adbc 4ad9 d83c
00000020: ced0 91bc db02 0cbd 2673 e5bb ca3a 913c
00000030: 0ce9 86bc fc04 473d 18fd babb 5f20 00bd
00000040: 089d 7bbc 7c7b 5b3c 890e 9fbc 09f4 56be
00000050: 7a6a aebc 66f1 89bd 9502 6ebc d87d 96bc
00000060: 63a1 02bc 58e7 6d3d 6d90 4fbc 7130 06bd
00000070: 2c93 703c 9355 9a3c d953 2c3b 806f 22bd
00000080: b7f9 613c ecbf 8abc d936 eebc 8cc4 dfbc
00000090: d005 3f3c fb8f aebc bcd9 aebd 29e0 19be
000000a0: f382 41bd 5965 0ebd 7cd0 98bd 8a22 0fbc
000000b0: f2c5 0cbd 190e 4bbc ca1e 5d3c 29be d6bb
000000c0: 2d76 53bd 22ab 113d b52a 4fbc 6c25 0ebc
000000d0: 2987 2a3c 6978 2abd 6b38 e2bc 73ab 0a3c
000000e0: 519c a43b 4cee 1abc 635b 17bd fd20 81bd
000000f0: 583b dcbc 83b3 e53b 9997 dc3c 496b d63c
00000100: ee4f b73a deb2 213d 9a78 8eb9 392d 443c
-0.017217187 -0.012088889 0.015764853 -0.037715837 0.0379403 -0.04143463 -0.021149935 0.026470799
-0.017799761 -0.03418241 -0.007002252 0.017728228 -0.016468547 0.048588738 -0.0057064407 -0.03128087
-0.015357263 0.01339614 -0.01941611 -0.2099153 -0.021291006 -0.06735496 -0.014526983 -0.018370554
-0.007973048 0.058081955 -0.012668711 -0.03276104 0.014683526 0.018839633 0.0026295094 -0.039657116
0.013792447 -0.016937219 -0.029078888 -0.0273154 0.011659101 -0.02130889 -0.08537623 -0.15026917
-0.047244024 -0.03476462 -0.0746164 -0.008736262 -0.034368463 -0.012393498 0.01349611 -0.0065534306
-0.051626373 0.035563596 -0.0126444595 -0.008675914 0.010408201 -0.04161874 -0.027614793 0.008463728
0.005023517 -0.009456228 -0.036952388 -0.0630512 -0.026883766 0.007009925 0.026927756 0.026174204
0.0013985613 0.03947722 -0.00027174206 0.011973673

encoder.key_net.net.3.weight f4 [72, 68]
00000000: ec68 e9bd fabc 223d 7525 9abd 9ae0 0d3c
00000010: 5dfc ebbc 5107 553b 805b 09bd acdc 0ebd
00000020: fd53 6ebd f4e7 123d d5c3 ee3d 960c 633c
00000030: 396c 0e3d c419 4dbd d566 243d daa3 63bd
00000040: ae61 30bd 4fbc 99bd 83b8 313e 11db 9fbd
00000050: 2b5a 003e dcf8 e7bd ae5d 75bd 8b4a ccbd
00000060: e200 55bd 5762 b2bd b4f8 8ebd daed 993c
00000070: c4c8 29be fa9d 373e 769c cabc a84f 9a3d
00000080: 1ebe 06be d8aa ffbb 7087 f73c 09ec ecbd
00000090: 8427 52bd 266e b83d e3c2 213d 920d 5ebd
000000a0: 239a a53c 754a 943d a3f5 f3bd a9cf eabd
000000b0: 9e75 3b3d 72a1 84bc af2f 86bd 1c01 c43d
000000c0: 264f 843b be90 88bd eede 3f3e e3d3 a9bd
000000d0: b3ae 183e eca6 5e3d 3a71 d7bd e8da 453e
000000e0: e2e7 313e 3c5f 83bd 22a1 163e 7c7f 07bc
000000f0: c382 f43d 037d aa3c 89c9 48bb 4dcf 203d
00000100: 5cae cd3d 2c0b 43bc f309 cc3c 7c0d 2fbe
00000110: 45b3 033e 8f5b dd3d f71d 1e3e e1f7 58bd
00000120: 6320 79bd 2703 863d a054 01be 92fe ed3d
00000130: a5bc bcbc 3580 bbbc 71dc 733e f672 973b
00000140: d5a0 b7bc 289a b13d 98eb b8bb c4c7 343e
00000150: f808 f3bd 2c8f 8b3e 1522 c3ba 4370 433d
00000160: 6d01 793d d367 fdbd 407c 72bc e73e 71bd
00000170: 2bca 9a3d 89b9 833d 5907 dcbc 26ee 023d
00000180: b190 5bbb e1d7 71be c96e 0dbe 0747 65bd
00000190: 441b 1b3e f02f 6bbd 3b2c 08bd 29cd 8cbd
000001a0: b5b2 933d 171b fbbd 540f 223d d38a f7bb
000001b0: fa43 d03d 21ec 4c3d 5bd7 54bd 4336 40be
000001c0: 3120 05be 4366 433e c153 debd de25 99bb
000001d0: 33c0 97bd 2e58 24be 64fd 803d 5e78 ecb7
000001e0: 2fba 133e 9531 afbd eee0 a43b 90bc 263b
000001f0: d608 7fbb f5d5 f0bd fef0 dd3b ab68 86bd
00000200: fcef 9abb 6602 a73d 6dfc 2b3e d629 0abd
00000210: 0c0b 173d da2b 56bd bcac 4ebd 8c2a 9abd
00000220: 9a1c 123e 1780 58bc e6fe 13be de77 0c3e
00000230: d0d8 25bd e61b 45ba 2438 bcbb 153e abbc
00000240: d52e 163d 1899 12bc 93da e8bd 0d00 fa3d
00000250: 5876 153e bfd6 aebc c85f af3d 86d7 d2bd
00000260: ceba 4bbd bcc0 b8bd 6063 873d 54c2 033b
00000270: c8a4 0bbd 6afa 11be cc16 033c 2ba7 013e
00000280: e3c6 0a3e dabe 803d 823d db3d e037 9d3d
00000290: 0ca7 a13d e773 a93d f4c1 1abd 65b4 35bd
000002a0: 6881 b7bc c126 57bc e39d 1a3e 1cc7 ba3b
000002b0: 47d9 093e 1714 093e 93c4 8cbd d566 1bbe
000002c0: dfdd 90bd 43ef d9bd 0d5b 9c3c b48b 55bb
000002d0: 31dc 3bbd f626 cbbd 6953 4d3e b8fd 12be
000002e0: 40c3 d83c 87c0 cd3d 93ce 4d3d d05a 573d
000002f0: bd3d 983d 3768 19be 4271 2b3d 72d8 9cbb
00000300: 231d ecbc 1d12 8abd a688 07bc 2974 053d
00000310: 8a19 823c dd94 acbc f858 fb3d 8f05 513d
00000320: e6b2 aebc 29f4 fdba 3e64 a23d e931 eb3a
00000330: 9389 68bd 783d e83b b5f1 163e dff8 b33d
00000340: 9a76 9b3e 7222 463d 9597 183d ccfe 84bc
00000350: 4c16 92bd d04d 843a 60f5 353c 347e 10bc
00000360: 8798 70bd d9e2 ad3d 0d94 813d c5ca 0d3d
00000370: 9b8a 78bc ed59 293c aaf9 47be 0a1d 6bbd
00000380: 9ce5 b13c 67d2 f4bd 3f6a 4abd bb93 003c
00000390: 1264 c03d 716c b2bc 61a5 153d ac50 6abc
000003a0: d76d 96bd ea56 f13c 0edd a8bc fb07 d4bc
000003b0: f2c3 a43d 7133 aa3e 51c1 75bd 3473 be3d
000003c0: 79d0 783d a73f c6bc 4cfb 923d 33e0 1e3c
000003d0: cdb6 dabd 11cf a9bd df78 793c 3b98 08be
000003e0: a6e8 0fbe d383 ed3d 0cf4 b9be 265b 8aba
000003f0: a13d 443d f2df 31be 4a57 b83d f992 a23b
-0.113969654 0.039731003 -0.075266756 0.008659506 -0.02880686 0.0032505582 -0.033534527 -0.034878418
-0.058185566 0.03586574 0.11658446 0.013857981 0.034771178 -0.0500734 0.04013713 -0.055576183
-0.043061905 -0.0750662 0.17355542 -0.078054555 0.12534396 -0.11326763 -0.059903793 -0.099751554
-0.052002795 -0.08710163 -0.0698103 0.018790174 -0.16580492 0.17931357 -0.02473281 0.075347245
-0.13158461 -0.0078023486 0.030215949 -0.11568458 -0.051307216 0.09005384 0.0394925 -0.05421216
0.0202151 0.07240764 -0.11912086 -0.11465389 0.045766465 -0.016190264 -0.06552064 0.09570524
0.0040377555 -0.066682324 0.18737385 -0.08292367 0.14910392 0.054358408 -0.10519643 0.19321787
0.17373613 -0.06414649 0.14709905 -0.008270141 0.11939003 0.020811563 -0.0030637702 0.039260197
0.10043022 -0.011904519 0.024907088 -0.17094988 0.12861355 0.10808479 0.15441118 -0.05297077
-0.060821902 0.0654357 -0.12629938 0.11620821 -0.023039171 -0.022888282 0.2381456 0.0046218587
-0.022415558 0.08671981 -0.0056433193 0.1765433 -0.11866945 0.2725767 -0.0014887477 0.047714483
0.060792375 -0.123733185 -0.014800131 -0.05889788 0.07558092 0.064318724 -0.026858972 0.031965397
-0.003350299 -0.23617508 -0.13811792 -0.05597594 0.1514712 -0.057418764 -0.033245306 -0.06875069
0.0721182 -0.12261026 0.0395654 -0.007554391 0.101692155 0.050029878 -0.05196319 -0.18770699
-0.13000561 0.19081978 -0.108558185 -0.0046737036 -0.07409706 -0.16049263 0.062983304 -2.8189443e-05
0.14426492 -0.08554379 0.0050316965 0.0025441982 -0.0038915179 -0.11759559 0.0067731133 -0.065629326
-0.0047283154 0.08154754 0.16795512 -0.033731304 0.03687577 -0.052287914 -0.0504577 -0.075276464
0.14268723 -0.013214133 -0.14452705 0.137176 -0.04048997 -0.0007519111 -0.005743997 -0.020903626
0.036665756 -0.008947633 -0.11369815 0.12207041 0.14595926 -0.021342633 0.08563191 -0.10295014
-0.049738698 -0.09021136 0.06610751 0.0020104842 -0.034092695 -0.14255682 0.008001041 0.12661426
0.13552432 0.06286402 0.10705091 0.07676673 0.0789319 0.0827406 -0.037782624 -0.04436149
-0.022400573 -0.013131798 0.15099292 0.005700005 0.13461791 0.1338657 -0.06873431 -0.15175946
-0.070735686 -0.10641339 0.019086385 -0.003258449 -0.045864288 -0.099195406 0.2005135 -0.14354599
0.02646029 0.10046487 0.050245833 0.05257684 0.07433651 -0.14981161 0.041856058 -0.0047865445
-0.028822487 -0.06741736 -0.008272326 0.032581482 0.015881319 -0.021067077 0.12272829 0.05103069
-0.02132554 -0.0019375134 0.07929276 0.0017943952 -0.056771826 0.007087406 0.14740641 0.08787703
0.30363923 0.048372693 0.037253935 -0.016234778 -0.07133159 0.0010093991 0.011105865 -0.008819152
-0.05873921 0.084905334 0.063270666 0.034617204 -0.015169765 0.010336381 -0.19528833 -0.05740074
0.021715932 -0.119541936 -0.04941773 0.007847722 0.09394087 -0.021780225 0.03653467 -0.01430146
-0.07345169 0.02946039 -0.02061322 -0.025882712 0.08045186 0.33242372 -0.059998814 0.09299317
0.06074569 -0.024200274 0.07176837 0.009697008 -0.10679398 -0.08291448 0.015226572 -0.13339321
-0.14053592 0.11597409 -0.36319005 -0.0010555729 0.047910336 -0.17370585 0.09001024 0.004961368

encoder.key_net.net.3.bias f4 [72]
00000000: 6d0f 153e be29 e23d 87b1 fe3c 1fb7 b93d
00000010: 2233 073e 74a0 20bd 9cb6 013e b060 26bd
00000020: 1b4c 733d 76f5 e53d 603e 20be 8412 a8bc
00000030: edb5 4a3d a272 64bd 7d65 56bd 510f 283c
00000040: f5d2 0cbd cae5 3cbd f549 00bd 7fdb 1b3d
00000050: 13dd b1bd ffe0 123e 683a 93bd 17df a53b
00000060: c174 7c3d a0ce a0bd 07bc bf3d c6fb 58bc
00000070: 6172 2abe 42f3 1a3e 06bb 223e 2ae7 c4bd
00000080: 1a75 17be e4ff d63d 21a7 253d 8a49 293e
00000090: 47da ea3d 8617 0c3e bbe2 3a3d 487e 443d
000000a0: 046f 0d3e e9d2 22bc da7f ac3d 351a 4f3d
000000b0: 38b3 8d3d e495 e9bc 410a 18be 8c2c 05bd
000000c0: 0e25 f7bc 95d5 523d f1d1 123e f32d 903c
000000d0: a2c2 fa3d ad82 a23b 7a73 17be 3bc7 c63c
000000e0: 05fc bf3d 600b a43d 405a b7bb d3af 92bc
000000f0: 453b a23d 4dd2 fabd e273 b9bd 24e5 9a3d
00000100: 66a2 76bc c515 e83d f92b 06bd d0b9 4fbd
00000110: 6a15 633c 52ae 453d 985f bf3c b84e 733d
0.14556666 0.11043118 0.031090511 0.09068131 0.132031 -0.03921552 0.12667316 -0.040619552
0.05939875 0.112284586 -0.15648794 -0.020516641 0.049489904 -0.055773385 -0.05234288 0.010257558
-0.03438087 -0.04611758 -0.03132053 0.038051125 -0.08684745 0.14343642 -0.071888745 0.005061995
0.061634783 -0.078519106 0.09362035 -0.013243621 -0.16645195 0.15131858 0.15891656 -0.096144035
-0.14790764 0.10498026 0.04044259 0.16531959 0.11467414 0.13680848 0.045626383 0.047971994
0.1381188 -0.00993798 0.08422823 0.050562102 0.06918949 -0.028513856 -0.14847662 -0.032513186
-0.030169036 0.05147322 0.14337899 0.017600035 0.122441545 0.0049594254 -0.14790145 0.024264922
0.09374241 0.08009982 -0.0055954754 -0.017906105 0.07921461 -0.12247143 -0.09055306 0.07563236
-0.015053367 0.11332277 -0.03275678 -0.050714314 0.013860086 0.048261948 0.023361012 0.059401244

encoder.val_net.net.0.weight f4 [45, 18]
00000000: f50a 273d 6bfb 613c 4af9 9c3d 6d6d dfbd
00000010: a050 7d3b f6c5 84bc 8f25 abbd 7942 373e
00000020: 02f3 c83d 5199 23be 4329 adbe 8c9b babe
00000030: b262 c5be 7ad8 013e bf45 a93e 8af3 e43e
00000040: ba13 a53e 4c9d 213d 5f1b 09be 4dac 893d
00000050: 8fdb 1cbd dfbf 3dbd edf5 4e3e 2a33 083d
00000060: b062 f7bd 62bd 9bbd 53fc ae3c 4f9e 223e
00000070: 5c3e 933e 7ad4 bc3e 7621 b23e 8e44 d9bb
00000080: a82e 7c3e de35 5b3e 6603 13bd 4406 9fbd
00000090: 6d73 b83d 6662 ae3c 0955 823d c519 b3be
000000a0: 01e9 54bd c5f1 173d 4049 90be 2632 c33c
000000b0: f3cb 1dbe c5c9 763c 18e8 0d3e 251d 34bb
000000c0: dd98 5cbe 4422 63be 996c edbc 9a9c 2f3e
000000d0: f92e 4abd f062 7cbe 47a8 063e 353c 2b3e
000000e0: bcb1 2d3e 4500 aa3d d1bd 3abd 5530 43bd
000000f0: ebb9 923d bc9c 563e 0af3 063d d8b7 653e
00000100: f32d ba3d 3176 fe3d f050 123d 43ca 713e
00000110: 4662 a1bd 5b83 bd3d 6dd3 e23d 1f98 e43d
00000120: c592 953d 143b 7ebd 7527 71bd 9523 c73d
00000130: a708 c43d 8b3e 05be bc4c 8bbe c511 c2bd
00000140: 8acb 87bd fbe1 043d 49e4 28be d2a2 593d
00000150: 3ffb 23be 338e 203d b193 363d c09b 34be
00000160: e225 9f3d 3790 edbd 4fd6 89bc ddbe 4cbd
00000170: 34de 913e 76ac b73e 8624 c23d aea9 153e
00000180: 1f90 bdbd acf2 cf3c f9ff 8abe 46ca fbbc
00000190: 001b 23bb feeb 703d 204e 80bd efba 353e
000001a0: 006a 183c 9273 66bd af93 773d c38e 4c3d
000001b0: 52fc 8c3c cfe9 9c3d 36b2 263d 3aff b6bd
000001c0: f28b 3c3e 7bff b53d 25ec 623e ab69 7e3d
000001d0: ae92 8a3c 14b0 77bd 4fa2 6f3e b9d9 65bd
000001e0: 45a3 203e ac1d 13bd 1179 1abe 15a0 de3d
000001f0: a012 1c3d 2a24 a93d d84a 793e 0d46 dcbb
00000200: 6cce bfbc 5a3f 38bd b180 1a3d 3396 043d
00000210: 42d7 4f3c dd98 bd3c 6e96 f23c 79d3 863d
00000220: f73e 1fbe fcfa 483c 4b01 b13d acd3 cf3c
00000230: 1ddb 07bc b3e9 503e 90dc 11be 38dc b1bc
00000240: 3013 24be 7967 883d e2e3 bc3e 4978 a63d
00000250: bd8c 903d f4d1 75bd c448 6a3e 3837 3ebe
00000260: 5a32 47bd 73d3 94bd 655c 863e 58ed 0fbe
00000270: 7b08 64be 306c 0cbe 553e d0be 8213 003e
00000280: cb58 6e3e 2399 963e b4ea b53d 3817 dcbd
00000290: f198 133e d3dc 70be 840e 35bc a305 743e
000002a0: 6250 843e a915 15be f1b2 a8bd 7962 efbc
000002b0: 5671 463d 51d6 74bd 9306 5d3e 2161 abbd
000002c0: 3e6f 12be a83d 58bc 6375 9cbd 4158 473d
000002d0: 0b9f 13be 701b 0ebd b3da 5cbe 3afe 55bd
000002e0: ea94 313d 01b9 09bc 3984 123e 0948 923e
000002f0: 23ae 923e e1e6 c63c 356e 20be 6508 a8bd
00000300: 082c c53d 76db 553d 03cf aa3d 9e27 1f3e
00000310: 3155 72be fe84 c3bc 3539 7dbd fa32 8dbd
00000320: 0a8e 923c 60b7 393d e59e f2bd 072a d63d
00000330: e600 c0bc cc6f 8f3b 4f36 2cbc 891c 353d
00000340: 2d46 f3bc da64 56bd dfb7 43be b2f8 4abe
00000350: c257 3fbe 4f69 053e 07e6 1e3e 5a58 273e
00000360: d03d 513e 54ee 19be b743 153d fd37 8ebe
00000370: 7d24 26be 22bc c23d e454 cfbd a57b 6a3e
00000380: 9faf 833e 50d1 78bd 9d8f 14bd 2933 143e
00000390: 6510 efbd 3f7c f0bd 4186 acbd 1c8d b93d
000003a0: 6d76 9abd 3d1e 76bd 71b2 5f3d 17d4 c33d
000003b0: 5982 823d 7724 b8bd f7c3 803d 4326 21be
000003c0: 55d2 41bd 32a3 6ebe 6497 8cbd 2860 f43d
000003d0: 380e 633e e07f ea3d 7fce 1ebe 23d0 9dbe
000003e0: 32fb b33d 220f 043e 70e1 493d e6c1 2b3e
000003f0: 4a36 203e 1c97 013e 3550 c9be 24be 483e
0.040781934 0.013792853 0.076647356 -0.10909543 0.0038652793 -0.016207676 -0.08356773 0.17896451
0.09811975 -0.15976454 -0.33820543 -0.36446798 -0.3855186 0.12680236 0.33061025 0.44717056
0.32241613 0.03945665 -0.13389347 0.06722317 -0.038295325 -0.04632556 0.20211 0.03325192
-0.1207937 -0.07604481 0.021360552 0.15880702 0.28758514 0.36880857 0.34791154 -0.006630487
0.24627173 0.21407267 -0.035891913 -0.07764867 0.09006391 0.021287154 0.063638754 -0.34980598
-0.051980022 0.037095804 -0.28180885 0.023827624 -0.15409832 0.015062754 0.13858068 -0.0027483192
-0.21542688 -0.2218104 -0.028982447 0.17149583 -0.049361203 -0.24647117 0.1315013 0.16722186
0.16962332 0.08300833 -0.04559118 -0.047653515 0.07164367 0.20958227 0.032946624 0.22433412
0.09090795 0.12424887 0.03572172 0.23612313 -0.07880072 0.0925357 0.110754825 0.11161827
0.07303385 -0.06206806 -0.05887552 0.097235836 0.09571963 -0.1301214 -0.2720698 -0.094760455
-0.06630619 0.032442074 -0.16493334 0.053133793 -0.16013812 0.03919811 0.044574443 -0.17637539
0.077708974 -0.115997724 -0.016825823 -0.04998671 0.2848984 0.35873765 0.094796225 0.14615509
-0.092560045 0.02538427 -0.27148417 -0.0307361 -0.002488792 0.05881881 -0.06264901 0.17747091
0.009302616 -0.05626256 0.060443576 0.049940836 0.01721016 0.07661783 0.0406973 -0.08935399
0.1841276 0.0888662 0.22160394 0.06211249 0.016915645 -0.060470656 0.2340176 -0.05611584
0.15687282 -0.03591697 -0.15085246 0.10870377 0.0381037 0.08258851 0.24344957 -0.006722218
-0.02341386 -0.04498229 0.037720386 0.032369804 0.012685599 0.02314418 0.029612746 0.06583304
-0.15551363 0.012266871 0.08642825 0.025369488 -0.008291987 0.20401649 -0.14244294 -0.021711454
-0.16022944 0.06660361 0.3689261 0.08128411 0.07058094 -0.06001468 0.2287932 -0.18575752
-0.048632003 -0.07266893 0.26242366 -0.14055383 -0.2226886 -0.13713145 -0.40672556 0.12507442
0.2327606 0.2941371 0.08882657 -0.10746616 0.14413811 -0.23521738 -0.011050824 0.23830275
0.25842577 -0.14559044 -0.08237255 -0.02922176 0.04844793 -0.0597747 0.21584539 -0.08368135
-0.14300248 -0.013198294 -0.07639577 0.04866815 -0.14416139 -0.034694135 -0.21567802 -0.052244402
0.043354906 -0.008405925 0.14308251 0.28570583 0.2864848 0.024280014 -0.1566704 -0.08204726
0.09627539 0.052211247 0.083402656 0.15542457 -0.2366531 -0.023867127 -0.061822135 -0.06894489
0.017889995 0.045340896 -0.11846713 0.10457235 -0.023437928 0.004377341 -0.010510995 0.044216666
-0.029696548 -0.052342273 -0.1911311 -0.19821432 -0.1868582 0.13028453 0.15517436 0.16342297
0.20433736 -0.15032321 0.03644153 -0.2777709 -0.16224857 0.0950854 -0.101236135 0.22898729
0.25719926 -0.06074649 -0.036269773 0.14472641 -0.11673049 -0.11742448 -0.084240444 0.090601176
-0.07542119 -0.06008743 0.054613534 0.09561937 0.06372518 -0.0899133 0.06287377 -0.15737252
-0.04731973 -0.23304442 -0.06864813 0.11932403 0.22173393 0.114501715 -0.1550846 -0.30822858
0.08788146 0.12896398 0.04928726 0.16773185 0.1564571 0.126553 -0.39319006 0.19603783

encoder.val_net.net.0.bias f4 [45]
00000000: 0f5c 94bd f722 48be bc6d 44be f306 c4bd
00000010: 1ce4 0bbd 89c4 373e 6bd6 7d3e c5ef 26be
00000020: 3120 543d 1a39 a0bd b567 bcbb 2bb5 ebbd
00000030: 8c2a 3e3e ec18 cb3d cc2f 193e 863d 54bd
00000040: e142 c1bd 84bf 42bf f7b4 0f3d 3756 583e
00000050: 3d38 903d a225 463d c349 6c3e 71d6 00bd
00000060: 1e53 f9be ac36 9f3d 4152 dabe 6178 813e
00000070: 63c9 5b3e c02a 8c3d 1430 05bf fdf9 363e
00000080: 594b 95bd b746 f83d 9436 463d 3205 dabb
00000090: 7500 09bc 1f2e 2bbf 5b32 4a3e 3bd4 dcbd
000000a0: a5d0 1f3e 3ccb 08be 5e7d 39bf abf2 8c3e
000000b0: f8a4 143d
-0.07244121 -0.19544588 -0.19182485 -0.09571638 -0.03415309 0.17946066 0.24788825 -0.16302402
0.051788513 -0.07823391 -0.0057496675 -0.115091644 0.18570918 0.09916863 0.1495964 -0.051816486
-0.09436584 -0.7607348 0.03508469 0.21126638 0.070419766 0.048375733 0.23075013 -0.031454507
-0.48696226 0.077741 -0.4264088 0.25287154 0.21463542 0.068440914 -0.52026486 0.178688
-0.07289762 0.12122863 0.048391894 -0.0066534514 -0.008361925 -0.6686725 0.19745772 -0.10782667
0.15606935 -0.13358778 -0.7245692 0.2752889 0.03629014

encoder.val_net.net.1.weight f4 [45]
00000000: 2842 e33f f355 7e3f b3eb 623f 9bf1 933f
00000010: a902 9a3f 83be 763f 44a6 843f 0723 aa3f
00000020: edc6 823f ad03 863f 398b 813f 11ec aa3f
00000030: 7815 7f3f c773 7e3f 25a0 803f 0d16 a63f
00000040: fa46 a03f 0bd2 923f 8cd9 853f c145 803f
00000050: bf8f 7b3f 5a98 823f 9c0c 703f 89f9 923f
00000060: c1ac 8f3f 89dc 803f 525b 5b3f 70d8 753f
00000070: 318a 773f 264d 853f dbcb 873f 1514 703f
00000080: f033 913f 0286 883f ac20 7d3f 3654 933f
00000090: 193c 8c3f e078 8a3f 7d5f 7d3f 44c8 ab3f
000000a0: 5649 813f eccc d23f c726 8a3f ca24 7d3f
000000b0: 5a45 883f
1.7754564 0.993499 0.886409 1.1558107 1.2032062 0.9638445 1.036324 1.329194
1.0216957 1.0469872 1.0120612 1.3353292 0.99642134 0.9939541 1.0048872 1.2975479
1.252166 1.147035 1.0457015 1.0021287 0.98266214 1.0202744 0.9376924 1.1482402
1.1224595 1.0067302 0.8568622 0.9603338 0.9669524 1.0414169 1.0609087 0.9378064
1.1343975 1.0665896 0.9887798 1.1510074 1.095584 1.0818138 0.9897383 1.3420491
1.0100505 1.6468787 1.0793084 0.9888426 1.0646164

encoder.val_net.net.1.bias f4 [45]
00000000: 2ad4 b93c 4efc 5f3e c442 dc3d 86f3 903d
00000010: ae95 ddbb 23c7 d1bc bdd0 283d 8fb5 023e
00000020: 9ea4 e1bc 1ee1 ae3d 7f0c bfbc e407 873d
00000030: a65e 59bc 5633 95bc fd9a c6bc 6ae4 53bc
00000040: bf53 363b 39a2 27be 72c5 033d fde3 ebba
00000050: a40f 6bbd 7302 8f3c 1ff0 54bd 12e2 e93c
00000060: 347d cfbd 9397 ad3c 5e54 603e 8eae 22bd
00000070: 2b69 24bd 98ed 7d3b 45f4 c5bd 3eac 73bd
00000080: 52bb a13d bc62 323c b9bc e0bc 75ba 933c
00000090: 9b7c fabb bc28 a3bd 90f4 8fbc 554d 6c3d
000000a0: 6009 57bb 62da 29bc e28f d8bd 3758 8ebc
000000b0: 10f4 3c3c
0.022684176 0.2187359 0.10754922 0.070776984 -0.006762228 -0.025607651 0.041214693 0.12764572
-0.027544316 0.085390314 -0.023321388 0.06593302 -0.013267195 -0.018212955 -0.024243826 -0.012932876
0.0027820913 -0.16370477 0.03217072 -0.0017997023 -0.057387963 0.017457223 -0.05198681 0.028550182
-0.101313025 0.02119044 0.21907184 -0.03971725 -0.04013936 0.0038746353 -0.09665731 -0.059490435
0.07897057 0.010887798 -0.02743374 0.018033246 -0.0076442487 -0.07966754 -0.017572671 0.057690937
-0.0032811984 -0.010367008 -0.105743185 -0.017376048 0.011532798

encoder.val_net.net.3.weight f4 [72, 45]
00000000: 11b6 3bbd c40c 193d 59a4 243e 9332 443d
00000010: 05ee 96be 45eb c33c 6ecf bf3c eeaf 1cbe
00000020: 5910 493d 1091 df3d 46a8 263d 41a8 3c3e
00000030: 185f 09be 9678 b4bd fdf8 7e3c 5b82 783e
00000040: 15b0 6bbe 2e58 35bd fd5d 10be 594a ab3c
00000050: 5f49 4ebd 0947 30be 17e8 013d 5058 bdbd
00000060: 02aa b3bd e4dd 7e3c 3753 27be db41 023b
00000070: bf63 b53d 4f57 913c 819f ed3c debc be3c
00000080: 2ac5 3ebd 856e eebc 89f5 203d 832b c6bd
00000090: 01f0 563e 7345 0b3d 2fa2 bf3d c1ab 1f3e
000000a0: cac1 0d3d 457e f13d 9f10 cdbc f864 9ebd
000000b0: ca6b 3bbd 7aec 94be c6ab 8d3e dc7a f8bd
000000c0: ea8d 18bd 7ab9 b93d 711a 0a3e 27bf 553d
000000d0: 8daa 0f3e f20d 42be b017 453e 59e3 413d
000000e0: bb49 523e 2bed bb3d ef02 d8bd 0241 02be
000000f0: 16c3 23be a006 703e 0c18 a23d 8183 d13d
00000100: f06a 14be d4dd 7f3c 87b9 14be da45 413c
00000110: 43a9 45be 2d18 a13c f51b 3c3d c663 513d
00000120: f465 25be 41bf 95bc ab58 133e 0daf 8ebd
00000130: 24d0 48bd d521 aabe 3888 7cbe 7b51 833d
00000140: 3cf3 06bc 2ef5 0abd c963 c13c 3f2a d4bd
00000150: d98e 82bd 4829 39be 428d 823e 212c ef3d
00000160: a4b9 41bc 9a2b e03d 3d2b ab3d d68f d63c
00000170: 75a2 093e 3520 2abe 559c a1be b802 9fbd
00000180: 2e2e 10bd a09c 4ebe 1019 aa3c 189a 513e
00000190: c1fb 173e 61eb 5a3e 5893 31bd 727a 22be
000001a0: 3109 c3bd c021 933e b732 92be 8c9d 113e
000001b0: 0a33 97bd edce 05bd c796 b23d 5091 47be
000001c0: c1bf 0f3e 974a 063e 0d12 023e bb43 a6bc
000001d0: 0b21 d3bd 2389 d7bd 4ae4 ecbc bb00 443d
000001e0: fe6b 0b3e 129d 033d d1d1 16bd 64b4 683d
000001f0: 3f22 b03d 470e 073e 349e 913e e7b9 d6bd
00000200: 140a 0a3e 20fb 4e3e e4f8 62bd 7fa6 9bbd
00000210: b130 163b 8fa9 eebd 8f83 05bc d48f 29bf
00000220: c758 7a3e 2a74 fe3d c12e f53d 4366 383e
00000230: 7332 863d a497 c93d 7108 e1bc aefa 00be
00000240: c260 e6bd bc06 c7bd 1772 debd 5dc6 343e
00000250: 3e68 8a3d 86a8 553c f695 5bbe 468b e739
00000260: c2f4 a63d c4da 0f3e c0e3 d9bd a77c d43d
00000270: efbd 7ebe d486 103e cd12 aabe bd8e f43d
00000280: 6958 753d b4f9 fd3d 1a7f b03d 8a1b c43c
00000290: 1844 883c 1550 9dbd f821 913d 8da6 73be
000002a0: 3c16 bdbd 1bf5 3dbe a931 683e 247a 383d
000002b0: 645c 15be e7c5 af3b fa00 2e3e 641d f63d
000002c0: 7857 483d 6eff b6bd 0745 82bd 6d84 1ebe
000002d0: 8752 39bd 0e5e 043e e648 b63c 005c 0dbe
000002e0: 347b 383d 3dd4 e0bd e76f 4f3d 592e 79bd
000002f0: fa07 0bbe 4d63 55be a380 253e 9311 25be
00000300: 903c 02be 160d ea3b 0d2b 1d3e 6bb2 f63c
00000310: f1cf 05be 22af 8ebc c3f3 85bd 726e e53d
00000320: 5752 92bd 799e 3e3e d33c 2e3e 160d 023e
00000330: 6918 44be 4d50 8dbd c985 753d e3fd 013d
00000340: 9fef 2e3e deb1 15be 9929 d33d 9b4a 1abe
00000350: 1efc 9d3d 16a6 b1be fcc4 093d c7ec 0f3e
00000360: 339f 023e e002 dcbc 5c2a 0fbd 078f 623d
00000370: 37e9 aabc 5f7a 08be 6001 1abe 7d5b 9bbc
00000380: a625 56bd 7a7d 3d3f 970a 7cbe dc27 5dbd
00000390: 29d7 1cbe f887 31be 066d a8bb 7c4f c3bd
000003a0: 5a07 9ebc 31d6 193e 30b5 a73d 5d5b 3ebd
000003b0: 6a11 593e 19e7 8e3c f414 9bbc 8c51 ff3d
000003c0: 2fde 283e 4a75 713d b18c 8a3d a161 7ebe
000003d0: 1110 633d c75d eebd 6211 fb3c e901 33be
000003e0: 6b8e 903e 2e6f e1bd 2dda 08be c4c7 ce3c
000003f0: 27fb d23d eab2 7b39 d3c9 95bd 0604 113e
-0.04582793 0.03736569 0.16078319 0.047899794 -0.2947847 0.023915896 0.02341434 -0.15301487
0.049087856 0.1091634 0.04068782 0.18423559 -0.13415182 -0.088120624 0.015562293 0.24268477
-0.23016389 -0.044273548 -0.14098354 0.020909475 -0.05036294 -0.17214598 0.03171548 -0.0924536
-0.08772661 0.015555833 -0.16340338 0.0019875679 0.08856916 0.017741827 0.029006721 0.023283418
-0.04657475 -0.029105434 0.03929666 -0.09676268 0.20989992 0.03400178 0.09357106 0.15592863
0.03460864 0.11791662 -0.02503234 -0.07734102 -0.045757093 -0.29086667 0.27670115 -0.121328086
-0.037244715 0.0906858 0.13486649 0.05218425 0.14029904 -0.18950632 0.19247317 0.047335956
0.20535938 0.091760956 -0.105474345 -0.12720111 -0.15992388 0.23440027 0.07914743 0.102301605
-0.14493918 0.015616853 -0.14523898 0.011796439 -0.1930285 0.019664848 0.0459251 0.051120542
-0.16152173 -0.018279674 0.14389293 -0.06966982 -0.049026623 -0.33228937 -0.24661338 0.064120255
-0.0082367025 -0.033925228 0.023607152 -0.1035962 -0.06374902 -0.18082154 0.25498396 0.11678339
-0.011824045 0.10945816 0.083578564 0.026191633 0.13440879 -0.16613849 -0.31564584 -0.077641904
-0.03520029 -0.20176935 0.020763904 0.20468938 0.1484213 0.21378852 -0.04335341 -0.15867022
-0.095232375 0.28736687 -0.28554317 0.14220256 -0.07382782 -0.032668043 0.08720165 -0.19489026
0.14037992 0.13114391 0.12702198 -0.020295968 -0.10309037 -0.10524204 -0.02891745 0.04785226
0.13615415 0.032132216 -0.03682119 0.05681266 0.08600282 0.1318904 0.28441012 -0.10484677
0.13480407 0.20212984 -0.05541314 -0.07600116 0.0022917206 -0.116534345 -0.008149042 -0.6623509
0.24447928 0.124245 0.11971808 0.1800776 0.06552591 0.09843376 -0.027469845 -0.12595627
-0.11248924 -0.09718081 -0.10861605 0.17653795 0.06758164 0.013040667 -0.21443924 0.0004416352
0.081521526 0.14048296 -0.10639143 0.10375338 -0.24877141 0.14113933 -0.3321747 0.11941288
0.059898768 0.12401143 0.08617993 0.023938913 0.016634032 -0.0768129 0.07086557 -0.23794003
-0.092327565 -0.18550532 0.22675194 0.045038357 -0.14586025 0.005364168 0.1699256 0.120173246
0.04891154 -0.08935438 -0.06360822 -0.15480204 -0.04524472 0.12926504 0.022251558 -0.13804626
0.04503937 -0.10977981 0.050643828 -0.060835216 -0.13577262 -0.20838661 0.16162352 -0.16119985
-0.12718415 0.0071426732 0.15348454 0.030114373 -0.13067605 -0.017417494 -0.065406345 0.112027064
-0.07144611 0.1861514 0.1701539 0.12700304 -0.19149937 -0.06900082 0.05994204 0.031736266
0.17083596 -0.14618632 0.103106685 -0.15067522 0.07714103 -0.34697026 0.033635125 0.14055167
0.12756042 -0.02685684 -0.034952506 0.055312183 -0.020863159 -0.13327931 -0.15039587 -0.018964523
-0.052281998 0.7401959 -0.24613415 -0.05399309 -0.15316452 -0.17337024 -0.0051399497 -0.09536645
-0.019290615 0.15023114 0.08188856 -0.04647385 0.21198049 0.01744418 -0.01893089 0.12466726
0.16491006 0.058949746 0.06765116 -0.2484193 0.055435244 -0.1163898 0.030647937 -0.17481197
0.28233656 -0.11007534 -0.13364477 0.02524174 0.1030181 0.00024003876 -0.073138855 0.14161691

encoder.val_net.net.3.bias f4 [72]
00000000: c04e 023d 8d0d f3bd db2e 86bd 9453 ae3d
00000010: f7dd b7bd 46cd 20be cab7 363d 6e6c 823d
00000020: 0ded 183e 9e2d e5bd 8131 20be 5bc6 863d
00000030: 7dcb b43d a56b 6b3b 88eb cabc 8f91 133d
00000040: 3c85 a1bc afc5 503d 3c1d ce3b 5c79 c4bd
00000050: 7ce1 e9bd 5ef9 87bd 2361 80bd 895d e4bc
00000060: 2077 fcbc 9ee6 16be 5e40 00be cbed 833d
00000070: f516 963d 4dc0 ac3d 20ed dc3d c240 57bd
00000080: 37c5 f03d e4c2 b2bc 3b9d 91bc b42e 9bbc
00000090: 684c d73d d25e d3bd fcc2 9abd 7eb9 a73d
000000a0: 9f33 9f3d b748 adbd fb36 c5bd cb21 5abd
000000b0: 43fb 84bd ce57 5f3d 625c 03be f5da ffbd
000000c0: a087 2bbd 1ce3 813d 7eb3 48bd f950 3a3d
000000d0: 6a9f 09be 6818 d63d 3828 ba3d 5151 a2bd
000000e0: 3383 05be b38b 253d 37e4 853c 4879 a3bd
000000f0: fef3 dbbd 6f2f 003e 3c9d b5bd 62ce 5ebd
00000100: 68a7 a5bc 43fd 02be e5e0 963d 4535 f0bd
00000110: 5af0 e43d e706 f7bd ade8 49be d94f afbd
0.031813383 -0.11867819 -0.06551906 0.08512035 -0.08977883 -0.15703306 0.04460887 0.063683376
0.14934178 -0.111903414 -0.15643884 0.06580802 0.08827875 0.0035922315 -0.024770513 0.036027487
-0.019716851 0.050969776 0.006290106 -0.0959346 -0.11419961 -0.0663936 -0.06268527 -0.027876632
-0.030818522 -0.14736411 -0.12524554 0.0644184 0.073285975 0.08435116 0.107874155 -0.052551992
0.11756366 -0.021821447 -0.017775169 -0.018943168 0.1051262 -0.1032082 -0.075567216 0.08189677
0.07773518 -0.08461135 -0.09629627 -0.053254884 -0.06493237 0.054527096 -0.1282821 -0.124929346
-0.04187739 0.06342146 -0.048999302 0.045487378 -0.13439718 0.10453874 0.09089702 -0.07925666
-0.1303833 0.04041643 0.016344173 -0.07982117 -0.10739897 0.12518094 -0.08867881 -0.05439604
-0.020221427 -0.12791924 0.07367114 -0.1172891 0.11178656 -0.120618634 -0.19717665 -0.085601516

encoder.rank.weight f4 [1, 18]
00000000: b358 4b3e 9571 593e 4493 10be 72d0 63be
00000010: 6a28 153e 3ecd fc3d 5dfb 58bc f5ed 473e
00000020: c67e d5bd 6f04 463e 41bf 7fbc ca77 5cbd
00000030: 9289 62bd 8a0e 19be 702c bf3d 6fba 693c
00000040: 5f85 01be 45df 0ebe
0.19858055 0.21234734 -0.14118677 -0.22247484 0.14566198 0.12343834 -0.013243523 0.19524367
-0.10424571 0.19337629 -0.015609563 -0.053825177 -0.05530698 -0.14946952 0.09334648 0.014265641
-0.12648533 -0.13952358

encoder.cardinality.weight f4 [72, 1]
00000000: ac20 e0bd b5d2 693f 51ef 423e 938f 85bd
00000010: e41a 19be 783a 2ebf 67e2 56bf 6889 e33e
00000020: 16b3 5fbf f8a1 ab3e ee80 67bf 07cc dabd
00000030: 0d37 1abf 7bfe 063f 8844 21bf 2a55 2ebf
00000040: de21 493f 9ad2 04be e26f a73e 8b1b 96be
00000050: f680 443f a40d 4abf 194c 35bf 49eb 68be
00000060: 673f 843e 351e 023f 48e3 5b3f 9cd1 8fbd
00000070: f8b4 26bf b6e7 3d3f f1ec cf3e bf4e 153f
00000080: d0e7 ac3e 2ddf 01be 0361 aa3e badd 4bbe
00000090: 8b32 f1bd dac7 b1be 4310 03bf 9bd3 983e
000000a0: 21dd 6bbf b14d 05be 54a9 e93d ae3c 96be
000000b0: 42c9 1b3f 3d3f 66bf cb93 d9be 8ec4 873e
000000c0: 8aec 08bf a13a a9be 8dca b7be d565 fd3c
000000d0: c6d9 483f 9b6c 133f ff1b 213f 6ec8 453f
000000e0: c840 e0be 38b8 e0be 0803 e93d 8db9 19bd
000000f0: ff96 a3bc d398 3cbe f5ec f43e 8d6d 31bf
00000100: a79d 443d e9c6 fb3e 92dd 953e 93ad 48bf
00000110: ce76 413f d022 c43e 1d8d 5abf 7b5e b1bd
-0.10943732 0.9133714 0.19036604 -0.06521525 -0.14951664 -0.68057966 -0.8393921 0.4444077
-0.8738264 0.3352201 -0.90431106 -0.106834464 -0.6024025 0.52732056 -0.62995195 -0.680987
0.785673 -0.12970963 0.32702547 -0.2931789 0.7675928 -0.78927064 -0.7081924 -0.22746004
0.25829622 0.5082734 0.8589368 -0.07022402 -0.65119886 0.7418169 0.4061046 0.5832328
0.3377061 -0.12682791 0.3327714 -0.199088 -0.117772184 -0.34722787 -0.5119669 0.29848942
-0.9213429 -0.13017918 0.1140925 -0.2934317 0.6085397 -0.89940244 -0.4249557 0.26517147
-0.5348593 -0.33052543 -0.3589672 0.030932346 0.78457296 0.57587594 0.62933344 0.77258956
-0.43799424 -0.43890548 0.11377531 -0.03753047 -0.019969461 -0.18417673 0.47837034 -0.69307786
0.04800191 0.49175194 0.29270607 -0.78389853 0.75571907 0.3830781 -0.8537157 -0.08660599

encoder.cardinality.bias f4 [72]
00000000: 9e02 de3e e45c c1be fd2b 1e3f 4f8b 6fbf
00000010: f848 153f 0029 9bbe 13e4 2a3f 8139 89be
00000020: 3351 e2be aad5 e0be 47f6 09bf 190d ee3e
00000030: 056b 5a3e 4133 78bf b91f 02bf 543c 3f3f
00000040: 21e6 013f 1f6a cd3e 410a dc3e 511e 933f
00000050: 5173 e9bc fa78 3bbf c41e 1e3d 6be8 6a3f
00000060: 6085 86bf b756 04be 5910 6d3f 150f 04bf
00000070: 8eb9 8b3e 749f a6be a74f 4b3e a22d 79bf
00000080: 02c9 153f 5830 023f d1c0 6d3f f63f 0e3f
00000090: 7a7e 493e 3847 fcbd 5a13 12bf a905 cebe
000000a0: c00c 443e 2b7a 173f 5122 e4be eabd 0cbf
000000b0: 5109 50bd 2c5f 3f3e 2e27 e03e c128 bcbe
000000c0: 03ab 523f e7b8 bc3e 9018 c7be c355 10be
000000d0: 842c 89bf 3572 5e3f ffad 0cbe 004c 0ebe
000000e0: d1f0 8bbe 176d 9e3e db28 6e3f 1a9f 253f
000000f0: 89f9 a23d fda3 c83d dedf d13e 244b 0c3f
00000100: 36d8 cc3d 04a7 8e3e 0395 a23d c4b5 6dbc
00000110: 7674 1c3f 2c87 ca3e 55a3 48bf 6a43 d53e
0.43361372 -0.37766182 0.6178587 -0.93571943 0.58314466 -0.30304718 0.66754264 -0.26801684
-0.44202575 -0.43913013 -0.53891414 0.46494368 0.21329887 -0.9695321 -0.50829655 0.7470143
0.50741774 0.40120026 0.42976573 1.1493627 -0.02849737 -0.7323147 0.03860356 0.9176089
-1.0509453 -0.12923704 0.9260307 -0.51585513 0.27290004 -0.32543528 0.19854604 -0.97335255
0.5850984 0.50855017 0.9287234 0.55566347 0.19677153 -0.123182714 -0.5706078 -0.40238693
0.19145489 0.5917079 -0.4455743 -0.54977286 -0.050790135 0.18688649 0.43779892 -0.36749843
0.82292193 0.3685982 -0.38885927 -0.14095215 -1.071671 0.86893016 -0.13738249 -0.13896179
-0.27332166 0.30942604 0.9303109 0.64695895 0.07957751 0.09796903 0.4099111 0.54802155
0.100021765 0.27861798 0.07938578 -0.014508668 0.61115205 0.39556253 -0.78374225 0.41652995

decoder.key_net.net.0.weight f4 [68, 64]
00000000: 1e7f 0a3e 2f0e cdbd dade 2f3c e260 b93d
00000010: 8cad ae3d 7e20 dabd 1024 2ebd 22c3 f2bd
00000020: 74d1 b83d 3083 5a3d e00f 8e3c 68b1 d3bc
00000030: 2409 b8bd c0a2 2b3c 707a 773d a6d9 febd
00000040: 8051 673c 5032 513c 6c0f de3d f6a8 f13d
00000050: 00f1 22bc 648b 8dbd c8a3 fdbc f8d3 9d3d
00000060: b452 94bd 904c ccbc 42b1 f33d 0210 a2bd
00000070: f832 463d 2c46 e3bd e477 17bd 04a6 a2bd
00000080: 58af e53d b2b6 903d d0a7 7d3d 340d cc3d
00000090: 70d1 f23d 40bc 8e3b 4cc6 f4bd 00b3 83bc
000000a0: 4421 5c3d 7026 a53c 0012 dbba 605b 3fbd
000000b0: 9a8e ac3d ce58 c8bd 0412 50bd 1693 8ebd
000000c0: a092 7d3c 0008 963a 6011 cc3c eaff 893d
000000d0: d03c cf3d b07a 30bc 20a2 9fbd e885 f83c
000000e0: 5088 903d 083a 6a3d 6454 393d 3c47 63bd
000000f0: 9475 29bd 008c e9bd 4e51 d13d 549a 37bd
00000100: e919 473d 99a5 af3d e37c f0bd ed21 153d
00000110: f61a ac3d 7074 633d 961c ddbd 80b2 18bc
00000120: f00e 80bc 3a4c 86bd cc6d 183d a8a6 b0bc
00000130: 56e1 c6bd 2619 e6bd 08d0 f93d 72bb a43d
00000140: b8c5 d1bc 7eeb 813d c839 f4bd 1ce2 323d
00000150: 18e6 203d 4016 2fbd 80bb b83d 800b 21bb
00000160: 806a 59bd 1895 d7bc d88c 9dbd b84c 37bd
00000170: c237 87bd b0dc 38bd 80a2 c7bc d8d2 ba3c
00000180: ca2b 863d fec0 903d e4dc 2a3d 0025 32bd
00000190: 860f f13d 0082 03ba c2d0 f83d 1e08 ae3d
000001a0: ec1e 3c3d a01b 0d3c 0056 0c3d 1c3b ffbd
000001b0: 3817 a0bc c6e9 e93d e03d 133c 4cff ccbd
000001c0: b09f cabc f8f0 f5bc 584e 4dbd 6e58 c23d
000001d0: 7e32 dfbd 76c7 cdbd 58e7 f23d faeb dd3d
000001e0: d0b8 09bc e06e b2bd ec85 53bd 4e6a bbbd
000001f0: d4c0 91bd 56df a2bd d0df e83c 54f9 903d
00000200: 0fe0 9d3d c83a 17bd 17b4 943d 8ef8 463d
00000210: 6072 b93b 30a5 783c f446 2fbd 2c75 953d
00000220: aa29 eebd acfc 633d a893 b3bd e8a6 013d
00000230: 78fc dd3d c4d6 57bd 881d 083d 8e54 bb3d
00000240: a01a 9a3d 945a 86bd a806 f6bc 9045 953c
00000250: 604a 92bc 0681 a63d 88eb b83d b012 183d
00000260: cc6d c13d 5897 50bd 2a0f 953d 5cc1 e03d
00000270: 1c48 bfbd f2a3 c9bd ba84 e9bd 6c4c 5cbd
00000280: c285 cdbd c0ac 96bb b007 8f3d e899 923c
00000290: 1831 18bd e441 413d 0c1f 9cbd 844c 4f3d
000002a0: 7a6b 9c3d ac18 1cbd 6cf0 f8bd 44b5 643d
000002b0: bc93 d03d 1c90 d23d 7060 e2bc fc37 c13d
000002c0: c892 edbd dc7b 253d 4697 a4bd 829c aa3d
000002d0: 9a37 a23d 1250 8b3d 0e74 863d 30b7 d73c
000002e0: 4ca4 a53d 3266 ebbd 9c6a 373d 0835 f53c
000002f0: 386c 0f3d 8ad5 d43d e073 c23c 0ec6 9bbd
00000300: ec0e 1ebd a39e ab3d 676c eb3d b0bb dd3d
00000310: c837 ca3d 5436 cebd dcea d53d 90bd 613d
00000320: c005 e63b 0038 24bc 14db 03bd c034 1cbd
00000330: b0b9 32bd a4ef cdbd f474 bd3d 521a 8fbd
00000340: 64dd cfbd 20ed d9bb 34c3 103d 3aa1 90bd
00000350: 7207 bcbd 76b3 c23d 40e4 163c 1ccf 473d
00000360: b01d 963c 40bf d4bb c00b d1bd 7c36 f0bd
00000370: e824 1ebd c0b5 99bb 12c8 cd3d b27b e23d
00000380: 5c7d 713d 50e2 65bd aafc cabd ceb3 f03d
00000390: 4aed bf3d 5422 6abd f474 b7bd 9827 543d
000003a0: 40af ed3c 6a7d f8bd 5615 a4bd c2fe 803d
000003b0: 78ff fd3d f480 443d a898 dfbc 906c 15bd
000003c0: 5c2e 0e3d 5c21 553d 58a1 753d d408 5ebd
000003d0: 2cb4 f83d c0a2 443b 009c 15bd 92c0 a3bd
000003e0: 5092 64bc dce0 20bd 804e d5bd 12b1 bcbd
000003f0: 40ed fd3d d021 ebbd d8e2 9d3c c6bf a33d
0.13525054 -0.10012471 0.010734284 0.09051682 0.08529195 -0.10650729 -0.04251486 -0.11853625
0.09024325 0.053347766 0.017341554 -0.02584143 -0.089861184 0.010475814 0.0604195 -0.12443857
0.014118552 0.012768343 0.10842785 0.11799805 -0.009945154 -0.06911352 -0.030961886 0.077064455
-0.07242337 -0.024938852 0.118990436 -0.079132095 0.04838845 -0.110973686 -0.03697957 -0.07941821
0.11215085 0.07066096 0.061927617 0.09963456 0.11856353 0.0043559372 -0.119518846 -0.016076565
0.053742662 0.02015993 -0.0016713738 -0.046718 0.084256366 -0.09782563 -0.05079843 -0.06961648
0.015476853 0.0011446476 0.024910629 0.06738265 0.10119021 -0.0107714385 -0.07794595 0.030337289
0.070572495 0.05718425 0.045246497 -0.055487856 -0.041371897 -0.11403656 0.10220586 -0.044824913
0.048608694 0.08576507 -0.1174257 0.036409307 0.0840358 0.055530965 -0.10796468 -0.0093199015
-0.015632123 -0.06557508 0.037214085 -0.021563843 -0.09710948 -0.112352654 0.12197882 0.08043565
-0.025606975 0.06343745 -0.119250834 0.043672666 0.039281934 -0.04274583 0.09020138 -0.0024573505
-0.053080082 -0.02631621 -0.076928794 -0.0447509 -0.06602432 -0.04513234 -0.024369478 0.022805616
0.06551321 0.0706806 0.041714564 -0.043492317 0.11770539 -0.0005016625 0.121491924 0.08497642
0.045927927 0.008612543 0.034261703 -0.12462446 -0.019542322 0.11421542 0.00898692 -0.100096315
-0.024734348 -0.03002213 -0.050123543 0.09489523 -0.108983025 -0.1004781 0.118605316 0.108360246
-0.008405879 -0.08712554 -0.05164139 -0.091511354 -0.07116857 -0.07952754 0.028427035 0.070788056
0.077087514 -0.036921293 0.07260912 0.048576884 0.0056593865 0.0151761025 -0.042792276 0.072977394
-0.116290405 0.05566089 -0.087683976 0.031653315 0.1083917 -0.05269505 0.03323129 0.09146987
0.075246096 -0.06560245 -0.03003247 0.018221647 -0.01785773 0.08130078 0.09029299 0.037127197
0.0944477 -0.050925583 0.07278283 0.109743804 -0.09339926 -0.09845723 -0.11402269 -0.05378382
-0.10035278 -0.00459823 0.06983888 0.017895654 -0.037156194 0.04718198 -0.07623109 0.05061008
0.07637687 -0.038109466 -0.12155232 0.05583693 0.10184428 0.10281393 -0.027633876 0.09434506
-0.11600262 0.040401325 -0.080366656 0.08330633 0.079207614 0.068023816 0.065651044 0.026332468
0.08087978 -0.114941016 0.044779405 0.029932514 0.035015315 0.10392292 0.023736894 -0.07606135
-0.03858845 0.08379867 0.114952855 0.10826814 0.09873921 -0.10068956 0.104451865 0.05511242
0.0070197284 -0.010023117 -0.03219135 -0.038136244 -0.043634117 -0.100554734 0.09250823 -0.06987442
-0.10149649 -0.006650582 0.03534241 -0.070620015 -0.091811076 0.09506886 0.0092096925 0.0487815
0.018324703 -0.0064925253 -0.10207319 -0.11729142 -0.038609415 -0.0046908557 0.10047926 0.11058749
0.058957443 -0.05612403 -0.09911473 0.11753045 0.09371431 -0.057161644 -0.08957854 0.051795572
0.02901423 -0.12133296 -0.08011882 0.06298591 0.124022424 0.04797454 -0.027294472 -0.036480486
0.03471218 0.052033767 0.059968323 -0.054207638 0.1214374 0.0030004233 -0.036525726 -0.07995714
-0.013950899 -0.039276943 -0.10415363 -0.09213461 0.123987675 -0.114810586 0.019273207 0.07995562

decoder.key_net.net.0.bias f4 [68]
00000000: 325c 0dbd 4cba 373c 4031 b13c 4df1 75bd
00000010: 90a9 093c 7fce 083c efa9 9b3d b8d3 ce3c
00000020: 88b4 c93d 081b be3c 3795 bbbb 0447 bbbb
00000030: b2a9 ab3d 3f12 643d 50de cabc 45a6 0a3d
00000040: 24fd c93d dd28 e8bb 84f0 7cbb 25cf 803d
00000050: 6d6d 173e 578b 343d 16f1 d13d 5aab 19bc
00000060: fe85 2f3d 318d d23d d536 cb3c 66f4 dd3d
00000070: 3b0a a5bc 61c2 7c3d 9ab4 853c e764 793d
00000080: a512 3c3d 80a4 9cbc c8b7 18bd 94bc 023c
00000090: 6756 33bd b30b 78bc 6bab a33d 4eb7 6d3c
000000a0: bb69 533d f952 89be bdc7 c73d 9a78 01b9
000000b0: b138 193d 2fc3 b8be 7c6c c8bb dfb0 423d
000000c0: 9d62 b73d 3e00 a03c c8d1 623d d49e 13be
000000d0: c242 4ebd 693d a2be 987f 49bb fab5 71bb
000000e0: a33c bdbe 4e0b e13b 456a 693c 4a32 023d
000000f0: d040 483d 7d83 d13c 7c21 9ebc 40cf 903d
00000100: 52b8 f6bd 3643 58bd 5d5a 7f3c 9604 9dbc
-0.034511752 0.01121385 0.02162993 -0.060044575 0.008402243 0.008350014 0.07600772 0.02524744
0.09848887 0.023206249 -0.005724575 -0.005715253 0.08381976 0.055681463 -0.02476421 0.033849973
0.09862736 -0.0070849494 -0.0038595507 0.0628951 0.14787836 0.044078197 0.102510616 -0.009379232
0.042852394 0.102808364 0.02480642 0.10837631 -0.02014648 0.06170881 0.01632147 0.060887244
0.04591622 -0.019121408 -0.037284642 0.007979531 -0.04378357 -0.015139508 0.0799168 0.014509035
0.051614504 -0.26821116 0.09754894 -0.00012347326 0.03740758 -0.36086413 -0.006116448 0.04753196
0.08954356 0.019531365 0.055375844 -0.14416057 -0.050356634 -0.31687477 -0.0030746218 -0.0036882148
-0.36960325 0.0068678027 0.014246528 0.03178624 0.048889935 0.025575394 -0.019303076 0.0707078
-0.12046875 -0.052798472 0.015585509 -0.019167226

decoder.key_net.net.1.weight f4 [68]
00000000: fd00 4e3f ae2f 473f 5e2f 423f 85fd 613f
00000010: e131 673f 3414 713f c66b 6b3f 9da5 533f
00000020: d526 563f da1b 6d3f 077f 593f b90f 633f
00000030: 000d 6f3f bf14 5b3f c014 693f 87f5 663f
00000040: 9cc1 6b3f 31ef 413f e309 743f 6b64 663f
00000050: 6ae0 5b3f 44e8 193f 7398 643f d4b7 583f
00000060: 6952 643f 51bb 6f3f b9da 5b3f cec6 733f
00000070: 3fd9 473f e281 433f 8565 4b3f 38de 5e3f
00000080: ca77 3a3f e02a 563f 4d51 7d3f 5edc 553f
00000090: 3740 4e3f 882e 593f b767 523f 6a5f 4b3f
000000a0: 13a6 6d3f a5e4 933f a87d 503f 1de8 5f3f
000000b0: 871e 633f 143e 8b3f acca 563f 7f92 573f
000000c0: eebc 5b3f a77e 2d3f b095 5c3f f66f 863f
000000d0: 2793 3f3f 70dd 873f 9305 6e3f f841 3a3f
000000e0: d9e3 8c3f 6b02 5e3f 9387 2b3f 0495 513f
000000f0: def1 643f 6bfc 483f b46d 703f a4e1 663f
00000100: 8d9f 863f 3049 6d3f 1ded 533f 1f26 683f
0.8047026 0.7780713 0.75853527 0.88277465 0.90310484 0.9417145 0.91961324 0.8267458
0.83653 0.92620623 0.84959453 0.88695866 0.9337921 0.8557853 0.91047287 0.90218395
0.920923 0.757556 0.95327586 0.89996976 0.85889304 0.60120034 0.8929512 0.846555
0.8918825 0.936452 0.8588062 0.95225227 0.78065866 0.7637006 0.7945178 0.8705783
0.72839034 0.8365917 0.9895218 0.8353938 0.80566734 0.84836626 0.82189506 0.79442465
0.92831534 1.1554152 0.81441736 0.8746355 0.88718456 1.087832 0.83903 0.8420791
0.8583516 0.6777138 0.86165905 1.0502918 0.7483391 1.0614452 0.92977256 0.7275691
1.1007034 0.8672244 0.67003745 0.81868005 0.8943156 0.7851016 0.93917394 0.9018805
1.0517441 0.926898 0.8278368 0.9068317
