weights/sae_policy_norm_transport.pt (torch, 202671 bytes, 33 tensors)

weight f4 [50, 64]
000000 cf 6e cf 3b 68 fa 9d 3d 16 b3 d2 bd 80 66 bc bd
       0.006330348 0.07713777 -0.10288064 -0.09199238
000010 f4 32 45 bd ec 4b 09 3d 40 4f 22 bb ce fa ca 3d
       -0.048144296 0.03351967 -0.0024766475 0.099111184
000020 70 bf 35 bc 4c 7b 07 3d ac bb 1a bd 70 48 c9 bc
       -0.011093006 0.03307657 -0.037776634 -0.024570674
000030 b8 91 f4 bd 52 8b a9 bd e8 0e 53 bd 00 bb 97 3b
       -0.11941856 -0.08278526 -0.051527888 0.0046304464
000040 60 69 4a 3d 18 9b 99 3d 8c 8d ad bd fc f4 5e bd
       0.0494169 0.07500285 -0.084742635 -0.054432854
000050 98 f7 39 3d 4e 94 d4 3d 48 bd d2 bc 5c 91 bf 3d
       0.04540214 0.103798494 -0.025725022 0.09353897
000060 40 0d a5 bc 10 b5 58 3c 4a cd e7 3d ce 7b ed bd
       -0.02014792 0.013226762 0.11318453 -0.115958795
000070 66 29 a1 bd e0 9e 01 bd dc 93 47 bd 28 2f dd 3d
       -0.07869224 -0.031645656 -0.048724994 0.1080001
000080 1a ef a5 bd c0 b0 6b bd 1a da b2 bd 76 c2 ef bd
       -0.08102246 -0.05754161 -0.08733006 -0.11707012
000090 04 70 95 bd 9e 0e dc 3d bc 76 64 3d 00 27 78 3d
       -0.07296756 0.107449755 0.055777296 0.06058407
0000a0 40 6a d7 3b 3a 3f 83 bd c0 3e ad 3c 9e 06 ef bd
       0.0065739453 -0.06408544 0.021148086 -0.11671184
0000b0 1a fa b8 bd c6 f9 83 bd 26 85 a1 3d 26 19 96 3d
       -0.09032078 -0.06444125 0.07886724 0.073290154
0000c0 c8 11 63 bd 20 cb 93 bb 40 ba a3 3d 82 7f fe 3d
       -0.05543688 -0.0045102984 0.07994509 0.12426664
0000d0 24 34 4b 3d c8 55 8a 3c fe a4 ab 3d c0 bb 96 bd
       0.049610272 0.016886607 0.08381079 -0.07360029
0000e0 f8 d0 be 3c 6c 7a c6 bd 18 6e b1 bd d2 3e 84 bd
       0.023293003 -0.09691319 -0.08663577 -0.064572945
0000f0 8c aa 67 3d f8 e7 4d 3d 6a a4 97 bd c8 ad 1a 3d
       0.05655913 0.05027005 -0.07404406 0.037763387
000100 7e d8 96 3d 8a 1a 61 bc 40 64 9c 3b 00 44 ed 3c
       0.07365511 -0.013739238 0.004772693 0.028963089
000110 00 d1 9e 3d 48 cf f5 3d 96 47 c5 bd ec a1 3b bd
       0.07754707 0.120024264 -0.096327946 -0.045808718
000120 98 38 49 3d d0 1b d4 3d e8 c5 de 3d 22 e2 e1 3d
       0.049126238 0.10356867 0.10877591 0.110294595
000130 78 ca cb 3c f8 9c de bd 90 66 3c 3c ac 27 a0 bd
       0.024876818 -0.10869783 0.011499062 -0.07820067
000140 8c 94 ee bd 3e 74 e3 3d f0 a6 c2 3d fe 5d ff bd
       -0.11649427 0.11106156 0.09504497 -0.124690995
000150 08 aa bf 3c c8 80 ac bc b8 82 a8 bc 1c 5f 6a bd
       0.023396507 -0.021057501 -0.020570144 -0.05721961
000160 8c e4 44 3d 34 a1 97 bd dc b1 3b 3d 16 76 81 3d
       0.04806952 -0.07403794 0.045823917 0.06321351
000170 5c 43 b7 3d 48 71 3f 3d 4a 5f fd bd 00 11 a6 bd
       0.08948395 0.046738893 -0.123716906 -0.08108711
000180 38 a6 7f 3d 18 53 d6 3c 96 b3 c7 bd e8 68 93 bd
       0.062414378 0.026162669 -0.0975105 -0.07197744
000190 f2 d4 f0 3d 54 7f ac 3d b0 3e 5f bd d4 dc 00 bd
       0.11759366 0.084227234 -0.054503143 -0.031460598
0001a0 78 dd f3 bd 80 3e 13 bb 78 c8 c0 bd a2 77 c5 bd
       -0.11907476 -0.0022467673 -0.094132364 -0.09641959
0001b0 20 b0 e1 bb a0 bf 99 3c f4 ad 51 bd 98 e7 97 3d
       -0.006887451 0.018768132 -0.051191285 0.0741722
0001c0 38 c9 9b bd 68 49 e8 3d d0 6f af 3d 64 e1 d7 bd
       -0.07606739 0.11342126 0.085662484 -0.10541037
0001d0 88 db fe bc 80 d2 b8 3b 18 67 95 3c d0 dd f2 3c
       -0.03111054 0.005640328 0.018237635 0.029646784
0001e0 5c ec 48 3d e0 59 f5 3b cc d1 79 bd d4 45 72 3d
       0.049053535 0.0074875206 -0.060991094 0.059148625
0001f0 56 91 f5 bd a0 bb 97 bd 3c 2b 00 bd ec 66 79 bd
       -0.11990611 -0.074088335 -0.03129123 -0.06088917
000200 2d 39 2c bd fe 39 01 be 00 d2 d9 bc f8 e2 da 3c
       -0.042046715 -0.12619779 -0.026589394 0.026719555
000210 76 c6 a6 bd 40 34 d2 bb 00 42 b7 3d f0 88 52 bc
       -0.08143322 -0.00641492 0.089481354 -0.012850031
000220 80 ac 63 3b c0 ad 30 bc 10 3d cf 3c 60 c6 a2 3d
       0.003474027 -0.010783613 0.025297672 0.07947993
000230 ba 7e f2 3d 06 93 a2 3d c4 0c f3 3d 60 1d 14 bc
       0.118405774 0.07938199 0.11867669 -0.009040207
000240 66 f8 e5 bd 40 ba 72 bd ce 4f ae 3d 00 6b 54 ba
       -0.11229019 -0.059259653 0.08511315 -0.00081031024
000250 dc 7c 7e bd 02 2d c4 bd 00 94 ef bd ec 10 d8 bd
       -0.062130794 -0.09578897 -0.11698151 -0.105501026
000260 70 b4 cf bc 56 64 8c 3d 74 67 8a 3d 02 e5 f6 bd
       -0.025354594 0.06855075 0.06758013 -0.120553985
000270 2e b0 9f 3d 8a 52 c8 bd f0 7b d8 bc 1c 9a 4f bd
       0.077972755 -0.09781368 -0.026426286 -0.05068408
000280 f0 3c c5 bc 10 0e c9 bc ba b8 e5 bd 44 0a dd bd
       -0.024076909 -0.024542838 -0.112168744 -0.10792974
000290 28 3c a0 bc 80 e1 d3 3a b8 96 68 bd b8 de 40 3d
       -0.019559935 0.0016165227 -0.05678436 0.0470874
0002a0 3a 6a e6 bd c0 36 0a bc a2 21 e1 3d 38 d7 50 bd
       -0.1125073 -0.008435905 0.10992743 -0.0509865
0002b0 36 2b e7 3d 38 6c 39 3d ae 07 e7 bd 74 f8 a1 3d
       0.11287539 0.04526922 -0.11280762 0.07908717
0002c0 f0 53 6c bc 70 8f 64 bd 14 b6 cc 3d 54 df ce bd
       -0.014424309 -0.055800855 0.09995666 -0.1010119
0002d0 b0 c2 5b 3c c0 64 d6 bc 16 d0 b6 3d 08 ec 0e 3d
       0.013413116 -0.026171088 0.08926408 0.034893066
0002e0 cc 04 76 3d 40 d1 34 3d 00 3f f6 bc 50 5a d7 bc
       0.06006317 0.04414487 -0.030059338 -0.026288182
0002f0 00 f7 d2 bd 4c b6 8a 3d 26 42 cb 3d 5c 29 af 3d
       -0.10301018 0.067730516 0.09924726 0.085528105
000300 f3 eb dd bd 3d 85 f9 bb 90 76 b4 bd 88 ec 8c bd
       -0.10836019 -0.00761476 -0.088116765 -0.06881052
000310 30 2c 95 bd 34 f9 2e 3d c4 8d 98 bd 00 ba 32 bb
       -0.07283819 0.042718127 -0.07448915 -0.002727151
000320 a0 4f ac 3b 04 06 a5 3d fa 83 c1 bd 44 bf af bd
       0.0052585155 0.08057788 -0.09449001 -0.08581403
000330 3c a6 94 bd d6 2e b3 3d cc 0b 38 bd e0 ee d7 3d
       -0.07258269 0.087491676 -0.044933125 0.10543609
000340 a0 24 39 3d 40 aa 81 3c 00 ed 73 ba 08 6d ca bc
       0.045200944 0.015828252 -0.000930503 -0.024710193
000350 40 7a 80 3c 30 d3 e9 bc 00 3e 66 ba c0 a7 82 3c
       0.015683293 -0.028543085 -0.00087830424 0.01594913
000360 98 3e c8 bd 7a 2d 86 bd d8 b7 ce 3d 86 c1 cf bd
       -0.09777564 -0.06551643 0.10093659 -0.101443335
000370 20 0f 13 bc c0 3e fd 3d 10 f4 38 3d c0 f0 67 3b
       -0.008975774 0.12365484 0.04515463 0.00353913
000380 26 da dd bd 2c a2 7d 3d 08 58 b6 bd a8 56 11 bd
       -0.10832624 0.061922237 -0.089035094 -0.035483032
000390 cc c8 2b bd 38 a4 97 bc 80 36 b3 3a 96 26 d3 3d
       -0.04193954 -0.018510923 0.0013672858 0.10310094
0003a0 80 ab 7f 3c 20 4c e5 3d 30 99 9c 3d c6 d8 a1 bd
       0.015604854 0.1119616 0.07646406 -0.079026744
0003b0 54 a2 65 3d 24 f7 b4 bd 9c ff 58 bd 40 97 16 3d
       0.05606301 -0.08836201 -0.052978143 0.036765337
0003c0 f0 0e 29 3d f2 0e c0 3d 28 d2 24 bd 00 d4 51 39
       0.04127401 0.093778506 -0.040239483 0.0002001077
0003d0 7a cb 83 3d 5a 93 f7 bd 42 15 b9 3d 30 b1 d3 bd
       0.064352944 -0.12088652 0.09037258 -0.1033653
0003e0 00 d0 e1 3a e0 18 ae bc 0a d4 86 bd d8 57 87 3c
       0.0017228127 -0.021252096 -0.06583412 0.01652138
0003f0 f2 b0 d3 3d e8 aa 15 bd 56 fc 97 bd 84 5b 3d bd
       0.10336484 -0.036539942 -0.07421176 -0.046229854

bias f4 [50]
000000 43 36 1f bd 8e 80 24 bd d9 a3 13 bd 6c f4 09 be
       -0.038870107 -0.04016166 -0.03604493 -0.13472146
000010 1a 49 bb bd 83 ca 96 ba 71 0a fc bc 9d 45 0f be
       -0.091448024 -0.0011504445 -0.030766698 -0.13991399
000020 e8 f0 da 3c d1 61 8f 3d dc 61 c3 3d da 9d d8 3d
       0.026726201 0.07001079 0.095401496 0.10576983
000030 e7 11 e6 bd d2 74 ec bc a8 75 79 bd 61 3f ef 3c
       -0.11233883 -0.028864298 -0.06090322 0.029205026
000040 a9 10 18 3d 03 f8 d7 3c aa 5f 92 3d 71 e5 85 3d
       0.037125263 0.026363378 0.07147153 0.06537903
000050 12 c0 a3 bd ae ff b6 3d 25 de b3 3d df 55 2f 3c
       -0.07995619 0.08935486 0.08782605 0.010701626
000060 9d 6b c6 bd 68 aa 98 bd b4 56 16 3d 8b fb 3a 3d
       -0.09688494 -0.074543774 0.03670378 0.045650046
000070 49 3b f9 3d 0b 30 73 3d 18 c5 37 3d 0a 53 56 3b
       0.12169511 0.05937199 0.044865698 0.0032703304
000080 4d a6 a4 3d b7 06 2d bd 5c 01 50 3d 0d 49 68 bd
       0.08039532 -0.042242732 0.050782546 -0.05671029
000090 cd 7c 94 bc 09 dc 9f 3d f6 a5 70 3d 9a d6 ff bc
       -0.018125916 0.0780564 0.058752023 -0.03123026
0000a0 91 31 40 ba bb b7 c1 bd ab d6 72 3d c5 30 b6 3d
       -0.0007331605 -0.09458872 0.059286755 0.08896021
0000b0 c7 c7 39 3d 13 b9 0d be 34 63 ed bd 58 57 a4 3d
       0.04535654 -0.13840131 -0.11591187 0.08024472
0000c0 c2 16 cb bc f6 16 a1 3d
       -0.024791125 0.078657076

weight f4 [50]
000000 dd 16 80 3f 1a 9a 80 3f 23 83 7f 3f 6d f1 7f 3f
       1.0006977 1.0047028 0.99809474 0.9997776
000010 47 79 7e 3f 4e 98 80 3f 85 59 7b 3f 1a 37 80 3f
       0.99403805 1.004648 0.9818347 1.0016816
000020 93 bd 7b 3f 51 90 7e 3f 23 4a 7c 3f 2a d8 7e 3f
       0.9833614 0.9943896 0.98550624 0.9954859
000030 21 fb 80 3f 68 cf 7d 3f 89 dd 7e 3f c5 1b 80 3f
       1.0076638 0.991446 0.99556786 1.0008475
000040 fe 56 80 3f a7 6d 7d 3f f4 fa 7d 3f cc 80 7e 3f
       1.0026548 0.9899544 0.9921105 0.9941528
000050 5c 70 83 3f b5 ad 7f 3f f1 b8 7f 3f 60 ab 7d 3f
       1.0268664 0.9987443 0.99891573 0.9908962
000060 8b a0 7c 3f 7d 96 7f 3f 52 8d 7e 3f cb 9a 7f 3f
       0.9868247 0.99839 0.9943439 0.9984557
000070 1d 88 7f 3f 06 08 7d 3f 21 2b 78 3f e9 79 80 3f
       0.9981707 0.9884037 0.9694081 1.0037204
000080 f1 62 7d 3f 57 ad 7f 3f 75 de 7e 3f 12 02 78 3f
       0.989791 0.9987387 0.9955819 0.9687816
000090 fa 8c 7c 3f e6 f2 7f 3f 3b 76 7e 3f fc 00 7e 3f
       0.98652613 0.9998001 0.99399155 0.9922025
0000a0 97 12 80 3f e4 be 7f 3f a0 e5 7e 3f f9 f2 7f 3f
       1.0005673 0.9990065 0.9956913 0.9998012
0000b0 46 d5 7f 3f d3 21 81 3f c2 3c 81 3f 0e e7 7d 3f
       0.99934804 1.0088447 1.0096667 0.99180686
0000c0 8d 2b 7d 3f c4 a0 7f 3f
       0.9889458 0.99854684

bias f4 [50]
000000 7d f6 a6 3b cb aa 56 3a 23 23 be b8 6c 15 cf 37
       0.0050953017 0.0008188902 -9.066451e-05 2.4686298e-05
000010 40 82 f3 ba 82 d0 e9 3b 64 3d 87 bc c6 0c 0f 39
       -0.0018578246 0.007135452 -0.016508766 0.00013642301
000020 5b 59 6b bb 47 b8 08 bb 13 11 5a bc 20 55 80 bb
       -0.0035911414 -0.002086179 -0.013309735 -0.0039163977
000030 c4 89 00 bc f9 87 09 3c fd 14 c6 3a cf 28 e7 3a
       -0.007845346 0.008394235 0.0015112456 0.0017636063
000040 f1 1e 0d 3a 33 d1 6d bb 0c dc d6 bb fb b6 b2 bb
       0.0005383334 -0.0036288023 -0.0065569934 -0.005453942
000050 68 61 cb bb 32 96 55 ba 3c b5 bd b9 4d 3d 10 bc
       -0.00620668 -0.0008147686 -0.0003618392 -0.008803678
000060 b8 02 5b 3c 68 79 cb ba 9c f5 25 bb 43 d5 59 ba
       0.013367347 -0.0015523853 -0.0025323397 -0.00083096715
000070 3b 2e d7 ba be 87 37 bc 8f 29 94 bb ac 49 a3 3b
       -0.0016416976 -0.011201797 -0.0045215557 0.0049831476
000080 c7 a8 0a bc 5e bf 24 38 7c c9 72 bb ab 87 2c 3c
       -0.008463091 3.927887e-05 -0.0037046364 0.010530393
000090 d7 1d 54 3c e2 05 0d b9 1c d8 94 bb 8e e8 da bb
       0.0129465675 -0.00013449 -0.004542364 -0.0066805547
0000a0 05 de 56 ba 1c 6b 43 bb 22 3b 72 bb de f8 3f 39
       -0.00081965356 -0.002981848 -0.0036961515 0.0001830789
0000b0 b6 e7 10 b9 f4 b4 aa bb 2c 17 f6 bb 15 c2 fb bb
       -0.00013819229 -0.0052095596 -0.0075100865 -0.0076830485
0000c0 67 b4 2d bc aa e6 a0 ba
       -0.010602093 -0.0012275774

weight f4 [36, 50]
000000 fc 13 e6 3d 78 c7 42 bd 2f dc ae bd 3e a7 0a be
       0.112342805 -0.04755351 -0.085380904 -0.1354036
000010 6f aa 54 3d a2 d7 95 3d d6 0f b3 bc 17 e4 0e be
       0.05192035 0.07316519 -0.021858137 -0.13954197
000020 88 3e b0 bd 2c 95 92 bc af f0 88 3d 5c 5d 36 bd
       -0.08605677 -0.017893396 0.06686532 -0.04452263
000030 ea c4 bf bd a7 4c ce bd 13 6b fe 3d 3c 76 62 3d
       -0.0936373 -0.10073214 0.124227665 0.05528854
000040 74 ac 03 be bc 11 b7 bd ce 37 ee bd 9c df bc 3c
       -0.12858754 -0.089389294 -0.11631738 0.023055844
000050 52 a0 74 bd bf 83 09 3b 48 0b a7 bc 61 7a f8 bd
       -0.059723206 0.0020983068 -0.020391122 -0.12132717
000060 c9 ac 03 be fb d8 c9 bd a1 bd 64 bd 5e e4 be 3c
       -0.12858881 -0.09855839 -0.055844907 0.023302253
000070 82 8a 83 bd 6e 35 46 bb 0a 9e a6 bc ed cb 05 3e
       -0.06422903 -0.003024425 -0.02033903 0.13066073
000080 80 6b 7c bd 99 22 0b 3e d7 d0 d9 bd bc 53 f6 bd
       -0.061625957 0.13587417 -0.10635536 -0.1202769
000090 15 c1 32 3d 2e 6c a4 bd 4a b8 99 3d 8c c1 9a bd
       0.04364117 -0.08028446 0.075058535 -0.075564474
0000a0 8c 38 df 3d 56 d4 09 3e b5 c4 38 3c 26 13 05 3d
       0.10899457 0.13459906 0.011277367 0.032488964
0000b0 fa 77 04 3e 05 d9 a6 3d b5 c5 00 be f0 52 2c bb
       0.12936392 0.08146862 -0.12575419 -0.0026294552
0000c0 1d 21 00 be 70 9a e1 3d 9e 0b d3 bc 28 ec a7 3b
       -0.12512632 0.11015785 -0.025762375 0.0051245876
0000d0 99 1e af bd 96 b7 9a bd 28 c2 a0 3c 69 d2 e9 3d
       -0.08550758 -0.075545475 0.01962383 0.11417086
0000e0 0a 91 93 bd e5 65 70 3c b8 16 e7 3d ec ed ee 3d
       -0.072053984 0.014672731 0.1128363 0.11666474
0000f0 1c 3c ed bc c9 96 05 3e 6d 4a 58 3d a2 9f 04 3e
       -0.028959326 0.13045801 0.052805353 0.1295152
000100 be a4 b6 3b 4b 8e f7 bd a2 a4 1d bd 13 71 2a 3d
       0.005573838 -0.12087687 -0.038487084 0.041611742
000110 b8 0f 96 3d c9 90 11 be 45 f4 e3 3d 6d b0 02 be
       0.07327217 -0.14215387 0.11130575 -0.12762614
000120 d3 73 a6 3d 8f 5a 0d 3e 17 8f 13 3d 75 37 ce bc
       0.081275605 0.13804077 0.036025133 -0.025172928
000130 c8 cf 9b 3d 73 76 31 bd 24 25 d9 bd c2 c9 cf bd
       0.076079905 -0.043325853 -0.10602787 -0.10145904
000140 60 71 89 3d ee ef da 3d 07 39 a8 3b a8 f1 0d be
       0.06711078 0.10690294 0.0051337513 -0.13861716
000150 c8 93 0f be ae 30 fb bc e6 19 9f 3d bc 99 c3 bd
       -0.14021218 -0.03066286 0.077686116 -0.09550807
000160 f2 d2 16 3d 94 a5 a0 bd ab 37 ee 3d b7 49 12 bd
       0.036822267 -0.078440815 0.116317116 -0.03571483
000170 cf 79 fc bc b1 02 00 be 7c 0c 00 be 2e 9d 32 3c
       -0.030819802 -0.12501027 -0.12504762 0.010901732
000180 7f 1c c6 3c 44 f5 99 3d 8a a7 ff bd 8d b0 bf 3c
       0.02418351 0.07517484 -0.124831274 0.023399616
000190 fe da 2b bd ed d3 b6 3d e2 63 6e bd 30 4e 45 3d
       -0.041956894 0.089271404 -0.058200724 0.04817027
0001a0 39 f1 78 3d 57 e8 83 3d 9c 24 6e bd 6e 57 4d 3d
       0.060776923 0.064408 -0.058140382 0.050132208
0001b0 3f 11 00 bd 70 ec 88 3d a7 64 c4 bd 68 4c f7 bd
       -0.031266447 0.06685722 -0.095895104 -0.1207512
0001c0 ca d7 e0 bd f6 1b a3 bd b4 dd 5f bd 26 7d ad 3b
       -0.109786585 -0.079643175 -0.054654792 0.00529446
0001d0 d8 dc 73 bc 7d 0e 87 bd 22 14 2d bc 61 d0 50 bd
       -0.014884196 -0.0659456 -0.010563882 -0.050979976
0001e0 e8 1c be 3d 05 95 fc bd f7 13 5c bd 4f ed c5 bd
       0.09282857 -0.12333111 -0.053729977 -0.09664404
0001f0 3f 93 b7 3c 98 f7 ae bc 5f 57 9b bc 01 b4 14 3e
       0.02240908 -0.021358296 -0.01896256 0.14521791
000200 50 34 74 bd 86 4f d2 bc 7e 42 33 3d 11 8b f5 3d
       -0.0596202 -0.025672685 0.043764584 0.119894154
000210 c2 46 ca 3d 2e f2 81 3b 2b 66 65 bd d0 21 58 3d
       0.09876777 0.0039656376 -0.056005638 0.05276662
000220 d2 d7 c1 3d bd 44 cc bb 05 52 8d 3d 9f 5c dc 3d
       0.094649926 -0.00623378 0.069004096 0.107598536
000230 ac 03 8f bd 37 3e d4 bc f7 a9 04 be bc fe d1 3c
       -0.06983122 -0.025908573 -0.12955461 0.025634162
000240 b7 8a d8 3d 0c 2d b2 bc 69 fe e5 3c 7b 8e 2f 3d
       0.10573333 -0.021749996 0.028075414 0.04286049
000250 d0 15 0a bc b1 a5 d7 3d e2 c2 93 3c 4e 49 04 be
       -0.008428052 0.1052965 0.018037263 -0.12918589
000260 5f b1 f9 bd df c4 14 be 6d 93 f5 39 49 8b a1 3d
       -0.12192034 -0.14528225 0.00046839882 0.07887895
000270 fd 02 59 bc 2b 8b f9 3d d0 ff 02 bd 94 01 01 3d
       -0.013245341 0.12184747 -0.031982243 0.031495646
000280 c3 65 07 3e c9 7e 9c 3d e7 b9 1f bc 3b 05 06 3e
       0.13222413 0.0764137 -0.009748912 0.13087933
000290 60 b0 b7 bd 04 78 67 3d 21 02 a7 3d 66 05 b4 bd
       -0.08969188 0.05651094 0.08154703 -0.08790092
0002a0 84 3c 02 be f8 b6 4e 3d 0d 29 71 bd 0d e0 86 bd
       -0.12718397 0.05046746 -0.05887704 -0.06585703
0002b0 de 47 08 3d a4 3a c7 bd d2 5d f9 3d 0b 2b 86 bc
       0.033271663 -0.09727982 0.12176098 -0.016377946
0002c0 79 8d 23 bd 5c 18 fc 3d b0 c8 36 3d a8 5b 03 3d
       -0.03992984 0.12309334 0.044624984 0.032069832
0002d0 e5 21 8e bd ed b1 0e 3e 82 ee 16 bd 22 94 f9 3d
       -0.069400586 0.13935061 -0.036848553 0.12186457
0002e0 7f 9b a1 bb ae 9e 86 3d 8e e9 c0 3d be a8 cc bd
       -0.0049318667 0.065732345 0.09419547 -0.099931225
0002f0 7a 58 b6 bd 23 4e 09 be 29 fa c5 3d 0b 47 ee 3d
       -0.08903594 -0.13408713 0.09666855 0.11634644
000300 44 c3 3c bd 55 eb 82 bd ea 1f 97 3c b6 25 91 3d
       -0.046084657 -0.06392542 0.018447835 0.07087271
000310 3f 33 f3 3c ad 70 c5 bc d5 fa ac bd 85 eb 00 3e
       0.029687522 -0.02410158 -0.0844628 0.12589844
000320 a5 b9 99 bd 37 1b 1a be 64 4f 5b bd fd e8 fe 3c
       -0.07506112 -0.15049444 -0.05354251 0.031116957
000330 ba 33 65 3d 81 d4 55 3d 36 ab ab bd 43 bf 50 bd
       0.055957533 0.052204613 -0.08382265 -0.05096365
000340 13 a7 4d bd c2 e1 a4 bd 0c 79 f7 bd 27 65 de 3c
       -0.050208163 -0.080508724 -0.12083635 0.027147843
000350 b5 41 1c bd cd d4 08 be 09 c5 a2 bd c7 4d a7 bd
       -0.0381486 -0.13362427 -0.07947738 -0.08169132
000360 4f ed 65 bd 45 77 b1 bd db 70 c9 bc e7 b2 44 3d
       -0.05613452 -0.08665327 -0.024589946 0.048022177
000370 a6 25 e4 bd 92 75 71 bc d6 90 38 bd 10 dc 99 bd
       -0.11139993 -0.014737504 -0.04506 -0.07512677
000380 2b 62 e8 bc e0 cb 68 bd 25 d7 66 3b 0d 43 dc bd
       -0.028367123 -0.056835055 0.003522345 -0.107549764
000390 09 09 c1 3c 00 a2 01 3e c1 41 e1 3d 77 d3 8d bd
       0.023563879 0.12659454 0.1099887 -0.06925099
0003a0 9e cc 29 3d 5c cf 08 be fe a9 eb 3d 84 2b 0d be
       0.041454904 -0.13360351 0.11507033 -0.13786131
0003b0 6a a3 fc bd fb 0c 06 be a5 7c 08 be 66 08 89 3c
       -0.12335856 -0.13090889 -0.13328798 0.016727637
0003c0 83 99 0d bd 72 1c 17 3d 60 2b 5b bc 91 58 be bb
       -0.03457023 0.036892362 -0.013377041 -0.005808898
0003d0 e7 e4 44 bd 84 9e a5 bd 68 45 ec bd 28 e6 89 3d
       -0.04806986 -0.08086875 -0.11536676 0.06733352
0003e0 51 ab 9b bd 2b 0e 03 bd 56 f5 94 3d 9e 41 e3 bc
       -0.076010354 -0.031995934 0.072733566 -0.02774125
0003f0 0c 2b 21 bd cb 98 c8 bd d3 d8 fe bd 25 43 94 3d
       -0.039347693 -0.09794768 -0.124437 0.07239369

bias f4 [36]
000000 da ad 09 be e6 99 c5 3d 26 63 06 bd 52 a3 08 be
       -0.13445225 0.096484944 -0.0328094 -0.13343552
000010 e4 7e f1 3d a8 20 c3 3d 54 0d 6b 3d 50 8e 0d 3e
       0.117917806 0.09527713 0.057385758 0.13823819
000020 a4 6d 01 3e a7 a6 01 3e 79 c0 08 3e b7 a7 f4 3d
       0.12639481 0.12661229 0.13354672 0.119460516
000030 62 9f bb 3c 2d 7c 1a bc 00 76 ab 3c 94 31 5e bd
       0.022903148 -0.00942902 0.02093029 -0.0542465
000040 35 92 9c 3d 63 ca 0b 3c 79 4c 38 3d 67 4b d4 bd
       0.07645074 0.0085321395 0.044994805 -0.10365944
000050 76 13 71 bd 06 a6 e3 3d 75 d3 cb 3c 1b 65 30 3d
       -0.05885645 0.11115651 0.024881104 0.04306517
000060 b8 5f 01 be 0f 89 a2 bd a1 df b8 bb 56 2b 7a bc
       -0.1263417 -0.07936298 -0.005641893 -0.015269121
000070 6b aa c8 3d 64 1d ab bc 9f 5c f0 3d 92 53 c5 bc
       0.0979813 -0.020888038 0.11736416 -0.024087701
000080 98 77 72 3d 87 20 c1 bd 6c 6c 9b 3c 7b 12 0d be
       0.059196085 -0.09430032 0.018972598 -0.13776581

weight f4 [21, 6]
000000 82 d1 a3 be 8f 18 6a be 10 7b de 3d 3b bf 1c 3d
       -0.3199578 -0.22860931 0.10863316 0.03826831
000010 65 6c 64 3d bb 62 84 bd 02 51 a5 3e db ee ba 3e
       0.055767436 -0.06464144 0.32288367 0.36510357
000020 45 1a 29 3e 7c d2 a5 3e 28 1f cd bb 3e 51 25 be
       0.16513927 0.3238715 -0.0062598176 -0.16144273
000030 d2 cb 8a 3d cc 73 8a 3e f5 c0 95 bd 23 ce 9e be
       0.06777157 0.2704147 -0.07312194 -0.31016645
000040 f3 d8 02 3e c9 98 90 bd 39 25 39 be c8 58 74 3e
       0.12778072 -0.070603915 -0.18080606 0.23861992
000050 6c 08 ce bb cb 84 6c be 8f 3a 62 be 31 08 b7 3e
       -0.006287625 -0.23097531 -0.22092651 0.35748437
000060 8d 26 85 3e d1 2d 94 be 51 07 ad 3c c2 6d 8a bc
       0.26005974 -0.28941205 0.021121653 -0.01689804
000070 14 d2 30 3e bf d1 a2 be be da 81 bc fa f5 19 3e
       0.17267638 -0.3180065 -0.015851375 0.15035239
000080 45 43 5e 3e 4f 11 ad 3d 00 15 35 be a7 02 cc be
       0.21705349 0.08450567 -0.17683792 -0.39845774
000090 55 82 4e 3e ff 42 bc 3e 7f 67 fa bd d4 61 ba be
       0.20166905 0.36769864 -0.122267716 -0.36402762
0000a0 73 08 c8 3d 08 61 85 be 73 1a 86 be b4 19 0a 3e
       0.097672366 -0.2605059 -0.26192054 0.13486367
0000b0 d2 3a 6e bd 2b b8 15 bd 7e a4 c1 3e e2 c1 90 bd
       -0.058161564 -0.03655259 0.3782081 -0.0706823
0000c0 93 6b 76 3e 49 c8 04 be e9 52 9d 3e 83 bd ef 3d
       0.24064474 -0.12967028 0.30727318 0.11706068
0000d0 6b 74 b5 3e 8c 4b 3d 3e e1 91 05 be b4 cf 30 3e
       0.35440382 0.1848585 -0.1304393 0.17266732
0000e0 8b 2a be 3e 92 e3 96 3d 92 de 17 3e 86 d5 85 be
       0.37141833 0.07367624 0.14830998 -0.26139468
0000f0 29 f2 50 3e 01 85 ad be f5 c4 a9 3e b1 13 21 3e
       0.20404877 -0.33890536 0.3315808 0.15730168
000100 4a 6f f6 3c d5 f9 c1 be fd 4c ba 3e dc f2 81 3e
       0.030082364 -0.3788592 0.36386862 0.253806
000110 9d 1a c4 3e 44 1c 04 3e f3 9f dc 3d dd e7 92 bd
       0.38301554 0.12901407 0.107726954 -0.07173131
000120 91 33 13 be 4a 86 2a 3e 85 62 30 3e e2 22 c0 bc
       -0.1437514 0.1665279 0.17225082 -0.023454133
000130 ab 67 4d 3d 58 00 25 3e d5 ff c1 be 1e 45 b3 be
       0.050147694 0.16113412 -0.37890497 -0.3501367
000140 45 e8 d8 bd cb c5 7a 3e 32 58 63 3e c2 b8 bd be
       -0.10591177 0.24489515 0.22201613 -0.37055022
000150 43 18 ec bd e0 7b e3 bc 04 4f 02 3e fa c2 9e 3e
       -0.11528065 -0.02776903 0.12725455 0.3100813
000160 a0 36 4b 3b 3f 82 ac be 3a 6d 9c 3d 33 04 3b be
       0.00310079 -0.3369312 0.07638021 -0.1826332
000170 10 4d 52 be 89 2c 6b 3e c2 a3 72 bd 0a 2d 29 3e
       -0.2053721 0.22966208 -0.059238203 0.16521087
000180 d8 c2 9c 3e dc f6 e0 bb 5d e9 75 3e 50 5d 59 be
       0.30617404 -0.0068653654 0.24014802 -0.21227002
000190 5e ea 4b 3e c2 b4 8a bb 2c cb 93 3e 87 d6 be 3e
       0.19913623 -0.004232974 0.28865945 0.37273046
0001a0 f5 d2 99 be ab 0a c2 3e ed cd a0 3e c5 b8 a0 be
       -0.3004376 0.37898764 0.3140711 -0.31390968
0001b0 85 c6 03 3e 47 68 9e be 06 5c ef 3d 3b ad a0 3d
       0.12868698 -0.30938932 0.11687474 0.07845541
0001c0 70 8c ba be 95 b3 1d 3e a9 43 e6 bd 27 c2 c9 3e
       -0.3643527 0.15400536 -0.11243374 0.3940594
0001d0 d0 1e cd 3e 9b df 0e 3e 70 f6 99 3e 70 7f ea 3d
       0.4006257 0.13952486 0.3007083 0.11450088
0001e0 ed 25 b4 3e 0c 7f 54 bd bc 4d b8 3d 89 07 74 bd
       0.35185185 -0.051878974 0.08999202 -0.0595775
0001f0 d0 bd 69 bc 08 a0 09 be
       -0.014266446 -0.13439953

bias f4 [21]
000000 fe e1 20 be 5e 1c 7c 3e 9f 5d 32 3e d3 42 36 be
       -0.15711209 0.24620196 0.17418526 -0.17798929
000010 7d a7 bf be e9 8f 4a 3e 29 7c c6 be a7 2e c3 bc
       -0.3743247 0.1978146 -0.38766602 -0.023825957
000020 3e 8d ba be 3b a9 b2 3e 28 51 a6 3e 5c 12 b7 be
       -0.36435884 0.34894738 0.32483792 -0.35756195
000030 b5 11 cf be 8f c3 71 be 51 04 e9 3d d0 d8 48 be
       -0.40443197 -0.23609756 0.113777764 -0.19613957
000040 78 9e bb bd 2f f7 c8 bd 10 74 a1 3d 11 4a 4b be
       -0.09161085 -0.098127715 0.07883465 -0.19852473
000050 ad d3 3a 3e
       0.1824481

weight f4 [21]
000000 5f ad 7a 3f b5 87 7f 3f 74 33 7e 3f 34 63 7a 3f
       0.97920793 0.9981645 0.9929726 0.9780762
000010 5e 19 83 3f c4 da 7d 3f 2f 4a 7d 3f dc 88 7d 3f
       1.0242116 0.99161935 0.9894132 0.99036956
000020 d8 a8 7d 3f 8a 4a 7f 3f 6c bc 79 3f af 1a 84 3f
       0.9908576 0.9972311 0.97553134 1.0320643
000030 9e 48 83 3f 6d 35 7f 3f 88 08 7e 3f f5 51 7d 3f
       1.0256536 0.99690896 0.9923177 0.9895318
000040 7c 72 7e 3f 88 4e 7c 3f cc 35 7e 3f 6c 2b 7f 3f
       0.9939344 0.9855733 0.9930084 0.9967563
000050 2b 83 7c 3f
       0.98637646

bias f4 [21]
000000 52 0d b2 3a 43 48 0b 39 da 19 e4 bb 48 5e 11 3b
       0.0013584292 0.00013282993 -0.0069610896 0.002218144
000010 93 d2 b3 bc d9 84 fc bb 68 bd 34 bb 04 8c 49 bc
       -0.021950996 -0.0077062664 -0.0027578715 -0.012301449
000020 44 98 68 3c cb bc ca ba 0b 06 a5 bc f5 e1 e8 bc
       0.014196459 -0.0015467642 -0.020144483 -0.028428057
000030 57 ae 06 bd 39 d5 f2 ba 33 ce e8 bb 40 85 ca 3b
       -0.032881107 -0.001852668 -0.007104659 0.0061804354
000040 a3 85 12 bb 9f 0f 27 bb ce 0c af ba c3 47 d8 bb
       -0.0022357486 -0.0025491489 -0.0013355257 -0.0066003515
000050 da 97 30 bc
       -0.010778392

weight f4 [36, 21]
000000 40 7c 11 be 3e 31 b1 bc 88 9f 3b 3e 5c 9b d9 bd
       -0.14207554 -0.021629926 0.18322575 -0.106253356
000010 cf a1 2b 3e b3 9d e7 3d a6 30 92 bd 24 56 b8 3d
       0.16760944 0.113093756 -0.07138185 0.09000805
000020 9d 01 17 be ae ca 99 3c cd ef 6d 3d fc d1 40 3e
       -0.14746709 0.018773403 0.05809002 0.18830103
000030 08 23 fa bd 1e b7 eb bd b1 75 db bd b4 49 58 be
       -0.12213713 -0.11509536 -0.10715807 -0.21121866
000040 22 4d 10 3d 5c ca 43 be 9a 04 75 bd 16 c8 b0 bd
       0.03522981 -0.19120163 -0.05981884 -0.08631913
000050 9d 52 ec 3b 09 73 8c 3d ef ae 24 be f3 eb 89 bd
       0.0072119967 0.06857879 -0.16082357 -0.06734457
000060 54 99 d4 bc 3d 72 00 be e4 da 50 3d 0f 46 a4 3d
       -0.025952019 -0.12543578 0.05099 0.08021175
000070 0a 0b 2b be 95 fc 30 3e db 6f 1d 3e 2a 5e 83 bd
       -0.1670343 0.17283852 0.153747 -0.06414445
000080 96 6f 03 3d 93 1c df 3c 78 eb ef bc a6 67 14 be
       0.03208884 0.027235305 -0.029287085 -0.14492664
000090 b2 95 39 3e d8 24 d7 3d 30 5d 49 be 48 44 28 be
       0.1812351 0.10505074 -0.19664454 -0.16432297
0000a0 5f 76 4c 3e 31 1f 0f 3d 0b df 41 bd 40 94 1a 3e
       0.1996703 0.034941856 -0.04733185 0.15095615
0000b0 dc 76 86 3d f3 98 b0 3d bc 8d 2d 3e 54 b4 50 bc
       0.065656394 0.08622923 0.16948599 -0.012738306
0000c0 a4 a9 53 3e 8e 57 1a be ba fa 0b be c1 96 23 3d
       0.20670182 -0.15072462 -0.13669863 0.039938692
0000d0 38 bb ca bc 7a c3 fa 3d da af 7f bd fd c8 06 3d
       -0.024747476 0.122443154 -0.062423564 0.03290652
0000e0 4c e1 29 bd e1 b9 25 3e cb e0 db bc 4a 1f fb bb
       -0.041474625 0.16184188 -0.026840588 -0.007663642
0000f0 03 27 2c 3e 0d ec 58 3e e4 72 57 3e 41 3b 54 be
       0.16811757 0.21183796 0.21039921 -0.20725729
000100 76 24 00 be 63 a2 43 bd ce 04 e4 bc ac a8 05 3e
       -0.12513909 -0.047762286 -0.027834322 0.13052624
000110 e7 33 bc 3d b2 4d 48 bc a1 10 91 3c 93 e0 4d 3d
       0.09189587 -0.012225555 0.017708125 0.050263
000120 c8 50 3d 3e 95 70 d4 3d 8a f7 d5 bd fc 66 dc bd
       0.18487847 0.10373036 -0.10447605 -0.1076183
000130 9d dd 9a 3d 92 0f f4 bc 0f 9c 0b be 1d e6 4e be
       0.07561801 -0.02979258 -0.1363375 -0.20204969
000140 9c 92 6b 3d 05 0e 9a bd 9a 8f d6 bd a6 ac 0b 3d
       0.057512864 -0.07522205 -0.104766086 0.034100197
000150 b8 7c 69 3e 34 23 30 3e 4b 06 ed 3d 40 65 2c be
       0.22801483 0.17200929 0.11573466 -0.16835499
000160 e7 0a 05 3e d9 bb db 3d b5 08 9f 3d 9f 20 6e bd
       0.1299244 0.107291885 0.077653326 -0.05813658
000170 8d fb 09 3b 23 75 ff bd 70 8c 54 bd 39 03 fa bc
       0.0021054477 -0.12473514 -0.051891744 -0.030519115
000180 ae a3 cd bc f3 c4 50 be 8e 68 98 3d d9 4a 2f be
       -0.025102463 -0.2038763 0.07441817 -0.17118396
000190 ec a0 26 be 3a 50 9b 3d af c6 36 be 10 6c 4e 3e
       -0.16272324 0.075836614 -0.1784923 0.2015841
0001a0 c8 16 50 3e be 77 a7 bd 71 35 e6 bc f6 92 21 be
       0.2032119 -0.08177136 -0.028101655 -0.15778717
0001b0 33 65 ec ba 8d 05 f7 3c d1 38 e3 bd 5a d7 63 3d
       -0.0018035531 0.030154014 -0.11094821 0.055625297
0001c0 dc 2d 04 bc ee 5b 97 bd 80 8b 07 3c 95 67 4b be
       -0.008067574 -0.07390581 0.0082730055 -0.19863732
0001d0 3a 0a 29 be 86 67 98 3c b6 81 49 3e 00 a0 f6 bd
       -0.16507807 0.018604051 0.19678387 -0.12042236
0001e0 da 01 07 3e df cd 95 3c a2 6f f2 bd e9 25 8d 3c
       0.131843 0.018286644 -0.118376985 0.017229991
0001f0 d9 a2 aa 3d 9d 5a 23 3d ff 4f 42 3e d3 24 23 bd
       0.08331842 0.039881337 0.18975829 -0.03983004
000200 9b 5f 12 be 11 2f 4e 3e 21 88 7d bd c7 fd 0c 3e
       -0.14294283 0.20135142 -0.0618974 0.13768683
000210 62 b9 11 3e ba d5 52 3d bf 71 37 be cf ab 59 be
       0.14230874 0.051473357 -0.17914484 -0.21256946
000220 bb b3 cf 3d 32 bb 54 3d 8e e0 01 3e b8 b0 45 be
       0.10141703 0.051936336 0.12683317 -0.19305694
000230 54 62 fd bc 0c 3c 3e 3e c0 28 f2 3d 1f 91 42 3e
       -0.030930676 0.18577594 0.11824179 0.19000672
000240 6a 02 27 3e 89 4d 36 bd 13 97 19 be 17 b4 04 be
       0.16309515 -0.044507537 -0.14999036 -0.12959324
000250 24 b4 91 3d 02 05 b8 bd a2 ff f0 3a 75 dd 19 3d
       0.07114437 -0.0898533 0.0018386731 0.037564714
000260 a3 2d 0a 3e 54 76 f9 3d bc e2 ed 3d be b6 3d 3c
       0.13493972 0.121807724 0.11615512 0.011579214
000270 20 0f f8 3d d1 4d d3 bd 2f fd b0 bd 28 c9 02 bd
       0.1211226 -0.10317577 -0.08642041 -0.03193012
000280 4e a0 02 be db 11 47 3e 99 b7 01 bd 25 05 6e 3d
       -0.12756464 0.19440405 -0.031669233 0.058110375
000290 ad 2d 7e bc 00 2e 8a bb 3e f2 f1 bd b7 b7 94 bc
       -0.01551382 -0.0042169094 -0.11813782 -0.018154008
0002a0 cc f5 49 be d4 18 d2 bd d0 09 2e 3e b5 e5 49 be
       -0.1972267 -0.10258642 0.1699593 -0.19716533
0002b0 1d f9 12 3d e1 c8 0a 3d 23 6c 55 be 3d 41 43 3d
       0.035882104 0.03388298 -0.20842032 0.047669638
0002c0 d3 af ce 3d 62 63 22 3e d9 bd 20 3d 15 06 2f 3e
       0.100921296 0.15858224 0.039243553 0.17092164
0002d0 c0 a9 02 3c 66 c5 a5 3d 8b 77 80 3d da 7b 25 be
       0.007975042 0.080942914 0.06272801 -0.16160527
0002e0 7a 67 2f bd d7 6b 14 be 1e db 2a 3e 42 38 e4 3d
       -0.042823292 -0.14494263 0.16685149 0.11143543
0002f0 7e c9 bd bd d1 61 00 bd eb 2a 4f 3d b9 7c 49 be
       -0.09266947 -0.031343285 0.05057804 -0.19676484
000300 8a 98 7d 3c 0a 78 e5 3d dd cf a0 3c 26 65 59 bc
       0.015478263 0.11204536 0.019630367 -0.013268745
000310 d7 68 13 3e 1a 9a d2 3d 69 bd 4d be d9 43 f4 3d
       0.14395462 0.10283299 -0.20091785 0.119270034
000320 48 b3 28 be a2 1c 05 3e 21 a6 46 3e 0e 0e 4f 3c
       -0.1647464 0.12999204 0.1939931 0.012637628
000330 c1 46 8a bd 22 13 dd bd c0 75 ae bd 08 9c 5b bd
       -0.067517765 -0.10794665 -0.08518553 -0.0536156
000340 f3 08 a0 bd 37 66 54 3e 42 3c f3 bd e0 5e e9 3d
       -0.07814207 0.20742117 -0.11876728 0.11395049
000350 e9 cd 35 be f4 62 b4 3d c1 31 26 3e f4 4d 09 be
       -0.1775433 0.08807936 0.16229917 -0.13408643
000360 90 db a4 bd f9 0f a5 3d 1b 07 6f be 52 cf e6 bd
       -0.08049691 0.08059687 -0.23342554 -0.11270012
000370 7f 58 cd 3d 5b c4 38 3e 42 7e b6 bd 88 44 dc bc
       0.10026645 0.18043654 -0.089108005 -0.026888147
000380 db eb 3e be 7b e1 70 be b9 f7 2f 3e bc 95 29 3e
       -0.18644659 -0.23523514 0.17184342 0.16561025
000390 38 e5 43 bd ed 4c cf bd 74 78 1a 3c 2f 52 c1 3d
       -0.047826022 -0.10122094 0.009428132 0.094395034
0003a0 7a f7 54 be 73 57 f3 bd a6 e0 96 bd 42 16 c4 bd
       -0.2079753 -0.11881914 -0.07367067 -0.09574558
0003b0 3a 62 a4 bb 36 98 1f 3e 42 d4 0e 3d 50 8f 4b be
       -0.0050165923 0.15585408 0.034870394 -0.19878888
0003c0 7d 62 4f 3e 2e 63 36 3e b8 68 89 3d ea f9 d7 3d
       0.20252414 0.17811272 0.06709427 0.10545714
0003d0 38 7f 98 3d 5a e3 35 3e cc 48 58 be 50 41 01 be
       0.0744614 0.17762509 -0.2112152 -0.12622571
0003e0 6d 67 0a bd f3 26 20 bd 00 38 1a be 5e f5 51 be
       -0.03379004 -0.039099645 -0.15060425 -0.20503756
0003f0 90 e1 1b be d9 f6 3c bd 3f 83 34 3e ba d8 15 3e
       -0.15222764 -0.04613385 0.17628191 0.14633456

bias f4 [36]
000000 81 bf 08 bd 75 9e 40 be cb 6a 01 be 5a 3e 07 3e
       -0.033385757 -0.18810447 -0.12638395 0.13207379
000010 69 e7 de 3d 5d ca 23 3e 98 fc 9c bd ef a5 d5 bd
       0.10883982 0.15995164 -0.07665366 -0.1043204
000020 9b c2 44 be 6e f4 ef 3b dd c7 ba bc af 0c 55 3e
       -0.19214861 0.0073228395 -0.02280038 0.2080562
000030 0a 55 d3 bd 0f 23 1e be ad 8a a4 3d 67 ce a4 bd
       -0.10318954 -0.15443061 0.08034263 -0.080471806
000040 c6 58 24 bc 92 14 5b 3e a6 49 0d 3e 69 21 51 be
       -0.010030931 0.21394566 0.13797626 -0.20422901
000050 e9 92 88 3b 0a 8b f0 3b bf 0c 6a 3e ac 21 38 be
       0.0041679037 0.0073407935 0.22856425 -0.17981595
000060 23 96 0d 3e b6 75 5c be 2b 1c 60 be 0e 0c e3 bd
       0.13826804 -0.21529278 -0.21885745 -0.110862836
000070 d5 9c 59 be 24 a8 c4 bc e9 c7 32 3e 8f 2a 71 bd
       -0.21251233 -0.024005957 0.17459072 -0.058878478
000080 5d b0 1f be 3e 09 c4 bc 4e d3 2f be 0e fe 12 3e
       -0.15594621 -0.023930188 -0.1717045 0.14354727

weight f4 [1, 6]
000000 89 c4 71 3d 7a 61 b9 3e d0 57 31 3e d3 7a 15 3e
       0.05902532 0.3620718 0.17318654 0.14597635
000010 2c dd 0c 3e 91 27 c2 3e
       0.13756245 0.37920812

weight f4 [36, 1]
000000 3d ea 1c bf 7d 94 45 3f c6 4d b7 3e 09 17 6b 3f
       -0.6129492 0.771797 0.35801524 0.91832024
000010 86 e3 6f 3e a6 b8 b8 3e 0c 5e 1d 3f 8c 3e 27 3f
       0.23426637 0.36078376 0.6147163 0.65329814
000020 89 f6 0c 3f fa 64 49 bf f9 3c 91 3e 39 fe 2d bf
       0.5506368 -0.78669703 0.2836683 -0.6796604
000030 2a 1c 09 3e 39 99 0a 3f 06 05 a7 be 0b 56 5e 3f
       0.1338965 0.5414005 -0.3262102 0.8685004
000040 08 39 67 3f 3a 25 96 3e 10 7f 3b bf 5f 22 b9 3c
       0.903214 0.29325277 -0.73240757 0.022599397
000050 a4 fd 45 3f 6f 59 30 3e 01 70 5b 3f 7b 4c 7f 3d
       0.7734015 0.17221616 0.8571778 0.062328797
000060 2c 96 ea be 20 b7 2b 3f 43 59 ac 3e ea e2 0d 3f
       -0.45817697 0.670763 0.3366185 0.5542437
000070 71 61 16 bf 52 96 3f bf 29 55 2b 3f c1 c6 b2 3e
       -0.58742434 -0.74838746 0.6692682 0.34917262
000080 13 23 3a 3f 7a bc 53 bf ec fb ee be d6 7c 01 bd
       0.7270977 -0.8270947 -0.46676576 -0.031613193

bias f4 [36]
000000 87 54 05 bf 35 a3 20 3f da 10 4a 3f f7 39 5e 3f
       -0.52082103 0.62749034 0.78931963 0.868072
000010 fa 03 11 3e bf ca 68 bf af 78 b8 be d5 50 6f 3e
       0.14161673 -0.90934366 -0.36029574 0.23370679
000020 db 30 89 be 36 62 d9 3e 43 cc 8b be e5 bc 54 3f
       -0.26795086 0.42457741 -0.27304277 0.8310073
000030 a7 fc 5e 3f 7b 1b 7c 3f fc ad ad 3e c5 13 2d bf
       0.87104267 0.9847943 0.33921802 -0.6760829
000040 e2 db 7b be d9 3e 07 bf 60 af e1 3e 12 25 b0 bd
       -0.24595597 -0.5283027 0.44079113 -0.086008206
000050 a1 9a ca 3e 8b d4 90 3e 7a 4e a4 be 69 98 03 3e
       0.39571097 0.28287157 -0.32091123 0.12851109
000060 5b 35 18 be 18 ed 43 3e 20 03 28 bf b9 0c a9 3c
       -0.14864103 0.19133413 -0.6562977 0.02063595
000070 39 b7 45 3f b3 f7 06 3f 99 24 1f bf 46 6b 55 3f
       0.772327 0.5272171 -0.6216522 0.8336681
000080 fb 0c c6 be b5 83 66 3f ff 91 57 be c3 f7 76 3f
       -0.38681778 0.9004472 -0.21051787 0.96471804

xs f4 [1000, 6]
000000 e6 31 88 be 85 57 73 3c 3d 6b ce 3a 23 4a 34 bb
       -0.2660057 0.014852409 0.0015748512 -0.002751001
000010 5a 07 c2 bd 93 2b d8 bd 28 d3 d4 3e 5b e2 87 3e
       -0.094740584 -0.10555186 0.4156735 0.26539883
000020 9b 43 33 3c 97 f7 b6 bc 5a 07 c2 bd 93 2b d8 bd
       0.010941411 -0.022334857 -0.094740584 -0.10555186
000030 8a 46 88 be 60 d9 77 3c d3 9c 09 3b da 62 70 bb
       -0.26616317 0.01512751 0.0020998016 -0.0036680014
000040 5a 07 c2 bd 93 2b d8 bd be 43 d4 3e 1a 07 89 3e
       -0.094740584 -0.10555186 0.41457933 0.2676323
000050 ce 04 6f 3c b5 c4 61 bc 5a 07 c2 bd 93 2b d8 bd
       0.014588548 -0.013779809 -0.094740584 -0.10555186
000060 0f 62 88 be d8 db 7d 3c ed 45 58 bc e6 41 a0 bb
       -0.26637313 0.015494309 -0.013200265 -0.004890668
000070 5a 07 c2 bd 93 2b d8 bd 88 84 d3 3e b8 bb 89 3e
       -0.094740584 -0.10555186 0.4131205 0.2690103
000080 8a 58 9f 3c a6 85 1b bb 5a 07 c2 bd 93 2b d8 bd
       0.019451398 -0.0023730784 -0.094740584 -0.10555186
000090 0a b5 87 be 92 ef 82 3c 9e 2e 90 bc 45 4e 1b 3c
       -0.2650531 0.015983377 -0.017600354 0.00947911
0000a0 5a 07 c2 bd 93 2b d8 bd 93 85 d2 3e d2 da 89 3e
       -0.094740584 -0.10555186 0.41117534 0.2692476
0000b0 3a c7 22 3c dd 5c 4f bb 5a 07 c2 bd 93 2b d8 bd
       0.009935195 -0.0031641044 -0.094740584 -0.10555186
0000c0 5a ce 86 be 50 57 76 3c e3 ae f4 bb 06 13 4f 3c
       -0.2632931 0.015035465 -0.007467137 0.012638813
0000d0 5a 07 c2 bd 93 2b d8 bd 5a 03 d2 3e 4b 04 8a 3e
       -0.094740584 -0.10555186 0.41018182 0.269564
0000e0 a3 09 59 3c e8 3d 8a bb 5a 07 c2 bd 93 2b d8 bd
       0.0132469265 -0.0042188056 -0.094740584 -0.10555186
0000f0 7a 6c 86 be 36 a2 61 3c 42 1f 23 bc ae 0c 8a 3c
       -0.26254636 0.013771584 -0.009956183 0.01685175
000100 5a 07 c2 bd 93 2b d8 bd b8 55 d1 3e 97 3b 8a 3e
       -0.094740584 -0.10555186 0.4088571 0.26998588
000110 18 b1 90 3c 8a 52 b8 bb 5a 07 c2 bd 93 2b d8 bd
       0.01766257 -0.005625074 -0.094740584 -0.10555186
000120 fb e9 85 be 13 06 46 3c 02 7f 59 bc e9 10 b8 3c
       -0.26155075 0.012086409 -0.01327491 0.022469
000130 5a 07 c2 bd 93 2b d8 bd 36 6e d0 3e 52 85 8a 3e
       -0.094740584 -0.10555186 0.40709084 0.2705484
000140 20 ec c0 3c 63 c3 f5 bb 5a 07 c2 bd 93 2b d8 bd
       0.023550093 -0.0075000986 -0.094740584 -0.10555186
000150 fc 3b 85 be e5 35 21 3c 56 ff 90 bc e5 b2 64 3c
       -0.26022327 0.00983951 -0.017699879 0.013958667
000160 5a 07 c2 bd 93 2b d8 bd 8a 39 cf 3e a0 e7 8a 3e
       -0.094740584 -0.10555186 0.40473586 0.2712984
000170 cd 50 7c 3c 97 d7 23 bc 5a 07 c2 bd 93 2b d8 bd
       0.015400124 -0.010000131 -0.094740584 -0.10555186
000180 fd 53 84 be 34 57 0a 3c 73 54 c1 bc a2 26 2b 3b
       -0.25845328 0.008443642 -0.023599839 0.0026115556
000190 5a 07 c2 bd 93 2b d8 bd b0 6f ce 3e b3 6a 8b 3e
       -0.094740584 -0.10555186 0.40319586 0.27229843
0001a0 bb 8d 94 3b ca 74 5a bc 5a 07 c2 bd 93 2b d8 bd
       0.004533497 -0.013333509 -0.094740584 -0.10555186
0001b0 a9 1e 83 be d6 0f 06 3c 00 67 7d bc 83 33 64 3b
       -0.2560933 0.0081824865 -0.015466452 0.0034820742
0001c0 5a 07 c2 bd 93 2b d8 bd 45 34 ce 3e 77 19 8c 3e
       -0.094740584 -0.10555186 0.40274253 0.27363178
0001d0 4f 12 c6 3b 1a 0c e9 ba 5a 07 c2 bd 93 2b d8 bd
       0.006044663 -0.0017780096 -0.094740584 -0.10555186
0001e0 f0 53 82 be 5a 5b 00 3c 56 ef a8 bc 57 22 98 3b
       -0.25454664 0.00783428 -0.020621937 0.0046427655
0001f0 5a 07 c2 bd 93 2b d8 bd 0a e5 cd 3e c6 30 8c 3e
       -0.094740584 -0.10555186 0.40213805 0.2738096
000200 35 0c 04 3c 85 4d 5f 3c 5a 07 c2 bd 93 2b d8 bd
       0.008059551 0.013629322 -0.094740584 -0.10555186
000210 a4 45 81 be 12 80 f1 3b 5b 59 3c bc 74 d8 ca 3b
       -0.25248444 0.0073700035 -0.011495913 0.006190354
000220 5a 07 c2 bd 93 2b d8 bd 66 7b cd 3e 21 7e 8b 3e
       -0.094740584 -0.10555186 0.40133208 0.27244666
000230 2e 29 ac bb 59 de 94 3c 5a 07 c2 bd 93 2b d8 bd
       -0.0052539324 0.01817243 -0.094740584 -0.10555186
000240 f6 ae 80 be 3a 37 dd 3b ce 21 7b bc f8 3a 07 3c
       -0.25133485 0.0067509683 -0.015327884 0.008253805
000250 5a 07 c2 bd 93 2b d8 bd 43 c0 cd 3e f0 8f 8a 3e
       -0.094740584 -0.10555186 0.40185747 0.2706294
000260 3d 8c e5 bb ba d6 06 3c 5a 07 c2 bd 93 2b d8 bd
       -0.007005243 0.008229906 -0.094740584 -0.10555186
000270 1d cc 7f be 6e 2b c2 3b df 6b a7 bc 7d ac a3 bb
       -0.24980207 0.0059255874 -0.02043718 -0.0049949274
000280 5a 07 c2 bd 93 2b d8 bd 15 1c ce 3e 11 24 8a 3e
       -0.094740584 -0.10555186 0.402558 0.2698064
000290 28 08 19 bc f8 c8 33 3c 5a 07 c2 bd 93 2b d8 bd
       -0.0093403235 0.010973208 -0.094740584 -0.10555186
0002a0 5d b4 7d be 7b 89 d2 3b 20 50 38 bc 52 3b da bb
       -0.24775834 0.0064250804 -0.011249572 -0.0066599036
0002b0 5a 07 c2 bd 93 2b d8 bd 82 96 ce 3e 3d 94 89 3e
       -0.094740584 -0.10555186 0.40349203 0.2687091
0002c0 e0 0a 4c bc f3 71 b3 ba 5a 07 c2 bd 93 2b d8 bd
       -0.012453765 -0.0013690576 -0.094740584 -0.10555186
0002d0 76 8d 7c be 36 5c e8 3b 97 25 83 3a e1 7c 11 bc
       -0.24663338 0.0070910705 0.001000571 -0.008879871
0002e0 5a 07 c2 bd 93 2b d8 bd bd 39 cf 3e 2e a6 89 3e
       -0.094740584 -0.10555186 0.40473738 0.26884598
0002f0 40 07 88 bc 9a 42 ef ba 5a 07 c2 bd 93 2b d8 bd
       -0.01660502 -0.0018254102 -0.094740584 -0.10555186
000300 b2 a7 7c be 98 ba 02 3c ca dc ae 3a d6 fb 41 bc
       -0.24673346 0.007979058 0.0013340947 -0.0118398275
000310 5a 07 c2 bd 93 2b d8 bd 62 13 d0 3e 1b be 89 3e
       -0.094740584 -0.10555186 0.40639788 0.2690285
000320 45 32 c9 bb bb 81 1f bb 5a 07 c2 bd 93 2b d8 bd
       -0.006140026 -0.00243388 -0.094740584 -0.10555186
000330 ab ca 7c be 94 20 16 3c 62 26 e9 3a e6 ef 5f 39
       -0.24686687 0.009163041 0.0017787928 0.00021356306
000340 5a 07 c2 bd 93 2b d8 bd dd 63 d0 3e 02 de 89 3e
       -0.094740584 -0.10555186 0.4070119 0.2692719
000350 83 21 06 bc fa ac 54 bb 5a 07 c2 bd 93 2b d8 bd
       -0.008186701 -0.0032451735 -0.094740584 -0.10555186
000360 4d f9 7c be 01 c7 15 3c ec 6e 1b 3b 9a 4a 95 39
       -0.24704476 0.0091416845 0.0023717238 0.00028475077
000370 5a 07 c2 bd 93 2b d8 bd 2b cf d0 3e 8a 08 8a 3e
       -0.094740584 -0.10555186 0.40783057 0.2695964
000380 5a d7 32 bc 8b 40 3f 3c 5a 07 c2 bd 93 2b d8 bd
       -0.010915602 0.011673103 -0.094740584 -0.10555186
000390 7a 37 7d be 92 4f 15 3c 90 3e 4f 3b a7 2e 86 3c
       -0.24728194 0.009113209 0.0031622984 0.016379667
0003a0 5a 07 c2 bd 93 2b d8 bd 3e 5e d1 3e 8a 6f 89 3e
       -0.094740584 -0.10555186 0.40892214 0.2684291
0003b0 36 83 bd 3a ba 00 7f 3c 5a 07 c2 bd 93 2b d8 bd
       0.001445866 0.015564138 -0.094740584 -0.10555186
0003c0 60 8a 7d be e0 f2 f4 3b 03 10 41 bc df e8 b2 3c
       -0.24759817 0.007475242 -0.011783603 0.021839557
0003d0 5a 07 c2 bd 93 2b d8 bd 4b 4b d1 3e 89 a3 88 3e
       -0.094740584 -0.10555186 0.40877756 0.26687267
0003e0 f3 ae fc 3a 32 b8 9b 3b 5a 07 c2 bd 93 2b d8 bd
       0.0019278213 0.0047521824 -0.094740584 -0.10555186
0003f0 7a 55 7c be 87 62 ad 3b 57 b5 80 bc cb f2 56 3c
       -0.24641982 0.0052912864 -0.01571147 0.01311941

z f4 [500, 36]
000000 c8 b1 fd bf 7e ac 2d 40 48 b4 ad 3f 50 79 1b 40
       -1.981988 2.713653 1.3570642 2.4292793
000010 5c 27 34 3f fe 02 42 be 8d ac 2a 3f 68 4f b6 3f
       0.7037256 -0.18946454 0.6666954 1.4242983
000020 3e 2e 76 3f 68 8a 97 bf 60 ee a2 3e 74 e6 b9 be
       0.9616431 -1.1839113 0.3182249 -0.36308634
000030 e4 4f 98 3f d1 55 04 40 a0 a6 8f be 65 d0 5f 3f
       1.1899381 2.0677378 -0.28056812 0.8742736
000040 fe 21 e9 3f dc bb ec 3d 05 86 98 bf 68 47 84 bd
       1.8213499 0.11559269 -1.19159 -0.06458932
000050 45 6d 01 40 7c e6 e8 3e 95 63 af 3f 1c d0 a7 3d
       2.0222943 0.45488346 1.3702265 0.081939906
000060 a6 a4 73 bf da 6d 03 40 de 35 e0 3e d1 4e a1 3f
       -0.9517311 2.0535798 0.43791097 1.2602178
000070 5f 65 ce be 1e c8 73 bf bb 40 8b 3f ae fd d6 3f
       -0.40311715 -0.9522723 1.0879129 1.6796167
000080 42 13 77 3f 5c ca 3f bf c2 57 d2 bf 28 29 3e 3f
       0.9651376 -0.7491815 -1.6433032 0.7428155
000090 0e a6 fd bf 40 b8 2d 40 e0 c8 ad 3f 4a 73 1b 40
       -1.9816301 2.7143707 1.3576927 2.4289117
0000a0 54 2b 34 3f 65 05 42 be 60 c6 2a 3f 2c 47 b6 3f
       0.70378613 -0.1894737 0.66708946 1.424047
0000b0 ee 2f 76 3f cb 8b 97 bf 91 23 a3 3e 50 dd b9 be
       0.96166885 -1.1839536 0.31863073 -0.3630166
0000c0 1b 42 98 3f d8 58 04 40 de 9c 8f be 12 63 60 3f
       1.1895174 2.0679226 -0.28049368 0.8765117
0000d0 70 24 e9 3f d0 c2 ed 3d 17 ac 98 bf e6 31 84 bd
       1.8214245 0.11609423 -1.1927518 -0.0645483
0000e0 e6 6a 01 40 54 3b e9 3e 5a 68 af 3f 6a e1 a2 3d
       2.0221496 0.45553076 1.370372 0.079531506
0000f0 11 4f 73 bf 90 6c 03 40 de ab df 3e e9 50 a1 3f
       -0.9504252 2.0535011 0.43685812 1.2602817
000100 33 50 ce be 22 c7 73 bf 64 27 8b 3f 7b 04 d7 3f
       -0.40295562 -0.9522573 1.0871396 1.6798242
000110 91 09 77 3f 4b cb 3f bf d4 97 d2 bf c6 2a 3e 3f
       0.9649897 -0.74919575 -1.6452584 0.7428402
000120 7e 7d fd bf 26 f1 2d 40 2e ea ad 3f 16 77 1b 40
       -1.9803922 2.7178435 1.3587091 2.4291434
000130 64 31 34 3f 54 0b 42 be 83 f6 2a 3f 54 51 b6 3f
       0.70387864 -0.18949634 0.667824 1.4243569
000140 ec f9 75 3f 5c 84 97 bf a8 68 a3 3e 0a 95 ba be
       0.96084476 -1.1837268 0.31915784 -0.36441833
000150 20 f9 97 3f 14 5c 04 40 ad 54 8f be ae 0f 61 3f
       1.1872902 2.06812 -0.2799429 0.8791455
000160 74 07 e9 3f 3c 62 ef 3d e3 e0 98 bf 4a 72 84 bd
       1.82054 0.116886586 -1.194363 -0.064671114
000170 b7 51 01 40 13 67 e9 3e 67 70 af 3f c2 78 9e 3d
       2.0206125 0.45586452 1.3706177 0.077378765
000180 ae 03 73 bf 30 7a 03 40 86 0e df 3e 42 5a a1 3f
       -0.9492749 2.0543327 0.43565768 1.260567
000190 bc 08 ce be 42 9c 73 bf 69 20 8b 3f 8d 08 d7 3f
       -0.4024104 -0.95160306 1.0869266 1.6799484
0001a0 08 fe 76 3f 9a cc 3f bf 9a a9 d2 bf 36 09 3e 3f
       0.9648137 -0.7492157 -1.6458008 0.74232805
0001b0 18 f0 fc bf 54 41 2e 40 cd e9 ad 3f d8 7c 1b 40
       -1.9760771 2.7227373 1.3586975 2.4294949
0001c0 1f 51 34 3f de 11 42 be 12 24 2b 3f 50 38 b6 3f
       0.7043628 -0.18952128 0.66851914 1.4235935
0001d0 72 5b 75 3f e8 6d 97 bf b9 2c a3 3e b3 85 ba be
       0.9584266 -1.1830416 0.31870058 -0.3643013
0001e0 9b 1b 98 3f 8e 69 04 40 7f 9a 8f be 4d 0e 61 3f
       1.1883425 2.0689425 -0.2804756 0.87912446
0001f0 a4 1b e9 3f de eb ed 3d bb 13 99 bf 3f 73 85 bd
       1.821156 0.11617254 -1.1959146 -0.06516122
000200 ab 39 01 40 80 bf e8 3e 3e 62 af 3f cc 77 a1 3d
       2.0191448 0.45458603 1.3701856 0.078841776
000210 09 e7 72 bf 58 82 03 40 a2 df de 3e dc 67 a1 3f
       -0.9488378 2.0548306 0.43529993 1.260982
000220 55 2f ce be 99 99 73 bf f0 f9 8a 3f c1 75 d7 3f
       -0.40270486 -0.95156246 1.0857525 1.6832811
000230 fa 2a 77 3f f0 d0 3f bf 45 60 d2 bf 06 d5 3d 3f
       0.9654995 -0.7492819 -1.6435629 0.7415317
000240 bf f0 fc bf fd 19 2e 40 fd e3 ad 3f 8f 72 1b 40
       -1.976097 2.7203362 1.3585202 2.428867
000250 4a 4d 34 3f 39 0f 42 be c1 00 2b 3f 0a 28 b6 3f
       0.70430434 -0.1895112 0.66798025 1.4230969
000260 c4 86 75 3f bf 6a 97 bf ff 01 a3 3e 54 fb b9 be
       0.9590876 -1.1829451 0.3183746 -0.3632456
000270 3d 44 98 3f b6 6d 04 40 06 e8 8f be 9e 2e 61 3f
       1.1895825 2.0691962 -0.28106707 0.8796176
000280 38 40 e9 3f 84 d9 ed 3d e4 00 99 bf ec 64 85 bd
       1.8222723 0.116137534 -1.1953397 -0.0651339
000290 81 4b 01 40 01 1d e9 3e 5d 69 af 3f 68 e0 9d 3d
       2.0202334 0.4552994 1.3704029 0.07708818
0002a0 ff d6 72 bf d3 73 03 40 52 d4 de 3e ce 58 a1 3f
       -0.9485931 2.0539443 0.43521363 1.2605226
0002b0 34 59 ce be ab b7 73 bf 35 d2 8a 3f 2c 94 d7 3f
       -0.40302432 -0.9520213 1.08454 1.6842093
0002c0 f5 17 77 3f 64 ce 3f bf f9 af d2 bf 78 d8 3d 3f
       0.9652093 -0.749243 -1.6459953 0.7415843
0002d0 dc cf fc bf 66 0c 2e 40 c5 e7 ad 3f 91 71 1b 40
       -1.9750934 2.7195067 1.3586355 2.4288065
0002e0 8c 43 34 3f 41 0f 42 be 96 d8 2a 3f 73 26 b6 3f
       0.7041557 -0.18951131 0.66736734 1.4230484
0002f0 64 86 75 3f 7a 61 97 bf 60 ce a2 3e 1e e6 b9 be
       0.9590819 -1.1826622 0.31798077 -0.36308378
000300 8b 45 98 3f 9a 70 04 40 f2 03 90 be 82 4a 61 3f
       1.1896223 2.0693727 -0.2812801 0.88004315
000310 32 4d e9 3f ba f0 ed 3d df f7 98 bf 1e dd 85 bd
       1.8226683 0.116181806 -1.1950644 -0.065363154
000320 59 49 01 40 fa 59 e9 3e e9 71 af 3f c4 d3 9b 3d
       2.0201018 0.4557646 1.3706638 0.076087505
000330 41 da 72 bf 6c 6c 03 40 80 cf de 3e ab 51 a1 3f
       -0.9486428 2.0534925 0.43517685 1.2603048
000340 c1 65 ce be bb ba 73 bf 3b b9 8a 3f 3a b5 d7 3f
       -0.40312007 -0.95206803 1.0837778 1.6852181
000350 2d 01 77 3f 1a cb 3f bf 8c d2 d2 bf 3f c4 3d 3f
       0.9648617 -0.74919283 -1.6470504 0.7412757
000360 58 a3 fc bf 36 fa 2d 40 bc ec ad 3f 5d 70 1b 40
       -1.9737349 2.7183967 1.3587871 2.428733
000370 50 36 34 3f 54 0f 42 be b4 a3 2a 3f 89 24 b6 3f
       0.70395374 -0.1895116 0.6665604 1.42299
000380 ee 84 75 3f 2e 55 97 bf 9b 89 a2 3e b0 ca b9 be
       0.9590596 -1.182287 0.3174561 -0.3628745
000390 19 47 98 3f 71 74 04 40 64 29 90 be 0a 70 61 3f
       1.1896697 2.069607 -0.2815658 0.88061583
0003a0 70 5e e9 3f b2 0e ee 3d a5 eb 98 bf 22 7d 86 bd
       1.8231945 0.11623897 -1.1946913 -0.06566836
0003b0 76 46 01 40 f1 ab e9 3e 4e 7d af 3f b8 1d 99 3d
       2.0199256 0.45638993 1.3710115 0.074763715
0003c0 90 de 72 bf 87 62 03 40 0a c8 de 3e 1e 48 a1 3f
       -0.94870853 2.0528886 0.43511993 1.2600133
0003d0 60 76 ce be b2 be 73 bf ae 97 8a 3f 45 e1 d7 3f
       -0.40324688 -0.9521285 1.0827539 1.6865622
0003e0 fa e2 76 3f bd c6 3f bf f8 ff d2 bf 44 a9 3d 3f
       0.9644009 -0.74912626 -1.6484365 0.74086404
0003f0 d2 de fc bf 00 12 2e 40 c8 ea ad 3f cd 74 1b 40
       -1.9755499 2.7198486 1.3587275 2.429004
