weights/sae_norm_buzz_wire_latest.pt (torch, 124393 bytes, 30 tensors)

encoder.key_net.net.0.weight f4 [68, 64]
0.035902932 0.099229716 -0.06257704 0.05081287 0.00095900893 0.10000715 0.083145216 -0.07386245
0.07729694 0.018520698 -0.034022957 0.05236754 -0.03394802 0.016950518 -0.08551073 0.0035826266
-0.0423588 -0.042770386 -0.02068387 0.060559094 0.088414386 -0.026088014 -0.07129653 0.08474912
-0.100167036 0.073728174 0.107860595 0.093934596 -0.012613237 -0.050341934 -0.037843317 -0.07500851
-0.07734454 -0.017782629 -0.083501965 -0.09808494 -0.043550745 -0.029736519 -0.013954818 0.0027814358
0.047943443 0.030015111 0.03286685 0.09762564 -0.08968414 0.060723066 0.04970923 0.07039389
-0.08672464 -0.019559652 -0.09607388 -0.080900446 -0.09191978 0.10128896 -0.06513791 -0.08006646
-0.112293854 0.05744964 0.09286031 0.072375536 -0.104081884 -0.12082194 -0.005759582 0.07056296
-0.042345382 -0.08482956 0.0081192255 0.016294494 0.012752011 -0.11610441 0.06644115 0.05704695
0.101911694 -0.12019931 0.009766325 -0.061773926 -0.05150938 0.095852405 -0.057098284 0.03784594
-0.11137968 0.04468198 -0.07795052 -0.059354097 0.05053538 -0.03576602 0.08423628 0.099799484
0.07999909 0.09477204 0.0351941 0.1130684 -0.054068178 0.023577467 0.010955319 0.1234605
-0.07354733 0.11793333 -0.007907689 -0.06805912 -0.043677837 0.10460901 -0.040670455 0.003185302
0.01145339 -0.09428166 -0.03554429 -0.118867785 0.08506158 0.02647698 -0.1015615 0.04476954
0.067253575 -0.008271113 -0.068718806 -0.1076795 0.06795786 -0.0747205 0.061534196 0.11757128
-0.029832423 -0.059164405 -0.07969034 0.07448053 -0.011167064 -0.036131993 0.11437093 0.0022770911
-0.062173754 0.0857572 -0.051268175 0.043082774 -0.035257727 -0.04179111 0.008451328 0.023469493
0.036436006 0.0011741668 -0.0074614584 -0.11991395 -0.12295617 0.070377335 -0.03868796 0.035247594
-0.07213336 -0.09937781 -0.10971402 0.108565256 -0.117761016 0.045714185 -0.038816363 0.001825586
-0.088274285 -0.10509582 -0.053309277 0.03814237 -0.062903464 -0.040998176 0.029170305 0.12496379
-0.112253815 0.04042308 0.08500573 -0.05743055 0.0075199604 0.113406196 0.12031205 0.009778291
0.07498276 0.07560022 -0.08842379 0.029445618 -0.12158018 0.086011395 0.02761583 0.062355876
0.020046547 -0.014329344 -0.068871334 -0.00880982 -0.055641443 0.014394328 -0.0795729 -0.0076010525
-0.07148841 0.062857166 0.05973421 0.095209554 -0.03758502 0.11273947 0.021316096 0.05270052
0.12665147 -0.08701538 -0.11753601 -0.10764976 -0.11012463 0.064711526 -0.014999256 0.044492275
0.080123246 0.040353507 0.06573081 0.07480024 0.11415619 -0.014389679 -0.09404534 -0.0018081367
-0.036803186 0.099485576 -0.07442987 0.06985283 0.082800314 -0.08794068 0.06675072 0.1162847
-0.09010872 -0.08880025 0.012571409 -0.100324064 0.07816237 0.025352284 -0.027346075 0.086174786
-0.020807162 0.06673658 0.100218624 0.118805915 -0.0971019 0.022577912 0.07372208 0.0037826598
0.061873198 -0.06595878 -0.057995915 0.0224725 -0.048186585 -0.08582944 -0.0028126538 0.089254335
0.102252215 0.11570728 -0.046261325 0.028325379 -0.047067806 -0.022853062 -0.040319696 -0.005619347
0.0994474 -0.103208646 0.065901205 0.0977308 -0.04762499 -0.03396626 0.027724043 -0.0931883
00000000: f40e 133d f338 cb3d 6428 80bd 2821 503d
00000010: 0066 7b3a 8cd0 cc3d 0a48 aa3d 3245 97bd
00000020: dc4d 9e3d b8b8 973c a85b 0bbd 587f 563d
00000030: 140d 0bbd d0db 8a3c 4020 afbd 80ca 6a3b
00000040: 6c80 2dbd 0030 2fbd 3871 a9bc d00c 783d
00000050: 9a12 b53d 88b6 d5bc ea03 92bd f290 ad3d
00000060: 6024 cdbd ccfe 963d 04e6 dc3d c860 c03d
00000070: c0a7 4ebc 5833 4ebd 9801 1bbd 109e 99bd
00000080: d066 9ebd e0ac 91bc 1403 abbd c2e0 c8bd
00000090: 4462 32bd 009a f3bc c0a2 64bc c048 363b
000000a0: 5860 443d 40e2 f53c 649f 063d f4ef c73d
000000b0: 52ac b7bd c0b8 783d e89b 4b3d ac2a 903d
000000c0: b09c b1bd 903b a0bc 62c2 c4bd 22af a5bd
000000d0: 7040 bcbd 9670 cf3d 0667 85bd e2f9 a3bd
000000e0: 52fa e5bd 5050 6b3d 8c2d be3d a039 943d
000000f0: e228 d5bd 7e71 f7bd e0ba bcbb 5083 903d
00000100: 5a72 2dbd 1fbb adbd 8006 053c 087c 853c
00000110: d0ed 503c 26c8 edbd 4c12 883d 10aa 693d
00000120: 14b7 d03d 0e2b f6bd f002 203c a806 7dbd
00000130: 80fb 52bd 444e c43d e4df 69bd 5804 1b3d
00000140: 081b e4bd 7404 373d 86a4 9fbd 481d 73bd
00000150: 30fe 4e3d 647f 12bd 1284 ac3d ac63 cc3d
00000160: 90d6 a33d d817 c23d b027 103d 6890 e73d
00000170: 9876 5dbd 8825 c13c f07d 333c dcd8 fc3d
00000180: fc9f 96bd 0887 f13d 408f 01bc 9462 8bbd
00000190: 88e7 32bd 403d d63d 1096 26bd 80c0 503b
000001a0: 00a7 3b3c be16 c1bd e496 11bd f470 f3bd
000001b0: c434 ae3d 40e6 d83c 7aff cfbd 4460 373d
000001c0: 3ebc 893d 9083 07bc 72bc 8cbd 1287 dcbd
000001d0: 7e2d 8b3d 1007 99bd 480b 7c3d 36c9 f03d
000001e0: 2063 f4bc 6056 72bd b034 a3bd 4089 983d
000001f0: 10f6 36bc 24ff 13bd 4e3b ea3d 403b 153b
00000200: e8a9 7ebd 79a1 af3d 94fe 51bd 9077 303d
00000210: 686a 10bd 282d 2bbd 7077 0a3c 1843 c03c
00000220: ec3d 153d 80e6 993a 407f f4bb 7295 f5bd
00000230: 72d0 fbbd fe21 903d 4477 1ebd c85f 103d
00000240: a8ba 93bd 9886 cbbd beb1 e0bd 7657 de3d
00000250: b02c f1bd cc3e 3b3d e8fd 1ebd 8048 ef3a
00000260: 26c9 b4bd 7a3c d7bd d45a 5abd 2c3b 1c3d
00000270: 88d3 80bd b4ed 27bd 90f6 ee3c 04ed ff3d
00000280: 54e5 e5bd ac92 253d 7c17 ae3d 4c3c 6bbd
00000290: 006a f63b 8241 e83d 2a66 f63d 2035 203c
000002a0: 9090 993d 4ad4 9a3d 8817 b5bd f037 f13c
000002b0: 08ff f8bd be26 b03d 983a e23c e068 7f3d
000002c0: a838 a43c a0c5 6abc 6a0c 8dbd 1057 10bc
000002d0: 48e8 63bd 30d6 6b3c 1ef7 a2bd 4012 f9bb
000002e0: 8468 92bd 42bb 803d dcab 743d 3afd c23d
000002f0: c0f2 19bd f4e3 e63d 189f ae3c 80dc 573d
00000300: ecb0 013e 1f35 b2bd b8b6 f0bd 7a77 dcbd
00000310: 0689 e1bd 7a87 843d 70bf 75bc 883d 363d
00000320: a817 a43d b849 253d e09d 863d de30 993d
00000330: b8ca e93d b0c2 6bbc d89a c0bd 00ff ecba
00000340: f0be 16bd 18bf cb3d b06e 98bd 000f 8f3d
00000350: 3693 a93d 3e1a b4bd 9ab4 883d ac26 ee3d
00000360: ec8a b8bd e8dc b5bd 50f8 4d3c b476 cdbd
00000370: 9813 a03d 98af cf3c e004 e0bc 687c b03d
00000380: c873 aabc 30ad 883d 6c3f cd3d 8450 f33d
00000390: 5cdd c6bd 50f5 b83c 9afb 963d 80e6 773b
000003a0: c06e 7d3d 6615 87bd 208d 6dbd 4018 b83c
000003b0: 4c5f 45bd 58c7 afbd 8054 38bb faca b63d
000003c0: 9c69 d13d f0f7 ec3d 847c 3dbd a00a e83c
000003d0: 2cca 40bd 5836 bbbc 4426 25bd 8022 b8bb
000003e0: 14ab cb3d 0e5f d3bd 36f7 863d 1627 c83d
000003f0: 6c12 43bd 3420 0bbd 881d e33c 82d9 bebd

encoder.key_net.net.0.bias f4 [68]
0.090265505 -0.017271133 -0.0055050803 0.07528271 -0.10903018 -0.048341718 0.03838323 0.024580376
-0.04815349 -0.024439784 -0.046312753 0.05228201 -0.030970333 0.12798621 0.016373502 0.06451638
-0.0008712868 0.06430679 0.031298634 0.09700512 -0.06592154 0.0031844631 -0.05782179 -0.06510025
0.045966826 0.07396708 0.033150207 -0.04504209 -0.0574741 0.07495641 0.019457102 -0.049559757
-0.036333647 -0.018449971 -0.06371251 -0.027042361 -0.036983985 -0.008570507 -0.010589504 -0.023332562
-0.0148264365 -0.04291625 -0.006460986 -0.0888984 0.11605662 -0.015628869 0.040818278 -0.04102479
-0.041001994 0.01609469 0.12063152 0.09397707 -0.0015623302 -0.03190788 -0.078584254 0.017280051
0.007344028 -0.08793906 -0.05805253 0.094844595 0.12210301 -0.059967667 0.07297381 0.0716714
-0.029049138 -0.023683557 0.09310022 0.089314684
00000000: 1fdd b83d 317c 8dbc f663 b4bb d22d 9a3d
00000010: 374b dfbd f701 46bd bc37 1d3d c95c c93c
00000020: 983c 45bd f135 c8bc 71b2 3dbd a925 563d
00000030: 7fb5 fdbc d10e 033e b921 863c 2a21 843d
00000040: 1167 64ba 47b3 833d ff32 003d 9faa c63d
00000050: df01 87bd 6db2 503b 8bd6 6cbd 4853 85bd
00000060: b647 3c3d 0d7c 973d 83c8 073d 0e7e 38bd
00000070: f669 6bbd bf82 993d 8064 9f3c 2cff 4abd
00000080: 97d2 14bd 6524 97bc b47b 82bd f187 ddbc
00000090: 857c 17bd 506b 0cbc 997f 2dbc ee23 bfbc
000000a0: 95ea 72bc f3c8 2fbd aeb6 d3bb 5d10 b6bd
000000b0: 18af ed3d 1d08 80bc 1131 273d 9c09 28bd
000000c0: b5f1 27bd 03d9 833c a90d f73d 0d77 c03d
000000d0: 1ac7 ccba d6b1 02bd c8f0 a0bd e58e 8d3c
000000e0: 2ca6 f03b 6519 b4bd 7dc8 6dbd e23d c23d
000000f0: 2511 fa3d a8a0 75bd 4b73 953d 74c8 923d
00000100: 75f8 edbc 0504 c2bc 54ab be3d 9eea b63d

encoder.key_net.net.1.weight f4 [68]
1.0213096 1.0117483 1.0578599 1.05623 0.96873546 0.9920018 1.0238189 1.044046
0.9477957 0.99710095 1.0071496 1.0580579 1.0272781 1.0459526 1.0352026 1.0831084
1.0100379 1.0247585 0.9858931 1.039554 1.0079894 1.0327547 0.98180354 1.0611256
0.99873716 1.07525 1.0427848 1.0062916 0.98090655 1.0170548 1.0549394 1.0347676
0.99261075 1.0380675 1.0530721 1.0009631 1.0093848 1.0179824 1.0064015 1.053231
0.99683696 1.0564883 1.0498861 0.9545015 1.0621814 1.0631484 1.0159436 1.0293031
0.998881 1.0916165 1.0726302 1.0543641 1.0061967 0.9868109 1.0224966 0.97157675
1.0101366 0.97283244 1.0106755 1.0226597 1.0485988 1.0107678 1.0242876 1.060006
0.902668 1.0247991 1.0158523 1.0327971
00000000: 46ba 823f f880 813f f467 873f 8b32 873f
00000010: 0cff 773f d4f3 7d3f 7f0c 833f 4da3 853f
00000020: bda2 723f 0242 7f3f 47ea 803f 716e 873f
00000030: d97d 833f c6e1 853f 8581 843f 4ca3 8a3f
00000040: ec48 813f 492b 833f 7d63 7c3f 1b10 853f
00000050: cc05 813f 4e31 843f 7a57 7b3f f7d2 873f
00000060: 3dad 7f3f cba1 893f f979 853f 2ace 803f
00000070: b11c 7b3f da2e 823f 4108 873f 4473 843f
00000080: bd1b 7e3f 65df 843f 11cb 863f 8f1f 803f
00000090: 8533 813f 3f4d 823f c4d1 803f 46d0 863f
000000a0: b530 7f3f 023b 873f ab62 863f 365a 743f
000000b0: 8ff5 873f 3f15 883f 710a 823f 34c0 833f
000000c0: aab6 7f3f 17ba 8b3f f24b 893f 67f5 863f
000000d0: 0ecb 803f a49f 7c3f 2be1 823f 41b9 783f
000000e0: 284c 813f 8c0b 793f d15d 813f 83e6 823f
000000f0: 7c38 863f d760 813f db1b 833f 47ae 873f
00000100: 4015 673f 9e2c 833f 7307 823f b232 843f

encoder.key_net.net.1.bias f4 [68]
0.025454313 -0.023022946 0.0070817755 0.022041628 0.011104848 0.06452428 0.02894219 0.03125566
0.029030275 0.014923095 -0.02794722 0.037638914 -0.03284863 0.05477442 0.03241242 0.0441961
-0.01640956 0.02808436 -0.027663825 0.028750692 0.03434055 0.011227689 -0.0092263045 -0.051782202
0.0022418497 0.049453992 0.019266715 0.011592983 0.017979791 0.024997747 0.043763246 -0.04394623
0.008261171 -0.030634249 0.028205626 0.013833216 0.0025159398 -0.0011980386 0.040137287 0.021211201
-0.0039826417 0.03703577 -0.04667058 0.044325918 0.035882704 0.042266406 0.01770277 -0.045280684
0.00035262524 0.061158605 0.057200737 0.031835813 -0.010877914 0.014279003 -0.023057006 0.05168319
-0.014675698 0.028569749 -0.03722269 0.0022482602 0.031992 0.0032237975 0.018432925 0.036135543
0.025873898 -0.031058004 0.02428812 0.022506338
00000000: 9085 d03c 9e9a bcbc 3d0e e83b a590 b43c
00000010: 1cf1 353c 4e25 843d 2c18 ed3c ef05 003d
00000020: e6d0 ed3c ff7f 743c 91f1 e4bc 432b 1a3d
00000030: 498c 06bd 245b 603d e3c2 043d f806 353d
00000040: 576d 86bc 2c11 e63c 3f9f e2bc 9286 eb3c
00000050: ada8 0c3d 57f4 373c ed29 17bc 9319 54bd
00000060: ffeb 123b 4590 4a3d 3bd5 9d3c 7ff0 3d3c
00000070: 5b4a 933c 13c8 cc3c 1741 333d f600 34bd
00000080: dd59 073c adf4 fabc 7c0f e73c b7a4 623c
00000090: 77e2 243b 8107 9dba ff66 243d 1dc3 ad3c
000000a0: d280 82bb d2b2 173d a629 3fbd 188f 353d
000000b0: bef9 123d 8a1f 2d3d 6605 913c 3d78 39bd
000000c0: 8fe0 b839 7281 7a3d 524b 6a3d 4566 023d
000000d0: 4739 32bc 7bf2 693c 0ce2 bcbc c1b1 533d
000000e0: 5772 70bc 1b0b ea3c d276 18bd 8c57 133b
000000f0: 0b0a 033d 5946 533b a500 973c dd02 143d
00000100: 7ff5 d33c 5b6d febc e1f7 c63c 365f b83c

encoder.key_net.net.3.weight f4 [72, 68]
-0.012885535 0.08915605 -0.068200335 -0.016198372 -0.08826673 0.033711508 -0.042492133 -0.07362669
-0.092853285 -0.056917984 -0.073651515 0.09385096 -0.078202896 -0.09702966 -0.07927759 0.13208157
-0.07933352 0.093063034 -0.012794829 -0.094056524 -0.020563208 0.035936814 0.01689095 -0.13214415
0.13124481 -0.0018144536 0.0003244041 0.034602936 0.03537057 0.039466977 0.012378083 -0.0019294705
-0.028165529 0.063577496 0.06996173 -0.047178898 -0.09873173 -0.06742671 0.1280824 -0.009722571
0.021692008 -0.004872928 -0.05792015 -0.022469515 0.06751169 0.014422022 -0.061208177 -0.08983602
0.03088818 0.10842097 0.09017908 0.13636868 -0.044374958 -0.12854582 -0.063080415 -0.080335975
0.062325895 0.07750222 -0.0986017 0.04358989 0.11464838 0.010233246 0.036136232 0.039761703
-0.07365539 -0.07611108 0.07796273 0.048544455 -0.093562886 -0.08317943 -0.016659604 0.0520013
-0.095977396 -0.107937 -0.04303673 -0.0102465395 -0.10330725 0.08291743 -0.009365385 0.10084243
0.034040127 0.066175476 0.073270746 0.09504921 0.058626026 0.02274056 0.09428721 0.04238385
0.02590302 0.1112534 -0.07554127 -0.06965855 0.04074389 0.084355384 -0.092979394 -0.09729081
-0.11418576 0.105131984 -0.0019255166 -0.08818551 0.06896711 0.12077998 0.07584336 0.1133349
0.10306402 -0.09872289 -0.056253612 0.045900956 -0.09144706 -0.011189941 -0.081726745 0.03991825
0.05269259 -0.050299287 0.04990636 -0.09690833 0.07970502 -0.034669667 0.041019324 0.07696976
-0.11174326 -0.04616053 0.06611281 0.10665741 0.058269374 0.04434809 -0.05968189 0.008720414
-0.114566445 -0.054439712 -0.057735763 0.07634109 0.0062022028 -0.110662684 -0.01538345 -0.10212182
-0.10881124 0.10150565 -0.20634048 0.09447723 -0.009197481 -0.12488744 -0.13894069 -0.03929322
0.023500314 -0.022370959 -0.0007127164 -0.07924254 -0.040836774 0.009751473 -0.12996574 0.0009218862
0.0011931388 0.027696913 -0.078001715 -0.14611122 -0.012370777 -0.105531774 -0.0014244912 0.033806685
-0.044687804 0.045021858 -0.10816401 -0.11982864 0.10301189 0.044926062 0.09765942 0.08518332
0.014450644 0.012026387 -0.021417106 -0.064060085 -0.12448777 -0.12135381 -0.08035493 -0.096980214
0.033624716 0.016362902 0.106928885 -0.051254176 -0.05782103 -0.06124399 -0.012509371 0.010765227
0.04045882 -0.0023479443 -0.12755279 -0.13005158 0.045016732 0.14730303 0.0062425896 0.12727782
0.06329884 -0.12097546 0.04712983 -0.16267742 -0.13996138 0.062049903 -0.043408535 -0.02095767
-0.07047137 -0.017031722 -0.05374069 -0.05159821 -0.12487157 0.10440765 -0.055165354 0.11840972
-0.041722815 -0.050387204 -0.05107061 -0.11485513 0.06592862 -0.022282466 -0.017172797 -0.06424149
0.07592703 -0.106770866 -0.08992389 -0.08120716 0.10855267 -0.045488905 0.06573676 -0.09178563
0.15479109 0.016255952 0.0123046925 0.083987854 -0.09627722 0.09033316 0.055500116 -0.026559172
-0.039377272 -0.12038593 -0.0053262496 0.10383085 0.06059648 -0.09524234 0.12912866 -0.034458384
0.00034545414 -0.08343711 -0.08959967 -0.17885703 0.13249159 0.12184643 0.065145105 0.13284536
0.10898732 -0.1063889 -0.106155515 0.12423834 0.113605425 -0.020966494 -0.046154637 -0.102057286
00000000: da1d 53bc 7297 b63d 9eac 8bbd 73b2 84bc
00000010: 30c5 b4bd 1415 0a3d 3b0c 2ebd 97c9 96bd
00000020: dd29 bebd d522 69bd 9bd6 96bd ef34 c03d
00000030: d728 a0bd 7db7 c6bd 4a5c a2bd 6440 073e
00000040: 9d79 a2bd d597 be3d 67a1 51bc b5a0 c0bd
00000050: 2c74 a8bc 7b32 133d e45e 8a3c cc50 07be
00000060: 0a65 063e f6d2 edba c814 aa39 cfbb 0d3d
00000070: bbe0 103d 20a8 213d 71cd 4a3c 49e6 fcba
00000080: 65bb e6bc eb34 823d 1848 8f3d a93e 41bd
00000090: dc33 cabd 0417 8abd 0828 033e 6b4b 1fbc
000000a0: 70b3 b13c 15ad 9fbb ae3d 6dbd fd11 b8bc
000000b0: 9243 8a3d 584a 6c3c 6db5 7abd f2fb b7bd
000000c0: 3509 fd3c d00b de3d cfaf b83d 3ba4 0b3e
000000d0: 84c2 35bd 84a1 03be 4e30 81bd 3087 a4bd
000000e0: 7049 7f3d 7cb9 9e3d b0ef c9bd 508b 323d
000000f0: c5cc ea3d 58a9 273c 9603 143d 2bdd 223d
00000100: a3d8 96bd 20e0 9bbd ecaa 9f3d 8dd6 463d
00000110: e69d bfbd fa59 aabd b979 88bc 51ff 543d
00000120: cc8f c4bd 130e ddbd 4847 30bd 1ae1 27bc
00000130: c092 d3bd 9dd0 a93d 4671 19bc 7a86 ce3d
00000140: a96d 0b3d 0287 873d f90e 963d 29a9 c23d
00000150: d821 703d 694a ba3c a719 c13d b09a 2d3d
00000160: 9232 d43c d3d8 e33d 62b5 9abd 24a9 8ebd
00000170: 11e3 263d 84c2 ac3d fb6b bebd 6740 c7bd
00000180: 39da e9bd 704f d73d 9e61 fcba 9b9a b4bd
00000190: a13e 8d3d 7f5b f73d c353 9b3d 211c e83d
000001a0: 3b13 d33d 3a2f cabd 306a 66bd a402 3c3d
000001b0: 9948 bbbd 0456 37bc 5a60 a7bd 5281 233d
000001c0: 2fd4 573d a006 4ebd 9d6a 4c3d e077 c6bd
000001d0: 633c a33d c801 0ebd e103 283d 52a2 9d3d
000001e0: a6d9 e4bd d312 3dbd 2766 873d 336f da3d
000001f0: deab 6e3d 58a6 353d ff74 74bd 11e0 0e3c
00000200: d0a1 eabd 2dfc 5ebd 567c 6cbd b858 9c3d
00000210: d93b cb3b 1ea3 e2bd de0a 7cbc 3f25 d1bd
00000220: 6dd8 debd 32e2 cf3d eb4a 53be 477d c13d
00000230: 08b1 16bc fcc4 ffbd 7846 0ebe edf1 20bd
00000240: bb83 c03c 4d43 b7bc 97d5 3aba ea49 a2bd
00000250: 7644 27bd a4c4 1f3c bd15 05be bcaa 713a
00000260: 1863 9c3a a3e4 e23c 5dbf 9fbd 2e9e 15be
00000270: cdae 4abc 0b21 d8bd feb5 baba e178 0a3d
00000280: 8f0a 37bd d768 383d 1885 ddbd b868 f5bd
00000290: e6f7 d23d 6404 383d a901 c83d 9874 ae3d
000002a0: 65c2 6c3c 530a 453c ed72 afbc ef31 83bd
000002b0: 72f3 febd 5988 f8bd 2091 a4bd 909d c6bd
000002c0: 12ba 093d 7e0b 863c 88fd da3d e6ef 51bd
000002d0: bfd5 6cbd fada 7abd 1bf4 4cbc a260 303c
000002e0: 26b8 253d f8df 19bb 339d 02be 3e2c 05be
000002f0: 7763 383d 9bd6 163e a38e cc3b 1e55 023e
00000300: d2a2 813d fbc1 f7bd 350b 413d e994 26be
00000310: 0952 0fbe 0a28 7e3d 26cd 31bd 6baf abbc
00000320: 4b53 90bd 1c86 8bbc 331f 5cbd a558 53bd
00000330: aabc ffbd aed3 d53d 11f5 61bd cc80 f23d
00000340: 8be5 2abd d062 4ebd 6a2f 51bd 2b39 ebbd
00000350: 9605 873d b889 b6bc f7ad 8cbc 0b91 83bd
00000360: a17f 9b3d afaa dabd 042a b8bd f14f a6bd
00000370: dd50 de3d 9352 3abd ffa0 863d 1bfa bbbd
00000380: 8e81 1e3e 342b 853c 9f99 493c d301 ac3d
00000390: fe2c c5bd 9700 b93d 1754 633d 9f92 d9bc
000003a0: 104a 21bd e68c f6bd d287 aebb 45a5 d43d
000003b0: 0434 783d 6a0e c3bd 4e3a 043e 3c24 0dbd
000003c0: 121e b539 13e1 aabd 0880 b7bd 4c26 37be
000003d0: e0ab 073e 9f8a f93d cc6a 853d 9d08 083e
000003e0: be34 df3d 6ce2 d9bd 1068 d9bd ac70 fe3d
000003f0: f6a9 e83d edc1 abbc a50c 3dbd 6903 d1bd

encoder.key_net.net.3.bias f4 [72]
0.09852005 -0.014514469 -0.08395798 0.017683305 -0.08815847 0.06154275 0.13046513 -0.06340505
0.047138553 -0.05158047 0.062354565 -0.019078232 -0.08044951 -0.02308842 0.1364479 0.052044787
-0.04389312 0.0048980135 -0.0046933554 -0.00939587 0.12177182 -0.062927954 -0.15099427 0.042732462
-0.047244668 0.02790873 -0.03114955 0.026424384 -0.11407757 -0.11813748 -0.12781428 0.011010624
-0.12224069 -0.024833404 -0.12593904 0.111620836 0.078491025 -0.093256 0.091502324 0.103666335
0.16198772 -0.06311241 -0.04412275 -0.08466975 -0.055797637 0.06867014 -0.12323888 0.07740281
0.06964808 -0.059199408 0.0077141784 0.08158765 0.0647065 0.10299468 0.07642179 -0.05718847
-0.12580745 -0.017364558 -0.07619144 -0.034696274 0.018004872 0.051119395 -0.0185545 0.06952243
-0.12672335 -0.13046595 -0.118305154 -0.03437671 -0.00044018315 0.04242434 -0.054997962 -0.033449147
00000000: e1c4 c93d 18ce 6dbc 29f2 abbd 94dc 903c
00000010: 6e8c b4bd 4014 7c3d a798 053e 82da 81bd
00000020: 5b14 413d 0b46 53bd 8067 7f3d f449 9cbc
00000030: b6c2 a4bd ed23 bdbc 00b9 0b3e ea2c 553d
00000040: 46c9 33bd 847f a03b b8ca 99bb 23f1 19bc
00000050: 8163 f93d 5fe0 80bd 3e9e 1abe 3c08 2f3d
00000060: a083 41bd d9a0 e43c 572d ffbc f377 d83c
00000070: 80a1 e9bd 10f2 f1bd bfe1 02be e765 343c
00000080: 5459 fabd 6c6f cbbc 2af6 00be 7799 e43d
00000090: e7bf a03d 00fd bebd 9265 bb3d 044f d43d
000000a0: 1ce0 253e 1441 81bd 0fba 34bd 5567 adbd
000000b0: 108c 64bd eea2 8c3d aa64 fcbd 5d85 9e3d
000000c0: a7a3 8e3d 147b 72bd 38c7 fc3b 6d17 a73d
000000d0: d784 843d e0ee d23d 0783 9c3d 753e 6abd
000000e0: abd3 00be 1e40 8ebc 420a 9cbd ae1d 0ebd
000000f0: f47e 933c 9262 513d 9bff 97bc c761 8e3d
00000100: c4c3 01be de98 05be f949 f2bd 98ce 0cbd
00000110: 62c8 e6b9 25c5 2d3d 8b45 61bd f901 09bd

encoder.val_net.net.0.weight f4 [39, 6]
0.21722703 -0.034534074 -0.09669755 -0.14439279 0.03588839 0.019377213 0.20033254 -0.10587628
0.16090183 -0.049070865 0.028969416 -0.18720439 -0.25266296 -0.0591628 0.051561635 -0.19028857
-0.16733624 -0.2461787 -0.20449032 0.086790375 -0.30002654 -0.0790873 -0.05165728 0.20074968
-0.006554561 -0.024050333 0.106988095 0.14549337 0.08102509 -0.03799657 -0.10910862 -0.10790502
-0.19253764 0.011699104 -0.21764323 0.25124118 -0.14440373 -0.109067306 -0.054847933 0.1318707
0.0504796 0.07193529 0.10923084 -0.22788699 -0.051556613 -0.19339037 -0.13448608 -0.045925792
0.21100496 -0.046175636 -0.19340423 0.17746672 -0.16236481 -0.03804262 0.04071963 0.0072574127
0.16867793 -0.18320097 0.13530627 0.07347427 0.2166618 -0.20836525 -0.27976823 -0.1513473
0.341926 0.119113475 -0.25607392 -0.10840678 -0.02696342 0.07328053 0.25884315 0.032710392
0.083005816 0.0036466618 0.22413649 0.023984063 0.1859949 0.018281931 0.011601849 -0.09347671
0.20971608 -0.17475475 -0.1452349 0.13042773 -0.23207723 0.23252472 0.30047566 0.07602986
-0.29977265 -0.011365981 0.05143117 0.1837995 0.121153474 -0.19846417 0.22115453 -0.14930254
0.26833075 0.28242892 -0.019832473 -0.06256165 0.049600866 0.2095397 -0.20547192 0.26296112
-0.03829765 -0.23194094 -0.20871833 0.2252935 0.1789639 -0.10748712 -0.02195536 -0.16298638
-0.19157486 -0.24931635 -0.11272924 0.0076662144 0.112006925 -0.15947206 0.1451534 0.16842134
0.039384443 -0.07904972 0.056210835 -0.31784248 0.16365811 0.20986152 -0.0019486326 0.07013654
-0.24163064 -0.087031364 0.117485136 -0.14326446 0.07714514 0.2824369 -0.002870158 -0.15701331
0.13996315 -0.117196366 -0.06456117 0.029299418 -0.083248176 0.0106507875 0.044829663 0.06737932
-0.19342768 -0.18766037 -0.06030375 0.028656855 -0.014793707 -0.2345481 -0.12919801 -0.035070643
0.015983548 -0.18847254 0.21518698 0.052475978 0.07303837 -0.28449884 0.0065899785 -0.25160602
-0.20233805 0.2258168 -0.108932205 0.18029189 -0.12673028 0.10786906 0.01571875 -0.006521708
-0.108524546 0.0922482 -0.028104834 0.13595845 0.13819122 0.18974216 0.099740334 0.024957132
-0.27429175 0.17951924 -0.18971613 -0.15384752 -0.15271461 0.19659597 -0.22269025 -0.0739013
0.073945895 0.29015034 0.14449397 -0.10379398 0.04926221 0.29144114 0.09450641 0.1825749
0.0659688 0.112484396 -0.053327657 -0.06476001 -0.01783382 -0.02973183 0.1738549 0.05179815
0.10109573 0.1880436 0.0009805096 0.1390078 0.17319605 0.24116774 0.0829806 0.04435474
0.08648704 -0.017008737 -0.013611467 0.09452552 -0.009770273 -0.046548612 0.0005117867 0.0042419652
0.31767192 0.16336973 -0.015547651 -0.21324575 -0.18128106 0.13934633 0.006428537 0.14524083
-0.071496524 -0.16387892 -0.12648165 -0.16743933 -0.0050835153 0.10588212 -0.027756466 -0.06848025
-0.021795096 -0.019828968
00000000: c370 5e3e 9a73 0dbd 5d09 c6bd b4db 13be
00000010: b4ff 123d f6bc 9e3c f923 4d3e aad5 d8bd
00000020: 73c3 243e 88fe 48bd 4551 ed3c 82b2 3fbe
00000030: 0a5d 81be b154 72bd 4b32 533d 02db 42be
00000040: 315a 2bbe 4516 7cbe e965 51be 27bf b13d
00000050: 149d 99be 86f8 a1bd 9696 53bd 5391 4d3e
00000060: a5c7 d6bb 3405 c5bc 931c db3d 37fc 143e
00000070: 7bf0 a53d 4ba2 1bbd 5774 dfbd 4ffd dcbd
00000080: 9628 45be 99ad 3f3c dedd 5ebe afa2 803e
00000090: 92de 13be ae5e dfbd 3aa8 60bd 1d09 073e
000000a0: b2c3 4e3d cf52 933d 6bb4 df3d 355b 69be
000000b0: 072d 53bd 2008 46be b8b6 09be af1c 3cbd
000000c0: af11 583e aa22 3dbd c20b 46be d6b9 353e
000000d0: f642 26be 94d2 1bbd a0c9 263d 97cf ed3b
000000e0: e8b9 2c3e 0999 3bbe ba8d 0a3e ae79 963d
000000f0: 97dc 5d3e b35d 55be c83d 8fbe c9fa 1abe
00000100: ed10 af3e c4f1 f33d 1f1c 83be 6004 debd
00000110: 64e2 dcbc 1a14 963d 1787 843e 55fb 053d
00000120: f4fe a93d d5fc 6e3b 0984 653e 3a7a c43c
00000130: 7275 3e3e fdc3 953c af15 3e3c b870 bfbd
00000140: d0bf 563e e9f2 32be 75b8 14be d98e 053e
00000150: a7a5 6dbe f61a 6e3e f2d7 993e 8bb5 9b3d
00000160: cd7b 99be 6138 3abc 7ea9 523d f035 3c3e
00000170: 501f f83d 313a 4bbe 5576 623e c4e2 18be
00000180: a662 893e 869a 903e b677 a2bc 5320 80bd
00000190: 472a 4b3d 9391 563e 3b67 52be d7a2 863e
000001a0: ffdd 1cbd ed81 6dbe 42ba 55be 57b3 663e
000001b0: 5042 373e 3522 dcbd badb b3bc e7e5 26be
000001c0: 332c 44be c94c 7fbe 96de e6bd de34 fb3b
000001d0: e363 e53d a54c 23be 18a3 143e a576 2c3e
000001e0: 9551 213d d2e4 a1bd 553d 663d 40bc a2be
000001f0: fe95 273e f0e5 563e 4369 ffba bfa3 8f3d
00000200: 066e 77be 803d b2bd 0c9c f03d ebb3 12be
00000210: 45fe 9d3d 929b 903e 4319 3cbb 19c8 20be
00000220: 8052 0f3e a604 f0bd a638 84bd 5505 f03c
00000230: 057e aabd a480 2e3c 4f9f 373d 2bfe 893d
00000240: e811 46be 0a2a 40be 1101 77bd c8c1 ea3c
00000250: 4e61 72bc 612d 70be 7c4c 04be 3ca6 0fbd
00000260: eeef 823c f2fe 40be fa59 5c3e 0df1 563d
00000270: 2495 953d d5a9 91be bff0 d73b 81d2 80be
00000280: b531 4fbe 853c 673e d917 dfbd 709e 383e
00000290: 95c5 01be 74ea dc3d 9cc4 803c 0db4 d5bb
000002a0: 1e42 debd a0ec bc3d 1c3c e6bc b138 0b3e
000002b0: 0082 0d3e c54b 423e a944 cc3d e672 cc3c
000002c0: f86f 8cbe e4d3 373e f244 42be 348a 1dbe
000002d0: 3861 1cbe 7450 493e ea08 64be 9159 97bd
000002e0: f270 973d 968e 943e 3af6 133e f091 d4bd
000002f0: 2cc7 493d c637 953e 948c c13d eaf4 3a3e
00000300: a61a 873d 385e e63d 1a6e 5abd e5a0 84bd
00000310: 3b18 92bc 2b90 f3bc 0507 323e 4c2a 543d
00000320: 470b cf3d 808e 403e 7184 803a 1058 0e3e
00000330: 4e5a 313e adf4 763e bcf1 a93d 51ad 353d
00000340: 1e20 b13d e855 8bbc a102 5fbc 9996 c13d
00000350: 7f13 20bc c2a9 3ebd 6d29 063a 2f00 8b3b
00000360: e5a5 a23e 654a 273e 93bb 7ebc 185d 5abe
00000370: bea1 39be ceb0 0e3e 7aa6 d23b 03ba 143e
00000380: c56c 92bd e0cf 27be 6884 01be 3775 2bbe
00000390: 9e93 a6bb bad8 d83d 8761 e3bc 603f 8cbd
000003a0: a18b b2bc 5c70 a2bc

encoder.val_net.net.0.bias f4 [39]
0.20681645 -0.41393062 0.37582564 -0.15468822 0.1828224 -0.21873876 0.26009938 0.43259588
0.39819983 -0.31900147 -0.10012425 -0.23205972 0.34333968 0.23400046 -0.19839445 0.22226414
-0.25619486 0.4675701 -0.3881951 -0.36958903 0.09068661 0.24603398 0.16272499 -0.6977126
0.021927772 -0.4792699 -0.29811737 -0.66395843 0.22528207 -0.06277702 0.26799098 -0.08802209
-0.666096 0.29292423 0.19171318 -0.75115347 0.04296984 0.13349019 -0.79505897
00000000: b1c7 533e b7ee d3be 386c c03e 9766 1ebe
00000010: cc35 3b3e 0efd 5fbe bf2b 853e 357d dd3e
00000020: d9e0 cb3e 2954 a3be f10d cdbd 10a1 6dbe
00000030: 38ca af3e d19d 6f3e ea27 4bbe 3699 633e
00000040: f92b 83be 5965 ef3e 82c1 c6be c63a bdbe
00000050: e7b9 b93d 55f0 7b3e 61a1 263e 4b9d 32bf
00000060: dfa1 b33c dd62 f5be d7a2 98be 2ef9 29bf
00000070: 58b0 663e 3d91 80bd 1d36 893e ed44 b4bd
00000080: 4485 2abf 2afa 953e 7650 443e 984b 40bf
00000090: 2501 303d a7b1 083e fc88 4bbf

encoder.val_net.net.1.weight f4 [39]
0.9516076 1.1258243 1.0294824 1.159397 1.0007734 1.2422941 0.97945887 1.0018619
1.0312631 1.1172694 0.9815363 1.1154573 0.98556495 1.0192683 0.9827252 1.0092211
1.1448197 1.041673 1.0512867 1.084267 1.0256492 1.0189861 0.9721025 1.005308
0.97658306 1.1006272 0.9561591 0.9735679 0.9515374 1.0079831 1.0006759 1.0394957
0.9374992 1.0231785 1.0096782 1.0603826 0.9837028 1.0164317 1.0669242
00000000: 8e9c 733f 031b 903f 14c6 833f 1f67 943f
00000010: 5819 803f 7e03 9f3f d1bd 7a3f 033d 803f
00000020: 6e00 843f af02 8f3f f745 7b3f 4ec7 8e3f
00000030: fc4d 7c3f 6277 823f e193 7b3f 282e 813f
00000040: 7489 923f 8a55 853f 9090 863f 43c9 8a3f
00000050: 7948 833f 236e 823f b6db 783f efad 803f
00000060: 5901 7a3f 5ae1 8c3f d8c6 743f bf3b 793f
00000070: f497 733f 9705 813f 2616 803f 320e 853f
00000080: f3ff 6f3f 83f7 823f 233d 813f 9eba 873f
00000090: f2d3 7b3f 6f1a 823f f990 883f

encoder.val_net.net.1.bias f4 [39]
-0.030821292 0.22902285 0.036579646 0.012890814 0.013328297 0.045243476 0.004219788 -0.0019933544
0.006932976 0.06677725 0.07892969 0.044714935 -0.0040639844 0.056512434 0.09143838 0.029263595
0.102087356 0.046263333 0.23741274 0.05492884 0.068121865 0.048860732 0.0046490137 0.118289135
0.0017547633 0.23749468 0.10274887 0.22117753 0.0069017415 0.019705327 0.030526362 0.026410526
0.13000667 0.016601559 0.02537994 -0.079771295 0.031256493 0.0060305037 -0.09086614
00000000: ef7c fcbc f784 6a3e 8ad4 153d fe33 533c
00000010: ee5e 5a3c 3951 393d 2646 8a3b f0a2 02bb
00000020: 052e e33b 83c2 883d e4a5 a13d 0227 373d
00000030: 2c2b 85bb 9579 673d 0c44 bb3d 35ba ef3c
00000040: 2d13 d13d 9f7e 3d3d 531c 733e 10fd 603d
00000050: 7a83 8b3d 3122 483d c156 983b 9341 f23d
00000060: 1600 e63a ce31 733e 006e d23d 5d7c 623e
00000070: 0128 e23b 116d a13c 6c12 fa3c e35a d83c
00000080: 7820 053e feff 873c 98e9 cf3c 225f a3bd
00000090: cf06 003d 889b c53b 0718 babd

encoder.val_net.net.3.weight f4 [72, 39]
-0.076051205 -0.05743536 -0.007946246 -0.0842202 -0.017746681 -0.036461238 -0.043713532 -0.060122952
0.05048085 -0.07913872 0.09561858 0.14293098 -0.0938512 -0.03637355 -0.04164316 0.09770773
-0.071692415 -0.053963665 -0.028033286 0.12073199 0.12513952 -0.13787682 -0.04291335 0.04344111
0.2073354 -0.11700378 -0.1072642 -0.12726791 -0.16522507 -0.022892851 -0.089076295 -0.03005748
0.01054966 -0.156485 -0.0011981936 0.1403863 -0.0028696954 -0.06292678 -0.032606523 -0.132491
-0.09140765 -0.0071648713 0.046942674 -0.09698102 0.021731835 0.015039708 -0.02637067 0.14776093
-0.0048687495 0.14706986 0.11398636 -0.12191946 -0.17533241 0.093153544 0.060230725 0.020410763
0.14065504 -0.17654267 0.10257854 0.06779773 0.0357371 -0.054661587 0.0700392 0.19959961
0.08544426 0.113603435 -0.07634726 0.083147086 0.14396058 0.14950441 0.10975477 0.061432485
-0.0805636 0.12600353 -0.14376605 -0.1752051 -0.1483448 -0.09667942 -0.017172135 -0.1347054
-0.1379018 -0.055425666 0.01235118 0.06497029 0.09945637 0.016774524 -0.078851804 0.023978118
0.07132929 0.10146663 -0.106083274 -0.06328007 -0.14283319 -0.12189616 -0.1051147 0.0022886924
0.025083344 0.105842076 -0.13456509 0.17969431 -0.03122778 0.053297315 -0.0312926 -0.016272487
-0.00890027 -0.08804068 0.17865627 0.07730005 -0.08073534 0.030549243 -0.023272727 0.11420953
-0.042041283 -0.006463246 0.011190119 -0.1129852 0.1346935 -0.1057206 0.07093111 -0.1413538
-0.07568207 0.08795599 0.21893474 -0.08229691 -0.031246817 0.19612311 -0.06846129 0.09231182
0.033124488 -0.06824518 0.07136586 0.03415161 -0.2043499 -0.1515802 -0.0629444 0.15025361
-0.03197686 -0.16516219 0.0856794 -0.0962755 0.085189 0.16487747 0.0233023 -0.07470553
0.04455977 -0.095741495 0.18662506 -0.0019178388 0.0519959 0.009809063 -0.04917868 0.09393498
-0.14028412 0.013287044 0.0012473365 0.045534823 0.15522589 -0.13111085 -0.11064706 -0.055214215
0.10011587 0.11353346 -0.03520003 0.18637305 -0.03140226 0.018406218 0.10706424 -0.02009573
0.050988697 0.10802213 -0.066632785 -0.1354625 -0.083260834 -0.16814844 0.055634253 0.02895786
0.004359806 -0.054856032 -0.10235475 -0.11588588 -0.10098736 -0.012692606 0.16993397 -0.044465758
-0.103332385 -0.1553006 0.017181491 -0.053165257 0.009174229 0.034831613 -0.22260001 -0.08476149
0.006563382 -0.013417175 -0.0067374725 0.12579615 0.082542375 -0.11549585 0.19073348 -0.062238596
0.17721419 0.01906054 -0.023464715 0.14286411 0.07104726 0.26155457 0.05416217 -0.042762857
0.08522965 -0.12702332 -0.21542943 0.18856686 -0.109907776 -0.103157386 0.11057156 0.06558695
-0.08628583 -0.020335404 0.14123619 0.103225365 -0.07349158 0.13631873 0.11558414 0.039014824
-0.13753518 -0.009005062 0.16695625 0.08082179 0.05665062 -0.1347266 0.052433822 0.09705756
-0.14364457 -0.092061326 -0.07856219 0.09259338 -0.02354192 0.050878808 0.15820503 0.13749237
-0.0812838 -0.059665885 0.18777537 0.10290661 -0.23634163 -0.043049924 0.029443521 0.10656148
0.13216403 -0.11229363 -0.017151596 0.050899077 0.0325882 0.163847 0.016108755 -0.083078794
00000000: bcc0 9bbd 5741 6bbd f930 02bc a47b acbd
00000010: 7d61 91bc 6158 15bd f60c 33bd 7c43 76bd
00000020: 02c5 4e3d 7b13 a2bd add3 c33d 805c 123e
00000030: 0f35 c0bd 6efc 14bd 0592 2abd fe1a c83d
00000040: 79d3 92bd 0109 5dbd 10a6 e5bc 5542 f73d
00000050: 9324 003e 952f 0dbe e9c5 2fbd 4eef 313d
00000060: bb4f 543e ae9f efbd 55ad dbbd 8552 02be
00000070: c330 29be ca89 bbbc a26d b6bd 1b3b f6bc
00000080: 7bd8 2c3c 9b3d 20be b50c 9dba 6dc1 0f3e
00000090: 8011 3cbb c1df 80bd 6b8e 05bd b9ab 07be
000000a0: ef33 bbbd 4cc7 eabb f646 403d fc9d c6bd
000000b0: f606 b23c 1c69 763c 4e07 d8bc a44e 173e
000000c0: 088a 9fbb 7b99 163e ae71 e93d e9b0 f9bd
000000d0: 578a 33be 49c7 be3d 7eb4 763d 7934 a73c
000000e0: e007 103e 9ac7 34be b314 d23d 89d9 8a3d
000000f0: 1161 123d d4e4 5fbd b670 8f3d d763 4c3e
00000100: 66fd ae3d eba8 e83d f45b 9cbd 0549 aa3d
00000110: 676a 133e af17 193e 1cc7 e03d a1a0 7b3d
00000120: 87fe a4bd 1207 013e 6837 13be f768 33be
00000130: b3e7 17be dcff c5bd 94ac 8cbc 36f0 09be
00000140: 2136 0dbe 0606 63bd 9b5c 4a3c 250f 853d
00000150: c8af cb3d ba6a 893c 0e7d a1bd c26d c43c
00000160: 1715 923d bdcd cf3d 3042 d9bd fb98 81bd
00000170: dd42 12be b2a4 f9bd 6046 d7bd e3fd 153b
00000180: 967b cd3c bbc3 d83d 6ecb 09be c901 383e
00000190: 67d1 ffbc 494e 5a3d ab2c 00bd e14d 85bc
000001a0: 70d2 11bc ac4e b4bd abf1 363e 7d4f 9e3d
000001b0: 9258 a5bd 6842 fa3c 72a6 bebc b0e6 e93d
000001c0: 7b33 2cbd a3c9 d3bb c356 373c c964 e7bd
000001d0: 18ed 093e 0b84 d8bd 5444 913d 0dbf 10be
000001e0: 33ff 9abd 4522 b43d 6e30 603e 488b a8bd
000001f0: 53f9 ffbc 7fd4 483e 6f35 8cbd fb0d bd3d
00000200: 8bad 073d 21c4 8bbd 4428 923d 8fe2 0b3d
00000210: 1a41 51be d737 1bbe fee8 80bd 15dc 193e
00000220: 2bfa 02bd 4720 29be ae78 af3d 172c c5bd
00000230: 9277 ae3d a4d5 283e 77e4 be3c 37ff 98bd
00000240: 4e84 363d 1e14 c4bd a41a 3f3e fe5f fbba
00000250: a7f9 543d 31b6 203c 956f 49bd fc60 c03d
00000260: a4a6 0fbe e7b1 593c ab7d a33a b982 3a3d
00000270: 89f3 1e3e ec41 06be ed9a e2bd 4d28 62bd
00000280: 8d09 cd3d 3b84 e83d e82d 10bd 94d8 3e3e
00000290: a89f 00bd a3c8 963c 7f44 db3d cd9f a4bc
000002a0: 86d9 503d b53a dd3d c576 88bd aeb6 0abe
000002b0: a884 aabd 1b2f 2cbe bee0 633d 0939 ed3c
000002c0: b4dc 8e3b b8b0 60bd 5e9f d1bd 9455 edbd
000002d0: 76d2 cebd a6f4 4fbc 2c03 2e3e ba21 36bd
000002e0: ee9f d3bd 1f07 1fbe 33c0 8c3c d0c3 59bd
000002f0: 814f 163c 98ab 0e3d 42f1 63be 6f97 adbd
00000300: a411 d73b b6d3 5bbc 04c6 dcbb b5d0 003e
00000310: fa0b a93d 1789 ecbd a34f 433e e6ed 7ebd
00000320: a377 353e d924 9c3c 1339 c0bc f84a 123e
00000330: 3a81 913d 7bea 853e 27d9 5d3d 1b28 2fbd
00000340: e28c ae3d 6712 02be 8899 5cbe ac17 413e
00000350: 5417 e1bd 2e44 d3bd 5873 e23d 7352 863d
00000360: a0b6 b0bd 6f96 a6bc 38a0 103e d267 d33d
00000370: c182 96bd 2397 0b3e 61b7 ec3d 02ce 1f3d
00000380: 06d6 0cbe f889 13bc 94f6 2a3e e585 a53d
00000390: 7b0a 683d c5f5 09be d9c4 563d 1dc6 c63d
000003a0: 9017 13be a68a bcbd 37e5 a0bd 99a1 bd3d
000003b0: fcda c0bc 4c66 503d 8000 223e cdca 0c3e
000003c0: 1f78 a6bd 3764 74bd 3048 403e b3c0 d23d
000003d0: 8a03 72be 1e55 30bd 8a33 f13c e83c da3d
000003e0: 0256 073e 34fa e5bd 8181 8cbc 8d7b 503d
000003f0: 347b 053d 82c7 273e 82f6 833c 3725 aabd

encoder.val_net.net.3.bias f4 [72]
0.00473031 -0.11818548 -0.04908913 -0.11183831 0.07060997 -0.03826668 -0.06634202 -0.10061368
-0.06504495 -0.19696128 -0.09941332 0.053926308 0.08124066 -0.06632271 -0.040850114 -0.020064976
-0.07827598 0.15285338 0.08964882 -0.064341374 0.08227172 0.09898839 -0.15436319 0.11328528
-0.081225865 -0.05570631 -0.11650114 -0.060927235 -0.023652675 0.09407182 0.117731705 0.0107814865
-0.10216923 0.14836852 0.122470066 -0.00092990824 0.07560382 0.13517828 0.1265248 0.16469802
-0.08159089 -0.041403223 0.075628445 -0.0021708265 0.037880827 0.063118435 -0.12860769 0.11025437
0.021254009 -0.059697773 -0.029380621 -0.0136088375 0.09195244 0.0007536131 0.022669408 0.14521028
0.14966483 -0.038835846 -0.16464965 0.052784517 0.043945864 0.16683473 -0.12752253 0.027834093
-0.012911032 -0.071780264 0.0333563 0.10750567 -0.009479995 0.06345683 0.1232005 0.013225355
00000000: b700 9b3b 3b0b f2bd af11 49bd 7c0b e5bd
00000010: f69b 903d 86bd 1cbd 53de 87bd 8c0e cebd
00000020: 4936 85bd 38b0 49be 3699 cbbd d5e1 5c3d
00000030: 8161 a63d 33d4 87bd 7352 27bd 4e5f a4bc
00000040: 284f a0bd 9985 1c3e cd99 b73d 69c5 83bd
00000050: 137e a83d 6dba ca3d 6211 1ebe 1d02 e83d
00000060: bf59 a6bd 4d2c 64bd 2698 eebd d68e 79bd
00000070: 41c3 c1bc baa8 c03d 521d f13d d5a4 303c
00000080: 1a3e d1bd ebed 173e 96d1 fa3d 16c5 73ba
00000090: 2dd6 9a3d 2d6c 0a3e b88f 013e 99a6 283e
000000a0: 2019 a7bd 6d96 29bd 16e3 9a3d 6d44 0ebb
000000b0: ed28 1b3d 3d44 813d bcb1 03be 0bcd e13d
000000c0: e31c ae3c a785 74bd a1af f0bc 9af7 5ebc
000000d0: 9051 bc3d 1e8e 453a 32b5 b93c 01b2 143e
000000e0: bd41 193e 5612 1fbd eb99 28be 9434 583d
000000f0: 9400 343d b9d6 2a3e 4495 02be 5304 e43c
00000100: cb88 53bc 8801 93bd 9ea0 083d ef2b dc3d
00000110: fb51 1bbc a8f5 813d 8b50 fc3d 29af 583c

encoder.rank.weight f4 [1, 6]
0.20697774 0.12243145 -0.08998229 0.029354177 0.3159924 -0.32843506
00000000: f9f1 533e 57bd fa3d a348 b8bd 2c78 f03c
00000010: c1c9 a13e a428 a8be

encoder.cardinality.weight f4 [72, 1]
0.60964316 0.3586142 -0.3252168 -0.9281285 -0.1542908 0.46963087 -0.24431776 -0.43919262
-0.3731472 0.89735365 0.3687202 -0.81365526 0.809184 -0.00039625735 0.107746474 0.13493215
-0.5984125 0.97164094 0.717321 0.7580579 -0.41597146 0.3135988 0.108131446 -0.25614366
-0.36516774 0.044629563 -0.5567547 -0.37574628 0.50381535 -0.26507306 -0.7987975 -0.4634112
-0.55213994 -0.34604448 -0.37220713 -0.11305573 0.9615679 -0.49335307 -0.03892698 -0.89536864
0.31756666 0.8878902 -0.68342674 0.93278515 0.9623121 0.78942394 -0.26029724 0.057589926
-0.3391779 -0.3210556 -0.43673268 0.82715654 0.79679114 0.9212527 0.44887403 0.19026293
0.5194014 -0.81570846 -0.10747569 -0.42244554 -0.34234264 0.28425464 0.25322506 0.56795245
0.8506768 -0.37581986 0.96031874 -0.36585453 -0.34276265 -0.42333588 0.5358585 -0.17472833
00000000: 9311 1c3f 489c b73e d182 a6be d499 6dbf
00000010: 68fe 1dbe 7573 f03e 6f2e 7abe dbdd e0be
00000020: 260d bfbe f8b8 653f e5c8 bc3e b64b 50bf
00000030: af26 4f3f c3c0 cfb9 2faa dc3d a72b 0a3e
00000040: 9031 19bf 76bd 783f 59a2 373f 1510 423f
00000050: 36fa d4be 0690 a03e 0574 dd3d 4325 83be
00000060: 44f7 babe 7dcd 363d 7a87 0ebf d161 c0be
00000070: 0bfa 003f a8b7 87be fe7d 4cbf 3c44 edbe
00000080: 0b59 0dbf be2c b1be ef91 bebe c389 e7bd
00000090: 5029 763f c698 fcbe e671 1fbd e136 65bf
000000a0: 1998 a23e c64c 633f 0ef5 2ebf 02cb 6e3f
000000b0: 165a 763f b017 4a3f ae45 85be 6ae3 6b3d
000000c0: baa8 adbe 6661 a4be 6d9b dfbe 88c0 533f
000000d0: 81fa 4b3f 38d7 6b3f d1d2 e53e 49d4 423e
000000e0: 7df7 043f 45d2 50bf 371c dcbd c84a d8be
000000f0: 8947 afbe d389 913e b7a6 813e 5565 113f
00000100: f4c5 593f 766b c0be 73d7 753f 4951 bbbe
00000110: 967e afbe 7bbf d8be 062e 093f fceb 32be

encoder.cardinality.bias f4 [72]
0.534518 -0.8488955 -0.32275933 0.3260186 -0.33396414 0.9740551 -0.3007159 0.6747207
-0.25053942 -0.32841113 -0.54077125 0.44993275 -0.3260629 -0.1687071 -0.7220504 -0.021166723
0.2835417 -0.26808298 0.74578005 -0.370539 0.9742072 -0.65511245 -0.6242506 0.12228168
-0.82237786 0.5806939 0.9692758 0.7191086 0.63770723 0.7449762 -0.06627108 0.8551065
0.6587068 0.7846879 0.9349623 -0.37324393 -0.16068228 0.7406589 -0.007551247 0.5064496
0.27192396 0.34834567 -0.7421062 -0.14427617 -0.28342506 -0.9425933 0.580233 -0.0073674326
-0.9059929 0.5776704 -0.5740397 0.52798694 -0.13399263 -0.09952824 -0.7434094 0.34474215
-0.38833585 0.97423744 -0.4331632 0.554093 0.81449443 0.29876518 0.07839528 -0.41069737
0.933739 -0.6182693 -0.08194896 0.88127416 -0.24588263 0.8754376 0.012727378 -0.4974379
00000000: 2cd6 083f 3751 59bf b640 a5be e9eb a63e
00000010: 59fd aabe ad5b 793f 6ff7 99be 7fba 2c3f
00000020: b446 80be 8125 a8be fc6f 0abf 965d e63e
00000030: b7f1 a6be 8ec1 2cbe 4cd8 38bf d665 adbc
00000040: 612c 913e 2c42 89be 71eb 3e3f 4ab7 bdbe
00000050: a565 793f 73b5 27bf e3ce 1fbf d16e fa3d
00000060: 5b87 52bf 5ba8 143f 7522 783f 8017 383f
00000070: c840 233f c3b6 3e3f 22b9 87bd 42e8 5a3f
00000080: 02a1 283f 4ee1 483f b059 6f3f d419 bfbe
00000090: e589 24be d29b 3d3f 7370 f7bb aea6 013f
000000a0: 9e39 8b3e 5d5a b23e acfa 3dbf 22bd 13be
000000b0: 171d 91be cb4d 71bf 268a 143f 816a f1bb
000000c0: 27ef 67bf 35e2 133f 44f4 12bf 272a 073f
000000d0: 5d35 09be 76d5 cbbd 1450 3ebf 0b82 b03e
000000e0: f5d3 c6be a067 793f 91c7 ddbe 0ad9 0d3f
000000f0: b582 503f c0f7 983e b48d a03d ed46 d2be
00000100: 8509 6f3f e646 1ebf dbd4 a7bd 2f9b 613f
00000110: a8c8 7bbe ae1c 603f 7e86 503c 2eb0 febe

decoder.key_net.net.0.weight f4 [68, 64]
-0.06154893 -0.13584921 0.083451614 -0.07323672 -0.087075636 0.052146494 0.025576517 0.061934486
-0.057595342 -0.09041892 0.11917211 -0.10152784 0.11983208 0.06596354 0.023335457 0.050561666
0.05772233 -0.034146637 -0.077906504 -0.061135143 0.0123398155 -0.06947118 -0.013189614 -0.030128181
0.020684361 0.08992547 0.05969332 0.017577097 0.024421513 0.10361931 -0.11054115 -0.12491621
0.029427916 -0.09382601 0.014517948 0.12111272 0.062952146 0.05399427 0.068993926 -0.055325598
-0.024294883 -0.08235103 0.105024174 0.055090055 -0.042188242 0.124661356 -0.077218935 0.07407671
0.01355876 0.113131076 -0.07502392 0.09605934 -0.07762653 0.0071730167 -0.10222398 -0.06591749
-0.03583455 0.11276996 0.05133058 -0.072904944 0.11093165 -0.11022687 -0.034121066 0.038843915
-0.11534466 0.09081419 -0.0992592 -0.0040063113 -0.10793638 0.06629063 -0.06827475 0.09789553
0.09432168 -0.04418865 -0.024884686 0.107613206 0.10523331 0.07250492 0.022053078 -0.1001537
-0.05196999 0.0446973 0.034012064 0.10449299 -0.06980719 0.09945069 0.027437046 -0.029241666
0.032196864 0.08523086 -0.09366071 0.070062965 0.013243884 -0.041787535 -0.10137358 -0.045152158
-0.037129372 -0.08781867 0.0036858767 -0.003414765 -0.011306405 -0.060764015 0.1238669 -0.04632315
-0.09134078 -0.0075419396 -0.03871332 0.016079426 0.03569655 0.034669846 -0.12206556 0.0483779
0.121225834 0.028458968 -0.055490464 0.042027324 0.10034773 -0.055027768 -0.105875686 0.09727378
-0.012729138 -0.11826126 0.057760328 -0.0572218 -0.113748044 0.08811605 0.07978444 0.061659887
0.025936056 -0.06337382 0.07280862 0.015199244 0.04687026 -0.09579626 0.07746324 -0.024417654
-0.08548632 -0.07121682 -0.08296415 0.09395632 -0.027801648 -0.03631094 0.07345335 0.075025186
-0.0192374 0.11341509 -0.027357936 0.021538258 -0.007991627 0.03256756 0.113009185 0.06974389
0.078525856 0.08847368 0.028609052 0.056594536 0.09470627 0.10621415 -0.038548708 0.10704216
0.07305491 0.09533793 0.035311475 -0.10663393 -0.1247206 0.02722767 0.062458128 0.05353369
0.11274496 -0.08979784 -0.0581038 -0.109669894 -0.009656444 0.11225809 -0.0033383667 -0.0010714382
0.0062799305 -0.043652624 -0.10725589 0.061413154 -0.049930885 0.0805193 -0.026496544 0.062443197
-0.08728272 0.045439154 -0.094524845 0.068269 -0.097324386 0.10269123 0.05896166 -0.11072175
0.104145326 -0.01714124 0.096687004 0.09654997 -0.010011226 -0.11933449 0.08511536 0.088222384
0.08675568 -0.07616301 0.054862022 0.084742874 -0.08884527 0.07908353 -0.071327776 0.09024912
0.0023540258 0.04885748 0.038351744 0.09641126 0.011398837 0.08338885 -0.08235812 -0.07233991
-0.09378576 0.008498743 0.009583369 0.118959785 0.00373891 0.012154281 0.022550762 -0.038080335
0.052323774 0.013935074 -0.019790977 0.062849164 0.09076673 0.088306725 0.12013075 -0.07899785
0.055946752 0.09675869 -0.04941173 -0.032427967 0.086695686 -0.062343717 0.1200317 0.046780303
-0.09646189 -0.06239474 0.031404838 -0.12011352 0.09682968 0.022672102 -0.016121626 -0.01774463
0.04009536 -0.06219645 -0.011699781 -0.06470956 0.07339546 -0.071621835 0.02013658 0.034104288
00000000: bb1a 7cbd 0e1c 0bbe aee8 aa3d 22fd 95bd
00000010: b654 b2bd 9097 553d d885 d13c 04af 7d3d
00000020: 18e9 6bbd 8e2d b9bd 8210 f43d d4ed cfbd
00000030: 866a f53d e417 873d 002a bf3c c019 4f3d
00000040: 406e 6c3d 58dd 0bbd 728d 9fbd d868 7abd
00000050: f02c 4a3c e846 8ebd 4019 58bc 60cf f6bc
00000060: 4072 a93c d82a b83d fc80 743d d8fd 8f3c
00000070: a00f c83c 5c36 d43d 6663 e2bd 12d4 ffbd
00000080: d012 f13c da27 c0bd b0dc 6d3c f209 f83d
00000090: 0eed 803d 1829 5d3d b04c 8d3d 189d 62bd
000000a0: 1006 c7bc a8a7 a8bd ea16 d73d 1ca6 613d
000000b0: 94cd 2cbd 744e ff3d f624 9ebd 88b5 973d
000000c0: 9025 5e3c 44b1 e73d 24a6 99bd c2ba c43d
000000d0: a8fa 9ebd a00b eb3b ce5a d1bd c0ff 86bd
000000e0: 40c7 12bd f0f3 e63d 0440 523d 304f 95bd
000000f0: 2230 e33d a0be e1bd 88c2 0bbd cc1a 1f3d
00000100: d239 ecbd cafc b93d 6848 cbbd 6047 83bb
00000110: c00d ddbd 62c3 873d a2d3 8bbd 747d c83d
00000120: ba2b c13d 28ff 34bd f8da cbbc 5064 dc3d
00000130: 9084 d73d 767d 943d a8a8 b43c 621d cdbd
00000140: 7cde 54bd 8414 373d 3c50 0b3d 6c00 d63d
00000150: 12f7 8ebd ceac cb3d a8c3 e03c 388c efbc
00000160: dce0 033d 848d ae3d 30d1 bfbd 2c7d 8f3d
00000170: e0fc 583c 6829 2bbd f49c cfbd 78f1 38bd
00000180: f814 18bd 46da b3bd c08e 713b 40ca 5fbb
00000190: 803e 39bc b0e3 78bd eead fd3d 58bd 3dbd
000001a0: e010 bbbd 6022 f7bb dc91 1ebd 00b9 833c
000001b0: 8c36 123d f801 0e3d 82fd f9bd e827 463d
000001c0: 4045 f83d c822 e93c f849 63bd d824 2c3d
000001d0: 1c83 cd3d cc64 61bd 5ad5 d8bd 7a37 c73d
000001e0: e08d 50bc f632 f2bd 1896 6c3d 6861 6abd
000001f0: bcf4 e8bd 3076 b43d 0666 a33d 148f 7c3d
00000200: da77 d43c 22ca 81bd b01c 953d 4006 793c
00000210: 08fb 3f3d d430 c4bd 0ca5 9e3d 8807 c8bc
00000220: 7413 afbd 20da 91bd 1ce9 a9bd 2c6c c03d
00000230: 48c0 e3bc c8ba 14bd b66e 963d cea6 993d
00000240: c097 9dbc 2c46 e83d c01d e0bc 0071 b03c
00000250: 50ef 02bc 9065 053d 5c71 e73d e2d5 8e3d
00000260: 2ad2 a03d b031 b53d 885d ea3c accf 673d
00000270: 5cf5 c13d ce86 d93d 40e5 1dbd ec38 db3d
00000280: d09d 953d 8840 c33d c4a2 103d e462 dabd
00000290: 846d ffbd 900c df3c 18d4 7f3d 2446 5b3d
000002a0: d4e6 e63d eee7 b7bd 40fe 6dbd 9c9a e0bd
000002b0: 1036 1ebc 92e7 e53d 80c8 5abb 806f 8cba
000002c0: e0c7 cd3b 18cd 32bd faa8 dbbd 5c8c 7b3d
000002d0: 5484 4cbd 4ee7 a43d 480f d9bc 70c4 7f3d
000002e0: 48c1 b2bd 681e 3a3d 3e96 c1bd 9ed0 8b3d
000002f0: 0252 c7bd c84f d23d c881 713d 16c2 e2bd
00000300: 254a d53d c96b 8cbc d603 c63d febb c53d
00000310: 2006 24bc a465 f4bd f650 ae3d f0ad b43d
00000320: f6ac b13d 5afb 9bbd 00b7 603d ac8d ad3d
00000330: 82f4 b5bd 8cf6 a13d 4c14 92bd 88d4 b83d
00000340: 0046 1a3b c81e 483d b816 1d3d 4473 c53d
00000350: 30c2 3a3c c6c7 aa3d 60ab a8bd f226 94bd
00000360: c012 c0bd 503e 0b3c 9003 1d3c 30a1 f33d
00000370: 8008 753b c022 473c 60bc b83c 20fa 1bbd
00000380: 7451 563d f04f 643c b020 a2bc 10b7 803d
00000390: e8e3 b93d 28da b43d 1c07 f63d a0c9 a1bd
000003a0: 6c28 653d 6c29 c63d f463 4abd 30d3 04bd
000003b0: 828d b13d 205c 7fbd 2ed3 f53d b49c 3f3d
000003c0: d08d c5bd a091 7fbd 5ca2 003d 14fe f5bd
000003d0: a44e c63d d8ba b93c 8011 84bc 305d 91bc
000003e0: 083b 243d b4c1 7ebd 70b0 3fbc 7286 84bd
000003f0: 5c50 963d 78ae 92bd 78f5 a43c f0b0 0b3d

decoder.key_net.net.0.bias f4 [68]
-0.11943941 -0.051594637 -0.018527895 0.014748004 0.10650345 -0.034029532 0.008013417 -0.12982844
0.12374608 -0.08170773 -0.0029238458 -0.05517934 -0.014227508 -0.040234007 -0.090821914 0.010220322
0.019091034 0.0030975752 0.095183186 0.020480677 0.029636696 -0.13592158 0.053145155 -0.14569338
0.030812206 0.120290376 -0.11823376 -0.10516302 0.11822328 0.06368383 -0.08207892 -0.046960626
-0.090017945 0.016197804 -0.14333646 0.07196696 0.09888774 -0.015543726 -0.11839512 -0.009488692
-0.05087463 -0.080533504 0.04707514 0.071447395 -0.048424806 0.015071015 0.034340464 0.083441146
0.041307796 0.012605805 0.030963909 0.051660374 -0.06755157 0.12092111 -0.0071905022 0.067113124
-0.08720147 0.10147846 -0.005056857 -0.018492538 0.085582346 -0.06797967 -0.05470466 0.03246917
0.10263726 -0.06297661 -0.054789934 -0.12623392
00000000: a69c f4bd e654 53bd d0c7 97bc 9da1 713c
00000010: 7b1e da3d 8d62 0bbd b54a 033c bff1 04be
00000020: 966e fd3d 6256 a7bd fe9d 3fbb bb03 62bd
00000030: 7e1a 69bc 6acc 24bd d700 babd 2373 273c
00000040: cd64 9c3c b000 4b3b 67ef c23d 18c7 a73c
00000050: a8c8 f23c 072f 0bbe bcae 593d a530 15be
00000060: e169 fc3c cd5a f63d 8b24 f2bd b65f d7bd
00000070: 0c1f f23d ab6c 823d fe18 a8bd c959 40bd
00000080: 545b b8bd 42b1 843c cbc6 12be 6a63 933d
00000090: a885 ca3d 1dab 7ebc 2479 f2bd 7576 1bbc
000000a0: eb61 50bd c0ee a4bd ddd1 403d 0353 923d
000000b0: 1759 46bd 6bec 763c 96a8 0c3d 31e3 aa3d
000000c0: 5d32 293d 9488 4e3c 06a8 fd3c d499 533d
000000d0: 7a58 8abd 7da5 f73d 4e9e ebbb 9b72 893d
000000e0: af96 b2bd f0d3 cf3d feb3 a5bb aa7d 97bc
000000f0: cc45 af3d ed38 8bbd fe11 60bd 64fe 043d
00000100: 7c33 d23d e2f9 80bd 696b 60bd 7743 01be

decoder.key_net.net.1.weight f4 [68]
1.0236151 0.9855955 0.9723199 0.9871865 0.99106234 0.9882594 0.9831557 1.0050975
0.9815628 0.99016464 0.97795844 0.9759926 0.9902081 0.9888447 0.9981314 0.97783494
0.90902114 0.96468765 0.9754417 0.9725016 0.9682751 0.99659574 0.9635577 1.0004423
1.0077919 0.96002346 1.0221574 0.96815944 1.0049461 0.976443 0.9734251 0.97669023
0.954901 1.01141 1.0026084 0.9846108 0.9687643 0.9567127 0.99931574 0.9601469
0.97776914 0.9919402 0.9865645 1.0071529 1.0229474 0.9588053 0.96716046 0.9879626
0.99379975 0.9918762 0.97927004 0.97414035 0.9856375 0.9910713 0.95066285 1.0071604
0.98781264 0.99281615 0.9964528 0.98885536 0.93450063 0.9771115 0.99158555 0.96201533
0.96365756 0.99296093 0.99382687 0.9983235
00000000: d205 833f fd4f 7c3f f5e9 783f 41b8 7c3f
00000010: 43b6 7d3f 91fe 7c3f 18b0 7b3f 09a7 803f
00000020: b347 7b3f 6e7b 7d3f 7c5b 7a3f a7da 793f
00000030: 477e 7d3f ed24 7d3f 8a85 7f3f 6453 7a3f
00000040: 9cb5 683f c5f5 763f 8cb6 793f ddf5 783f
00000050: e1e0 773f e620 7f3f b8ab 763f 7e0e 803f
00000060: 53ff 803f 19c4 753f 0ed6 823f 4cd9 773f
00000070: 13a2 803f 2bf8 793f 6332 793f 5f08 7a3f
00000080: 6474 743f e275 813f 7955 803f 740f 7c3f
00000090: f000 783f 20eb 743f 28d3 7f3f 30cc 753f
000000a0: 144f 7a3f cbef 7d3f 7e8f 7c3f 63ea 803f
000000b0: f1ef 823f 4474 753f d497 773f 1eeb 7c3f
000000c0: a969 7e3f 99eb 7d3f 71b1 7a3f 4361 793f
000000d0: bd52 7c3f d9b6 7d3f a45e 733f a2ea 803f
000000e0: 4ae1 7c3f 3329 7e3f 8817 7f3f a025 7d3f
000000f0: 6f3b 6f3f fb23 7a3f 8dd8 7d3f a346 763f
00000100: 43b2 763f b032 7e3f 706b 7e3f 2192 7f3f
