weights/sae_policy_norm_discovery.pt (torch, 133927 bytes, 30 tensors)

encoder.key_net.net.0.weight f4 [68, 64]
0	0xbca0fdcd	-0.019652272
1	0x3ddac6e4	0.106824666
2	0xbcaaa022	-0.02082831
3	0xbc7d4c9d	-0.015460161
4	0xbd47a064	-0.048736945
5	0xbda66a5c	-0.08125755
6	0xbca24b58	-0.019811317
7	0x3dc6e960	0.097124815
8	0xbdfbff42	-0.12304546
9	0xbdfc6e06	-0.12325673
10	0x3dca125a	0.098667815
11	0xbdde0eba	-0.108426526
12	0xbccef388	-0.02526261
13	0xbd1c09bc	-0.03809522
14	0x3dd50274	0.104008585
15	0xbd88278c	-0.06648168
16	0xbd91c3aa	-0.07117398
17	0x3d075aa0	0.03304541
18	0x3c976740	0.01848185
19	0x3bd1ac20	0.0063986927
20	0x3c053c00	0.008131981
21	0x3d29518c	0.041337535
22	0xbd8c7a42	-0.06859256
23	0x3d9cebc8	0.07662159
24	0xbc53ad90	-0.0129197985
25	0xbd07b2b0	-0.033129394
26	0x3c99ae60	0.018759906
27	0xbc5c0ec0	-0.013431251
28	0xbdf87bc6	-0.12132983
29	0x3d684538	0.056706637
30	0x3def7b06	0.11693387
31	0x3ac97880	0.0015370995
32	0x3da3a62e	0.07990681
33	0x3d482f6c	0.04887335
34	0x3c3ed3c0	0.011647165
35	0xbda685d6	-0.08130996
36	0xbb69bf80	-0.0035667121
37	0x3d3ed4b4	0.04658957
38	0x3de0699e	0.10957645
39	0x3cbae278	0.022813067
40	0xbcdeed60	-0.027212799
41	0x3d898e94	0.06716648
42	0xbd447e18	-0.047971815
43	0x3dcddbd8	0.100516975
44	0x3da851f6	0.08218758
45	0xbc884490	-0.016634256
46	0x3dd3c2a6	0.103398606
47	0x3dac5176	0.08413975
48	0x3dd4b584	0.10386184
49	0x3d57a9f8	0.05265233
50	0x3d26eb54	0.04075177
51	0x3d786504	0.06064321
52	0xbc1442d0	-0.0090491325
53	0x3dff4e62	0.12466122
54	0x3de2e308	0.11078459
55	0xbdf53e4c	-0.11974773
56	0xbd000538	-0.031254977
57	0xbd0462c4	-0.032320753
58	0x3d415e10	0.047208846
59	0xbd3870dc	-0.045029506
60	0xbd8f89cc	-0.070087045
61	0xbd4ac934	-0.04950829
62	0x3da5bdba	0.08092828
63	0xbdfbf094	-0.12301746
64	0xbdc3e1f5	-0.09564582
65	0xbdc3e004	-0.09564212
66	0xbd949bec	-0.07256302
67	0xbda805c4	-0.08204225
68	0x3db419b0	0.08793962
69	0x3de1d532	0.11026992
70	0xbcf04790	-0.029330999
71	0xbdfa26cc	-0.12214431
72	0xbd163844	-0.036674753
73	0xbda69fa0	-0.08135915
74	0xbc84a4f0	-0.01619193
75	0xbdfe2bfe	-0.124107346
76	0xbc1ca7f0	-0.009561524
77	0xbd13caac	-0.036081955
78	0x3d8e5304	0.06949428
79	0xbd4a7500	-0.049427986
80	0x3df59348	0.11990982
81	0xbcdb5110	-0.026772052
82	0x3d49d21c	0.04927264
83	0x3dda9d3a	0.1067452
84	0x3ddc416a	0.10754664
85	0x3d2d611c	0.04232894
86	0x3deeb65c	0.11655876
87	0xbc18dc80	-0.009329915
88	0x3d284630	0.04108256
89	0x3c5a8d00	0.013339281
90	0x3d192494	0.0373884
91	0x3d3c3398	0.04594764
92	0xbdba4342	-0.0909486
93	0x3d693274	0.05693288
94	0x3bce7c00	0.006301403
95	0x3df643ce	0.120246515
96	0xbd823932	-0.063585654
97	0xbc250c90	-0.010073796
98	0x3dd1acd2	0.10238041
99	0x3d9bb040	0.076019764
100	0x3c91df88	0.017806783
101	0x3d16f1f4	0.03685184
102	0xbd1fd1fc	-0.039018616
103	0x3d0cfa44	0.03441836
104	0xbdf49d12	-0.11944021
105	0xbbeab3a0	-0.0071625262
106	0xbca9b5f8	-0.020716652
107	0xbdaa755e	-0.08323167
108	0xbd5cebc4	-0.05393578
109	0x3d7350a0	0.059403062
110	0xbdd68dc2	-0.10476257
111	0x3dbcc62a	0.09217484
112	0xbdc81f5c	-0.09771606
113	0x3c199000	0.009372711
114	0x3dd35ea4	0.10320786
115	0xbd3f6af0	-0.046732843
116	0xbcfec530	-0.031099886
117	0xbdea0fec	-0.11428818
118	0xbd5acd64	-0.053418532
119	0x3df52dd0	0.11971629
120	0x3da0066c	0.07813725
121	0xbcd7a948	-0.026325837
122	0x3dde83e8	0.10865003
123	0xbbc28da0	-0.005937293
124	0x3dbe32a8	0.09287006
125	0x3d85e560	0.065378904
126	0xbdb28132	-0.08716048
127	0x3d49bc70	0.049251974
128	0xbbfc8e38	-0.0077073835
129	0xbbdfbd48	-0.006827984
130	0x3d8b67fb	0.06806942
131	0x3b86583e	0.0040998748
132	0xbda0e990	-0.078570485
133	0xbd23a024	-0.039947644
134	0xbd91650c	-0.07099351
135	0xbd989262	-0.07449795
136	0xbd28da44	-0.04122378
137	0xbdcab3c2	-0.09897567
138	0xbd03c11c	-0.032166585
139	0xbd37198c	-0.044702098
140	0x3c9b0140	0.018921494
141	0xbd10e9e4	-0.035379305
142	0x3cf0d680	0.029399157
143	0xbdb51fbc	-0.088439435
144	0xbddd5796	-0.10807721
145	0x3dc5775a	0.09641905
146	0x3d46ece8	0.048565775
147	0xbdae0660	-0.0849731
148	0x3dad336e	0.08457075
149	0xbcb7b480	-0.022424936
150	0x3c8c5478	0.017130122
151	0xbdfc47b4	-0.12318364
152	0xbd1a4598	-0.037664026
153	0x3d61aad4	0.055094555
154	0x3cb58660	0.022158802
155	0xbd5e1a8c	-0.054224536
156	0x3d66fe48	0.056394845
157	0xbd0de4e8	-0.03464213
158	0x3dcb8688	0.09937769
159	0xbc5fbea0	-0.013656288
160	0x3cef7670	0.02923128
161	0x3dcf6030	0.10125768
162	0xbcf57078	-0.029960856
163	0xbcaecd58	-0.02133815
164	0x3c427730	0.011869237
165	0xbdf296d4	-0.118451744
166	0xbd504d0c	-0.050854728
167	0xbd9cdcc6	-0.07659297
168	0xbd8e31f0	-0.069431186
169	0xbda0540c	-0.07828531
170	0xbd59fe78	-0.053221196
171	0x3b6e8c40	0.0036399513
172	0xbdd3241c	-0.10309622
173	0x3da99f16	0.08282296
174	0xbdb1679c	-0.0866234
175	0xbd04aa70	-0.032389104
176	0x3d6f8b30	0.05848235
177	0x3de2f610	0.11082089
178	0x3c0644b0	0.008195087
179	0x3c1f4b60	0.009722561
180	0xbd4735cc	-0.04863529
181	0x3d72b3a8	0.059253365
182	0xbd47d718	-0.048789114
183	0xbcee8688	-0.029116884
184	0xbd5d71c0	-0.05406356
185	0xbda7958e	-0.08182822
186	0xbd93a718	-0.07209605
187	0x3d694d24	0.056958333
188	0xbd620d24	-0.055188313
189	0xbdcf20c4	-0.101136714
190	0xbdeda98a	-0.11604603
191	0xbca73650	-0.02041164
192	0xbcc66078	-0.024215922
193	0xbe35c27b	-0.1774997
194	0xbdaf5923	-0.08561923
195	0x3e5987f0	0.21243262
196	0xbd5337b8	-0.05156681
197	0x3dd9dd90	0.10637963
198	0x3d16754c	0.036732957
199	0xbd2e9a94	-0.042627886
200	0xbdd7109c	-0.10501215
201	0xbcc1df60	-0.023666084
202	0x3dcc28da	0.09968729
203	0xbd523eec	-0.05132954
204	0xbdbd9c2c	-0.09258303
205	0xbd6bddb8	-0.057584494
206	0xbd2e33c8	-0.04252985
207	0xbd57667c	-0.05258797
208	0x3d5a6b00	0.0533247
209	0xbd964b84	-0.07338622
210	0x3dd306b8	0.10304016
211	0x3d2e648c	0.042576358
212	0xbdbc6c16	-0.09200303
213	0x3da758cc	0.081712335
214	0xbdc1345a	-0.094338134
215	0x3dbccf80	0.09219265
216	0x3cce4ab8	0.025182113
217	0xbc9550b0	-0.018226951
218	0x3dee4f94	0.11636272
219	0x3c86e670	0.016467303
220	0xbcfee590	-0.031115323
221	0xbdfb4900	-0.12269783
222	0x3d4684cc	0.04846649
223	0x3badafc0	0.005300492
224	0xbdb70898	-0.08937186
225	0x3ce92fe8	0.028465226
226	0x3dbdc424	0.092659265
227	0x3d7e0dfc	0.062025055
228	0xbd1f6bc8	-0.038921148
229	0x3ddfb38a	0.10922916
230	0xbde3708e	-0.111054525
231	0xbc57aa50	-0.013163164
232	0xbdd1174e	-0.10209523
233	0xbcbe6e88	-0.023246065
234	0x3db8abc0	0.09017134
235	0xb92b7400	-0.00016351044
236	0x3db492e2	0.08817078
237	0xbdfcacd8	-0.12337655
238	0x3dac84ba	0.08423753
239	0xbdf33278	-0.118748605
240	0xbdd2c662	-0.10291745
241	0xbddbfd5c	-0.10741684
242	0x3dc5ba62	0.0965469
243	0x3dd2e4cc	0.10297546
244	0x3da0c0fc	0.07849309
245	0xbd88d324	-0.06680897
246	0x3dec989c	0.115525454
247	0xbddd547e	-0.10807131
248	0xbdcf78f8	-0.10130495
249	0x3dd1be2c	0.102413505
250	0xbdff6c32	-0.124718085
251	0x3de6ba88	0.11266047
252	0x3de0679e	0.109572634
253	0x3dabbfbc	0.0838618
254	0xbd81df82	-0.06341459
255	0xbdb4a400	-0.08820343

encoder.key_net.net.0.bias f4 [68]
0	0xbdb0a031	-0.08624304
1	0xbc655580	-0.013997436
2	0xbdda74cb	-0.10666808
3	0x3de90d6c	0.11379513
4	0xbcd97383	-0.026544338
5	0x3d5b9b6b	0.053615015
6	0xbdde32db	-0.10849544
7	0x3d64bd24	0.05584444
8	0x3d9eb048	0.07748467
9	0xbd34905a	-0.044082977
10	0x3da0ec14	0.07857528
11	0x3b683a5f	0.0035435183
12	0xbcf5a9b1	-0.029988142
13	0x3dbd6b5b	0.09248992
14	0xbdd24888	-0.102677405
15	0x389933f6	7.305287e-05
16	0x3d71c163	0.05902232
17	0xbd0e044d	-0.03467207
18	0xbd32c411	-0.043644015
19	0xbdad61da	-0.08465929
20	0xbd011c49	-0.031521115
21	0x3c1c7fcb	0.009551953
22	0xbd36d8aa	-0.04464022
23	0x3d403e07	0.046934154
24	0x3d2da48b	0.04239325
25	0x3d976b62	0.073935285
26	0xbd08bee7	-0.033385184
27	0xbbc43d0e	-0.0059887236
28	0x3d8fa71e	0.07014297
29	0xbd228bfe	-0.03968429
30	0xbdc2a097	-0.09503286
31	0xbd93b214	-0.072117
32	0x3a86472e	0.0010244602
33	0xba895514	-0.0010477626
34	0xbba0c107	-0.004905823
35	0xbca45bf2	-0.020063374
36	0xbdb890c6	-0.09011988
37	0x3da0f55e	0.078593
38	0xbcac200a	-0.021011371
39	0xbc72157c	-0.01477563
40	0xbd8d8533	-0.06910171
41	0x3caf60b3	0.021408414
42	0xbdaba4a1	-0.0838101
43	0x3a63a493	0.0008683886
44	0xbc0e24fd	-0.008675811
45	0xbda6b2bc	-0.081395596
46	0x3c6f2e77	0.01459848
47	0xbc88bd0c	-0.016691707
48	0xbd80af3e	-0.06283425
49	0x3dd1d1d2	0.10245098
50	0xbd3796a4	-0.044821396
51	0xbc150402	-0.009095194
52	0xbda04195	-0.07825009
53	0x3d8068d1	0.06269992
54	0x3d181199	0.037126157
55	0xbda0f674	-0.07859507
56	0x3d35c565	0.044377703
57	0x3cb11763	0.021617597
58	0xbc27128f	-0.010197296
59	0x3d42517a	0.047440983
60	0x3d8b63a1	0.06806112
61	0xbc427957	-0.01186975
62	0xbd9b1905	-0.075731315
63	0xbc69d0bd	-0.0142709585
64	0x3c0993ca	0.008397052
65	0x3d99278c	0.07478246
66	0xbb9a8dad	-0.004716596
67	0xbd097109	-0.033555064

encoder.key_net.net.1.weight f4 [68]
0	0x3f831f8f	1.0244006
1	0x3f879cf5	1.0594774
2	0x3f815bd7	1.0106152
3	0x3f928194	1.1445794
4	0x3f4fbeb9	0.81150395
5	0x3f949080	1.1606598
6	0x3f7f0a2f	0.99624914
7	0x3f97e2a3	1.1866039
8	0x3f85e55e	1.0460622
9	0x3f877873	1.0583633
10	0x3f9f9cbd	1.2469708
11	0x3f85f1ae	1.046438
12	0x3f85796f	1.0427684
13	0x3f808b28	1.0042467
14	0x3f7f5662	0.99741185
15	0x3f716df5	0.94308406
16	0x3f875148	1.057168
17	0x3f733733	0.950061
18	0x3f90cdaa	1.1312764
19	0x3f7f23f4	0.99664235
20	0x3f8027e3	1.0012172
21	0x3f8a58f4	1.0808396
22	0x3f7dff8b	0.9921805
23	0x3f7428c6	0.95374715
24	0x3f8d58f0	1.1042767
25	0x3f9c47b6	1.2209384
26	0x3f8f9007	1.1215829
27	0x3f982b9c	1.1888309
28	0x3f7f04a2	0.99616444
29	0x3f77227d	0.96537
30	0x3f5dd554	0.8665364
31	0x3f7896ac	0.9710491
32	0x3f7bf4bf	0.9842033
33	0x3f85514b	1.0415434
34	0x3f8831a7	1.0640153
35	0x3f8cbe17	1.0995511
36	0x3f7ed820	0.9954853
37	0x3f855202	1.0415652
38	0x3f6942aa	0.91117346
39	0x3f96c179	1.1777793
40	0x3f82774b	1.0192655
41	0x3f72ad42	0.9479562
42	0x3f87dd44	1.06144
43	0x3f92c2be	1.1465681
44	0x3f873f26	1.0566146
45	0x3f765745	0.9622691
46	0x3f8f0c32	1.1175597
47	0x3f983110	1.1889973
48	0x3f7455a0	0.95443153
49	0x3f879a5f	1.0593985
50	0x3f73b8af	0.9520368
51	0x3f7b72ed	0.9822224
52	0x3f6b1141	0.918232
53	0x3f7eba6b	0.995032
54	0x3f97f225	1.1870772
55	0x3f8dd225	1.1079756
56	0x3f74a73b	0.95567673
57	0x3fa6bb12	1.3025839
58	0x3f84c6aa	1.0373127
59	0x3f785165	0.969992
60	0x3f8df9e8	1.109189
61	0x3f6c00ae	0.9218854
62	0x3f6531b9	0.89528996
63	0x3f84675c	1.0344043
64	0x3f8a4ed2	1.0805304
65	0x3f8319c1	1.0242234
66	0x3f89a004	1.0751958
67	0x3f8c2234	1.0947938

encoder.key_net.net.1.bias f4 [68]
0	0xbd020a00	-0.031747818
1	0xbd9eb127	-0.07748633
2	0xbd8fe5a2	-0.07026221
3	0x3d9150b4	0.07095471
4	0xbbbc6acf	-0.0057500373
5	0x3d4e731d	0.05040275
6	0xbd81fc03	-0.063468955
7	0x3d247aa2	0.040156014
8	0x3d0282c5	0.031862993
9	0x3ce7f96c	0.028317176
10	0x3d55c22d	0.052187134
11	0xbc8be347	-0.017076148
12	0x3c677350	0.014126614
13	0x3c37fdbd	0.0112299295
14	0xbd83f08b	-0.06442364
15	0xbc4bc9da	-0.012438262
16	0x3d6990eb	0.05702297
17	0xbc902bc2	-0.01759899
18	0x3d241389	0.040057693
19	0xbd885881	-0.06657506
20	0xbb1c6ca4	-0.0023868466
21	0x3d3a3103	0.045456897
22	0x3c352417	0.011055968
23	0xbcda6c97	-0.026663108
24	0x3d185bb5	0.037196834
25	0x3d44da33	0.048059653
26	0x3cf4994a	0.02985825
27	0x3ddc9b60	0.10771823
28	0x3d12a3b1	0.03580064
29	0xba8d6bf5	-0.001078962
30	0x3b7e2909	0.0038781783
31	0xbd1c056f	-0.03809112
32	0x3c8dd483	0.017313248
33	0x3d3ef55c	0.04662071
34	0x3d2cf3e7	0.04222479
35	0x3ce634d9	0.028101372
36	0xbd820fa1	-0.06350637
37	0x3b2d0ddc	0.0026405966
38	0x3c897de3	0.01678366
39	0x3d7d9df2	0.061918207
40	0xbd7887cb	-0.060676377
41	0xbcaa411c	-0.020783
42	0xbda6cedb	-0.08144923
43	0x3cc505ed	0.024050677
44	0x3d43d121	0.047806863
45	0xbce650a9	-0.028114634
46	0x3c0bef71	0.008540974
47	0x3d4446d6	0.047919117
48	0xbc35f04e	-0.011104656
49	0x3d7db2d9	0.06193814
50	0xbbfe8f2e	-0.007768533
51	0xbce7d827	-0.028301312
52	0xbc28a9ef	-0.010294422
53	0x3c3f838c	0.011689078
54	0x3d639e65	0.05557098
55	0x3d4c7f56	0.049926125
56	0x3be45d7e	0.006969153
57	0x3da84c92	0.0821773
58	0xbc2a522d	-0.010395569
59	0xbc6f6cfb	-0.014613385
60	0x3b7a1458	0.0038159098
61	0xbd528f93	-0.051406454
62	0xbc5ca944	-0.01346809
63	0x39e6c3ae	0.0004401481
64	0x3a8a48e5	0.0010550289
65	0x3c3df87e	0.01159489
66	0xbb6bc2d1	-0.0035974274
67	0x3d30888c	0.04309897

encoder.key_net.net.3.weight f4 [72, 68]
0	0x3e3e5bdd	0.1858973
1	0x3d9177a8	0.07102901
2	0xbdd2d390	-0.102942586
3	0x3de31e66	0.110897824
4	0x3e2ab1f4	0.16669446
5	0xbd71c8d4	-0.059029415
6	0x3cbd8f86	0.023139726
7	0x3d909f2e	0.07061611
8	0xbda104b5	-0.07862226
9	0x3deef9b7	0.11668723
10	0xbd16fdc0	-0.03686309
11	0xbdc1d0ba	-0.094636396
12	0xbea0a6f5	-0.31377378
13	0xbbb11e32	-0.005405211
14	0xbd1458cd	-0.0362175
15	0x3cb1192a	0.021618444
16	0x3b180469	0.0023195988
17	0xbcfdb255	-0.030968824
18	0xbc5098fd	-0.012731788
19	0x3cea5f55	0.028609911
20	0x3e7e724e	0.24848291
21	0x3b3e39f6	0.0029026247
22	0xbe3374f0	-0.17525077
23	0xbbb635fe	-0.0055606356
24	0x3dd2d9a2	0.102954164
25	0x3e5d46dc	0.21609062
26	0x3d3bb98b	0.045831244
27	0xbed4fced	-0.41599217
28	0x3d14d6ce	0.036337666
29	0xbdcf9746	-0.10136275
30	0x3d0d2537	0.03445932
31	0xbe1621db	-0.14661352
32	0x3d6d94f8	0.058003396
33	0xbd9226bc	-0.07136294
34	0x3ddf06ac	0.108899444
35	0x3e179cfe	0.14805982
36	0xbd30d158	-0.043168396
37	0x3daa38d3	0.083116196
38	0x3c65c360	0.014023632
39	0x3e0a7ce4	0.13524204
40	0xbe07e30f	-0.1327021
41	0xbd74e158	-0.059785217
42	0x3d6b1e43	0.057401907
43	0x3e30a70c	0.17251223
44	0x3de44e10	0.11147702
45	0xbdabb4ee	-0.08384119
46	0xbba8d537	-0.0051523703
47	0xbe78a12f	-0.24280237
48	0x3e8afa03	0.2714387
49	0xbdc54bf0	-0.096336246
50	0xbe10e593	-0.14150076
51	0x3e865988	0.26240182
52	0xbde6796a	-0.11253627
53	0x3cf27c57	0.029600305
54	0x3e3bae9b	0.18328325
55	0xbf085421	-0.5325337
56	0x3d257171	0.04039139
57	0x3dabfe8e	0.08398162
58	0xbdb61767	-0.088911824
59	0x3e75e8a6	0.2401453
60	0x3d486dc7	0.048932817
61	0x3e2ed0dc	0.17071861
62	0x3d10f268	0.035387427
63	0x3e0fb6da	0.14034596
64	0x3e09e449	0.1346599
65	0xbd23c72c	-0.039984867
66	0xbe2688fc	-0.16263193
67	0x3e690086	0.22754106
68	0x3db13460	0.08652568
69	0xbd0ec848	-0.03485897
70	0xbe108cc6	-0.14116201
71	0x3c2fdcf7	0.0107338345
72	0xbc950515	-0.0181909
73	0xbeb970fa	-0.36219007
74	0xbda575a2	-0.08079077
75	0xbf1650c1	-0.5871697
76	0xbd285398	-0.041095346
77	0x3dac90d1	0.08426059
78	0xbcabdbaf	-0.020978777
79	0x3d17b78e	0.037040286
80	0x3e1504da	0.14552632
81	0x3dc8e280	0.098088264
82	0xbdd05468	-0.10172349
83	0xbde9a8bf	-0.11409139
84	0xbdba00b8	-0.09082168
85	0x3ddb7752	0.10716118
86	0xbe1decb3	-0.15422325
87	0xbdb64a66	-0.08900909
88	0x3e36354c	0.17793769
89	0xbe3ece96	-0.18633494
90	0xbd8400ec	-0.06445488
91	0xbda15a90	-0.078786016
92	0xbe825170	-0.25452757
93	0x3e37b73f	0.17940997
94	0xbeef7823	-0.46771345
95	0x3e64d545	0.22346981
96	0xbd23cda7	-0.039991047
97	0x3dc9bb1c	0.098501414
98	0x3daa82ae	0.083257064
99	0x3d9dd761	0.07707096
100	0x38c2a6a4	9.28168e-05
101	0x3e0ec2c9	0.13941492
102	0x3e31d4a7	0.17366277
103	0xbe04084c	-0.1289379
104	0x3c305af4	0.010763872
105	0xbd0fe72b	-0.03513257
106	0xbc973b6d	-0.018460954
107	0xbd599478	-0.053120106
108	0xbc52ec7d	-0.012873766
109	0x3e3995b3	0.18123512
110	0xbc86c3b4	-0.01645074
111	0xbdb1dc74	-0.08684626
112	0x3de49c14	0.11162582
113	0xbd646bd1	-0.055766884
114	0x3e314f70	0.17315459
115	0x3e48e891	0.19619967
116	0x3d19f3ce	0.037586026
117	0x3da52fc9	0.08065755
118	0x3d1e34ef	0.0386247
119	0x3e0e1d64	0.13878399
120	0x3db85a3c	0.09001586
121	0x3d7b7248	0.061388284
122	0x3dd685a2	0.10474707
123	0x3e370a29	0.1787497
124	0x3df9c0ac	0.12194952
125	0x3e21ac46	0.15788373
126	0xbe8e89dc	-0.27839553
127	0x3a95a20f	0.0011416095
128	0xbe994f57	-0.29943344
129	0x3d74f8aa	0.059807457
130	0xbcb9b681	-0.022670032
131	0x3d85f16b	0.065401874
132	0xbc97015a	-0.018433262
133	0x3d11c411	0.035587374
134	0xbe8148c9	-0.25250843
135	0x3dcc4044	0.09973195
136	0xbc0e54eb	-0.008687238
137	0x3e0eef69	0.13958515
138	0x3e2eb8eb	0.17062728
139	0xbe050b37	-0.1299256
140	0x3da81915	0.08207909
141	0x3e9b6b35	0.3035523
142	0x3d5bd339	0.053668234
143	0x3e8a1a21	0.2697306
144	0xbb331a89	-0.0027329049
145	0xbdcd8628	-0.10035354
146	0xbe8fc49a	-0.28079683
147	0xbe32376a	-0.17403951
148	0xbd994331	-0.07483519
149	0xbcb0c2c9	-0.021577256
150	0xbbdfeaa5	-0.0068333917
151	0x3d9bfc82	0.076165214
152	0xbdd28d9c	-0.10280916
153	0xbd8fea73	-0.070271395
154	0xba449eba	-0.0007500459
155	0x3d59c114	0.05316265
156	0xbeaacba3	-0.33358487
157	0x3e1f1bda	0.15537968
158	0xbda4fd66	-0.080561444
159	0xbcc08a5f	-0.02350348
160	0x3e1946c0	0.14968395
161	0x3d67d440	0.0565989
162	0x3e83a523	0.25711927
163	0xbdec41d5	-0.11535994
164	0x3dc02cdb	0.093835555
165	0xbd818776	-0.06324665
166	0xbc688713	-0.01419236
167	0x3e027969	0.12741627
168	0xbda6ac64	-0.0813835
169	0xbc9a9894	-0.018871583
170	0xbe57e1a8	-0.21082175
171	0x3d77d827	0.060508873
172	0xbc6a8704	-0.014314417
173	0x3e3728da	0.17886677
174	0x3dedc51b	0.116098605
175	0xbd15abe9	-0.0365409
176	0x3dcae3a5	0.09906701
177	0xbdc72578	-0.097239435
178	0xbd214e42	-0.039381273
179	0xbd868996	-0.06569211
180	0xbe199b72	-0.15000704
181	0x3da86d49	0.082239695
182	0xbe25278b	-0.16128366
183	0xbe121871	-0.14267136
184	0x3cddb3e0	0.02706331
185	0xbd1b4a98	-0.037912935
186	0x3d261030	0.04054278
187	0x3b7c705a	0.0038519115
188	0x3d9b2462	0.07575299
189	0xbda6dc68	-0.08147508
190	0x3c45422a	0.0120397005
191	0x3d3bb12e	0.04582327
192	0x3aea418c	0.0017872318
193	0xbdb00bbc	-0.08595988
194	0x3e677fa5	0.22607286
195	0xbc9214d5	-0.0178322
196	0x3e3ef5e5	0.18648489
197	0x3c73269f	0.014840751
198	0x3d73384d	0.059379864
199	0xbe1d55fa	-0.15364829
200	0xbe0164ab	-0.12636058
201	0xbcab9f19	-0.020949887
202	0x3dcc17de	0.0996549
203	0xbe66021e	-0.22461745
204	0x3d86deb5	0.06585447
205	0x3d486030	0.048919857
206	0x3dbd244b	0.09235438
207	0x3c37d3c8	0.011219926
208	0xbd08e084	-0.03341724
209	0x3db1844b	0.08667811
210	0x3bc63462	0.006048725
211	0x3e6df8e5	0.23239477
212	0xbcdc4114	-0.0268865
213	0x3dff32a8	0.12460834
214	0xbde823a0	-0.1133492
215	0x3dcb88d7	0.099382095
216	0xbd5a6d7b	-0.053327065
217	0x3dda1305	0.10648159
218	0xbddb1914	-0.10698143
219	0xbc185eaa	-0.009299913
220	0x3b574062	0.0032844772
221	0x3d1899d9	0.037256096
222	0xbd6d9282	-0.05800105
223	0x3c98f751	0.018672617
224	0xbd199082	-0.03749133
225	0xbd50165e	-0.05080258
226	0xbd020eba	-0.031752326
227	0x39362c53	0.00017373385
228	0x3b901758	0.004397314
229	0x3e54806f	0.20752119
230	0x3decf55d	0.11570237
231	0x3e1b33bc	0.15156454
232	0xbcd39188	-0.02582623
233	0x3d797672	0.060903974
234	0xbdb0e0b0	-0.08636606
235	0x3d648343	0.055789243
236	0xbc7e0e05	-0.015506272
237	0xba98721b	-0.0011630686
238	0x3d48523d	0.048906554
239	0xbe088fb4	-0.13336068
240	0x3d865c9d	0.06560633
241	0xbd006e0d	-0.031354953
242	0xbd1cff63	-0.038329493
243	0xbe7d9926	-0.24765453
244	0xbdef7e45	-0.11694006
245	0x3e1407f1	0.14456154
246	0xbd9fb981	-0.07799054
247	0xbe283489	-0.1642629
248	0x3e42fcea	0.19041792
249	0x3d2075eb	0.039174955
250	0xbd3d87af	-0.046271976
251	0xbd735eb1	-0.059416477
252	0x3cca6b90	0.024709493
253	0x3de0351d	0.109476306
254	0x3d4b0aa5	0.0495707
255	0xbc9b2f12	-0.018943343

encoder.key_net.net.3.bias f4 [72]
0	0xbccdef30	-0.025138468
1	0xbd846447	-0.06464439
2	0xbd19e686	-0.03757336
3	0x3d209e03	0.03921319
4	0x3da7250b	0.08161362
5	0xbdd221f0	-0.10260379
6	0xbe275c35	-0.16343768
7	0x3d5e8dfc	0.054334626
8	0x3e2fced3	0.17168741
9	0x3b3056a0	0.0026907101
10	0xbdc15617	-0.094402485
11	0xbe311478	-0.17292964
12	0x3e328a2c	0.17435521
13	0x3d49373e	0.04912495
14	0x3c6a7cd2	0.014311986
15	0x3d26251b	0.04056273
16	0x3c354b3a	0.011065299
17	0x3d52d72d	0.05147474
18	0x3d8b1d0e	0.06792651
19	0xbd9d5e89	-0.07684047
20	0x3d6c8b54	0.05775006
21	0xbe099509	-0.13435759
22	0xbc887641	-0.01665795
23	0xbd8e0e5e	-0.06936334
24	0xbe032f5b	-0.12811033
25	0xbd874370	-0.066046596
26	0xbe1b0483	-0.1513844
27	0x3dac8902	0.0842457
28	0xbd7d8d8f	-0.06190258
29	0xbe0b6d73	-0.1361597
30	0xbd3e5d6b	-0.04647581
31	0x3c976e8f	0.018485336
32	0xbd77c7a9	-0.060493145
33	0xbd9fd4c5	-0.078042544
34	0x3e0d971f	0.1382718
35	0x3d328625	0.04358496
36	0xbe04a206	-0.12952432
37	0xbc8accf1	-0.016943427
38	0xbdc6187a	-0.09672637
39	0x3cf41d3d	0.029799098
40	0xbdd2654c	-0.10273227
41	0xbd81c22d	-0.06335864
42	0x3e3dc001	0.18530275
43	0xbe2d36fe	-0.16915509
44	0xbdafd1d4	-0.085849434
45	0x3da4df33	0.08050384
46	0x3da6de6c	0.08147892
47	0xbd2b0c91	-0.04176003
48	0x3ca5fbac	0.020261608
49	0xbd9baa8e	-0.0760089
50	0xbc744ac5	-0.014910405
51	0x3e1ebbcb	0.15501325
52	0xbd6c37d3	-0.057670426
53	0xbd96399e	-0.07335208
54	0xbe0f099f	-0.13968514
55	0xbc388bc4	-0.0112637915
56	0xbcced9ca	-0.025250334
57	0x3dfb7ed1	0.12280048
58	0x3e0bb52f	0.13643335
59	0x3dcedbd9	0.10100526
60	0x3bac2208	0.0052530803
61	0xbd06e98a	-0.032937564
62	0xbd9576e9	-0.07298071
63	0x3dcd5420	0.10025811
64	0xbd9e7f2e	-0.07739101
65	0xbe2f5d19	-0.17125358
66	0x3e22341e	0.15840194
67	0x3c420f38	0.011844449
68	0xbe2e91a7	-0.1704775
69	0x3d17c25c	0.03705059
70	0xbdc00d0f	-0.09377491
71	0xbd613ea4	-0.05499138

encoder.val_net.net.0.weight f4 [45, 18]
0	0xbcc6c473	-0.024263596
1	0x3d224acc	0.039622113
2	0xbc571456	-0.013127407
3	0x3e36922c	0.17829198
4	0xbc909837	-0.017650707
5	0xbdc846f9	-0.09779162
6	0xbdad6951	-0.08467353
7	0xbe25f675	-0.16207297
8	0xbcd2fff8	-0.025756821
9	0x3e931a74	0.2873112
10	0xbd5eaedc	-0.054365978
11	0xbc6b2e1b	-0.014354254
12	0x3d83b585	0.064311065
13	0x3e8b4351	0.27199796
14	0xbe550683	-0.20803265
15	0x3eb615d8	0.3556354
16	0xbe8349bc	-0.25642192
17	0x3e6142be	0.21998116
18	0x3cde12dc	0.027108602
19	0x3cc29525	0.023752758
20	0x3d22714b	0.039658826
21	0x3d49a0e5	0.049225707
22	0xbcaf7098	-0.021415994
23	0x3e5ba48d	0.2144949
24	0xbe9913ac	-0.2989782
25	0x3e8bba9c	0.2729081
26	0x3e8b7689	0.27238873
27	0xbdddf23e	-0.1083722
28	0xbe08e590	-0.13368821
29	0x3d041c55	0.032253582
30	0x3d917c15	0.07103745
31	0xbe3d6802	-0.18496707
32	0x3cef8305	0.02923728
33	0x3e6aef6a	0.22942892
34	0xbdb87ace	-0.09007798
35	0x3e928b3b	0.2862185
36	0x3cffac8c	0.031210206
37	0x3e00e8af	0.12588762
38	0x3dcd6373	0.10028734
39	0xbbd1e9c5	-0.0064060413
40	0x3e47c667	0.19509278
41	0xbe48eec7	-0.19622336
42	0xbe59bdff	-0.21263884
43	0xbe577244	-0.21039683
44	0x3e857342	0.26064497
45	0xbe7d95bb	-0.24764149
46	0x3e728f4a	0.23687473
47	0x3e8aedf4	0.2713467
48	0x3e006a80	0.12540627
49	0x3e308bae	0.17240784
50	0xbe84c093	-0.25928172
51	0xbd96ed19	-0.073694415
52	0x3dfec17b	0.12439247
53	0xbdc1f2a8	-0.09470111
54	0x3c670707	0.014100797
55	0xbe4ca80a	-0.19985977
56	0xbe4fb5b0	-0.20284152
57	0x3e39f098	0.18158185
58	0x3e2ad18c	0.16681498
59	0x3e274e9f	0.16338585
60	0x3dd7c706	0.105360076
61	0xbe391460	-0.18074179
62	0x3e057606	0.13033304
63	0x3e1403ef	0.14454626
64	0x3dd0c3c5	0.1019359
65	0xbe28fe93	-0.16503362
66	0xbe3697e3	-0.17831378
67	0x3e0c2caa	0.13688913
68	0x3d94d06c	0.07266316
69	0xbdf73f54	-0.12072626
70	0xbe4a54c4	-0.19758898
71	0x3d5744e4	0.052555934
72	0xbc907287	-0.017632736
73	0xbd804bca	-0.062644556
74	0x39e8f13c	0.00044430222
75	0x3a33be87	0.0006856699
76	0x3d2e98f5	0.04262634
77	0x3e4b984c	0.19882315
78	0xbe828626	-0.25492972
79	0x3dae4759	0.08509702
80	0xbdf3aa49	-0.11897714
81	0xbd5b8b54	-0.05359967
82	0xbe4fc878	-0.20291317
83	0x3e3b26ae	0.18276474
84	0xbdea1901	-0.1143055
85	0x3d534fca	0.051589765
86	0xbd86b0ec	-0.06576714
87	0x3d4d6867	0.050148394
88	0xbe9afad0	-0.3026948
89	0xbee1d276	-0.4410588
90	0x3a67f46d	0.0008848373
91	0x3d774ffc	0.060379013
92	0xbe031166	-0.12799606
93	0xbb0e9081	-0.0021753612
94	0x3e6d8ef4	0.23199064
95	0xbc700a4a	-0.014650891
96	0xbe194d79	-0.1497096
97	0x3d756ef2	0.05992026
98	0xbe8515e1	-0.25993255
99	0x3d912986	0.07087998
100	0x3d140f35	0.036147315
101	0x3e29bdfa	0.16576377
102	0x3e3e169e	0.18563315
103	0x3e00f0da	0.12591878
104	0xbe93aa98	-0.2884109
105	0xbea0c3ca	-0.31399375
106	0xbdcd2d1a	-0.10018368
107	0x3d65fdfc	0.05615042
108	0x3e043747	0.12911712
109	0x3e3610b2	0.17779806
110	0xbe8a0ea6	-0.269643
111	0xbe008453	-0.12550478
112	0x3e1a32c4	0.15058428
113	0xbdb0b5ce	-0.086284265
114	0xbe82c17a	-0.25538236
115	0x3e107f89	0.14111151
116	0x3e3f4700	0.18679428
117	0xbe82f116	-0.2557456
118	0xbe5560f1	-0.20837761
119	0x3e72aea8	0.23699439
120	0xbcdf4d38	-0.0272585
121	0x3e0e26e5	0.13882025
122	0x3e17c4c3	0.14821152
123	0x3d3c010f	0.045899447
124	0x3e7075d0	0.23482442
125	0x3dd38db4	0.10329762
126	0xbd955597	-0.072917156
127	0xbc794935	-0.015215208
128	0xbd5fb043	-0.054611456
129	0xbe07f90b	-0.13278596
130	0x3e41d554	0.18929034
131	0xbd3cc096	-0.0460821
132	0xbe10d8c7	-0.14145194
133	0xbe94aa3a	-0.29036123
134	0xbeab4510	-0.33451128
135	0x3d663e19	0.056211565
136	0xbd63e663	-0.055639636
137	0xbde9fa89	-0.11424739
138	0x3de8f5b0	0.11374986
139	0x3dc048aa	0.093888596
140	0xbcd0bb31	-0.025479885
141	0xbdb11029	-0.086456604
142	0x3e391639	0.18074884
143	0x3e4bd091	0.1990378
144	0xbb1bd7d8	-0.0023779776
145	0xbe1be641	-0.15224554
146	0xbd33b328	-0.04387203
147	0x3e32516b	0.17413871
148	0xbd89ecb3	-0.067346
149	0x3d868cbf	0.06569814
150	0x3d2de6b6	0.04245635
151	0xbe68c847	-0.2273265
152	0x3d9f5916	0.07780664
153	0xbe655841	-0.22396947
154	0xbdbd2ec3	-0.09237435
155	0x3e542a1f	0.20719193
156	0xbe149383	-0.14509396
157	0xbe805679	-0.25065973
158	0xbdf0625f	-0.11737513
159	0x3d73857f	0.059453484
160	0x3d0c334f	0.03422862
161	0x3e2133ca	0.15742412
162	0x3bcc90c3	0.006242843
163	0x3ae429c3	0.0017407465
164	0x3cd9e5c1	0.026598813
165	0x3c249650	0.010045603
166	0xbe61ac81	-0.22038461
167	0xbe6bb6df	-0.23018979
168	0xbdecfe68	-0.11571962
169	0x3dde47f5	0.108535685
170	0xbd22505a	-0.03962741
171	0x3e6ffae6	0.23435554
172	0xbd87c0e0	-0.06628585
173	0x3e330665	0.17482908
174	0x3e49be14	0.19701415
175	0x3eed9fee	0.4641108
176	0x3ed1cdf7	0.4097745
177	0xbd8069eb	-0.06270202
178	0x3ed7e5d0	0.4216752
179	0x3e0d6da4	0.13811356
180	0xbcb7c79e	-0.022434052
181	0xbdc4742e	-0.09592472
182	0x3e27bd16	0.16380724
183	0x3e96027b	0.29298767
184	0xbd5c19c6	-0.053735517
185	0x3e268568	0.16261828
186	0xbea905ab	-0.33012137
187	0xbe4a2926	-0.1974226
188	0xbd7e6b47	-0.062114026
189	0x3dc335b8	0.095317304
190	0xbe819c32	-0.2531448
191	0x3c63a9fb	0.013895507
192	0xbd90b8ad	-0.07066474
193	0xbe589425	-0.21150263
194	0x3c1c516f	0.0095409
195	0x3e30d9ee	0.17270634
196	0x3d258d59	0.040418003
197	0xbdd8525d	-0.105625845
198	0x3cecd9e4	0.028912492
199	0x3c5d1cc2	0.013495626
200	0xbe291bcd	-0.16514511
201	0x3d45af92	0.04826314
202	0x3ca4ee86	0.020133268
203	0x3d90359a	0.07041474
204	0x3d6cc039	0.057800505
205	0xbdc2114f	-0.094759576
206	0xbdeb7cd4	-0.114984185
207	0x3e6596b4	0.2242077
208	0xbd6fe98b	-0.058572333
209	0xbed3407a	-0.4126013
210	0xbdded216	-0.108799145
211	0xbe582491	-0.21107699
212	0xbde5c079	-0.11218352
213	0xbe18e1de	-0.14929911
214	0x3ecb2412	0.39675957
215	0xbe255871	-0.16147019
216	0xbd4fb7e0	-0.050712466
217	0x3caa6955	0.02080218
218	0x3ccc0b9f	0.024907885
219	0x3db172ed	0.086644985
220	0xbe57eedc	-0.21087211
221	0x3e392acc	0.18082732
222	0x3e4073e8	0.18794215
223	0x3e957d77	0.29197285
224	0x3d8edd40	0.06975794
225	0xbe7d10e4	-0.24713475
226	0x3e98d107	0.29846975
227	0xbe0c0d84	-0.13677031
228	0x3dd68c8a	0.104760244
229	0x3d73f640	0.059561014
230	0xbdbe3913	-0.0928823
231	0xbe95774d	-0.29192582
232	0xbdb58918	-0.08864039
233	0xbb8f238d	-0.0043682517
234	0xbbdf8125	-0.006820815
235	0x3c0221ca	0.007942626
236	0xbd5704c6	-0.052494787
237	0xbd2e79de	-0.04259669
238	0x3dcc4555	0.099741615
239	0xbd6872ed	-0.056750227
240	0xbeeef349	-0.46669987
241	0xbc2c8444	-0.010529581
242	0xbc399443	-0.011326852
243	0xbda490cd	-0.08035431
244	0x3e925266	0.2857849
245	0xbe093de7	-0.1340252
246	0xbde62fd1	-0.11239589
247	0xbe84a074	-0.25903666
248	0x3e6bcb4b	0.23026769
249	0xbe72fcfd	-0.2372932
250	0xbc0033ba	-0.007824833
251	0xbe955cbc	-0.29172313
252	0xbc908dc1	-0.017645719
253	0x3dc03993	0.093859814
254	0x3c5f2ac5	0.013621037
255	0x3e56c054	0.20971805

encoder.val_net.net.0.bias f4 [45]
0	0xbd1c8e04	-0.038221374
1	0xbcbaf501	-0.022821905
2	0x3d8ec547	0.069712214
3	0x3e0bd813	0.13656645
4	0x3de4f372	0.11179246
5	0xbec89a2f	-0.39180133
6	0x3e08892e	0.1333358
7	0x3ddd9d85	0.1082106
8	0x3d924268	0.07141572
9	0xbddd522e	-0.1080669
10	0x3e36a5ec	0.17836732
11	0xbeb3e654	-0.35136664
12	0x3c338f5f	0.010959475
13	0xbe8fef24	-0.28112137
14	0xbdc5c4fe	-0.09656714
15	0xbec2d8f7	-0.38056156
16	0x3e32270e	0.1739771
17	0x3e631e1a	0.22179452
18	0xbd318c52	-0.04334671
19	0x3d8a79fe	0.067615494
20	0xbeac1729	-0.3361142
21	0xbebd6bed	-0.36996403
22	0xbcdc6e54	-0.026908077
23	0xbdc4f96c	-0.09617886
24	0x3e303ac6	0.1720992
25	0xbc338293	-0.010956424
26	0xbd0c6497	-0.034275617
27	0x3d9bcc86	0.07607369
28	0xbda5af27	-0.08090048
29	0x3da9bb6e	0.082877025
30	0x3ac8cab8	0.0015319204
31	0x3c2b2902	0.010446789
32	0x3d8f7991	0.07005609
33	0x3e159040	0.14605808
34	0x3e47fdf6	0.19530472
35	0xbcf1e646	-0.029528748
36	0xbd63811a	-0.055543043
37	0x3e4fa275	0.20276816
38	0x3d3466fe	0.044043534
39	0x3cf415df	0.029795585
40	0x3e2bde6d	0.16784067
41	0x3e0263fa	0.1273345
42	0x3b964856	0.00458626
43	0x3dd59508	0.10428816
44	0xbda0c4d2	-0.078500405

encoder.val_net.net.1.weight f4 [45]
0	0x3f8547b0	1.0412502
1	0x3fb9e7c8	1.4523859
2	0x3f897229	1.0737964
3	0x3f820335	1.0157229
4	0x3f870974	1.054976
5	0x3f97777e	1.1833341
6	0x3f811b5b	1.0086473
7	0x3f82c3fc	1.021606
8	0x3f8c69e2	1.0969813
9	0x3fa18cd0	1.2621098
10	0x3f71e789	0.9449392
11	0x3f8a83e5	1.0821501
12	0x3fafacf0	1.3724651
13	0x3f951a1f	1.1648597
14	0x3f7783a7	0.9668526
15	0x3f910ef0	1.1332684
16	0x3f7c617c	0.9858625
17	0x3f80d3b7	1.006461
18	0x3f8dbf86	1.1074073
19	0x3f854cb7	1.0414037
20	0x3f9bd3e6	1.2174041
21	0x3f8cec09	1.1009532
22	0x3fc21fd0	1.5165958
23	0x3f951d16	1.1649501
24	0x3f88b769	1.0680972
25	0x3f9e79c5	1.2380911
26	0x3f73530d	0.950486
27	0x3f8bc027	1.0918015
28	0x3f704323	0.9385244
29	0x3f8493c2	1.0357592
30	0x3f876d62	1.0580256
31	0x3f896a43	1.0735554
32	0x3f8be3da	1.092891
33	0x3f8044dc	1.0021014
34	0x3f7f9c1e	0.9984759
35	0x3fac4e4e	1.3461397
36	0x3f8654af	1.0494593
37	0x3f8225e3	1.0167812
38	0x3f784f19	0.96995693
39	0x3f882033	1.0634826
40	0x3f85bfc9	1.0449153
41	0x3f8d4481	1.1036531
42	0x3fa3e1cc	1.2803283
43	0x3f9e9300	1.2388611
44	0x3f6f40bd	0.9345816

encoder.val_net.net.1.bias f4 [45]
0	0x3d79d61f	0.060995217
1	0x3d63ccca	0.055615224
2	0xbb87c57f	-0.0041434164
3	0xbbc3ede3	-0.005979286
4	0xbd03697d	-0.032083023
5	0xbe0d9e8a	-0.13830009
6	0xbb1e3915	-0.002414291
7	0xbbe0253a	-0.0068403753
8	0x3cba31b2	0.022728775
9	0x3d8e0f12	0.06936468
10	0xbd0ad08d	-0.033890296
11	0xbda86096	-0.08221547
12	0x3d2a1496	0.04152354
13	0xbe02d3ba	-0.1277608
14	0x3de6c13d	0.11267326
15	0x3cc3a302	0.02388144
16	0xbd09dbc9	-0.03365687
17	0xbb6cf449	-0.0036156347
18	0x3e497a35	0.19675525
19	0x3bca763c	0.0061786454
20	0xbe2e6cb1	-0.1703365
21	0xbdba8781	-0.091078766
22	0x3e759957	0.23984276
23	0x3e474542	0.19460014
24	0xbb56b728	-0.0032762978
25	0x3e63c145	0.22241695
26	0x3db52fbe	0.08846997
27	0x3bec00a5	0.0072022253
28	0x3dd57da5	0.104243554
29	0x3d0564cc	0.03256683
30	0x3dc3039c	0.09522173
31	0x3cd8021a	0.02636819
32	0x3d6932cb	0.056933206
33	0xbc4dbe11	-0.012557522
34	0xbcb52334	-0.022111513
35	0x3ddc2654	0.10749498
36	0x3dd0154d	0.10160313
37	0xba9dff03	-0.0012054149
38	0xbd1fee7a	-0.03904579
39	0x3d04ce85	0.032423515
40	0xb9ea4d04	-0.0004468934
41	0x3d6073ac	0.054797813
42	0x3dc079b2	0.093982115
43	0x3d3cc11d	0.046082605
44	0x3db07fc6	0.08618121

encoder.val_net.net.3.weight f4 [72, 45]
0	0x3e09e5d0	0.13466573
1	0xbe63ef70	-0.22259307
2	0xbdd6967d	-0.10477922
3	0x3d5414b3	0.051777553
4	0xbda847e0	-0.08216834
5	0xbc053a01	-0.008131505
6	0xbe073354	-0.13203174
7	0x3dd34be7	0.103172116
8	0xbd8347ed	-0.06410203
9	0xbdbdeab3	-0.09273281
10	0x3ded9e5c	0.1160247
11	0xbdf9a62c	-0.12189898
12	0xbd0adfaf	-0.033904728
13	0x3c952c48	0.018209592
14	0xbd580f5d	-0.052749027
15	0x3cb4d238	0.022072896
16	0xbd993b7a	-0.074820474
17	0x3d8be2db	0.068303786
18	0xbc6fb38a	-0.014630208
19	0x3e116e44	0.14202219
20	0x3d1cf5f9	0.038320515
21	0xbd34c3a4	-0.04413189
22	0x3da22c1b	0.07918569
23	0xbe9ea929	-0.30988434
24	0xbdfeb6c1	-0.12437201
25	0x3d9ce055	0.076599754
26	0x3dd147cc	0.10218772
27	0x3cbf56e1	0.023356857
28	0xbe28ca1f	-0.16483353
29	0x3dab637c	0.083685845
30	0x3c1ac4fc	0.009446379
31	0xbe8eb3b0	-0.27871466
32	0x3d892a44	0.06697515
33	0x3dd257b1	0.10270632
34	0xbdbfe3de	-0.09369634
35	0xbd68a7fa	-0.05680082
36	0xbc2fdfff	-0.010734557
37	0x3dceabb4	0.100913435
38	0xbd365018	-0.044509977
39	0xbe7530ed	-0.23944445
40	0x3ea9787f	0.33099744
41	0x3d8df03e	0.06930588
42	0x3e116138	0.14197242
43	0x3da320bb	0.07965227
44	0xbc72f2b5	-0.014828374
45	0xbe86f3bb	-0.26357827
46	0xbe82e68b	-0.25566515
47	0xbdf689cb	-0.12038001
48	0xbd4bb473	-0.049732637
49	0xbd7a7a95	-0.06115206
50	0x3ebee1e2	0.3728171
51	0xbdea87fc	-0.11451718
52	0xbea64e1b	-0.32481465
53	0xbd3bbdf9	-0.04583547
54	0xbebe50f9	-0.37171152
55	0xbc2e85d1	-0.0106520215
56	0xbe3c103f	-0.18365572
57	0x3ee0b477	0.43887684
58	0xbdc62bc9	-0.0967632
59	0x3e64d328	0.22346175
60	0xbd2350ba	-0.03987191
61	0xbe180da0	-0.14848948
62	0x3e3abb78	0.18235576
63	0xbdcd9067	-0.10037308
64	0x3dc2d10a	0.09512527
65	0x3d495853	0.0491565
66	0x3d0a1e91	0.033720557
67	0x3eaa6d25	0.33286396
68	0x3e5e43b6	0.21705517
69	0xbeee8e90	-0.46593142
70	0x3e663e46	0.22484693
71	0x3e62a5a0	0.22133493
72	0xbe3e4b9b	-0.18583529
73	0xbe0e795d	-0.13913484
74	0x3e915e25	0.2839214
75	0x3f13a81f	0.5767841
76	0x3def1cd4	0.116754204
77	0x3e3daf5f	0.1852393
78	0x3da8d9dd	0.08244679
79	0xbdad0e67	-0.08450013
80	0xbeccc094	-0.39990675
81	0x3e5f86e7	0.21828805
82	0x3b5a6be0	0.0033328459
83	0x3df83ed9	0.12121362
84	0xbeaea2db	-0.34108624
85	0x3e367c99	0.17820968
86	0x3dbce7da	0.0922391
87	0xbe6f8c0d	-0.23393269
88	0x3df1fa2f	0.11815297
89	0x3e0aaad9	0.13541736
90	0xbdbc34e0	-0.091897726
91	0x3d42a85e	0.04752385
92	0xbd11fa02	-0.035638817
93	0xbe26c7f6	-0.16287217
94	0x3dd49c80	0.103814125
95	0xbe50bdf0	-0.20384955
96	0x3d7cd790	0.061729014
97	0x3cf9e213	0.030503308
98	0x3ec14e36	0.37754983
99	0xbe14ae77	-0.14519678
100	0xbe1c76cf	-0.15279697
101	0x3de5c0cc	0.11218414
102	0x3e881237	0.26576397
103	0x3e19d6a2	0.15023282
104	0x3e30dcd2	0.17271736
105	0x3bf0bd48	0.007346783
106	0xbcd42da9	-0.025900679
107	0x3c55cdc0	0.013049543
108	0x3df6c09d	0.12048457
109	0x3d4f20ae	0.050568275
110	0x3e1327a3	0.14370589
111	0xbd860a14	-0.06544891
112	0x3e802e9d	0.25035563
113	0xbeb25350	-0.34829187
114	0x3d93bca9	0.072137184
115	0xbea815da	-0.3282917
116	0xbe0f2e3a	-0.13982478
117	0x3e8c42e7	0.27394792
118	0xbe8f9ac9	-0.2804778
119	0xbc29faec	-0.010374766
120	0xbca55d60	-0.020186126
121	0xbe0398d8	-0.12851274
122	0xbe294157	-0.16528831
123	0x3e0d23f9	0.13783254
124	0x3d537fde	0.051635616
125	0xbd8424df	-0.06452345
126	0xbe4524be	-0.19252297
127	0xbd619922	-0.05507768
128	0x3de49b3b	0.1116242
129	0x3e1a0eee	0.15044758
130	0x3dfc173c	0.12309119
131	0xbd715034	-0.05891438
132	0x3e8a1e64	0.2697631
133	0xbd37b585	-0.044850845
134	0xbdab60fb	-0.08368107
135	0x3cdaea1d	0.026722962
136	0x3d856d83	0.06515028
137	0x3db463d9	0.08808107
138	0xbdd99702	-0.106245056
139	0xbd802c6d	-0.062584735
140	0xbe57374e	-0.21017191
141	0x3e0c4d21	0.13701297
142	0xbd61d69c	-0.055136308
143	0xbe0c1927	-0.1368147
144	0x3a57ef64	0.0008237271
145	0x3c2683c0	0.010163248
146	0x3d9f834a	0.07788713
147	0x3d035333	0.032061767
148	0x3e25c8d7	0.16189896
149	0x3d1478a6	0.03624787
150	0xbd8a783d	-0.06761215
151	0xbce9b692	-0.02852944
152	0x3cf7797f	0.030209301
153	0x3dc884b2	0.097909346
154	0xbdb70838	-0.089371145
155	0x3c02e615	0.007989426
156	0xbde2a32f	-0.11066281
157	0x3c6dea0b	0.014521132
158	0xbdb8bf7c	-0.09020898
159	0x3d9829bd	0.07429836
160	0x3d24185c	0.040062293
161	0x38e896d5	0.00011090717
162	0xbd870ffa	-0.06594844
163	0xbdd1febc	-0.10253665
164	0x3cb1b387	0.02169205
165	0x3db2bb0f	0.08727085
166	0xbe5d0f4e	-0.2158787
167	0x3e8432e6	0.25820082
168	0xbcfdae2b	-0.030966839
169	0x3d0822eb	0.033236425
170	0x3d7b1e19	0.061308
171	0xbcd4b026	-0.0259629
172	0xbdbbfea5	-0.09179429
173	0xbcc03dfa	-0.023467053
174	0xbc8a0a4c	-0.016850613
175	0x3db43c0d	0.08800516
176	0xbd21129f	-0.0393244
177	0xbe63a8a0	-0.22232294
178	0x3d08a333	0.033358764
179	0x3e0c0c8e	0.13676664
180	0xbd0d057b	-0.034429055
181	0xbe06f342	-0.13178733
182	0x3e7c6301	0.24647142
183	0xbd8ced36	-0.06881182
184	0x3e3cca6a	0.1843659
185	0xbde31d05	-0.110895194
186	0x3ce7f014	0.02831272
187	0x3deed472	0.116616145
188	0xbdb8827a	-0.090092614
189	0x3ddbc428	0.10730773
190	0xbdc49312	-0.09598364
191	0x3e0da730	0.13833308
192	0x3ecd8e82	0.40147787
193	0x3e6c92b4	0.23102838
194	0x3e3d4c39	0.18486108
195	0xbba04b6a	-0.0048918026
196	0x3d59c23c	0.053163752
197	0x3d8e1de0	0.06939292
198	0x3d0efb5c	0.034907684
199	0x3ccb5876	0.024822455
200	0xbd6f3612	-0.058401175
201	0xbd976142	-0.07391597
202	0xbdb35272	-0.087559596
203	0xbe98ed32	-0.29868466
204	0x3e12be26	0.14330348
205	0xbef83571	-0.48478273
206	0xbea24996	-0.31696767
207	0x3e54c641	0.20778753
208	0xbe2979e6	-0.16550407
209	0x3cc1f383	0.023675686
210	0x3d41935a	0.047259666
211	0xbc8833f9	-0.016626345
212	0xbe0eb8c3	-0.13937669
213	0xbc8bb3a9	-0.017053442
214	0x3c1cff69	0.009582379
215	0xbed8a685	-0.42314544
216	0xbe1c2faf	-0.15252565
217	0xbdc0c576	-0.09412663
218	0xbd1eb86e	-0.038750105
219	0xbdca2aa4	-0.09871414
220	0xbdc55d63	-0.09636953
221	0x3dd279d6	0.102771446
222	0x3dfc54b4	0.12320843
223	0x3ea86c2c	0.3289503
224	0xbe5a72fd	-0.21332927
225	0xbe3c5358	-0.18391168
226	0xbe9ad83b	-0.30243096
227	0x3d8f0acc	0.06984481
228	0x3e21f921	0.15817691
229	0xbd2c7874	-0.04210706
230	0x3e0afdd3	0.13573389
231	0xbd62face	-0.055414967
232	0xbc8c9cbd	-0.017164582
233	0x3e40dd17	0.18834339
234	0x3d6ca0c3	0.0577705
235	0x3d9adcd3	0.0756165
236	0xbcd63607	-0.02614881
237	0xbdc88e7c	-0.09792802
238	0xbcac79d5	-0.021054188
239	0x3d6932f5	0.056933362
240	0x3df1d8ef	0.11808955
241	0xbd790d28	-0.060803562
242	0xbc592bec	-0.013255101
243	0xbc97109d	-0.018440539
244	0x3e716db5	0.23577006
245	0x3deb7cfa	0.11498447
246	0x3e172923	0.14761786
247	0xbe07c603	-0.13259129
248	0x3d2ab260	0.041674018
249	0xbe025626	-0.12728176
250	0x3d5c23d7	0.053745117
251	0xbdb93c04	-0.0904465
252	0xbc7d3a9f	-0.015455871
253	0xbde6458d	-0.112437345
254	0x3e871d3b	0.2638949
255	0x3e5ccc7d	0.21562381

encoder.val_net.net.3.bias f4 [72]
0	0x3dbc670e	0.091993436
1	0x3d490654	0.0490783
2	0xbc9b426a	-0.018952567
3	0xbd45b75d	-0.048270572
4	0xbe405258	-0.18781412
5	0xbe1b9d04	-0.15196615
6	0xbd4ea7cd	-0.050452996
7	0x3c6d6de2	0.01449153
8	0xbcc19452	-0.023630295
9	0xbdd3cc04	-0.10341647
10	0xbc96f50c	-0.018427394
11	0xbda1fc6d	-0.079094745
12	0x3a9ab3ee	0.0011802891
13	0xbda6f9d6	-0.08153121
14	0xbda2af60	-0.079436064
15	0x3e2f55e1	0.17122604
16	0x3e129259	0.1431364
17	0xbe312e49	-0.17302813
18	0xbe1c91a5	-0.15289934
19	0xbdbf9827	-0.09355193
20	0x3cf6a4f5	0.030107955
21	0xbbfbc710	-0.007683642
22	0xbd909f52	-0.07061638
23	0x3d6b187a	0.05739639
24	0xbd1b504b	-0.03791837
25	0x3df0c22e	0.11755787
26	0xbe1ae300	-0.15125656
27	0xbd79b3e5	-0.060962576
28	0x3dfc15a3	0.123088144
29	0xbc46bbe3	-0.012129757
30	0xbd2bd35c	-0.041949615
31	0x3e13ef71	0.14446808
32	0x3e2df8d9	0.16989459
33	0x3d286689	0.04111341
34	0xbda1eb7d	-0.07906244
35	0x3c94b6b4	0.018153526
36	0x3bae035e	0.00531046
37	0x3dee664b	0.116406046
38	0x3d663c5e	0.056209914
39	0xbd089f2f	-0.033354934
40	0xbbb66624	-0.0055663753
41	0xbdac20b3	-0.084046744
42	0x3de227d4	0.11042753
43	0x3db4a8c9	0.08821256
44	0x3dde92cb	0.10867842
45	0xbd921ed3	-0.071347855
46	0xbdf4b006	-0.11947636
47	0xbdd5907c	-0.10427949
48	0x3d709037	0.058731284
49	0xbe3b2ecb	-0.18279569
50	0x3d94b872	0.07261743
51	0x3d590529	0.052983437
52	0x3bb366cc	0.005474901
53	0x3df0d846	0.11760001
54	0x3c314bd3	0.010821301
55	0x3d4eda4c	0.050501153
56	0x3c8335e6	0.016016912
57	0xbc1f156d	-0.009709698
58	0x3d4c8336	0.04992982
59	0x3dbb9869	0.09159929
60	0x3d91accc	0.071130365
61	0x3c4d5789	0.012533077
62	0xbddb333d	-0.10703132
63	0x3e22e8dd	0.15909143
64	0xbe39101a	-0.18072549
65	0x3d5d33be	0.054004423
66	0x3d13f1f0	0.0361194
67	0xbe419869	-0.18905796
68	0x3d170e76	0.036879025
69	0x3d980146	0.07422118
70	0xbdc886de	-0.09791349
71	0xbd271d49	-0.040799413

encoder.rank.weight f4 [1, 18]
0	0x3e422c95	0.18962319
1	0x3dce1dd3	0.10064282
2	0x3d3cc052	0.04608185
3	0x3e6c565f	0.23079823
4	0x3d6f5a84	0.05843593
5	0xbe3703f4	-0.17872602
6	0x3d167816	0.036735617
7	0xbe3b6de5	-0.1830364
8	0x3e5f96da	0.21834889
9	0x3daf5cd7	0.0856263
10	0xbe5f5b7c	-0.21812242
11	0x3ca9e413	0.020738637
12	0xbdeaf1c8	-0.11471897
13	0xbe6f1746	-0.23348722
14	0xbe0ad792	-0.13558796
15	0xbe09b276	-0.13446984
16	0xbd9e6d1d	-0.077356555
17	0x3e414f3d	0.18877883

encoder.cardinality.weight f4 [72, 1]
0	0x3d9f3d80	0.07775402
1	0xbe405329	-0.18781723
2	0xbdae19bf	-0.085010044
3	0x3cd1b024	0.025596686
4	0x3e4d207a	0.2003192
5	0xbf1e64e6	-0.6187271
6	0xbf5b5981	-0.8568345
7	0xbf2d4663	-0.67685527
8	0xbf295133	-0.66139525
9	0x3e8f7e4c	0.28026044
10	0xbe7aa701	-0.2447777
11	0xbf1f06f3	-0.6211998
12	0xbea63ced	-0.32468358
13	0x3e5455d0	0.2073586
14	0xbe6924d0	-0.22767949
15	0x3ed7209c	0.42017066
16	0x3f1bf613	0.60922354
17	0x3f5a2f7e	0.8522872
18	0xbe9bd8db	-0.30438885
19	0xbf420d98	-0.7580199
20	0x3e804bde	0.25057882
21	0x3cdb087c	0.026737444
22	0xbe03da4b	-0.12876241
23	0xbf5a51a2	-0.8528081
24	0x3e0f10f7	0.13971315
25	0xbe07c742	-0.13259605
26	0xbe747d0e	-0.2387583
27	0xbe88327a	-0.2660101
28	0xbedbccc8	-0.42929673
29	0x3f64b7b3	0.893428
30	0xbe711ac6	-0.2354537
31	0xbe7ca775	-0.24673255
32	0xbe6cd568	-0.23128283
33	0x3dfc5e43	0.123226665
34	0xbe0b6f51	-0.13616683
35	0xbebe3465	-0.3714935
36	0x3e8369e1	0.25666717
37	0x3e84b6b9	0.25920656
38	0x3f34b398	0.7058654
39	0x3e5371ae	0.20648834
40	0x3e5c97da	0.21542302
41	0x3df053ec	0.11734757
42	0xbf6841ef	-0.90725607
43	0x3ecfd126	0.40589255
44	0x3d95d6ae	0.073163375
45	0x3dba8c0b	0.09108742
46	0xbe65881e	-0.22415206
47	0xbeb11d2e	-0.34592575
48	0x3f71244a	0.94196
49	0xbf44a262	-0.76810277
50	0x3f0a3c6f	0.53998464
51	0x3f267924	0.65028596
52	0x3f052dac	0.52022815
53	0x3f67d669	0.9056154
54	0x3ec981c5	0.3935682
55	0x3f2572b7	0.64628166
56	0xbe294961	-0.16531898
57	0xbe4fa779	-0.2027873
58	0x3e442922	0.19156316
59	0xbe1eb00b	-0.15496843
60	0xbed856c1	-0.42253688
61	0xbe33f834	-0.1757515
62	0x3e164d04	0.14677817
63	0xbf03a08d	-0.51416856
64	0xbdb41fe9	-0.08795149
65	0xbde548dc	-0.111955374
66	0x3f19c8f3	0.6007225
67	0xbf5fbdc2	-0.8739892
68	0x3e656b6e	0.22404262
69	0x3f53fe47	0.8280987
70	0x3f2a962c	0.66635394
71	0x3c32ee07	0.010921008

encoder.cardinality.bias f4 [72]
0	0xbf0558c0	-0.52088547
1	0x3f03a7c1	0.5142785
2	0x3f577c44	0.8417399
3	0xbdc65d46	-0.09685759
4	0xbf4de050	-0.804204
5	0x3d3c24ca	0.045933522
6	0x3f84cf50	1.0375767
7	0x3f26d625	0.6517051
8	0xbe05c8f6	-0.13064942
9	0xbe8ce6ae	-0.27519745
10	0x3f2b8f8c	0.6701591
11	0xbe81b0a3	-0.25330076
12	0xbdad5d03	-0.08465006
13	0xbf53373f	-0.82506174
14	0x3f67ea57	0.9059195
15	0x3ec48589	0.3838313
16	0x3f30f9f2	0.69131386
17	0x3e1f8a07	0.15579997
18	0xbee237cd	-0.44183198
19	0x3f3092ba	0.68973887
20	0x3f3bf583	0.73421496
21	0x3e874bf5	0.26425138
22	0xbebd7501	-0.3700333
23	0x3f3c63c8	0.73589754
24	0x3f0da79f	0.55333894
25	0x3f08f184	0.53493524
26	0x3f6f0aa0	0.9337559
27	0x3f87cb04	1.060883
28	0x3ec261ac	0.37965143
29	0xbedc9293	-0.43080577
30	0x3f70ed79	0.94112355
31	0xbe07d3c7	-0.1326438
32	0x3f6b82de	0.9199656
33	0xbefcaeae	-0.4935202
34	0x3ebd4e8f	0.36973998
35	0xbf3f8489	-0.7481161
36	0x3f63e3bd	0.89019376
37	0x3db58052	0.08862366
38	0xbf541226	-0.8284019
39	0xbf54825c	-0.8301141
40	0xbf5cd925	-0.86268836
41	0xbeefc1b8	-0.46827483
42	0xbe02e38a	-0.12782112
43	0x3f68d6ad	0.9095257
44	0xbed8f0e0	-0.42371273
45	0xbebe0c86	-0.3711893
46	0x3f64f194	0.8943112
47	0x3ef2c4dd	0.4741582
48	0xbf74c1de	-0.9560832
49	0x3e8e8fc0	0.27844048
50	0xbf729da7	-0.9477181
51	0xbdf36b1f	-0.11885666
52	0xbe8895f4	-0.26676905
53	0x3f17de7b	0.59323853
54	0xbe9b865b	-0.30375943
55	0x3ec56afa	0.3855818
56	0x3d9fe169	0.078066655
57	0x3f4f51d5	0.8098424
58	0xbf49eaf7	-0.7887415
59	0x3f37b260	0.71756554
60	0x3f26f338	0.6521487
61	0xbec63dce	-0.38719028
62	0x3f605010	0.87622166
63	0xbe7bcf9b	-0.24590914
64	0xbf32a3d1	-0.69781214
65	0x3eff7e8c	0.49901235
66	0x3ee273b6	0.44228905
67	0xbf4f2812	-0.8092052
68	0x3f3bc72f	0.73350805
69	0x3eb01b81	0.34395984
70	0xbf0350ff	-0.51295465
71	0x3f3288a4	0.6973975
